lightning_logs/version_8/checkpoints/epoch=52-step=318.ckpt (torch, 145049 bytes, 44 tensors)

batch_norm1.weight f4 [40]
0	0x3f7d0a32	0.9884368
1	0x3f8ba340	1.0909195
2	0x3f7bc6b5	0.9835008
3	0x3f7b44b4	0.9815171
4	0x3f7bdcef	0.9838399
5	0x3f7efa36	0.9960054
6	0x3f7fe525	0.9995902
7	0x3f80f24f	1.0073947
8	0x3f79c0a0	0.9755955
9	0x3f7b693c	0.9820745
10	0x3f7c0938	0.98451567
11	0x3f7f5064	0.9973204
12	0x3f7f8e9c	0.9982698
13	0x3f7e223d	0.99270993
14	0x3f786b99	0.9703918
15	0x3f7e4695	0.9932645
16	0x3f7f5a92	0.99747574
17	0x3f7c6a90	0.986001
18	0x3f8038e6	1.0017364
19	0x3f8fae38	1.1225042
20	0x3f974941	1.181923
21	0x3f7b0273	0.9805061
22	0x3f7df093	0.9919521
23	0x3f7cd7e8	0.98766947
24	0x3f7dc74b	0.9913222
25	0x3f7ad62c	0.9798305
26	0x3f7d4bab	0.98943585
27	0x3f744e91	0.9543238
28	0x3f7c28e4	0.98499894
29	0x3f7ceedb	0.98801965
30	0x3f7a1cd5	0.97700244
31	0x3f7ae28d	0.9800194
32	0x3f761449	0.961247
33	0x3f7d595f	0.98964494
34	0x3f7efe8a	0.99607146
35	0x3f7d2470	0.98883724
36	0x3f7f218a	0.9966055
37	0x3f7eaa0d	0.99478227
38	0x3f799488	0.97492266
39	0x3f7ea34c	0.9946792

batch_norm1.bias f4 [40]
0	0x3c3bd922	0.011465343
1	0xbd4ddd62	-0.050259955
2	0xbab7a5f5	-0.0014011251
3	0x3bd3f5f9	0.006468531
4	0xbbcb8bdf	-0.0062117423
5	0xbbaf7733	-0.005354786
6	0x3b4f2af9	0.0031611307
7	0xb9cb7cc0	-0.00038812123
8	0x3c8e1539	0.017344104
9	0x3ccc7aec	0.024960957
10	0x39444af7	0.00018719943
11	0xbc03d71c	-0.008046892
12	0xbb081b7b	-0.0020768333
13	0x3c91f153	0.017815268
14	0x3b9415ad	0.0045191855
15	0x3bbb8d24	0.0057236124
16	0x3cce507b	0.02518486
17	0x3b8ec7a5	0.0043572956
18	0xbc439c13	-0.011939066
19	0x3d79898f	0.0609222
20	0x3e4c0b5a	0.19926205
21	0xbb59f7e5	-0.003325933
22	0x3b0dc6eb	0.0021633457
23	0x3b4fbf2a	0.0031699636
24	0x3c350ea5	0.011050855
25	0xbac237b8	-0.0014817631
26	0x3b6f3547	0.0036500262
27	0xbbfdfbcd	-0.0077509643
28	0xbc0fac99	-0.008769178
29	0xbb8ce265	-0.0042994493
30	0xbbe34769	-0.006936003
31	0x3c8ff111	0.017571004
32	0xbb472a66	-0.0030390262
33	0x3bd89391	0.006609388
34	0x3c865ae2	0.016400758
35	0xbb26853e	-0.0025409008
36	0x3c3c8377	0.011505953
37	0x3bb07d50	0.005386032
38	0xbb1af10b	-0.0023642208
39	0xbc0056cb	-0.007833193

batch_norm1.running_mean f4 [40]
0	0x3fc079ea	1.5037205
1	0x42732b53	60.79231
2	0x40b0951c	5.518202
3	0x4016038e	2.343967
4	0x400f4e59	2.239157
5	0x3ff43ba7	1.9080704
6	0x40330121	2.796944
7	0x400357a2	2.0522237
8	0x401961f9	2.3966048
9	0x40097e96	2.1483512
10	0x40404177	3.0039957
11	0x403f8b75	2.9928868
12	0x402981f6	2.6485572
13	0x3fa825e4	1.3136563
14	0x405af1d5	3.4210103
15	0x406ca4bc	3.6975546
16	0x405996c1	3.3998263
17	0x402478ff	2.569885
18	0x3f856125	1.0420271
19	0x3ff55dff	1.916931
20	0x40194022	2.3945394
21	0x40b3aab7	5.614589
22	0x3f8e025f	1.1094474
23	0x3fcab613	1.5836815
24	0x4012c51b	2.2932804
25	0x4047c2b5	3.121259
26	0x3f940629	1.156438
27	0x40446fd9	3.0693266
28	0x40382b4a	2.8776422
29	0x40497837	3.1479623
30	0x4049cc0a	3.1530786
31	0x409f7ec4	4.9842243
32	0x403fa820	2.9946365
33	0x3fa63031	1.2983457
34	0x4138d73d	11.552548
35	0x41100f97	9.003806
36	0x412427ff	10.259765
37	0x40a69edb	5.2068915
38	0x43817ceb	258.97592
39	0x439492a2	297.14557

batch_norm1.running_var f4 [40]
0	0x3e801357	0.25014755
1	0x4428257c	672.5857
2	0x3f050691	0.51963145
3	0x3faf4aad	1.3694664
4	0x4045e58f	3.0921361
5	0x402a90c5	2.665086
6	0x405d5bd6	3.4587302
7	0x40364e37	2.8485239
8	0x405f22d9	3.486502
9	0x403fd51c	2.9973822
10	0x405b3317	3.4249933
11	0x405cf08b	3.4521816
12	0x407f7fbc	3.9921713
13	0x3e5ca405	0.21546943
14	0x40a919d8	5.2844048
15	0x409e1122	4.9395914
16	0x40b0a5fe	5.5202627
17	0x40024ac3	2.035813
18	0x3df7b11a	0.12094326
19	0x3f729159	0.9475303
20	0x3f619067	0.88110965
21	0x3f9fa95d	1.247356
22	0x3f026a49	0.5094343
23	0x3ff16774	1.8859696
24	0x40365e42	2.849503
25	0x40c21d27	6.0660586
26	0x3f14b815	0.58093387
27	0x405d0a07	3.453737
28	0x406833b4	3.6281557
29	0x4057eaaa	3.3736978
30	0x4058b47d	3.3860161
31	0x405fd72a	3.4975076
32	0x4051bec4	3.2772684
33	0x3f0ce3b7	0.55034965
34	0x4403abb8	526.6831
35	0x4338a0a7	184.62755
36	0x4408172b	544.362
37	0x42ea24fe	117.07225
38	0x47068886	34440.523
39	0x472474d0	42100.812

dense1.weight_g f4 [16, 1]
0	0x3ef210c0	0.47278404
1	0x3f081b19	0.5316635
2	0x3f18635f	0.5952663
3	0x3f26af66	0.65111387
4	0x3f0aedf4	0.5426934
5	0x3f00f5b7	0.5037493
6	0x3f0b6750	0.5445452
7	0x3f075090	0.52857304
8	0x3f18b910	0.5965738
9	0x3f1e723a	0.61893046
10	0x3f2b0c16	0.66815317
11	0x3efdd224	0.49574387
12	0x3f23d14f	0.63991255
13	0x3f18e154	0.59718823
14	0x3f0370b3	0.5134384
15	0x3f14bfca	0.58105147

dense1.weight_v f4 [16, 40]
0	0x3d5bc571	0.05365509
1	0xbd61cf1e	-0.055129163
2	0x3cbb24dd	0.022844726
3	0xbd08535a	-0.033282615
4	0x3d692808	0.056922942
5	0x3d19d6c6	0.03755834
6	0xbc7ed8ce	-0.01555462
7	0xbdf62e40	-0.1202054
8	0x3d15496b	0.03644697
9	0xbe004f62	-0.12530282
10	0x3cd8a5b9	0.02644621
11	0x3c6ee7f9	0.014581674
12	0xbcd21dc7	-0.025648965
13	0x3e096ca6	0.13420352
14	0x3ca0608a	0.019577283
15	0x3dba1a3a	0.090870336
16	0x3d76fd4d	0.06030016
17	0xbdf28201	-0.118412025
18	0xbd6ac661	-0.057318095
19	0x3e504c3d	0.20341583
20	0xbdfc428b	-0.123173796
21	0x3c02ffd9	0.007995569
22	0x3c91b081	0.017784359
23	0x3defb0f3	0.11703672
24	0xbceee232	-0.029160593
25	0x3d036211	0.032075945
26	0xbc3aafef	-0.011394485
27	0xbd8a894f	-0.06764471
28	0xbd9c1121	-0.076204546
29	0xbd9477f2	-0.0724944
30	0xbe05bd4f	-0.13060497
31	0xbdc9fec8	-0.09863049
32	0x3d7afb2c	0.061274692
33	0x3dbdeec6	0.09274058
34	0xb99e189b	-0.0003015444
35	0xbdc175cf	-0.09446298
36	0x3d92d1b8	0.07168907
37	0xbd5c6f00	-0.053816795
38	0xbcb49116	-0.022041839
39	0xbd7ae634	-0.061254695
40	0xbd7fb62d	-0.062429596
41	0xbdd83879	-0.10557646
42	0x3db7141a	0.08939381
43	0x3d832e0e	0.064052686
44	0x3d3ac451	0.04559738
45	0x3ddf4c02	0.10903169
46	0x3d9ef7b4	0.07762089
47	0xbbb7629f	-0.0055964733
48	0x3c72dce7	0.014823175
49	0x3c9093bf	0.017648576
50	0x3dc9897c	0.09840676
51	0x3e06b7ae	0.13156006
52	0x3e06e348	0.13172638
53	0x3d9c34fd	0.07627294
54	0xbd23d40b	-0.03999714
55	0xbb85ded8	-0.004085403
56	0xbce5b148	-0.028038636
57	0x3dc9a29b	0.09845468
58	0x3d35605f	0.04428136
59	0x3df14825	0.117813386
60	0x3d702031	0.05862445
61	0xbe21cb34	-0.15800172
62	0x3d57fd8c	0.052732036
63	0x3e182133	0.14856414
64	0x3deec983	0.11659529
65	0xbcf367eb	-0.029712638
66	0x3d3e525d	0.046465266
67	0xbe1bd6dc	-0.15218681
68	0xbd0d31d4	-0.034471348
69	0x3dbed9b2	0.09318866
70	0xbe057821	-0.13034107
71	0x3e133903	0.14377217
72	0xbdd3a819	-0.103347965
73	0x3d4ba5ac	0.049718544
74	0xbbda03b4	-0.0066532735
75	0x3d5bfd79	0.053708527
76	0x3c450d31	0.012027071
77	0xbe05b09a	-0.1305565
78	0xbcf70d92	-0.030157838
79	0xbdc6df1c	-0.097105235
80	0x3d86595c	0.06560013
81	0x3d666a70	0.05625385
82	0xbd8158e5	-0.063157834
83	0x3d0defce	0.034652524
84	0x3dc10ffb	0.09426876
85	0xbbbcccfc	-0.0057617407
86	0x3aa4922b	0.0012555768
87	0xbb8075ad	-0.003920278
88	0xbd90e4ca	-0.07074888
89	0xbd924649	-0.07142312
90	0x3b6f7ad0	0.0036541708
91	0xbdc2ff65	-0.09521369
92	0x3dcded72	0.10055055
93	0x3c3e6d87	0.011622793
94	0x3dac6fa7	0.084197335
95	0x3d2ade35	0.04171582
96	0xbde14783	-0.10999968
97	0xbd8688c6	-0.06569056
98	0xbd92ca53	-0.071674965
99	0xbe6746aa	-0.2258555
100	0xbe958b70	-0.29207945
101	0xbd8653c4	-0.06558946
102	0xbe37556b	-0.17903678
103	0x3cf54247	0.02993883
104	0x3daa579a	0.0831749
105	0x3c146ddd	0.009059397
106	0x3d9a5434	0.07535592
107	0x3d41f36f	0.047351297
108	0xbe247446	-0.1605998
109	0x3d301fe2	0.042999156
110	0x3dcd1320	0.100134134
111	0xbd9b45d3	-0.07581677
112	0xbdbdde54	-0.09270921
113	0xbb9d0117	-0.0047913897
114	0xbd2f69f5	-0.042825658
115	0x3cd0f1bf	0.025505899
116	0x3c9574bf	0.018244145
117	0x3e024b3a	0.12724009
118	0xbd36bc0d	-0.044612933
119	0x3d1a0179	0.03759906
120	0x3db5eb8c	0.088828176
121	0x3e065bb0	0.13120914
122	0xbda0da23	-0.07854106
123	0x3dbc5f01	0.09197808
124	0x3ddecac2	0.10878517
125	0xbd7e2a07	-0.0620518
126	0xbd02b818	-0.031913847
127	0x3d8e851a	0.06958981
128	0xbe06f309	-0.13178648
129	0xbdfb72bb	-0.122777425
130	0xbdd39179	-0.10330481
131	0x3d3abb79	0.045588944
132	0xbda0d14f	-0.078524224
133	0xbe115c00	-0.14195251
134	0x3d5af1df	0.053453322
135	0x3d39fed0	0.045409024
136	0x3d56da45	0.05245425
137	0xbde4aea7	-0.11166125
138	0x3e1eb396	0.15498194
139	0xbe2e2114	-0.17004806
140	0xbeb11010	-0.34582567
141	0xbd9eb89a	-0.07750054
142	0x3dd9b46a	0.106301144
143	0x3d488138	0.048951358
144	0xbc968e8e	-0.018378522
145	0x3d8752b4	0.06607571
146	0xbe138846	-0.14407453
147	0x3d604cf2	0.05476088
148	0x3e10a2e7	0.14124642
149	0xbdb1dc2a	-0.08684571
150	0xbc41d381	-0.011830212
151	0xba68dd97	-0.0008883117
152	0xbdfc4e8c	-0.12319669
153	0x3c844bfd	0.016149515
154	0xbcce993d	-0.025219554
155	0xbdb1a14f	-0.08673345
156	0xbd8d45db	-0.068980895
157	0xbb4bd650	-0.0031103082
158	0x3dd43c52	0.10363068
159	0x3a7e772c	0.0009707089
160	0xbdeff2d0	-0.11716235
161	0x3e3b69f8	0.18302143
162	0x3d829db8	0.06377739
163	0xbe00cb85	-0.12577637
164	0x3c8c701f	0.017143307
165	0x3e0b9d1b	0.1363415
166	0xbd9e6eb5	-0.077359594
167	0xbd00ac08	-0.03141406
168	0xbda3ad7a	-0.079920724
169	0xbdc747d5	-0.09730498
170	0xbdd1835d	-0.10230134
171	0x3bfa6791	0.0076417406
172	0x3dbf205a	0.093323424
173	0xbcb042c8	-0.021516219
174	0xbddddf14	-0.108335644
175	0xbcf2cae3	-0.02963776
176	0xbe0f8712	-0.14016369
177	0x3d3426b5	0.043982226
178	0x3e076b0a	0.13224426
179	0x3d0ba4df	0.03409278
180	0xbe8071c9	-0.2508681
181	0xbd5279f1	-0.051385824
182	0x3b75234e	0.0037405076
183	0x3d297e3c	0.041380152
184	0xbe10605a	-0.14099255
185	0xbd9e4223	-0.07727458
186	0xbd48338c	-0.048877284
187	0xbc8b3f70	-0.016998023
188	0x3db5692a	0.08857949
189	0x3d89042e	0.0669025
190	0x3bf5fefc	0.007507203
191	0xbd94bf1b	-0.07263013
192	0x3d8c509c	0.068513125
193	0x3d87f42b	0.06638368
194	0xbced6653	-0.028979456
195	0xbd560593	-0.05225141
196	0x3d730644	0.059332147
197	0xbdc5e890	-0.096634984
198	0x3d06e8d2	0.03293688
199	0x3dac5ddd	0.084163405
200	0xbe00d8c8	-0.12582695
201	0xbd991f94	-0.07476726
202	0x3ba8f8a8	0.0051565953
203	0xbdd563fe	-0.104194626
204	0xbc018828	-0.007905997
205	0x3e2173c5	0.15766819
206	0x3d9fbca2	0.07799651
207	0xbda9453b	-0.08265158
208	0xbb8be0fd	-0.004268764
209	0xbd20b098	-0.039230913
210	0xbdeaec8a	-0.114708975
211	0xbd29a02d	-0.04141252
212	0xbcb26453	-0.021776354
213	0xbd686193	-0.05673368
214	0xbd5cbd22	-0.05389131
215	0x3d2ada24	0.04171194
216	0x3b8e6ad8	0.004346233
217	0xbd3a70f8	-0.04551789
218	0x3d3f8e24	0.046766415
219	0x3d6c4d36	0.05769082
220	0xbe473442	-0.19453529
221	0xbe201695	-0.15633614
222	0x3dc6bf44	0.0970445
223	0x3dafdde6	0.08587246
224	0x3b80f7d1	0.003935792
225	0xbd9cbc4c	-0.07653102
226	0xbdb02ce9	-0.08602316
227	0x3d8b83cd	0.068122484
228	0x3d3411d6	0.043962322
229	0xbd90ae44	-0.070644885
230	0xbd28dd79	-0.041226838
231	0x3dc87129	0.097872086
232	0xbcdd8a95	-0.02704362
233	0xbcaf2bee	-0.021383252
234	0xbd4249c6	-0.047433637
235	0x3d31c24b	0.043398183
236	0xbb848386	-0.004043999
237	0xbd81e167	-0.0634182
238	0xbdf7a52b	-0.1209205
239	0xbe1699a1	-0.14707042
240	0xbd37d3ad	-0.044879604
241	0x3d4f6692	0.050634928
242	0xbe1f4ba8	-0.15556204
243	0xbe0cf5d3	-0.1376565
244	0x3de17266	0.11008148
245	0x3c8fb0c0	0.017540336
246	0x3d9ed9c7	0.077563815
247	0x3e0523a4	0.13001877
248	0xbd44dfc4	-0.048064962
249	0xbd386e63	-0.045027148
250	0xbd83aaa1	-0.06429029
251	0x3d186113	0.037201952
252	0x3cf4a558	0.029863998
253	0xbdfef343	-0.12448742
254	0xbe06c3b5	-0.13160594
255	0x3dd6b422	0.10483576

conv1.weight_v f4 [2, 1, 5]
0	0xbedce44d	-0.4314293
1	0x3dee7ef2	0.11645307
2	0xbe28abe9	-0.16471829
3	0xbe83f78a	-0.25774795
4	0xbbc8544a	-0.0061135637
5	0xbe6c47b4	-0.23074228
6	0x3ddff76b	0.10935863
7	0x3e0d672e	0.13808891
8	0x3d07d1c7	0.033159044
9	0x3e26cd9f	0.16289376

batch_norm_c2.weight f4 [2]
0	0x3f852ffa	1.0405266
1	0x3f87efef	1.0620097

batch_norm_c2.bias f4 [2]
0	0xbb9b41a7	-0.004738051
1	0xbcd1b082	-0.02559686

batch_norm_c2.running_mean f4 [2]
0	0x3e4a3ed8	0.19750535
1	0x3def9745	0.11698774

batch_norm_c2.running_var f4 [2]
0	0x3d0c40aa	0.034241356
1	0x3ce1aae5	0.02754731

conv2.weight_v f4 [64, 2, 3]
0	0xbd659e3c	-0.056059107
1	0x3e9ae3da	0.30251962
2	0x3eac37c3	0.33636293
3	0x3ab0063d	0.0013429594
4	0xbea8e133	-0.32984313
5	0x3e47b87c	0.19503969
6	0x3e1f09b4	0.15531045
7	0x3e40412d	0.18774863
8	0xbe1d7beb	-0.15379302
9	0x3e2907e0	0.1650691
10	0x3ea0555a	0.31315118
11	0x3e8a0623	0.26957807
12	0xbea2d06c	-0.31799638
13	0x3d0b866e	0.03406375
14	0xbeb15ab2	-0.34639508
15	0xbeb04122	-0.34424692
16	0xbe8c6e0f	-0.27427718
17	0x3e3260e3	0.17419772
18	0x3e92d537	0.28678295
19	0xbe97cae7	-0.2964699
20	0xbda75042	-0.08169605
21	0x3e02e566	0.12782821
22	0x3e565683	0.20931439
23	0x3e34300a	0.1759645
24	0x3e91af9a	0.28454286
25	0x3e5df081	0.21673776
26	0xbe8dfc64	-0.2773162
27	0x3e2f4bea	0.17118803
28	0x3d969d21	0.07354189
29	0xbeac0662	-0.3359862
30	0x3e8c859e	0.27445692
31	0x3e82b5fe	0.25529474
32	0xbe87ce0a	-0.26524383
33	0xbc212dfa	-0.009837622
34	0x3e48efb1	0.19622685
35	0x3dd958c2	0.10612632
36	0x3ec8971a	0.3917778
37	0xbe9cf7ee	-0.30657905
38	0xbd3fd834	-0.046837047
39	0xbec9559a	-0.3932312
40	0x3ed5dd14	0.41770232
41	0xbe6e4be9	-0.23271145
42	0x3e52abbe	0.20573327
43	0x3e7ed24a	0.24884906
44	0xbde1d64f	-0.11027204
45	0xbe7a6f48	-0.24456513
46	0x3eabee1c	0.335801
47	0x3ecf88c5	0.40534034
48	0xbd54164b	-0.051779073
49	0xbd3df4d5	-0.04637607
50	0x3eb17ef1	0.3466716
51	0x3d488c48	0.048961908
52	0xbe6b1456	-0.22956976
53	0x3e730702	0.23733142
54	0xbec6421c	-0.38722312
55	0x3d7b9d90	0.06142956
56	0xbe95c604	-0.29252636
57	0x3a4a7304	0.0007722827
58	0xbe0f5467	-0.1399704
59	0xbe2fb111	-0.17157389
60	0xbe242113	-0.16028242
61	0x3de9a33f	0.1140809
62	0x3de38c30	0.11110723
63	0xbeac33da	-0.3363331
64	0x3ec5e0fe	0.38648218
65	0x3e86ef0c	0.26354253
66	0xbea564c0	-0.3230343
67	0x3ec15ede	0.3776769
68	0xbd9a9c67	-0.07549363
69	0xbe8683ca	-0.26272422
70	0x3e38df45	0.1805392
71	0x3daaf413	0.08347335
72	0xbe2f4eff	-0.17119978
73	0x3e1610b8	0.14654815
74	0x3e1afb17	0.15134846
75	0x3e255f33	0.16149597
76	0xbe80e574	-0.2517506
77	0xbeb61fec	-0.3557123
78	0xbd8988e8	-0.06715566
79	0xbec34631	-0.3813949
80	0x3da8f549	0.082499094
81	0xbecaf301	-0.39638522
82	0xbd97b992	-0.074084416
83	0x3ea18b22	0.31551462
84	0xbe8f2022	-0.27954203
85	0xbdb893fc	-0.09012601
86	0x3e246c19	0.16056861
87	0xbea2bfb0	-0.3178687
88	0xbec41295	-0.38295427
89	0xbe226acd	-0.15861054
90	0x3db9ded6	0.09075706
91	0x3dc3df3e	0.095640644
92	0xbe7b047e	-0.24513432
93	0xbda8c247	-0.082401805
94	0xbdae5193	-0.08511653
95	0xbec9afce	-0.3939194
96	0x3c9675e1	0.018366756
97	0xbd56a144	-0.05239989
98	0xbeab64e8	-0.33475423
99	0xbe49b37d	-0.19697376
100	0x3e9c7fb9	0.30566195
101	0x3e217ee7	0.15771066
102	0xbeae0209	-0.33985928
103	0x3e32fd7f	0.17479514
104	0xbecdd163	-0.40198812
105	0xbe7a0247	-0.24414931
106	0x3d61897f	0.055062767
107	0xbd1add19	-0.03780851
108	0xbe87b465	-0.26504818
109	0x3d7d4fd6	0.061843716
110	0x3daf7291	0.08566774
111	0x3e9e8c5f	0.3096647
112	0xbd945643	-0.072430156
113	0x3ec1ccdf	0.37851617
114	0x3e82df9f	0.25561234
115	0xbe1c0f6a	-0.15240255
116	0x3e9ba038	0.30395675
117	0xbe522c7d	-0.20524783
118	0x3dc5547b	0.09635254
119	0x3e1b54f4	0.15169126
120	0x3c10a994	0.008829493
121	0x3dead48a	0.1146632
122	0x3e4746af	0.19460557
123	0xbeb7ffaa	-0.35937244
124	0x3e79950b	0.24373262
125	0x3e15c535	0.1462601
126	0xbe454fa1	-0.19268657
127	0x3ea5e5cd	0.32401887
128	0x3dbe499c	0.092913836
129	0xbe94c002	-0.2905274
130	0x3ebc0fcb	0.367308
131	0x3e27a02b	0.16369693
132	0x3e8ab4c6	0.27091044
133	0x3d8ffa51	0.07030166
134	0x3de36021	0.111023195
135	0x3da217f2	0.079147235
136	0x3ebb6c6c	0.36606157
137	0x3eb76e71	0.35826448
138	0x3e134384	0.14381224
139	0x3ae5aa39	0.0017522044
140	0xbe918270	-0.28419828
141	0x3e69d15c	0.2283377
142	0xbe5ad1f7	-0.21369158
143	0x3cb69f38	0.022292718
144	0x3e7dc5ba	0.24782458
145	0xbe1f5765	-0.15560682
146	0xbd3fc39e	-0.046817414
147	0xbe89130f	-0.26772353
148	0xbdf9bc22	-0.121940866
149	0xbea90b31	-0.3301635
150	0xbd81c626	-0.06336622
151	0x3ec3f882	0.38275534
152	0xbeac242e	-0.33621353
153	0xbe628ff5	-0.22125228
154	0xbea507b0	-0.32232428
155	0xbe246cd8	-0.16057146
156	0x3e855479	0.2604101
157	0x3e8657c2	0.2623883
158	0x3ed33584	0.41251767
159	0x3e126df3	0.14299755
160	0x3eaacd6f	0.33359858
161	0xbe40365e	-0.1877074
162	0xbe3bb661	-0.18331291
163	0xbebd4a2e	-0.36970657
164	0xbecd858a	-0.40140945
165	0x3de103aa	0.10987027
166	0xbda7739e	-0.08176349
167	0xbe9b6157	-0.30347702
168	0xbd95ee7a	-0.073208764
169	0xbebcd798	-0.36883235
170	0x3e51d4c9	0.20491327
171	0x3e901b0a	0.2814563
172	0xbd254238	-0.040346354
173	0xbc66e94c	-0.014093708
174	0x3c795fb6	0.015220573
175	0x3cf41e0b	0.029799482
176	0x3ceeb05a	0.029136825
177	0xbe3f6c99	-0.1869377
178	0xbdbc7fd6	-0.0920407
179	0x3e2c2cff	0.1681404
180	0xbd4bd1c1	-0.049760584
181	0x3e3adc10	0.1824801
182	0xbe093e79	-0.13402738
183	0x3ebf0a25	0.37312427
184	0x3e90d173	0.28284797
185	0xbe8dfc96	-0.2773177
186	0xbeb3ef98	-0.35143733
187	0x3e3c029d	0.18360372
188	0xbeb08178	-0.34473777
189	0x3ecdbb9a	0.4018219
190	0xbebaf293	-0.36513194
191	0x3e774701	0.2414818
192	0xbae93cde	-0.0017794629
193	0x3dd0e2ce	0.101995096
194	0x3eae97ba	0.34100133
195	0x3eb29b48	0.34884095
196	0xbdd66e17	-0.10470217
197	0xbe42255b	-0.18959562
198	0x3df3c7bc	0.11903331
199	0xbca4b317	-0.020104928
200	0xbea15d42	-0.31516463
201	0xbece8290	-0.40333986
202	0xbe941e34	-0.28929293
203	0x3e993aba	0.29927617
204	0x3ce42364	0.027848907
205	0x3d873072	0.06601037
206	0xbe5540ea	-0.20825544
207	0xbe48b7af	-0.1960132
208	0x3ddd21de	0.10797475
209	0x3ea4995d	0.32148257
210	0xbe62be28	-0.22142851
211	0xbe8bbae9	-0.2729104
212	0x3dbb2505	0.0913792
213	0xbbc1608f	-0.0059014033
214	0xbdf5c497	-0.12000387
215	0xbed09e0f	-0.4074559
216	0x3eb99f70	0.36254454
217	0xbddf13fe	-0.10892485
218	0x3e203abd	0.15647407
219	0xbea4c8d4	-0.3218447
220	0xbeadac2a	-0.33920413
221	0x3e8bd34c	0.27309644
222	0xbea0fe70	-0.3144412
223	0x3c18f90b	0.00933672
224	0x3d655f1f	0.055998918
225	0x3d61a38e	0.05508762
226	0xbea30b0f	-0.31844375
227	0x3e759b7c	0.23985094
228	0xbce0c78e	-0.027438905
229	0x3e169f62	0.14709237
230	0x3e9cb234	0.30604708
231	0xbe9ba589	-0.3039973
232	0x3d24fa3b	0.0402777
233	0x3e2d298a	0.16910377
234	0xbe246ea3	-0.1605783
235	0x3e874c82	0.26425558
236	0x3eabce9b	0.33556065
237	0xbe625e9f	-0.22106408
238	0xbd8b03c9	-0.06787831
239	0x3e1c4f96	0.15264735
240	0xbe5ba994	-0.21451408
241	0xbed257b5	-0.4108254
242	0x3ecb231d	0.39675227
243	0xbd6b1133	-0.05738945
244	0x3e8bb116	0.27283543
245	0x3e3e06ac	0.18557233
246	0xbd1ec47c	-0.0387616
247	0xbe764560	-0.24049902
248	0x3de6a240	0.112614155
249	0xbe5470f1	-0.20746209
250	0x3e09256d	0.13393183
251	0xbeae2ec4	-0.34020054
252	0xbd74dd5a	-0.05978141
253	0xbe059bfd	-0.13047786
254	0xbe9b36b4	-0.30315173
255	0xbea5b6f8	-0.32366157

batch_norm_c3.weight f4 [64]
0	0x3f8071b1	1.0034696
1	0x3f805cbc	1.00283
2	0x3f7e501d	0.99340993
3	0x3f7edbde	0.9955424
4	0x3f7fd40e	0.99932945
5	0x3f7fecfd	0.9997099
6	0x3f7f299f	0.99672884
7	0x3f802af6	1.0013111
8	0x3f803385	1.0015723
9	0x3f7faffe	0.9987792
10	0x3f8096c3	1.0046009
11	0x3f804c0f	1.0023211
12	0x3f7f5f7a	0.9975506
13	0x3f7ff7ed	0.9998768
14	0x3f7f5e5e	0.9975337
15	0x3f7fdc45	0.9994548
16	0x3f800f42	1.0004656
17	0x3f7f9f98	0.99852896
18	0x3f805e79	1.0028831
19	0x3f7f2948	0.99672365
20	0x3f7eb1cb	0.9949004
21	0x3f7f101e	0.9963397
22	0x3f7f4351	0.9971209
23	0x3f8021f4	1.0010362
24	0x3f7f26ed	0.9966877
25	0x3f8006e3	1.0002102
26	0x3f7fdacb	0.99943227
27	0x3f8086d3	1.0041145
28	0x3f7fa836	0.99866045
29	0x3f804b9d	1.0023075
30	0x3f80571b	1.0026582
31	0x3f8010cf	1.000513
32	0x3f7ff92d	0.9998959
33	0x3f7fdc6f	0.9994573
34	0x3f802dde	1.0013998
35	0x3f80af06	1.0053413
36	0x3f80034e	1.0001009
37	0x3f8069e3	1.0032314
38	0x3f80909c	1.0044131
39	0x3f7fe421	0.9995747
40	0x3f7f2882	0.99671185
41	0x3f7f2288	0.99662066
42	0x3f7f8aab	0.99820966
43	0x3f7f8fea	0.9982897
44	0x3f8057e1	1.0026819
45	0x3f80a8cd	1.0051514
46	0x3f7fb709	0.99888664
47	0x3f7faf80	0.99877167
48	0x3f808bcb	1.0042661
49	0x3f80bf11	1.0058309
50	0x3f808616	1.004092
51	0x3f7f92b8	0.9983325
52	0x3f7f8efd	0.9982756
53	0x3f7e646b	0.99371976
54	0x3f7f5389	0.9973684
55	0x3f801c41	1.0008622
56	0x3f7faca6	0.99872816
57	0x3f7f21a2	0.99660695
58	0x3f7f1225	0.9963706
59	0x3f809657	1.004588
60	0x3f801c64	1.0008664
61	0x3f7fa22d	0.99856836
62	0x3f809fda	1.0048783
63	0x3f8023dd	1.0010945

batch_norm_c3.bias f4 [64]
0	0xbaa8762e	-0.0012852603
1	0xbae5b013	-0.0017523788
2	0x3b5f1676	0.0034040487
3	0xb9d391a9	-0.0004035358
4	0x3b06e6e2	0.0020584394
5	0xbb87abe8	-0.004140366
6	0xbb768a73	-0.0037619143
7	0xba904cfc	-0.0011009271
8	0xba1e6029	-0.00060415507
9	0xba1bda40	-0.00059453025
10	0xbacb3175	-0.001550241
11	0xbb5f76e1	-0.0034097957
12	0xbad22012	-0.0016031286
13	0xb9429c68	-0.00018559548
14	0x3a2dec4e	0.00066346384
15	0x3b058912	0.002037589
16	0xb9e87898	-0.00044340338
17	0xbad99147	-0.0016599082
18	0xba23b7bd	-0.00062453357
19	0x3a806a93	0.0009797387
20	0x3b09dbb1	0.0021035487
21	0xb9c1c011	-0.0003695493
22	0xbb118d2a	-0.0022209384
23	0xba9498c0	-0.0011337027
24	0x39e3bf91	0.00043439542
25	0x3b2cb1df	0.0026351137
26	0x39bb4629	0.00035719693
27	0xbae14d9d	-0.0017189268
28	0xba70e519	-0.00091894116
29	0x38b99bcb	8.850506e-05
30	0xbacdbe81	-0.0015697033
31	0x3ad53212	0.0016265532
32	0x3a870e7d	0.0010304
33	0xb9b0e44e	-0.00033739436
34	0x3b2ef115	0.002669399
35	0x3aaa4cb0	0.0012992825
36	0xba99ebd8	-0.001174326
37	0xb99b88aa	-0.00029665726
38	0xbb0910db	-0.0020914588
39	0x3b3cb898	0.002879655
40	0xbb17cd40	-0.002316311
41	0x3ae210eb	0.0017247474
42	0xbad6cc4b	-0.0016387788
43	0x3ae953f0	0.0017801505
44	0xbb4d4126	-0.003131935
45	0xbb98a511	-0.0046583493
46	0x3a1eb8c3	0.00060547533
47	0xb974c25c	-0.00023342058
48	0xba98ab85	-0.0011647796
49	0xbab41713	-0.0013739787
50	0x3b41abbd	0.0029551827
51	0xbaa8c1aa	-0.0012875099
52	0xbb22fd53	-0.0024870231
53	0x3af06e80	0.0018343478
54	0x3ac39a84	0.0014923369
55	0xbb25a8a9	-0.0025277531
56	0x3b22b3f8	0.0024826508
57	0x3af1f8c8	0.0018460983
58	0xba02681a	-0.0004974619
59	0xbad08490	-0.0015908647
60	0x3a83d639	0.001005835
61	0xbaa8018b	-0.0012817843
62	0x3b0539a4	0.0020328546
63	0xba4a11e5	-0.0007708355

batch_norm_c3.running_mean f4 [64]
0	0x3ea173d1	0.31533673
1	0x3e837e53	0.25682315
2	0x3e8ade92	0.27122933
3	0x3e79b8f8	0.24386966
4	0x3e781a35	0.24228747
5	0x3e80192a	0.250192
6	0x3e965588	0.2936213
7	0x3eae232f	0.34011218
8	0x3e6d9e59	0.23204936
9	0x3e6988c9	0.22806086
10	0x3e89c414	0.26907408
11	0x3e860c90	0.2618146
12	0x3e80e19a	0.2517212
13	0x3e8a0d95	0.26963487
14	0x3ea3a11a	0.31958848
15	0x3e3a2eb9	0.18181886
16	0x3e72f4b4	0.2372616
17	0x3e7aa18a	0.24475685
18	0x3e5e6af3	0.21720485
19	0x3e626cbf	0.22111796
20	0x3e7602c2	0.2402449
21	0x3e9496d3	0.2902132
22	0x3e8dbbca	0.27682334
23	0x3e31c121	0.17358829
24	0x3e4ae07c	0.19812196
25	0x3e8b9861	0.27264693
26	0x3e97ea8d	0.29671136
27	0x3eb0135e	0.34389776
28	0x3e80ace5	0.25131908
29	0x3e051295	0.1299537
30	0x3e7de6a6	0.24795017
31	0x3e986a4f	0.29768607
32	0x3e738d8c	0.23784465
33	0x3e890f99	0.26769713
34	0x3e4c16c9	0.19930567
35	0x3e8d2904	0.27570355
36	0x3ea08c48	0.31357026
37	0x3e6530f6	0.22381958
38	0x3e85a63c	0.2610339
39	0x3e97a4a6	0.29617804
40	0x3e935d5a	0.2878216
41	0x3e471f23	0.19445471
42	0x3e4c8965	0.19974287
43	0x3e834a7c	0.25642765
44	0x3e7eb7ed	0.2487485
45	0x3ec3d072	0.3824497
46	0x3e5ecf68	0.21758807
47	0x3e2fc2e1	0.17164184
48	0x3ea57e2e	0.3232283
49	0x3e8deb0a	0.27718383
50	0x3e9fd93c	0.31220424
51	0x3e7457da	0.23861638
52	0x3e9c3143	0.30506334
53	0x3e62ce99	0.22149123
54	0x3e116618	0.14199102
55	0x3e6c96e5	0.23104437
56	0x3e5e56bf	0.21712779
57	0x3ea37b79	0.3193014
58	0x3e580a96	0.21097788
59	0x3e5ff420	0.2187047
60	0x3e8c63e8	0.27419972
61	0x3e6ec42c	0.23317021
62	0x3e36b90f	0.17844032
63	0x3e45c9cf	0.19315265

batch_norm_c3.running_var f4 [64]
0	0x3e8318fe	0.25605005
1	0x3ea490c5	0.321417
2	0x3dfdfbce	0.124015436
3	0x3e5cd5eb	0.21565978
4	0x3e1dba12	0.15403011
5	0x3e5b94b9	0.21443452
6	0x3e903a2a	0.28169376
7	0x3ef98577	0.48734638
8	0x3e13bdd8	0.14427888
9	0x3db9c2dd	0.0907037
10	0x3e7e2fc6	0.24822912
11	0x3e405562	0.18782571
12	0x3de64e38	0.11245388
13	0x3e1be0e0	0.15222502
14	0x3e1bee7c	0.15227693
15	0x3d667f24	0.056273594
16	0x3e52b2db	0.2057604
17	0x3de6b25d	0.11264489
18	0x3e4bc38d	0.19898815
19	0x3e0c03a8	0.1367327
20	0x3e0e0dca	0.13872448
21	0x3e81c762	0.2534743
22	0x3ed20ca6	0.41025275
23	0x3daf1909	0.08549697
24	0x3d7c48fa	0.061593033
25	0x3e1d8065	0.1538101
26	0x3e9326e0	0.28740597
27	0x3e5ecc42	0.21757606
28	0x3e2ed1cd	0.1707222
29	0x3d29a065	0.04141273
30	0x3e93731b	0.28798756
31	0x3e8a8a8d	0.2705883
32	0x3e3af75b	0.18258421
33	0x3e294890	0.16531587
34	0x3e380271	0.17969681
35	0x3de202b6	0.11035673
36	0x3e6005d4	0.21877223
37	0x3db70003	0.08935549
38	0x3e2ac1ad	0.16675444
39	0x3e6b1c82	0.22960094
40	0x3e5f08f4	0.21780759
41	0x3d7bfc63	0.06151999
42	0x3d775069	0.06037942
43	0x3e50d189	0.20392431
44	0x3df9287f	0.12165927
45	0x3ec80229	0.39064148
46	0x3e00abd1	0.12565543
47	0x3dcdccef	0.100488536
48	0x3e810e61	0.25206283
49	0x3e95b22f	0.29237506
50	0x3e9bf14d	0.30457535
51	0x3e2d03c0	0.16895962
52	0x3e48c965	0.19608076
53	0x3e402ae9	0.18766369
54	0x3cf33314	0.029687442
55	0x3e7a8e28	0.24468291
56	0x3e272260	0.16321707
57	0x3e4e9f90	0.20178056
58	0x3d8259a5	0.063647546
59	0x3e6e0f02	0.23247913
60	0x3e6b6113	0.2298625
61	0x3e781c44	0.24229532
62	0x3db15186	0.086581275
63	0x3e52db3a	0.20591441

conv3.weight_v f4 [64, 64, 3]
0	0xbd7130e1	-0.058884505
1	0x3d277a1b	0.040887933
2	0xbca2aec7	-0.019858731
3	0xbd782d63	-0.06059016
4	0x3ca05b63	0.019574827
5	0x3d2b602c	0.041839764
6	0xbd292467	-0.04129448
7	0xbcebaa5b	-0.028767755
8	0x3d0bcc8d	0.03413062
9	0x3d134881	0.035957817
10	0xbd551d0c	-0.052029654
11	0x3c8b66d7	0.017016811
12	0xbc17c1d9	-0.0092625255
13	0x3d6a5581	0.05721045
14	0x3d4a1f9d	0.049346555
15	0xbd1e0995	-0.038583357
16	0xbc67169c	-0.014104512
17	0xba735171	-0.000928185
18	0xbd911491	-0.07084001
19	0xbb0a8e3b	-0.0021141905
20	0x3d730cc6	0.059338354
21	0x3d860ae8	0.06545049
22	0x3caf90ce	0.021431353
23	0x3d1f34cc	0.03886871
24	0x3c94db99	0.018171119
25	0x3ced3ed7	0.028960628
26	0x3cb98b8f	0.022649555
27	0x3d1de3b0	0.038547218
28	0x3d464d8c	0.0484138
29	0x3ccacd12	0.024755988
30	0xbd899cfa	-0.06719394
31	0xbd81155b	-0.06302901
32	0x3ca0f770	0.019649237
33	0xbd41c495	-0.047306616
34	0xbca213ee	-0.019784894
35	0xbd0cfeca	-0.034422673
36	0xbb8b314a	-0.004247819
37	0x3d6d8444	0.057987466
38	0xbc3e85fd	-0.011628625
39	0x3c513e6b	0.012771229
40	0xbd15523b	-0.036455374
41	0xbd61e604	-0.055151
42	0xbd1c7cc0	-0.03820491
43	0xbd4c1378	-0.049823254
44	0xbd541fc9	-0.051788125
45	0xbc4b7935	-0.012419035
46	0x3d0967e0	0.03354633
47	0x3c3c3888	0.0114880875
48	0x3d664a20	0.056223035
49	0x3d898c84	0.06716254
50	0x3d31c7d3	0.043403458
51	0x3c482a9a	0.012217188
52	0xbced47a0	-0.028964818
53	0x3d34d3eb	0.044147413
54	0x3cf9c5d8	0.030489847
55	0xbd8dd693	-0.069256924
56	0x3d71737f	0.058948036
57	0xbd3eaed6	-0.046553455
58	0x3d312a49	0.043253217
59	0x3d85485d	0.06507943
60	0x3cf476aa	0.02984174
61	0xbd5fca44	-0.054636255
62	0x3ce81516	0.028330367
63	0x3c2a7a39	0.010405117
64	0x3cdb29a2	0.02675325
65	0x3aa6298f	0.001267718
66	0xbd6e1d01	-0.05813313
67	0xbd029b68	-0.03188649
68	0xba9a0125	-0.0011749609
69	0x3c7900ca	0.015197942
70	0x3d80fe91	0.06298555
71	0xbc509ac2	-0.01273221
72	0xbcb86468	-0.022508815
73	0x3bf83207	0.007574323
74	0xbd88a3ab	-0.06671842
75	0x3d188edd	0.03724562
76	0xbcfd172e	-0.030894842
77	0xbd461855	-0.04836305
78	0xbd6bb272	-0.057543226
79	0x3d8acdef	0.0677756
80	0x3d9617f2	0.07328786
81	0x3cf0ff67	0.02941866
82	0xbc376d44	-0.011195485
83	0x3d7934e1	0.060841445
84	0xbc2ff4d0	-0.01073952
85	0xbce36c96	-0.027761739
86	0xbc4b68fc	-0.012415167
87	0x3d97a346	0.07404189
88	0xbd45373a	-0.04814837
89	0xbd7d24d7	-0.06180271
90	0x3cef603c	0.029220693
91	0x3d82fbff	0.06395721
92	0xbd72c00f	-0.059265193
93	0xbd5cdb5c	-0.053920135
94	0xbc8d11eb	-0.017220458
95	0x3cc3f037	0.023918254
96	0x3d586312	0.052828856
97	0xbd109e3b	-0.03530715
98	0xbd0eeab5	-0.034891803
99	0x3c9bed3f	0.019034026
100	0x3d83b77a	0.0643148
101	0x3abc91e0	0.0014386736
102	0xbb38c7ad	-0.0028195188
103	0xbc162992	-0.009165185
104	0x3d997a65	0.07494048
105	0xbd4d6b5e	-0.05015122
106	0xbd5f0136	-0.054444514
107	0x3d870fcd	0.06594811
108	0x3c814717	0.015780969
109	0xbcf8f18b	-0.030388614
110	0xbd7e9f12	-0.06216342
111	0xbc12cf21	-0.008960516
112	0x3bbf10b5	0.005830849
113	0x3a95c3e7	0.0011426181
114	0x3caa220f	0.020768194
115	0x3d6eb909	0.058281932
116	0x3da15af4	0.07878676
117	0x3c630ced	0.013858062
118	0xbcb977bc	-0.022640102
119	0xbc9c0a29	-0.019047813
120	0xbd4f5657	-0.05061945
121	0xbb9ebafd	-0.004844068
122	0x3d77270e	0.06033998
123	0x3d176fba	0.036971785
124	0xbd41f15a	-0.04734931
125	0x3d5a31c1	0.053270105
126	0xbc63f649	-0.013913699
127	0xbc62e5ec	-0.013848763
128	0x3d3b0fc3	0.04566933
129	0x3c4481ce	0.0119938385
130	0xbceb4f77	-0.028724415
131	0xbd8081bd	-0.062747456
132	0xbd71a1ec	-0.05899231
133	0x3d8076a9	0.06272633
134	0xbd1ffc1e	-0.039058797
135	0x3d3390c8	0.043839246
136	0xbc59fb41	-0.0133045325
137	0x3d835686	0.064129874
138	0x3d542245	0.051790494
139	0x3d1ff2e9	0.039050017
140	0xbcfc083e	-0.030765649
141	0x3d074b75	0.033030946
142	0x3d41028c	0.04712157
143	0xbcc2177d	-0.02369284
144	0xbc408306	-0.011749988
145	0x3d4853b2	0.048907943
146	0x3d941471	0.072304614
147	0xbd193788	-0.037406474
148	0x3cadc39a	0.021211434
149	0x3d4fc45f	0.050724383
150	0x3d4cddec	0.05001633
151	0x3bcddcf0	0.0062824413
152	0x3d8de706	0.0692883
153	0xbd7836b2	-0.060599037
154	0xbd8ec5b7	-0.06971305
155	0x3c4d82dd	0.012543407
156	0xb8c61af9	-9.4464e-05
157	0x3d381688	0.044943362
158	0x3ce623d4	0.028093256
159	0xbb65ebec	-0.0035083247
160	0xbd227e0e	-0.039670996
161	0xbc0e0d52	-0.008670168
162	0x3bcf52cf	0.00632701
163	0x3c81cf5b	0.015845945
164	0xbcd1dee4	-0.025618978
165	0x3d502a53	0.050821614
166	0xbca8f0d7	-0.020622654
167	0x3da0281e	0.07820152
168	0x3b9986c3	0.0046852543
169	0x3d7a022d	0.06103723
170	0x3c696f98	0.014247797
171	0xbd544451	-0.051822964
172	0x3beb64c1	0.0071836417
173	0x3d3ac5f5	0.045598943
174	0x3d22c4bc	0.0397384
175	0x3d57a52c	0.052647755
176	0xbc4a410b	-0.012344609
177	0x3cce10fb	0.025154581
178	0x3b8fb4ba	0.004385558
179	0xbca164a7	-0.019701315
180	0xbcbce660	-0.02305907
181	0x3d9ae415	0.075630344
182	0xbd17a680	-0.03702402
183	0xbc8b5d08	-0.017012134
184	0x3d84fd7d	0.064936616
185	0xbd23e01f	-0.04000866
186	0xbd875eaf	-0.06609856
187	0xbd6e22e2	-0.058138736
188	0x3d8122ee	0.063054904
189	0xbd033ad6	-0.032038532
190	0x3d539fed	0.05166619
191	0xbb33da29	-0.0027443266
192	0x3c51b7cb	0.012800167
193	0xbbb55fde	-0.00553511
194	0xbd7b7736	-0.061392985
195	0xbd773fb8	-0.0603635
196	0xbd596a96	-0.053080164
197	0x3cf1cdab	0.029517015
198	0xbd74622b	-0.059663933
199	0x3d7275cc	0.05919437
200	0xbd4c4e4a	-0.04987935
201	0x3cd7ed5d	0.0263583
202	0xbb1aca16	-0.0023618988
203	0x3d621c81	0.055202965
204	0xbd39af2a	-0.045333065
205	0x3d11e928	0.035622746
206	0x3c8200c5	0.015869508
207	0xbd16e035	-0.036834914
208	0x3c60049d	0.013672975
209	0x3d179c79	0.03701446
210	0x3c76ccd8	0.015063487
211	0xbd55c94c	-0.052193925
212	0x3d80d1e6	0.06290035
213	0xbb83aad6	-0.004018168
214	0xbce3a055	-0.027786413
215	0x3d8a2a90	0.067463994
216	0x3cefdf13	0.029281175
217	0xbcda4681	-0.026644947
218	0xbd50116d	-0.05079787
219	0x3d84a9c7	0.06477695
220	0x3d12a212	0.035799094
221	0xbd0b0073	-0.033935975
222	0x3c90f81a	0.017696429
223	0x3d400a11	0.0468846
224	0x3c6046c9	0.0136887515
225	0x3c2e9a5e	0.010656921
226	0xbd5d83e2	-0.05408085
227	0xbd89cde2	-0.06728722
228	0xbbacef6c	-0.0052775647
229	0xbd439e5d	-0.04775845
230	0xbd88c194	-0.06677547
231	0xba77fc0f	-0.0009459862
232	0xbd0ceda3	-0.034406316
233	0x3d3a3dda	0.045469142
234	0xbd6d2910	-0.05790049
235	0xbd0b27bb	-0.033973437
236	0xbd55af77	-0.05216929
237	0x3bc04a64	0.005868243
238	0x3d26e518	0.040745825
239	0x3d33d9fd	0.04390906
240	0x3cbd3d56	0.023100536
241	0xbd8d7def	-0.069087856
242	0xbd230eec	-0.039809152
243	0xbcc519eb	-0.02406021
244	0x3ba2a422	0.004963414
245	0xbc9f8b90	-0.019475728
246	0x3d5a6c00	0.053325653
247	0x3d6c1ef6	0.057646714
248	0xbcc37326	-0.023858618
249	0xbce73bf2	-0.028226826
250	0x3d4d1bbd	0.05007528
251	0xbd21f0d2	-0.039536305
252	0xbb95c53b	-0.004570631
253	0xbd72a633	-0.05924053
254	0x3d81ee16	0.063442394
255	0x3cb7ef1a	0.02245288

batch_norm_c4.weight f4 [64]
0	0x3f7f84bf	0.9981193
1	0x3f7fe8af	0.9996442
2	0x3f7fc2e3	0.9990675
3	0x3f7f953f	0.99837106
4	0x3f7fe96f	0.99965566
5	0x3f7f461c	0.99716353
6	0x3f7ee598	0.9956908
7	0x3f7fd61c	0.9993608
8	0x3f7fdf0a	0.99949706
9	0x3f801ab0	1.0008144
10	0x3f7ffea0	0.999979
11	0x3f80103f	1.0004958
12	0x3f7f4eae	0.9972943
13	0x3f7fbaa3	0.9989416
14	0x3f7f2cbb	0.9967763
15	0x3f7fe81c	0.99963546
16	0x3f7f0e49	0.9963117
17	0x3f7f2d65	0.9967864
18	0x3f7f860f	0.9981393
19	0x3f8025f6	1.0011585
20	0x3f7fcf1e	0.9992541
21	0x3f801a32	1.0007994
22	0x3f8004b2	1.0001433
23	0x3f7eea95	0.99576694
24	0x3f7fff5a	0.9999901
25	0x3f7e67fc	0.9937742
26	0x3f7f4018	0.99707174
27	0x3f7f9bfc	0.9984739
28	0x3f7f6281	0.9975968
29	0x3f7f99c4	0.99844
30	0x3f7f0968	0.9962373
31	0x3f7f5958	0.997457
32	0x3f7ec16a	0.99513876
33	0x3f7f77c8	0.99792147
34	0x3f7fd2b2	0.9993087
35	0x3f7f1578	0.99642134
36	0x3f7fef99	0.9997497
37	0x3f7fbe78	0.9990001
38	0x3f7ee47b	0.99567384
39	0x3f7f2ddd	0.99679357
40	0x3f7fa47c	0.9986036
41	0x3f7f973f	0.9984016
42	0x3f8004b9	1.0001441
43	0x3f801473	1.0006241
44	0x3f8044bd	1.0020977
45	0x3f7fedcb	0.9997222
46	0x3f7fd149	0.9992872
47	0x3f7f6b0b	0.9977271
48	0x3f7ed8bb	0.99549454
49	0x3f7fe995	0.9996579
50	0x3f800dea	1.0004246
51	0x3f801275	1.0005633
52	0x3f7fa04b	0.9985396
53	0x3f7e74e5	0.99397117
54	0x3f80112a	1.0005238
55	0x3f7e60b7	0.99366325
56	0x3f7ffa48	0.99991274
57	0x3f7fca76	0.99918306
58	0x3f7f7027	0.99780506
59	0x3f7f6adb	0.99772424
60	0x3f7fb1ef	0.9988088
61	0x3f7f694a	0.99770033
62	0x3f802310	1.00107
63	0x3f7eb45e	0.9949397

batch_norm_c4.bias f4 [64]
0	0xbb3cd060	-0.0028810725
1	0xba1fe355	-0.0006099244
2	0x3af19322	0.001843069
3	0xba932217	-0.001122537
4	0x3724ab79	9.815086e-06
5	0x39ec6a07	0.00045092424
6	0xb9ebb7d6	-0.0004495966
7	0xba513ce5	-0.0007981791
8	0x37bc29c5	2.2430797e-05
9	0xba82e34a	-0.000998595
10	0x38924452	6.974548e-05
11	0x3a100d44	0.0005495141
12	0x3a2455e1	0.00062689005
13	0xb8568f6f	-5.115516e-05
14	0x3baaa956	0.0052081747
15	0xb9e84867	-0.00044304432
16	0xb928f7e0	-0.00016114069
17	0xba61716d	-0.00085999706
18	0x39e42125	0.00043512243
19	0xba8487cd	-0.0010111273
20	0xba9926c5	-0.0011684528
21	0xbb292edc	-0.0025815284
22	0xba8d6840	-0.0010788515
23	0xba9838ed	-0.0011613645
24	0xba45054b	-0.00075157423
25	0xb96f03df	-0.00022794258
26	0x3a188f07	0.00058196526
27	0xb8bfac5e	-9.1396956e-05
28	0xba4cdf2e	-0.0007815239
29	0xba8bb212	-0.0010657927
30	0xb942a10e	-0.0001856128
31	0xb93e7877	-0.00018164689
32	0x3a1a9b27	0.0005897753
33	0xb96e2bc2	-0.0002271375
34	0x3b59231c	0.00331325
35	0x383ad0d9	4.454036e-05
36	0xba0d01ce	-0.0005378992
37	0x3b8235bc	0.003973691
38	0x3ac73460	0.0015198104
39	0xb9fc29af	-0.00048096242
40	0xba091659	-0.00052294653
41	0xb9cfbca7	-0.00039622674
42	0xb9a7b1ff	-0.0003198534
43	0x39ab06c1	0.00032620694
44	0x3b0e6225	0.002172598
45	0xbb409e10	-0.0029391088
46	0x3a71d443	0.000922505
47	0x3a14f709	0.0005682563
48	0x3a8e5ebc	0.0010861973
49	0x3a8302f2	0.0009995385
50	0x3a1150eb	0.0005543369
51	0x3acbbba8	0.0015543597
52	0xb9eed183	-0.00045550996
53	0x3b270e12	0.0025490564
54	0x37abe7ab	2.0492667e-05
55	0x3a116e1b	0.0005547718
56	0x3a5855d5	0.0008252536
57	0x3856c690	5.12065e-05
58	0xba4e3e43	-0.0007867554
59	0xbab9fd4a	-0.0014189866
60	0xb9d02c29	-0.00039705753
61	0x389d4691	7.4994874e-05
62	0xb9edec9f	-0.0004538046
63	0xba5361e6	-0.0008063599

batch_norm_c4.running_mean f4 [64]
0	0x3e72cb5a	0.23710385
1	0x3e9f274c	0.3108467
2	0x3e6f1356	0.2334722
3	0x3e8de2a1	0.27711967
4	0x3e7996c3	0.24373917
5	0x3e81ccab	0.25351462
6	0x3e82327a	0.25429136
7	0x3e70422e	0.23462746
8	0x3e97d739	0.2965639
9	0x3e98699f	0.29768082
10	0x3e8489de	0.25886434
11	0x3e876ac4	0.26448643
12	0x3e583b95	0.21116479
13	0x3e738918	0.23782766
14	0x3eac3a2f	0.3363814
15	0x3e4fc6c6	0.2029067
16	0x3e7848ff	0.24246596
17	0x3e98220e	0.29713482
18	0x3e8eb2d0	0.27870798
19	0x3e9cca52	0.30623108
20	0x3e840103	0.25782022
21	0x3e7ef579	0.24898328
22	0x3e82ffd7	0.25585815
23	0x3e83b32f	0.25722644
24	0x3e55f4ee	0.20894215
25	0x3e992a78	0.29915214
26	0x3e97848e	0.2959332
27	0x3e46401a	0.1936039
28	0x3e89b8ea	0.2689889
29	0x3e6e7fea	0.23290983
30	0x3e7b8f2d	0.24566336
31	0x3e804316	0.25051183
32	0x3ea1761d	0.31535426
33	0x3e823ecb	0.25438532
34	0x3e61e5d1	0.22060324
35	0x3e76905b	0.24078505
36	0x3e728180	0.23682213
37	0x3e80a990	0.25129366
38	0x3e8467b2	0.25860363
39	0x3e8de63a	0.2771471
40	0x3e8c5b8e	0.274136
41	0x3e994f9a	0.29943544
42	0x3e77a950	0.24185681
43	0x3e72307f	0.23651312
44	0x3e94475c	0.28960693
45	0x3e8472a7	0.25868723
46	0x3e607ac8	0.21921837
47	0x3e5c47c9	0.21511759
48	0x3e8121c4	0.25221074
49	0x3e8c9f1f	0.2746515
50	0x3e9f8476	0.31155747
51	0x3e7e1291	0.2481177
52	0x3eb10f00	0.34581757
53	0x3e8df07a	0.27722532
54	0x3e74d406	0.23909006
55	0x3e607b10	0.21921945
56	0x3e836153	0.2566019
57	0x3e72dbd0	0.23716664
58	0x3e86b994	0.2631346
59	0x3e9e6f94	0.30944502
60	0x3e72d4f2	0.23714045
61	0x3e8a71ab	0.27039847
62	0x3e478c32	0.19487074
63	0x3e9e488a	0.30914718

batch_norm_c4.running_var f4 [64]
0	0x3e65ff4e	0.22460672
1	0x3eaf5a05	0.34248367
2	0x3e352085	0.17688186
3	0x3e4f4d9f	0.20244454
4	0x3e30750a	0.17232147
5	0x3e4753b0	0.19465518
6	0x3e1a82df	0.15088986
7	0x3e493b14	0.19651443
8	0x3e1353c1	0.14387418
9	0x3ec59666	0.38591307
10	0x3e27ff0a	0.16405883
11	0x3e6f2505	0.23353966
12	0x3dc7370e	0.09727298
13	0x3e3a42b6	0.1818951
14	0x3eea1706	0.4572069
15	0x3dadd1fb	0.08487316
16	0x3deb2996	0.11482541
17	0x3ea41e93	0.32054576
18	0x3e27ae77	0.16375147
19	0x3ebf717d	0.37391272
20	0x3e44f9da	0.19235936
21	0x3e130872	0.1435869
22	0x3e83f31f	0.25771424
23	0x3e960cf3	0.29306754
24	0x3e17c6b8	0.14821899
25	0x3e384902	0.179966
26	0x3e1429e8	0.14469111
27	0x3ddf050e	0.10889636
28	0x3e142115	0.14465745
29	0x3de3a8ea	0.11116202
30	0x3e38292b	0.17984454
31	0x3e4a15a8	0.19734824
32	0x3e96a7e0	0.29424953
33	0x3dfbd154	0.122957855
34	0x3de6db43	0.112722896
35	0x3e312181	0.17297937
36	0x3df01dc0	0.11724424
37	0x3e5486f8	0.20754611
38	0x3e37dc21	0.17955066
39	0x3e4cbc1f	0.19993638
40	0x3e32e354	0.17469531
41	0x3e4be843	0.1991282
42	0x3e0ede15	0.13951905
43	0x3e2ae8a7	0.16690312
44	0x3ec658c5	0.387396
45	0x3e4ded42	0.20110038
46	0x3e35e9bc	0.17764944
47	0x3dd1ba81	0.10240651
48	0x3e789378	0.24275005
49	0x3e84424b	0.25831828
50	0x3e5c2c61	0.21501304
51	0x3e7c2360	0.2462287
52	0x3e88cfb7	0.26720974
53	0x3ea44526	0.32084006
54	0x3e213b2d	0.1574523
55	0x3dd6535c	0.10465118
56	0x3e9e6777	0.30938312
57	0x3e231072	0.15924242
58	0x3e6bb7da	0.23019353
59	0x3ea4fc30	0.32223654
60	0x3dedf450	0.116188645
61	0x3e30c098	0.17260969
62	0x3dea5e53	0.11443772
63	0x3e5e4f06	0.21709833

conv4.weight_v f4 [64, 1, 5]
0	0x3e9137d9	0.2836292
1	0x3ebe7d19	0.37204817
2	0xbec65687	-0.3873789
3	0x3eca6bf3	0.39535484
4	0x3ece12c2	0.40248686
5	0x3ed38eab	0.41319785
6	0xbece6b3c	-0.40316188
7	0x3e9289e6	0.28620833
8	0x3dc78889	0.09742839
9	0x3d0145d9	0.031560753
10	0x3e79c142	0.24390128
11	0xbe347e23	-0.17626242
12	0xbdc44e78	-0.09585279
13	0xbc242d56	-0.010020575
14	0xbee663b3	-0.4499794
15	0xbebf58e2	-0.373725
16	0xbeccce12	-0.4000097
17	0xbeb16e9c	-0.346547
18	0xbe36f958	-0.17868555
19	0x3e93a878	0.2883947
20	0xbee3b3e9	-0.44473198
21	0x3ec86ae7	0.3914406
22	0xbb98d309	-0.004663829
23	0xbeb756de	-0.35808462
24	0x3e8e164b	0.27751383
25	0x3ea1a6c9	0.3157256
26	0xbebc36dd	-0.36760607
27	0x3ec65936	0.38739938
28	0xbe65d776	-0.22445473
29	0x3e079237	0.1323937
30	0x3dd9ef63	0.106413625
31	0xbcf58ac8	-0.029973403
32	0xbec13ede	-0.37743276
33	0x3e8e9a14	0.27851927
34	0xbec778a6	-0.38959235
35	0xbe830278	-0.2558782
36	0xbcdc9571	-0.026926728
37	0x3e00ad27	0.12566052
38	0x3ec81e9e	0.3908586
39	0xbc817546	-0.01580299
40	0xbda78119	-0.0817892
41	0xbe98f742	-0.29876143
42	0x3ed51dc7	0.4162428
43	0xbeda4280	-0.4262886
44	0xbe396412	-0.1810458
45	0xbe5d1383	-0.21589474
46	0xbecda5c1	-0.40165523
47	0x3e2a38ec	0.16623276
48	0x3e808f11	0.2510915
49	0x3eaf9612	0.34294182
50	0xbd28aa4e	-0.04117804
51	0xbee55824	-0.44793808
52	0x3e815b30	0.25264883
53	0xbedbcf6f	-0.42931697
54	0xbe860bce	-0.2618088
55	0x3e23117f	0.15924643
56	0x3e4e72db	0.20161001
57	0x3dec4f9a	0.1153862
58	0xbe8c8b73	-0.2745014
59	0xbe7148d3	-0.23562936
60	0x3d21e71f	0.039527055
61	0x3e4dbdc9	0.20091929
62	0xbc9f6b60	-0.01946038
63	0xbe74edb3	-0.239188
64	0x3e2652cb	0.1624252
65	0x3e0a97c9	0.13534464
66	0xbe2299e7	-0.15879022
67	0xbc6d677e	-0.0144900065
68	0x3d841b1d	0.06450484
69	0xbe5f5349	-0.21809115
70	0xbde82b71	-0.11336411
71	0xbe24bb3a	-0.16087046
72	0xbcaf4fd9	-0.021400379
73	0xbe86df35	-0.26342168
74	0xbe94a128	-0.29029202
75	0xbe90a6a0	-0.28252125
76	0x3dc3e0c4	0.09564355
77	0x3ca35c3b	0.01994144
78	0xbe0b614a	-0.13611332
79	0x3a344256	0.000687634
80	0x3ddc16b6	0.10746519
81	0x3e036427	0.12831174
82	0x3cf62984	0.030049093
83	0xbde02edf	-0.1094644
84	0xbe813aa8	-0.25240064
85	0xbe4e1634	-0.20125657
86	0xbd6db8ef	-0.058037695
87	0xbea939b5	-0.3305184
88	0xbd56901f	-0.05238354
89	0xbe9551dc	-0.29164016
90	0xbed62cc5	-0.4183103
91	0x3e45d262	0.19318536
92	0xbd8d5e7c	-0.06902787
93	0xbde49a8f	-0.11162292
94	0x3e4a300a	0.19744888
95	0xbd93857d	-0.07203195
96	0xbdad0f9c	-0.08450243
97	0x3ee6ae0b	0.4505466
98	0x3e4b9325	0.1988035
99	0xbeb9f5f5	-0.36320463
100	0x3ea858cc	0.32880247
101	0xbe7129c8	-0.23551095
102	0xbdceb1ae	-0.100924835
103	0x3e562b3a	0.20914927
104	0x3ed91cb6	0.42404717
105	0xbeb9146d	-0.36148396
106	0xbe8c0aac	-0.27351892
107	0xbec894d3	-0.39176044
108	0xbed977d6	-0.4247424
109	0xbed26ab1	-0.41097024
110	0xbeb1be6c	-0.34715593
111	0x3dce15cf	0.100627534
112	0x3e31ecca	0.17375484
113	0x3eb5b8fc	0.35492694
114	0x3e957b90	0.29195833
115	0xbebbfd1a	-0.3671654
116	0xbaa01bd3	-0.0012215324
117	0xbecf3e93	-0.40477428
118	0x3ec9556e	0.3932299
119	0xbda7eaac	-0.08199057
120	0x3e2f2a2f	0.17105936
121	0xbe92ca6e	-0.28670067
122	0x3ebef5ef	0.37297007
123	0xbea95c0b	-0.33078036
124	0x3e1d9645	0.15389355
125	0xbdc1eec9	-0.09469373
126	0xbd7a70ca	-0.06114272
127	0xbde4c060	-0.11169505
128	0x3e776802	0.2416077
129	0x3dbaa323	0.09113147
130	0x3e7176f8	0.23580539
131	0xbe1a06bf	-0.15041636
132	0xbe830105	-0.25586715
133	0x3e91ee37	0.28502056
134	0xbeaafe0a	-0.3339694
135	0xbe7307aa	-0.23733392
136	0xbdd00164	-0.10156515
137	0xbead749c	-0.33878028
138	0x3e9d3dd9	0.3071125
139	0x3ec6edf4	0.3885342
140	0xbe5a523c	-0.21320432
141	0xbe9e47c6	-0.30914134
142	0x3d57e8d5	0.05271228
143	0x3e8097a9	0.25115708
144	0x3ea339a2	0.31879908
145	0xbe2b7f76	-0.16747841
146	0xbc790437	-0.015198759
147	0xbe532743	-0.20620446
148	0xbedef1d9	-0.4354389
149	0xbd86bf61	-0.065794714
150	0xbe0854c6	-0.13313589
151	0x3e895390	0.26821566
152	0x3e99ecb7	0.30063412
153	0xbea9f991	-0.33198217
154	0x3e18e456	0.14930853
155	0xbea2e258	-0.31813312
156	0xbe7de6cc	-0.24795073
157	0x3eb97383	0.3622094
158	0xbe08c3b5	-0.13355906
159	0x3e7fb3fd	0.24971004
160	0xbedf0540	-0.43558693
161	0xbec9ad88	-0.39390206
162	0x3d8451af	0.064608924
163	0xbed34be9	-0.41268852
164	0x3e9db5ff	0.30802915
165	0x3eb0b1c8	0.34510636
166	0xbe990468	-0.29886174
167	0x3e7ef7c7	0.24899207
168	0xbe2ae36d	-0.16688319
169	0xbed49c40	-0.4152546
170	0x3e69b1ab	0.22821681
171	0x3e308309	0.17237486
172	0x3ea6a9e2	0.32551485
173	0x3c982d39	0.018576251
174	0x3e0e46fe	0.13894269
175	0x3eb9ac50	0.36264277
176	0xbeb049c0	-0.34431267
177	0x3e403bba	0.18772784
178	0xbd849e04	-0.064754516
179	0x3e2ca139	0.16858377
180	0x3dae6f1c	0.08517286
181	0xbdf60ebd	-0.1201453
182	0xbedd00ac	-0.43164575
183	0x3d9e8785	0.07740692
184	0xbeb67484	-0.3563577
185	0x3e7ecb56	0.24882254
186	0x3e24d786	0.1609784
187	0xbe87147a	-0.2638281
188	0x3e4860d6	0.1956819
189	0x3ecb3194	0.39686263
190	0xbdddf048	-0.10836846
191	0x3e75f38f	0.24018691
192	0xbee06995	-0.43830553
193	0xbeb62dcd	-0.35581818
194	0xbe4cbffe	-0.19995114
195	0x3d694936	0.056954585
196	0x3d0f5192	0.0349899
197	0x3eadc9eb	0.33943114
198	0x3ec9a684	0.39384854
199	0xbe834d4e	-0.25644916
200	0xbecf59b7	-0.40498134
201	0xbc5c518b	-0.013447176
202	0x3e6c6f51	0.23089339
203	0x3e1a25ab	0.15053432
204	0xbea47d2c	-0.3212675
205	0x3e433be8	0.19065821
206	0xbeb2af9a	-0.34899598
207	0x3ebb3d84	0.3657037
208	0x3dfb5c5f	0.12273478
209	0xbea116a6	-0.31462592
210	0x3d011d0b	0.03152184
211	0x3e97cef9	0.29650095
212	0x3ee32cd6	0.44370145
213	0xbe133022	-0.1437383
214	0xbd77cbd3	-0.060497116
215	0x3c0ed5cc	0.008717965
216	0xbe071450	-0.13191342
217	0x3ea15b38	0.31514907
218	0xbebe06c7	-0.37114546
219	0x3ed255e5	0.41081157
220	0x3e8b6ef5	0.2723309
221	0xbee2f545	-0.4432775
222	0x3ecf0c93	0.4043928
223	0x3ebb828f	0.36623046
224	0x3dbb025b	0.09131309
225	0xbe36408a	-0.17798057
226	0x3e4e29ea	0.20133176
227	0x3e8904f9	0.26761606
228	0x3ee5df71	0.44897035
229	0x3e8dff75	0.2773396
230	0xbd8964ba	-0.06708665
231	0xbe1dfc20	-0.1542821
232	0x3e608a23	0.21927695
233	0xbe5748ba	-0.21023837
234	0xbed04ec1	-0.40685084
235	0x3ebe9c1f	0.37228486
236	0xbe760b0c	-0.24027652
237	0x3da361bd	0.079776265
238	0x3d09431f	0.033511277
239	0xbe91e94b	-0.284983
240	0xbed8f951	-0.42377713
241	0x3dcc47b0	0.09974611
242	0xbe0b102e	-0.13580391
243	0x3e0b9778	0.13632
244	0xbbd27b88	-0.0064234175
245	0x3e0e741e	0.13911483
246	0xbdfd9ad3	-0.12383046
247	0xbe962fd7	-0.29333374
248	0x3ca2c330	0.019868463
249	0x3de35127	0.11099463
250	0xbede9f17	-0.4348075
251	0xbec49a3a	-0.38398916
252	0x3ed704e0	0.41995907
253	0x3ea94297	0.33058617
254	0xbedb7ae9	-0.4286721
255	0xbe4abef5	-0.19799407
