lightning_logs/version_4/checkpoints/epoch=199-step=1600.ckpt (torch, 347105 bytes, 31 tensors)

batch_norm1.weight f4 [40]
000000 da 83 78 3f a4 83 87 3f c6 fa 7a 3f 94 ed 7a 3f
       0.9707619 1.0587049 0.980389 0.98018765
000010 91 2b 7b 3f 85 5b 7b 3f ce 64 7d 3f c9 f9 7f 3f
       0.9811335 0.9818652 0.9898194 0.99990517
000020 e2 a1 7f 3f 02 b0 80 3f 15 4b 7d 3f f1 bf 7c 3f
       0.9985639 1.0053713 0.9894269 0.9873038
000030 78 43 7e 3f ca 04 7d 3f 00 56 7d 3f fa 70 7a 3f
       0.993217 0.9883543 0.9895935 0.9782864
000040 f5 c0 7f 3f f8 c7 7a 3f 12 60 82 3f 2f c8 8b 3f
       0.99903804 0.9796138 1.0185568 1.0920466
000050 06 2e 9a 3f 5c 3e 7b 3f c4 05 80 3f 5a a1 7e 3f
       1.2045295 0.9814203 1.000176 0.9946495
000060 bb e4 78 3f c6 e0 7d 3f 9d ec 7d 3f 16 26 7e 3f
       0.97224015 0.991711 0.9918917 0.99276865
000070 0c cc 7d 3f e8 c0 7c 3f 47 83 7d 3f 7a 45 7b 3f
       0.99139476 0.9873185 0.9902844 0.9815289
000080 f0 7c 78 3f ea 4b 7c 3f b1 1a 7d 3f b6 33 81 3f
       0.9706564 0.98553336 0.9886885 1.0093906
000090 cb cb 7d 3f 47 1b 80 3f bf 88 7c 3f cc d7 7b 3f
       0.9913909 1.0008324 0.9864616 0.98376155

batch_norm1.bias f4 [40]
000000 c8 9d 20 bb 96 48 d0 bc be f4 99 bb 73 51 e7 bb
       -0.0024508107 -0.025425237 -0.004698365 -0.00705927
000010 16 25 02 bb 46 8b 3e 3a 10 bb bd bb f7 99 87 3c
       -0.001985853 0.0007268678 -0.005790122 0.016552908
000020 41 e2 8a 3c 49 4f a1 3c e5 29 85 bb bd fd 5e bb
       0.01695359 0.019691126 -0.004063832 -0.0034025752
000030 e2 55 a5 3b 04 62 34 3c 70 04 da 3b 27 96 bf 3b
       0.0050456384 0.011009697 0.006653361 0.005846757
000040 2f 21 7d bb 0f 56 8e bb e5 96 b6 bb 72 c3 0a 3d
       -0.0038624515 -0.004343755 -0.0055721872 0.033877797
000050 b9 cb a8 3d 68 00 41 3c 83 57 89 3a 8a 84 e9 ba
       0.08241982 0.011779882 0.0010478351 -0.0017815989
000060 e4 73 9a bb 99 08 7d 3b a4 13 98 bb 8d fd 64 39
       -0.0047135223 0.003860986 -0.004641013 0.0002183823
000070 0e 59 7a 3b fa 91 51 3b 33 29 a3 bb 56 74 51 3b
       0.0038200053 0.0031977878 -0.0049792766 0.003196021
000080 d9 82 01 3c 58 36 f5 39 ce d4 05 3c 47 e6 87 bb
       0.007904732 0.0004677053 0.008168412 -0.0041473242
000090 19 c0 44 bb 48 77 9d b9 0b a0 80 bb ee 6d 15 bb
       -0.0030021726 -0.00030034245 -0.0039253286 -0.002280112

batch_norm1.running_mean f4 [40]
000000 d7 fd 88 bb 6a 39 4f 3c 2f 47 80 3a af 17 0d bb
       -0.0041806507 0.012647966 0.0009786839 -0.002152901
000010 56 5b d5 bb 1f d5 3d bc 25 b0 f0 bb 3b e1 33 bc
       -0.0065111322 -0.011586457 -0.007345217 -0.010978992
000020 62 8b eb bb 2d d3 3d bc 8e d9 46 bc eb 7c c6 bb
       -0.0071882466 -0.011585993 -0.01213683 -0.006057372
000030 59 c0 d0 bb 71 f9 69 bc 6d 95 4b bc 34 3a 62 bc
       -0.006370586 -0.014280663 -0.012425763 -0.013807822
000040 29 f2 35 bc 3e ba 30 bb 4e a7 35 3b 5d 1a 2b bc
       -0.011105099 -0.0026966478 0.002771813 -0.010443297
000050 71 10 ee bb 11 4b 41 3b 71 79 8f 3a 3d a1 8d 38
       -0.0072651436 0.0029494206 0.0010946227 6.753437e-05
000060 7c dc 12 3c c3 e5 92 3b d2 c9 78 bb 24 5a c9 bb
       0.0089637 0.004482956 -0.003796209 -0.006144779
000070 c1 38 1f bc 2a 28 0d bc 37 b6 e3 bb 04 72 87 ba
       -0.009718121 -0.008615533 -0.006949212 -0.0010333662
000080 1f 71 fe bb 3d a2 5b bb d2 63 d1 bb 15 61 84 3b
       -0.00776495 -0.003351345 -0.0063900733 0.0040398934
000090 69 15 11 bc 8e ee 97 3b e3 cd 9a 3b 3e 53 6a 3b
       -0.008855202 0.004636592 0.0047242506 0.0035755183

batch_norm1.running_var f4 [40]
000000 e1 01 80 3f ee ba 7a 3f 10 5f 80 3f 68 c5 7d 3f
       1.0000573 0.9794148 1.0029011 0.99129343
000010 b4 c7 7c 3f 8c 2b 79 3f 3e 23 7e 3f 67 a1 79 3f
       0.9874222 0.9733207 0.99272525 0.97511905
000020 47 9d 7c 3f 03 b7 78 3f b1 67 7b 3f 97 48 7c 3f
       0.98677486 0.97154254 0.98205096 0.98548263
000030 03 6b 7c 3f f1 47 7b 3f 21 20 7d 3f 1a 56 7d 3f
       0.98600787 0.9815665 0.9887715 0.98959506
000040 f6 5c 7e 3f 1e 14 7f 3f 9b 12 8c 3f ca 00 78 3f
       0.993606 0.9964007 1.0943178 0.96876204
000050 f9 41 80 3f f0 9f 7e 3f 8c b2 80 3f 49 67 80 3f
       1.0020133 0.99462795 1.0054488 1.003152
000060 08 e9 80 3f d8 20 80 3f 80 6a 7b 3f b0 b7 7d 3f
       1.0071115 1.0010023 0.9820938 0.9910841
000070 bd 55 7e 3f 4f cc 7c 3f 47 17 7d 3f 6d 95 7f 3f
       0.99349576 0.9874925 0.98863643 0.9983738
000080 ef e6 7f 3f 4b b0 7e 3f e1 c7 68 3f 3b 5d 67 3f
       0.9996175 0.9948775 0.9092999 0.90376633
000090 61 b1 69 3f 30 ec 7e 3f de 2e de 3f 6c e4 c3 3f
       0.91286284 0.99579144 1.7358053 1.5304084

dense1.weight_g f4 [1024, 1]
000000 cb a2 f9 3e c1 c4 0d 3f 3d 2a 11 3f ed 5e 26 3f
       0.48757014 0.5537835 0.56705076 0.64988595
000010 2b 17 10 3f f6 df fd 3e 35 ba 13 3f f6 e5 15 3f
       0.5628535 0.4958493 0.57706004 0.5855402
000020 4e 9d 16 3f 66 b7 0f 3f 94 99 23 3f cf e7 00 3f
       0.5883378 0.5613922 0.63906217 0.5035371
000030 d5 ef 31 3f c3 e2 14 3f 24 2d 08 3f 6f d6 0e 3f
       0.6950658 0.5815851 0.5319388 0.5579595
000040 fd 4b 0d 3f d9 d2 1f 3f 4d 6a 0f 3f cb 6a 0c 3f
       0.55194074 0.62431103 0.5602158 0.54850453
000050 41 2f 1b 3f c0 21 13 3f 0f 08 15 3f a0 e3 15 3f
       0.6061898 0.57473373 0.5821542 0.58550453
000060 2c 88 13 3f 1c a7 0b 3f f0 41 10 3f 62 18 1b 3f
       0.57629657 0.54551864 0.5635061 0.6058408
000070 fa 5f 1a 3f 66 65 0e 3f 26 c7 1b 3f 2d cd 0f 3f
       0.603027 0.5562347 0.6085075 0.5617245
000080 2c 4c 11 3f 0c a0 20 3f 98 02 17 3f 9c 63 18 3f
       0.56756854 0.6274421 0.5898833 0.5952699
000090 28 a0 0e 3f 60 f6 16 3f 33 d2 1d 3f 63 7d 15 3f
       0.5571313 0.5896969 0.61648864 0.5839445
0000a0 83 41 13 3f 1e 12 13 3f 7a 51 15 3f d5 69 0a 3f
       0.5752184 0.5744952 0.5832745 0.54067737
0000b0 8e ef 19 3f 21 23 17 3f dc cb 13 3f 47 2e 19 3f
       0.60131156 0.5903798 0.5773294 0.5983624
0000c0 fe 13 1b 3f 20 2c 0c 3f 8f 5c 10 3f ea 24 20 3f
       0.6057738 0.5475483 0.56391233 0.62556326
0000d0 26 30 17 3f cb 07 18 3f 77 d9 12 3f 7b 42 f6 3e
       0.59057844 0.5938689 0.57363075 0.48097596
0000e0 73 7f 1a 3f b8 87 15 3f f2 f7 15 3f 64 ef 16 3f
       0.6035072 0.58410215 0.5858146 0.5895903
0000f0 6a 4a 03 3f 0b 50 10 3f 4e f9 15 3f 80 4f 16 3f
       0.5128542 0.56372136 0.58583534 0.5871506
000100 8a 03 13 3f 55 67 14 3f 54 d4 1f 3f 01 7a 0f 3f
       0.57427275 0.5797017 0.6243336 0.5604554
000110 49 f2 10 3f 84 27 21 3f e0 81 08 3f 68 f4 11 3f
       0.566197 0.6295092 0.53323174 0.5701356
000120 70 97 04 3f de 7f 07 3f 1a 4f 09 3f d3 57 14 3f
       0.51793575 0.52929485 0.53636324 0.5794651
000130 2d d8 13 3f 4d 44 05 3f 11 48 14 3f b6 33 18 3f
       0.57751733 0.52057344 0.57922465 0.59453905
000140 2a 31 16 3f ed a7 21 3f af c8 13 3f 54 3d 00 3f
       0.5866877 0.6314686 0.57728094 0.5009358
000150 8e cc 13 3f 4e 27 1a 3f 55 84 0b 3f 41 81 15 3f
       0.57734 0.60216224 0.544988 0.5840035
000160 74 e0 1c 3f 81 e5 05 3f e5 c3 05 3f 45 29 21 3f
       0.6127999 0.5230332 0.52252036 0.629536
000170 b2 46 19 3f 61 b2 23 3f 25 d7 17 3f e5 0b 14 3f
       0.598735 0.6394406 0.5931266 0.5783065
000180 3c e1 25 3f fd 3e 10 3f d8 14 0c 3f 88 f8 0f 3f
       0.64796805 0.5634611 0.54719305 0.56238604
000190 14 71 0e 3f 1a ca f8 3e 20 ef 10 3f 9f 93 07 3f
       0.55641294 0.4859169 0.56614876 0.52959627
0001a0 28 f5 1a 3f d9 0f 19 3f ba 1a 23 3f 7c 4d 07 3f
       0.6053033 0.59789807 0.63712656 0.52852607
0001b0 b7 dc 04 3f 75 99 1e 3f 33 68 20 3f 4b 77 13 3f
       0.51899284 0.61952907 0.62658995 0.576039
0001c0 a7 66 2d 3f 32 21 17 3f 93 d3 06 3f b4 2e 1a 3f
       0.6773476 0.5903503 0.52666587 0.60227513
0001d0 69 cb 1b 3f c2 6b 09 3f db 68 1e 3f 35 45 14 3f
       0.60857254 0.5368005 0.61878747 0.579181
0001e0 60 5e 02 3f d0 55 11 3f 6a ff 1c 3f 05 55 0d 3f
       0.50925255 0.56771564 0.6132723 0.55207855
0001f0 00 2d 1f 3f be e3 19 3f b7 db 17 3f 2c ce 07 3f
       0.6217804 0.6011313 0.59319633 0.5304897
000200 e8 55 0b 3f 84 65 08 3f 0d 48 1d 3f df 69 0e 3f
       0.5442796 0.532799 0.61438066 0.55630296
000210 5b bc 15 3f ae c6 14 3f 6d cf 0d 3f 74 44 0f 3f
       0.5849053 0.5811566 0.5539463 0.55963826
000220 ed a2 13 3f c9 f9 14 3f 24 77 ff 3e 24 ac 09 3f
       0.5767048 0.5819364 0.49895585 0.5377829
000230 04 2e 1c 3f 3a 27 1a 3f e0 73 01 3f 71 7a 12 3f
       0.61007714 0.60216105 0.50567436 0.5721808
000240 92 6b 16 3f ef 56 04 3f 95 3d 18 3f 2a 3c 13 3f
       0.5875789 0.5169515 0.59468967 0.5751368
000250 d5 7e 1a 3f 24 ca 20 3f e2 d6 20 3f d2 3f 0a 3f
       0.6034978 0.6280844 0.62827885 0.5400363
000260 fd 7f 21 3f 73 f9 21 3f 8e bf 15 3f f8 96 0e 3f
       0.6308592 0.63271254 0.58495414 0.5569911
000270 ce 11 0e 3f 5a 27 17 3f b9 6a 0d 3f 61 c1 e8 3e
       0.5549592 0.5904442 0.5524097 0.45460036
000280 cc cc 0e 3f cd a4 02 3f 3e 30 0e 3f 25 ee 08 3f
       0.55781245 0.51032716 0.5554236 0.5348838
000290 62 dc 11 3f 81 c1 18 3f 47 75 17 3f 79 17 1e 3f
       0.569769 0.59670264 0.59163326 0.61754566
0002a0 5a 8e 0a 3f bb c2 1e 3f 8b 83 18 3f 4d c9 19 3f
       0.5412346 0.62015885 0.5957572 0.60072786
0002b0 d5 8c 09 3f 70 73 13 3f 2d 4c 12 3f 40 97 0b 3f
       0.5373052 0.5759802 0.57147485 0.54527664
0002c0 29 b5 21 3f 42 cc 06 3f 11 1f 2b 3f d2 e1 0c 3f
       0.63167053 0.5265542 0.6684428 0.55032074
0002d0 ab fd 15 3f f8 0a 09 3f 30 9e 25 3f 61 85 15 3f
       0.5859019 0.5353236 0.646945 0.58406645
0002e0 66 96 17 3f bb df 0a 3f 28 30 11 3f c3 7c 0b 3f
       0.59213865 0.54247636 0.56714106 0.54487246
0002f0 d4 c0 12 3f e2 8f 16 3f 74 a8 27 3f 31 99 13 3f
       0.5732548 0.588133 0.65491414 0.57655627
000300 e2 fa 01 3f 3c da 0e 3f 71 f6 14 3f 1f 3e 10 3f
       0.5077344 0.5580175 0.5818854 0.5634479
000310 9e d5 0c 3f 45 ab 1c 3f 77 a6 11 3f 0b ff 0e 3f
       0.55013454 0.61198837 0.5689463 0.55857915
000320 41 de 28 3f 8f ac 13 3f ca 09 15 3f f4 39 00 3f
       0.6596413 0.5768518 0.5821806 0.5008843
000330 2a f8 0f 3f f8 d8 1e 3f d1 e7 09 3f 91 1a 05 3f
       0.56238043 0.6204982 0.5386935 0.5199366
000340 b3 45 11 3f f6 32 12 3f 16 3d 11 3f c3 f2 13 3f
       0.5674698 0.5710901 0.56733835 0.577923
000350 84 df 13 3f 31 85 03 3f 3a c3 11 3f d9 d5 fb 3e
       0.5776293 0.5137511 0.5693852 0.4918659
000360 6e f6 1b 3f 50 ae 0e 3f 64 45 16 3f ef f3 15 3f
       0.60922897 0.5573473 0.5869963 0.5857534
000370 94 5a 1e 3f 15 0e 0c 3f a3 c7 10 3f 71 94 18 3f
       0.6185696 0.5470899 0.5655462 0.59601504
000380 a6 60 04 3f 63 73 1d 3f 54 ad 19 3f 19 7d 19 3f
       0.51709974 0.6150419 0.600301 0.5995651
000390 89 f0 24 3f 04 39 0c 3f bc cb 09 3f 06 fc 09 3f
       0.6442953 0.547745 0.538265 0.5390018
0003a0 6a ce 1b 3f 4d 2b 0f 3f a4 1c 17 3f 9b 68 19 3f
       0.6086184 0.55925447 0.5902808 0.5992524
0003b0 c7 7f 10 3f 3c fd 0b 3f 73 77 19 3f 1d 0c fe 3e
       0.5644497 0.5468328 0.5994789 0.49618617
0003c0 cc 25 18 3f 67 1c 18 3f e3 d4 1b 3f a0 0d 0a 3f
       0.59432673 0.5941834 0.60871714 0.5392704
0003d0 96 0d 0d 3f c1 be 15 3f 14 2c 20 3f a8 f8 13 3f
       0.55098855 0.5849419 0.6256726 0.57801294
0003e0 88 73 fa 3e ab 85 02 3f 8c 94 16 3f a1 d9 11 3f
       0.48916268 0.5098521 0.58820415 0.569727
0003f0 98 81 12 3f 8b 98 fa 3e bc 0c 17 3f e7 ae 0c 3f
       0.57228994 0.48944506 0.59003806 0.5495438

dense1.weight_v f4 [1024, 40]
000000 09 44 15 3d f9 90 32 bd 2f 05 38 3d d6 fa 00 bc
       0.036441837 -0.043595288 0.04492682 -0.007872304
000010 e9 c6 89 3d 54 50 15 3d 4a 8f 9e bc 0f 24 00 be
       0.06727392 0.03645356 -0.019355435 -0.12513755
000020 d9 d5 1d 3d 99 ab 0d be d9 c9 a5 3c b7 e2 1f 3c
       0.03853402 -0.1383499 0.02023785 0.009758643
000030 3c 67 15 bd 42 e2 02 3e 98 7a 34 3c 91 69 86 3d
       -0.036475405 0.12781623 0.011015557 0.06563104
000040 7d e7 8b 3d bc 73 c1 bd 6e 83 7e bd c4 88 1b 3e
       0.06831262 -0.09445903 -0.06213706 0.1518889
000050 87 4c 18 be 91 ed 24 bc 2e a3 45 bc cd 75 e9 3d
       -0.14872943 -0.010066406 -0.012062831 0.11399422
000060 96 32 88 bc 8d d6 2b 3d c8 3f 00 bc 03 8e b6 bd
       -0.016625684 0.04195266 -0.007827707 -0.08913805
000070 f6 b4 b6 bd a0 c7 9e bd d8 65 12 be 6a 73 d4 bd
       -0.08921234 -0.07752919 -0.14296663 -0.10373576
000080 3f 56 1c 3d 0c f7 d2 3d cd 91 22 3c 55 21 98 bd
       0.03816819 0.10301027 0.009922457 -0.074282326
000090 99 4f 97 3d 6e 73 81 bd 3d 96 15 bd b2 58 b3 bd
       0.07388229 -0.063208446 -0.03652023 -0.08757152
0000a0 cd 1b 4b bd ab e3 1a be 44 11 8b 3d ea cb 75 3d
       -0.04958706 -0.15125911 0.067904025 0.06000892
0000b0 4a 06 f9 3c 91 f5 9d 3d 05 e0 8a 3d 34 eb 06 3c
       0.030398507 0.07712854 0.067810096 0.008234788
0000c0 71 46 8f 3c 7b 4c 54 3c 58 7a ac 3d 58 e2 d6 3d
       0.017489644 0.0129576875 0.08421773 0.104923904
0000d0 07 88 e8 3d 2f 75 bc 3d 0f 8f 18 bd 19 f7 a8 bb
       0.1135407 0.092020385 -0.037245806 -0.0051564095
0000e0 f3 2e fb bc 4b 25 be 3d 82 53 98 3c 06 bf 14 3e
       -0.030662036 0.09284457 0.018594507 0.14525995
0000f0 79 e4 9d 3d 40 a3 0a be 64 90 3b 3d 46 6c 1a 3e
       0.07709593 -0.13538837 0.045792 0.15080366
000100 6e ed 0d 3e 71 9d 1f bb 20 e6 53 3d 45 94 18 be
       0.13860103 -0.0024355317 0.051733136 -0.1490031
000110 c2 20 4e bd 48 7e 9d 3d 97 da 12 be 3c f2 0d 3e
       -0.05032421 0.07690102 -0.14341198 0.13861936
000120 f5 a9 d3 bd 89 d2 53 3d eb 98 b3 bb 7d cd e5 3c
       -0.10335151 0.051714454 -0.0054808757 0.028052086
000130 95 8b 84 3c 26 65 17 be 4d d9 11 bd b1 c6 ce bd
       0.01617984 -0.14784679 -0.035607625 -0.10096491
000140 6a 85 08 3e 85 c8 9b bc d8 15 22 be 01 bb 1c 3d
       0.13332143 -0.019016514 -0.15828645 0.03826428
000150 bd 0f 8c 3d 88 0a 90 bd 2c 0e 4e bc 43 dd 89 3d
       0.06838939 -0.07033259 -0.012576621 0.067316554
000160 18 6f cb bd ec 6c ab bd b9 01 66 bc d5 e6 e2 bd
       -0.09933299 -0.083703846 -0.014038497 -0.11079184
000170 f4 be ca 3d b5 c1 6d 3c 2f 71 c3 3d 9f 2f b1 3d
       0.09899703 0.014511515 0.095430724 0.08651661
000180 22 2e f8 bd b2 c1 c2 bd 4a 74 dc bd 3a 81 59 bd
       -0.12118174 -0.09509601 -0.10764368 -0.053101756
000190 67 42 75 bd d3 1e d5 bc d0 28 1d be 48 0e 84 3d
       -0.05987778 -0.026015675 -0.153476 0.064480364
0001a0 f2 7b b5 3d b9 6e 49 3d f1 42 cb 3d f3 c3 f4 3d
       0.08861531 0.04917786 0.099248774 0.11951437
0001b0 0f 22 1f be a9 df cc 3c 2f fa 16 3e ac 25 e5 bd
       -0.15540336 0.025008993 0.14743875 -0.11188826
0001c0 b4 fd 8d bd 67 40 cc bb 71 01 cb bd 7a 5d e4 bc
       -0.06933156 -0.0062332633 -0.09912384 -0.027876604
0001d0 65 af ce bc 50 76 13 3e 98 ce 2d bc 72 2c af 3d
       -0.025230119 0.14400601 -0.010608338 0.08553399
0001e0 06 30 ea 3d f8 4a 96 3d c0 ec 0d be 93 98 f0 3d
       0.11434941 0.07338518 -0.13859844 0.11747851
0001f0 62 2b d5 3d 5f 57 e6 bd a8 86 60 bd 23 e9 d7 3d
       0.10408665 -0.112471335 -0.05481592 0.10542514
000200 f1 22 20 be cf 43 0f be 6f 8c db bd 58 0c 4a 3d
       -0.15638329 -0.1399071 -0.10720145 0.04932818
000210 f0 0d 81 bd 4a 18 0f be af 78 7b 3d b9 a6 a4 3d
       -0.063014865 -0.1397411 0.06139439 0.08039612
000220 3a 86 6d 3d 8e 83 09 be 71 c8 1f 3e 6f 9f 36 bc
       0.057989337 -0.1342909 0.15603806 -0.01114641
000230 59 cf 1f be 7f 55 c7 bc 46 6b d0 3d 39 09 91 3d
       -0.1560644 -0.02433276 0.10176711 0.07081837
000240 46 f7 38 bb 31 2e df 3d fa 03 13 be c1 d9 e0 3d
       -0.0028223558 0.10897482 -0.14356986 0.10979033
000250 f9 ef 1f 3e d2 91 c3 bd 23 df 06 3d fe 82 c3 bc
       0.15618886 -0.095492974 0.032927644 -0.023866173
000260 bd 02 07 be b8 23 13 b9 03 9e 5e bd 61 05 09 be
       -0.13184638 -0.00014032319 -0.05434991 -0.13380958
000270 f7 e3 f0 bd 53 30 c2 3b 1a f8 15 3e d7 95 67 3d
       -0.11762231 0.005926171 0.14645424 0.056539383
000280 3a 25 d5 bd 04 15 e6 3d 21 90 45 3c 20 90 1d be
       -0.10407491 0.11234477 0.012058289 -0.1538701
000290 69 68 f3 3b 21 e2 d1 3d a4 2d bf bd 46 26 1b bc
       0.007428218 0.10248209 -0.09334877 -0.009469574
0002a0 22 0a aa bd 23 46 00 be ad 25 ba bd 40 e9 70 3c
       -0.08302714 -0.12526755 -0.09089217 0.014704049
0002b0 94 55 cd 3d 70 a9 f3 bc 49 8b 12 be cc ca 19 bb
       0.10026088 -0.02974388 -0.14310946 -0.0023466824
0002c0 e7 0a 0f be cc aa 0b 3c 13 6c f2 3d 73 66 8d 3d
       -0.13969003 0.008524608 0.1183702 0.06904306
0002d0 48 b3 d7 bd a8 f1 15 bd d3 fd 81 3d 06 22 2b 3d
       -0.10532242 -0.036607414 0.06347241 0.041780494
0002e0 77 1e 15 be d6 6b bb bd 20 02 65 bd b0 98 66 3d
       -0.14562403 -0.091514274 -0.05591023 0.056297958
0002f0 0f cd 0d 3e 81 be 8d 3d 9d 8c 65 3d 53 82 07 be
       0.13847755 0.06921101 0.056042302 -0.13233308
000300 9d 6e cb 3d 56 0f 6a 3d 5a df 56 bd c3 9b 9b bd
       0.09933207 0.05714353 -0.0524591 -0.075980686
000310 29 d8 32 3d ef 3b ac bd 8e 1b 82 3d bb e9 f3 3d
       0.043663178 -0.08409869 0.06352912 0.11909815
000320 35 47 d6 bd bd c2 bf bd 62 6b 85 bd 6a 1c 0c be
       -0.104628004 -0.09363315 -0.06514622 -0.13682714
000330 cf 65 9c bc a5 ed cb 3d 16 07 69 3d 4f c3 54 bd
       -0.019091515 0.099574365 0.056891523 -0.051944073
000340 3c e9 bb bc 78 fd 8d bd 01 e1 03 be 45 84 34 bd
       -0.022938363 -0.06933111 -0.12878801 -0.044071455
000350 8f ff 1b 3c f7 79 a7 bd 75 2a f7 bd 8d d5 34 3d
       0.009521379 -0.0817756 -0.12068645 0.04414897
000360 44 45 a2 3c 23 84 52 bd 0d e4 2b 3d 6e 38 13 3e
       0.019808419 -0.051395547 0.041965533 0.14376995
000370 2f fb c9 ba 75 28 e2 bd f9 d0 15 3e 02 59 ea 3d
       -0.0015409942 -0.11042873 0.14630498 0.11442758
000380 b8 09 57 bc 25 fb 92 bd bc 4c 8b bd 11 1a 0c 3e
       -0.013124876 -0.07176808 -0.06801745 0.13681819
000390 e8 1a a4 3d c8 4f a7 bd 9b 1a 7f 3b d2 84 02 3d
       0.080129445 -0.08169514 0.003892577 0.03186495
0003a0 e7 c6 21 3d cb e0 20 bc c4 32 aa bd b9 19 c8 bb
       0.03949633 -0.00981922 -0.08310464 -0.006106582
0003b0 46 b7 2d bd 50 86 58 bd 8f f6 a0 bd 0b ac 9f bd
       -0.04241111 -0.052862465 -0.07859527 -0.077964865
0003c0 8f 0d 99 bd b7 ac 85 3d c0 01 07 be 81 40 1c be
       -0.07473289 0.06527083 -0.13184261 -0.15258981
0003d0 1e 45 08 3e 8a 01 6e 3d 56 f5 b0 3d 39 c9 8c 3d
       0.13307616 0.058106937 0.08640544 0.06874318
0003e0 60 f7 80 bd 3a bf cb bd c1 a9 de bd 7a 9d 43 bc
       -0.06297183 -0.09948583 -0.10872222 -0.011939401
0003f0 4d 8b 12 3d a1 15 19 be f0 65 f9 bd 7f 25 b6 3d
       0.03577738 -0.14949657 -0.12177646 0.088938706

batch_norm_c1.weight f4 [64]
000000 00 00 80 3f 00 00 80 3f ba ff 7f 3f 00 00 80 3f
       1.0 1.0 0.9999958 1.0
000010 fe ff 7f 3f 78 fe 7f 3f 00 00 80 3f 00 00 80 3f
       0.9999999 0.99997663 1.0 1.0
000020 7b fe 7f 3f 00 00 80 3f 9b fe 7f 3f 00 00 80 3f
       0.9999768 1.0 0.9999787 1.0
000030 00 00 80 3f 00 00 80 3f 00 00 80 3f 00 00 80 3f
       1.0 1.0 1.0 1.0
000040 00 00 80 3f 00 00 80 3f f4 ff 7f 3f 00 00 80 3f
       1.0 1.0 0.9999993 1.0
000050 00 00 80 3f 00 00 80 3f fc ff 7f 3f ff ff 7f 3f
       1.0 1.0 0.99999976 0.99999994
000060 00 00 80 3f d7 ff 7f 3f 00 00 80 3f 00 00 80 3f
       1.0 0.99999756 1.0 1.0
000070 5f ff 7f 3f 00 00 80 3f 43 ff 7f 3f d8 ff 7f 3f
       0.9999904 1.0 0.99998873 0.9999976
000080 00 00 80 3f fe ff 7f 3f f0 ff 7f 3f fc ff 7f 3f
       1.0 0.9999999 0.99999905 0.99999976
000090 00 00 80 3f a7 ff 7f 3f 00 00 80 3f e2 ff 7f 3f
       1.0 0.9999947 1.0 0.9999982
0000a0 f8 ff 7f 3f 00 00 80 3f 00 00 80 3f 00 00 80 3f
       0.9999995 1.0 1.0 1.0
0000b0 b0 fd 7f 3f 00 00 80 3f 00 00 80 3f 00 00 80 3f
       0.9999647 1.0 1.0 1.0
0000c0 00 00 80 3f dd ff 7f 3f 00 00 80 3f 6b f2 7f 3f
       1.0 0.9999979 1.0 0.99979275
0000d0 64 ff 7f 3f 2e ff 7f 3f ff ff 7f 3f 00 00 80 3f
       0.9999907 0.9999875 0.99999994 1.0
0000e0 00 00 80 3f e2 ff 7f 3f fa ff 7f 3f bf fe 7f 3f
       1.0 0.9999982 0.99999964 0.99998087
0000f0 bb ff 7f 3f 00 00 80 3f 00 00 80 3f ec ff 7f 3f
       0.9999959 1.0 1.0 0.9999988

batch_norm_c1.bias f4 [64]
000000 7f bb ce b7 96 4b 3c ba ea 4d 41 3b 86 56 47 ba
       -2.4644423e-05 -0.0007182894 0.0029495903 -0.00076041406
000010 bc 67 d2 ba 05 d3 dd bb 9a 25 5f ba 6d a9 c3 b9
       -0.0016052644 -0.0067695403 -0.0008512378 -0.0003731953
000020 f9 7d e7 bb 3d 63 93 37 db d8 de 3b cc 32 7f 3a
       -0.0070645777 1.7569977e-05 0.0068007535 0.00097350474
000030 c0 c6 b5 ba ad b0 b4 3a d7 2b ab b8 5a 9b 22 ba
       -0.0013868436 0.0013785564 -8.162081e-05 -0.0006202959
000040 bb 13 0a 3a c0 82 50 ba 36 5a 19 bb 2a 22 c6 ba
       0.00052672223 -0.00079540536 -0.0023399717 -0.0015116383
000050 dd 5f 3d ba d7 54 c1 3a 09 7b b8 ba a8 36 06 3b
       -0.00072240626 0.0014750016 -0.0014074753 0.0020479355
000060 44 66 f3 39 32 55 5b bb 3f 8f 7e 3a ec aa f3 39
       0.00046424766 -0.0033467528 0.00097106764 0.00046475918
000070 68 15 92 bb 95 8f 61 3a 77 bf a7 bb 49 fc 44 3b
       -0.004458118 0.0008604464 -0.00511926 0.00300576
000080 94 c1 43 b9 dd 9e 9c ba 00 0b 8e b9 4f fe 9e 3a
       -0.00018668763 -0.00119492 -0.00027092546 0.0012130233
000090 5e db 8e 3a fe b8 7c bb 4d 73 2c ba db d4 34 bb
       0.0010899117 -0.0038562412 -0.00065784605 -0.0027592692
0000a0 87 a1 14 3b 42 d1 51 3a e2 22 41 ba 87 5f ec ba
       0.0022679286 0.0008003899 -0.00073675637 -0.001803384
0000b0 33 a0 0a 3c 8e 47 00 3a 92 14 6b 39 3f 5b 6b 3a
       0.008461046 0.0004893475 0.0002241901 0.00089781353
0000c0 c7 f5 54 ba 2d 50 21 3b 39 03 1b b9 c5 cb a9 bc
       -0.0008123782 0.002461444 -0.00014783152 -0.020727048
0000d0 87 4f a3 bb be 49 af 3b 13 dd 92 ba e4 85 f4 b9
       -0.0049838456 0.005349367 -0.0011204801 -0.00046639063
0000e0 f4 8b dc ba ea 0a 79 bb 81 ef 22 ba a4 d5 d5 bb
       -0.0016826377 -0.003800089 -0.00062154984 -0.006525712
0000f0 8d a2 64 bb 66 ed a2 39 f2 74 46 3a 52 3c 51 3b
       -0.0034886927 0.00031075923 0.0007570527 0.0031926823

batch_norm_c1.running_mean f4 [64]
000000 1f 61 a6 3d 05 ea af 3d ae cf b1 3d 68 f7 a1 3d
       0.08123993 0.085895576 0.0868219 0.07908517
000010 ee b1 a8 3d 93 ad b4 3d c6 50 b0 3d f6 e5 af 3d
       0.082370624 0.08822169 0.08609156 0.085887834
000020 f6 07 9a 3d c7 15 ba 3d 9b 62 9d 3d de 5e b9 3d
       0.0752105 0.09086185 0.07684823 0.090512976
000030 a5 54 b1 3d 49 36 a1 3d a5 f8 9d 3d ff 09 a3 3d
       0.08658723 0.07871682 0.07713441 0.07960891
000040 4f 50 9b 3d be 61 a3 3d c5 a3 a2 3d 8f cd a8 3d
       0.07583677 0.07977627 0.07941393 0.08242332
000050 0c 19 af 3d 8c 25 a3 3d 17 1b a6 3d b8 81 a3 3d
       0.08549699 0.07966146 0.08110636 0.07983726
000060 2a 33 a6 3d bc 4c 92 3d 73 a3 9a 3d 72 ec a8 3d
       0.081152275 0.07143542 0.07550707 0.08248223
000070 05 68 9e 3d d7 fa 8e 3d dd 17 af 3d 13 ee a6 3d
       0.07734684 0.06981438 0.085494734 0.08150878
000080 39 92 b2 3d 8f 0e a0 3d f3 31 a9 3d a9 f6 a8 3d
       0.08719296 0.07815277 0.0826148 0.08250172
000090 23 17 a8 3d fb 96 aa 3d 36 ef b3 3d ac 4b c3 3d
       0.08207538 0.083295785 0.0878586 0.09535918
0000a0 cb e6 a3 3d 0c 86 ba 3d 6a f2 9e 3d 7f 73 98 3d
       0.08003005 0.09107599 0.077610806 0.07443904
0000b0 f9 5d 96 3d 7c 38 ba 3d 09 0e ac 3d 87 ad ae 3d
       0.073421426 0.09092805 0.084011145 0.085291915
0000c0 51 26 b2 3d 86 1b aa 3d 33 e9 9c 3d 7f 1a 9d 3d
       0.086987145 0.08306031 0.07661667 0.07671069
0000d0 62 2f a7 3d 69 74 a8 3d db a1 af 3d 75 e5 a1 3d
       0.081633344 0.082253285 0.08575793 0.079050936
0000e0 de ca ab 3d fa 3d ad 3d c0 0b a4 3d 93 77 9d 3d
       0.08388303 0.08459087 0.08010054 0.076888226
0000f0 c3 8b 97 3d 69 d6 aa 3d 1e 8c b0 3d b4 f1 aa 3d
       0.07399704 0.08341677 0.08620475 0.083468825

batch_norm_c1.running_var f4 [64]
000000 0e 75 95 3e 2b 7d 9e 3e 9e 06 aa 3e 7b ed 9f 3e
       0.29190868 0.3095487 0.33208174 0.3123587
000010 2d a1 a6 3e 20 c4 9f 3e 13 66 a7 3e 58 3b ac 3e
       0.32544842 0.3120432 0.32695064 0.33639026
000020 d8 1c 8d 3e eb b2 9f 3e c3 4f 9b 3e 75 ef ad 3e
       0.2756107 0.3119119 0.3033429 0.33971754
000030 32 13 a0 3e 38 d2 af 3e 90 02 a0 3e d8 b8 a0 3e
       0.31264645 0.34340072 0.31251955 0.31391025
000040 c8 47 98 3e 3b 6b a9 3e 14 e4 98 3e f2 29 a4 3e
       0.29742265 0.33089623 0.2986151 0.32063252
000050 9b f9 9f 3e 7b 39 a4 3e 62 82 9f 3e b4 4c a2 3e
       0.3124512 0.32075104 0.31154162 0.31699145
000060 78 56 ac 3e e0 fe 8f 3e b8 29 99 3e a5 47 a3 3e
       0.3365972 0.28124142 0.2991464 0.31890598
000070 bf bc 9d 3e 81 f3 8f 3e c1 35 9e 3e 2c da 9e 3e
       0.30808064 0.28115466 0.30900386 0.31025827
000080 f4 ab a9 3e 92 42 95 3e 8b db 9d 3e 52 df 96 3e
       0.33139002 0.29152352 0.3083156 0.29467255
000090 75 12 9b 3e 6e 5f 99 3e 8a 61 a4 3e ca 11 a7 3e
       0.3028752 0.2995562 0.32105666 0.3263076
0000a0 71 22 b0 3e ab b3 b7 3e 80 28 90 3e 16 6a 8c 3e
       0.34401277 0.35879263 0.281559 0.27424687
0000b0 b2 2b 96 3e a1 21 b5 3e c1 16 a2 3e 25 ae a1 3e
       0.29330212 0.3537722 0.31657985 0.31578174
0000c0 84 5b a0 3e b2 a2 9a 3e 14 94 96 3e c2 9d 9a 3e
       0.3131982 0.30202252 0.2940985 0.30198485
0000d0 41 a9 a6 3e 16 ba a5 3e 7b 98 a6 3e fd 27 af 3e
       0.32551005 0.32368535 0.32538208 0.34210196
0000e0 ac b3 bf 3e 1c d3 a1 3e 3d 1e a7 3e 85 89 9a 3e
       0.37441766 0.31606376 0.32640257 0.30183044
0000f0 d8 05 a3 3e 7c 9c a2 3e 38 4e ae 3e 1e 4f 9f 3e
       0.31840396 0.31760013 0.3404405 0.3111505

conv1.weight_v f4 [128, 1, 5]
000000 7e 10 46 3e b4 3c 8f 3e 7a 0b 92 bd a9 68 7f 3d
       0.19342229 0.27976 -0.07131095 0.06235567
000010 12 60 a8 be 36 e6 68 3e de d4 2f 3e b4 64 39 3e
       -0.32885796 0.22744069 0.17171046 0.18104821
000020 a1 58 ab be 66 54 95 be 45 0f d3 3e 53 e8 9f bd
       -0.33466056 -0.29165953 0.41222587 -0.07807984
000030 3c 2a d7 bd 76 6c 43 3e 2d 0a b5 be 5b 0b 4e 3e
       -0.105061024 0.19084343 -0.35359326 0.2012152
000040 80 2f 7d be 96 cf 80 be 5b 9a e4 3e 9e c6 8e be
       -0.24725151 -0.25158376 0.44649014 -0.27885908
000050 a8 23 1a be a4 e6 2d 3d 3e 00 99 bd f3 2f e2 3d
       -0.15052664 0.042456284 -0.07470749 0.11044302
000060 db d8 d2 be 48 f4 ca bd 18 46 6e be 92 d3 8c bc
       -0.41181073 -0.09909874 -0.23268926 -0.017190728
000070 b3 e5 72 3e f5 b7 e3 be 3f 64 e6 bd df fa 38 3e
       0.23720436 -0.44476286 -0.11249589 0.1806445
000080 71 f5 62 3e cf f8 2a 3e c9 5c 22 3e aa 1c fc bd
       0.22163941 0.16696475 0.15855707 -0.12310155
000090 f0 42 62 3e 4e 44 bc be 0c e1 67 be 59 6c 36 be
       0.22095847 -0.36770862 -0.22644442 -0.17814769
0000a0 b9 24 46 bd 2f a2 98 be 38 c4 b7 3e 52 73 18 3d
       -0.048374865 -0.29811236 0.3589189 0.037219353
0000b0 4b d9 61 be 09 a1 24 bd 54 5b 31 3d c8 0d 9a 3e
       -0.22055547 -0.040192638 0.043299988 0.3008864
0000c0 d9 ed 21 3e b1 b1 9a 3e 90 b0 de be 6b 55 48 be
       0.15813388 0.30213693 -0.43494081 -0.19563834
0000d0 1a 45 1a be 27 e4 49 3e 6b 19 b2 be 92 ca 4c be
       -0.15065423 0.1971594 -0.34785017 -0.1999915
0000e0 c9 c4 2c 3b 3c 2a bd be 1a ff d0 bd f0 06 db be
       0.002636241 -0.36946285 -0.10204907 -0.4277873
0000f0 0a 1b 7b 3e 41 43 92 be dd 18 b3 be a9 f2 3a 3e
       0.24522033 -0.28566936 -0.34979907 0.1825663
000100 99 1c 93 3e f9 05 38 3e a2 06 80 be de b6 83 3e
       0.28732756 0.17971028 -0.2500506 0.25725454
000110 cd 42 dc 3e f8 24 ba be 9e 72 63 3e 1a 57 6c be
       0.43019715 -0.3635633 0.22211692 -0.23080102
000120 0a 23 c2 be 37 34 a1 3e 91 de e4 3e 66 b3 c8 3e
       -0.37917358 0.3148515 0.44701055 0.3919937
000130 bb 6d 49 be 42 2a 85 3e 46 a8 cb 3d 85 56 d5 be
       -0.19670765 0.26008803 0.09944205 -0.41667572
000140 2c f2 17 be 33 c6 a3 be fd ed 47 be 6d e2 2b be
       -0.14838475 -0.31987152 -0.19524379 -0.16785593
000150 92 78 24 be cf a4 6e bd 4d e6 2d 3e 66 5a d4 3e
       -0.16061619 -0.058262642 0.16982384 0.4147522
000160 c6 1a 1f 3d 7a 6e 2f be 09 62 5f bd 80 a5 b2 bd
       0.038843893 -0.17131987 -0.054536853 -0.08722973
000170 e2 97 82 3e 66 28 89 3e ea 47 a7 3e 35 14 98 bb
       0.25506502 0.26788634 0.32672054 -0.0046410807
000180 07 04 8c be a4 a9 89 3e 43 c6 57 be ca f6 b4 3e
       -0.27346823 0.26887238 -0.21071725 0.35344535
000190 aa 81 e0 3e 4b 21 5b 3e 19 f4 4a 3e e4 67 96 3c
       0.43848926 0.21399419 0.19819678 0.018360086
0001a0 49 6c 00 be ac 01 c7 3e fe bf 48 3e 57 d3 21 be
       -0.12541308 0.38868463 0.19604489 -0.15803276
0001b0 f2 93 cb be 0c f9 db 3e 88 86 b1 be b1 71 73 3e
       -0.3976131 0.42963445 -0.34672952 0.23773839
0001c0 3b ac 2d be 09 50 10 bd 96 71 a1 3e 5b d3 85 bd
       -0.16960232 -0.035232577 0.31531972 -0.065344535
0001d0 ab a9 d4 3e 2d 55 11 be 23 db 56 be 66 d3 5e 3e
       0.41535696 -0.14192648 -0.20982032 0.2176033
0001e0 97 9d 88 3c f5 f5 ad be ac f2 16 be e0 5f bf 3e
       0.016676707 -0.33976713 -0.1474101 0.37377834
0001f0 f5 14 15 be dc 15 0f 3e c3 fc 0c 3e 9d b1 8a 3e
       -0.14558776 0.13973182 0.13768296 0.27088633
000200 6e e9 bb be f0 be 8f be 63 d6 ab 3d 54 a4 d8 3e
       -0.3670153 -0.2807536 0.083905004 0.42312872
000210 f0 37 ad 3e 58 12 5b 3d d8 3f 44 be 0b f1 bc 3e
       0.3383174 0.05348429 -0.1916498 0.3690265
000220 0a da 82 be 2e 0c 1d be 8a bf aa 3e ce ce 2f 3e
       -0.25556976 -0.15336677 0.33349258 0.17168733
000230 f1 d2 34 be 42 d3 c3 3e 0f 7c 76 3e 39 42 07 3d
       -0.17658593 0.38247114 0.24070762 0.03302214
000240 a9 36 14 bd f2 fe 0f be c2 13 9a be df 28 06 3e
       -0.03618494 -0.14062098 -0.300932 0.13101529
000250 ed fc 08 3e 91 7a 49 be 2d 85 67 be e7 ca 83 be
       0.13377734 -0.19675662 -0.22609396 -0.2574074
000260 6a fb ae 3e 3d d0 8d be 0c f2 a4 be 82 97 8e 3e
       0.3417619 -0.27697936 -0.32215917 0.27849966
000270 1c d9 fa bd 65 0c f6 3d b2 f6 8a be 42 fc a3 3e
       -0.122484416 0.12014083 -0.2714134 0.32028395
000280 70 d5 82 be ab e6 6d bd cf 5d 17 bd cf 05 97 3e
       -0.25553465 -0.05808131 -0.036954697 0.2949662
000290 51 30 01 3e d1 da 85 bd 54 d9 aa 3e a6 b8 8d be
       0.12616087 -0.065358765 0.33368933 -0.27679938
0002a0 9a b9 87 3e 95 8b 51 3d 87 b6 f9 3d f8 9b 84 be
       0.2650879 0.051158506 0.121930175 -0.25900245
0002b0 4e 32 37 3d d4 e8 73 be d5 75 5f bd a8 cb b0 3e
       0.04472571 -0.23819286 -0.054555733 0.34530377
0002c0 79 52 91 3e e6 9b b6 bc f0 01 bd be b3 97 0f be
       0.28383234 -0.022291135 -0.3691554 -0.14022712
0002d0 dc 5a 3d 3e 9b f2 97 be 63 73 ac be f2 b1 b0 3e
       0.18491691 -0.2967728 -0.33681783 0.34510761
0002e0 aa f3 97 be 79 d9 d9 3e 51 5b d5 be 9d 23 4b be
       -0.29678088 0.4254873 -0.4167123 -0.19837804
0002f0 65 d8 50 be ed 6e cc be 00 f7 24 3e 8f df 9b be
       -0.20395048 -0.3992838 0.16109848 -0.30444
000300 b0 d5 7b be 80 8a 2b 3e 5f ca 97 3e f3 75 b7 be
       -0.24593234 0.16752052 0.29646584 -0.35832176
000310 37 e9 86 be 7e f7 ad 3d 08 28 96 3e de e8 a3 3d
       -0.26349804 0.08494471 0.29327416 0.080034
000320 d4 bc 85 bd 11 34 cb 3e 68 0a 98 3e a4 7e d4 be
       -0.06530157 0.3968816 0.2969544 -0.4150287
000330 7d 12 bf 3e 0b 12 85 3e 90 ad bf 3e 09 0a 2d be
       0.37318793 0.25990328 0.37437105 -0.1689836
000340 e2 08 c2 3e f8 32 3f be 74 35 dc 3e b8 9c b8 be
       0.37897402 -0.18671787 0.43009531 -0.36057067
000350 b1 5d 03 be b0 8f e5 3e 79 1a 13 3e 8f 6a e8 bd
       -0.12828709 0.44836187 0.14365567 -0.113484494
000360 92 73 22 3e a1 18 ce 3e 3a 2c 99 3e 67 d1 93 be
       0.15864399 0.40253165 0.29916555 -0.288707
000370 be 72 d8 bd 17 07 71 3e ee 4a 15 be f4 0e 9a 3e
       -0.1056876 0.23537861 -0.14579365 0.30089533
000380 0e be d2 be dd 89 56 be c7 b9 dd be 8f 75 bb be
       -0.41160625 -0.20951028 -0.433058 -0.36613128
000390 98 65 99 be 7b 1d 98 3e 0f 0f 05 3e 00 bd 9b 3d
       -0.29960322 0.29709992 0.12994026 0.07604408
0003a0 e2 51 53 be a2 f5 d6 3e 78 c0 bb be 8b f5 84 bd
       -0.20636705 0.41984278 -0.3667028 -0.06492146
0003b0 a8 cc e7 bd e6 1e 9b 3e d0 d2 d7 3e 4a 18 07 be
       -0.11318332 0.3029701 0.42153025 -0.1319286
0003c0 55 a9 3d be f9 fa cd be 5b 4b 18 be cd bf 89 be
       -0.18521626 -0.4023054 -0.14872496 -0.26904145
0003d0 6e 97 cd 3e ca 74 d4 3e 99 b7 b8 be 63 d8 0f bd
       0.40154594 0.41495353 -0.36077574 -0.03511847
0003e0 4f c9 9b be 46 15 dc 3e c6 28 ad 3e 21 32 14 3e
       -0.30427024 0.4298498 0.3382017 0.14472248
0003f0 eb 53 59 be 5a 5b 9a 3e 98 93 a9 bb 92 c4 82 be
       -0.21223418 0.3014782 -0.0051750652 -0.25540596

batch_norm_c2.weight f4 [128]
000000 c4 e4 7f 3f c8 66 80 3f ea 61 80 3f 22 96 80 3f
       0.99958444 1.0031366 1.0029881 1.0045817
000010 c9 42 7f 3f 00 b1 7e 3f 75 e7 7f 3f 72 69 80 3f
       0.9971128 0.9948883 0.9996255 1.0032179
000020 0d 6b 80 3f 45 d5 7f 3f 7b d3 7f 3f 61 93 7f 3f
       1.0032669 0.999348 0.9993207 0.9983426
000030 f1 c1 7f 3f bf 70 7f 3f 8a 63 80 3f a1 4d 80 3f
       0.99905306 0.9978141 1.0030377 1.002369
000040 e2 2e 80 3f 77 85 80 3f ea 8b 7f 3f d9 86 80 3f
       1.0014307 1.004073 0.99822867 1.0041152
000050 dd 94 80 3f f8 fc 7f 3f 30 28 80 3f 8c 7a 80 3f
       1.004543 0.99995375 1.0012264 1.0037398
000060 13 84 80 3f 0f 26 80 3f 42 74 7f 3f d5 2e 80 3f
       1.0040306 1.0011615 0.9978677 1.0014292
000070 00 d0 7f 3f 46 6c 7f 3f 27 17 7f 3f bc 5c 80 3f
       0.9992676 0.9977459 0.996447 1.00283
000080 f8 92 7f 3f 82 3d 80 3f 5d e9 7f 3f e0 74 80 3f
       0.9983363 1.0018771 0.9996546 1.0035667
000090 20 7a 7f 3f cc 0e 80 3f 90 4f 80 3f 15 cf 7f 3f
       0.9979572 1.0004516 1.002428 0.9992536
0000a0 de 1c 80 3f 41 05 80 3f fe 96 7f 3f a8 8d 80 3f
       1.000881 1.0001603 0.9983977 1.004323
0000b0 f3 58 7f 3f 4e 49 80 3f 41 17 80 3f 35 81 80 3f
       0.997451 1.0022371 1.0007097 1.0039431
0000c0 cc 26 80 3f 15 1c 80 3f 41 46 80 3f 3d 65 80 3f
       1.001184 1.000857 1.002144 1.0030895
0000d0 4b d8 7f 3f c8 91 80 3f 70 fc 7f 3f ba fe 7f 3f
       0.9993941 1.0044489 0.99994564 0.99998057
0000e0 cc 55 80 3f 32 27 81 3f b0 be 80 3f 3f 08 80 3f
       1.0026183 1.0090086 1.0058193 1.0002517
0000f0 fc c0 7f 3f 46 07 80 3f 09 0a 80 3f 18 64 80 3f
       0.99903846 1.000222 1.0003062 1.0030546
000100 77 57 7f 3f 08 02 80 3f cb 02 80 3f f4 e1 80 3f
       0.99742836 1.000062 1.0000852 1.0068955
000110 61 fd 7f 3f 73 c0 7f 3f 30 7a 7f 3f 3d 26 80 3f
       0.99996 0.9990303 0.9979582 1.0011669
000120 a5 27 80 3f 00 2f 80 3f 4c 64 7f 3f 8f 1a 80 3f
       1.0012099 1.0014343 0.99762416 1.0008105
000130 58 fd 7f 3f 40 fc 7f 3f 28 36 80 3f 08 df 7f 3f
       0.99995947 0.9999428 1.0016527 0.99949694
000140 26 7a 7f 3f 46 cb 7f 3f ec 3a 80 3f ea 28 80 3f
       0.9979576 0.99919546 1.0017982 1.0012486
000150 a7 d9 7f 3f e3 45 80 3f 53 b0 7f 3f ee 79 80 3f
       0.99941486 1.0021328 0.99878424 1.003721
000160 1e d6 7f 3f 70 ca 7f 3f 20 1a 80 3f de 9d 7f 3f
       0.9993609 0.9991827 1.0007973 0.9985026
000170 84 e0 7f 3f bd 15 80 3f 0c f4 7f 3f 31 6c 7f 3f
       0.9995196 1.0006634 0.9998176 0.9977446
000180 3f 60 80 3f e6 ba 7f 3f 67 90 7f 3f 01 ad 80 3f
       1.0029372 0.9989456 0.99829715 1.0052797
000190 ff 43 80 3f 21 46 7f 3f 18 89 81 3f fb 4b 80 3f
       1.0020751 0.99716383 1.0119963 1.0023187
0001a0 6e db 7f 3f ff cf 7f 3f 63 29 80 3f 8a 1f 80 3f
       0.999442 0.9992675 1.001263 1.0009625
0001b0 be 32 80 3f 9d ad 80 3f 56 d8 7f 3f 72 08 80 3f
       1.0015485 1.0052983 0.9993948 1.0002577
0001c0 33 17 80 3f 10 22 7f 3f 1f 1b 80 3f 89 07 7f 3f
       1.000708 0.9966135 1.0008277 0.9962087
0001d0 d2 70 7f 3f f5 da 7f 3f 00 ff 7f 3f db 53 80 3f
       0.99781525 0.99943477 0.99998474 1.0025591
0001e0 3a a2 7f 3f 08 f9 7f 3f b6 09 80 3f a1 e7 7f 3f
       0.99856913 0.99989367 1.0002964 0.9996281
0001f0 af 10 80 3f 44 ca 7e 3f 20 27 80 3f 63 7b 7f 3f
       1.0005091 0.9952738 1.001194 0.9979765

batch_norm_c2.bias f4 [128]
000000 f7 90 6e 3a e6 c7 b9 39 81 ac e2 ba 67 21 b2 b9
       0.0009100581 0.00035434886 -0.0017293842 -0.00033975692
000010 9d 1b 8d ba d5 9a 8c 3a 35 d2 77 ba 26 c6 10 bb
       -0.0010765676 0.0010727296 -0.00094536255 -0.0022090762
000020 d3 05 d1 ba a3 a5 e9 3a 6d dd 9f ba 42 56 8a ba
       -0.001594717 0.0017825853 -0.0012196727 -0.0010554271
000030 29 3c ca 3a 30 56 af 3a 35 63 97 ba 53 92 f8 ba
       0.0015429306 0.0013377126 -0.0011549952 -0.0018964506
000040 94 76 59 3b c0 bc 87 3a 09 a9 3d 3a a1 4d 61 bb
       0.003318225 0.0010355935 0.0007234966 -0.0034378546
000050 10 95 c8 ba a1 02 83 bb cb 12 92 3a 72 83 91 ba
       -0.0015303213 -0.003998116 0.0011144517 -0.0011101796
000060 55 b4 f7 38 5f e3 16 3b aa 5c 82 ba e1 68 95 b9
       0.00011811467 0.0023023707 -0.0009945829 -0.00028497636
000070 36 d9 55 3a d7 92 e4 3a 22 57 80 ba 04 4c cf ba
       0.0008157672 0.0017438781 -0.0009791593 -0.0015815501
000080 e4 93 2d bb d9 7c 01 ba 6e 8c cb ba 08 32 0f 39
       -0.0026485855 -0.0004939563 -0.0015529522 0.00013656181
000090 ae c2 3e 3b bf 17 c8 b9 19 d4 28 3a 7e af 42 3a
       0.0029107737 -0.00038164665 0.00064402964 0.0007426663
0000a0 74 35 ed 39 b0 8c 7c ba 35 57 25 ba b4 3d 8b ba
       0.00045243988 -0.0009634001 -0.00063072453 -0.0010623247
0000b0 c4 66 46 bb 5b fe bf 3a fb ad e9 39 52 23 e6 37
       -0.0030273655 0.0014647947 0.0004457085 2.7434584e-05
0000c0 b4 fb d7 b9 1f 44 56 3a f3 6b eb b9 e9 30 fe ba
       -0.0004119553 0.0008173603 -0.0004490312 -0.0019393238
0000d0 23 3a 58 ba a6 01 1e ba d0 a3 a0 39 c8 49 ef ba
       -0.0008248409 -0.00060274673 0.00030639628 -0.0018256241
0000e0 c5 b4 d4 3a d8 65 a6 bb ee 56 04 bb 76 a4 4f 38
       0.001622819 -0.0050780587 -0.0020193416 4.9505812e-05
0000f0 72 35 a9 ba d6 3a 94 3a fd 69 06 bb 08 d2 1c 3a
       -0.0012909605 0.0011309038 -0.0020509951 0.0005982225
000100 75 64 ab ba 9d 2b 26 3a 68 30 d5 3a 3c a4 55 bb
       -0.0013076203 0.00063388963 0.0016265037 -0.0032599112
000110 c2 1d 6c ba 06 4d 14 3b 13 6c 03 3b fd bd a9 ba
       -0.000900712 0.0022628917 0.002005343 -0.0012950298
000120 17 3b 7a 3a f2 ee 12 b9 12 de bd 3a 13 0b 58 3b
       0.0009545548 -0.00014012659 0.0014485738 0.0032965585
000130 91 72 0a ba e4 0b 83 b6 c4 b3 82 39 9e 26 2c ba
       -0.0005281354 -3.9054885e-06 0.00024929468 -0.00065670337
000140 a3 27 83 ba cf 05 bf 39 44 0e c9 ba d7 e0 db 39
       -0.001000632 0.00036434687 -0.0015339334 0.00041938454
000150 a9 19 96 39 52 03 46 ba 5f 10 81 ba b1 28 0e b9
       0.00028629348 -0.00075535954 -0.0009846798 -0.00013557334
000160 1b e5 a2 ba f8 e9 a8 ba af fa 1a bb 5b 49 43 ba
       -0.0012427898 -0.0012887111 -0.0023647954 -0.00074495905
000170 f3 85 02 3b 80 e6 09 bb 09 1e e7 ba 20 86 06 3b
       0.0019916266 -0.002104193 -0.0017632853 0.0020526722
000180 a1 b4 2b bb 6d 02 32 ba 57 18 01 bb a9 49 10 38
       -0.0026200193 -0.00067905226 -0.0019698346 3.4400877e-05
000190 fb 1b 45 3a b9 4b 95 39 c0 9b 93 3b e6 ea 99 ba
       0.0007519123 0.00028475912 0.004504651 -0.0011742979
0001a0 81 37 c6 3a 74 37 1c 3a 87 ec ff b9 90 99 6a ba
       0.0015122743 0.0005959191 -0.00048813617 -0.0008949274
0001b0 7a 88 04 3a a6 9b fb 38 a1 16 44 3b f0 bc 3f 3b
       0.0005055737 0.000119976045 0.0029920714 0.0029256903
0001c0 7f 82 95 3a ff 0d c1 b9 da 54 0c ba 42 24 35 ba
       0.0011406689 -0.00036822257 -0.000535322 -0.0006910005
0001d0 29 5b 76 3a 96 32 ca b9 23 19 20 bb e5 6b 23 bb
       0.0009397739 -0.00038566132 -0.0024429045 -0.0024936136
0001e0 eb ff 04 3b 08 8e 95 b8 ea f0 4d bb 3a e0 4b ba
       0.002029414 -7.131329e-05 -0.0031424114 -0.0007777248
0001f0 a5 1b c4 39 ea dd a8 3a 36 f9 15 ba 52 0d 43 39
       0.0003740463 0.0012883518 -0.0005721034 0.00018601611

batch_norm_c2.running_mean f4 [128]
000000 08 31 37 3e 42 42 5c 3e 35 32 61 3e e9 a3 86 3e
       0.17889798 0.2150965 0.21991809 0.2629693
000010 a8 c3 1f 3e 17 60 47 3e 4f 3f 16 3e ef 9a 49 3e
       0.1560198 0.19470249 0.14672588 0.19688009
000020 db 63 40 3e d1 0f 29 3e b6 1a 65 3e 64 66 64 3e
       0.18788092 0.1650994 0.2237347 0.22304684
000030 26 3c 60 3e 8e 46 7a 3e 98 cc 86 3e 75 c4 5d 3e
       0.21897945 0.24440977 0.26327968 0.21656974
000040 42 d2 33 3e 3b 64 38 3e 43 1f 3e 3e aa 60 52 3e
       0.17560676 0.18006985 0.18566613 0.20544687
000050 de 58 47 3e 21 70 88 3e 4d 86 4e 3e e7 34 45 3e
       0.19467494 0.26648048 0.20168419 0.19258462
000060 fc 3d 4f 3e ee cf 58 3e 78 7b 5c 3e fb a7 56 3e
       0.20238489 0.21173069 0.21531475 0.20962517
000070 3b 2a 34 3e 29 50 1a 3e 14 8e 69 3e 23 bb 40 3e
       0.17594235 0.15069641 0.22808105 0.18821387
000080 61 2d 1c 3e d9 ed 30 3e a2 a5 0e 3e 54 95 58 3e
       0.15251686 0.17278232 0.13930371 0.21150714
000090 27 93 75 3e 96 4b 8c 3e 39 7c 45 3e 01 4f 49 3e
       0.23981915 0.27401417 0.19285668 0.19659044
0000a0 8f af 89 3e c6 e5 64 3e dd 80 8a 3e e1 f3 6e 3e
       0.26891753 0.22353277 0.2705144 0.2333522
0000b0 f7 d4 63 3e a0 90 8b 3e 71 28 5e 3e 9a bf 4f 3e
       0.22249208 0.27258778 0.21695115 0.20287934
0000c0 a4 ba 7a 3e ab c8 78 3e 58 58 3c 3e 30 78 59 3e
       0.2448526 0.24295299 0.18393075 0.21237254
0000d0 24 a6 5c 3e 1d 5d 26 3e 31 8f 36 3e 6f fb 10 3e
       0.21547753 0.16246457 0.1782806 0.14158414
0000e0 9c af 51 3e e6 e0 4c 3e ee 2a 43 3e 32 2d d9 3d
       0.20477146 0.20007667 0.19059345 0.106043234
0000f0 74 b4 69 3e 3f 62 84 3e 6e bd 43 3e f0 d4 56 3e
       0.22822744 0.25856206 0.1911523 0.20979667
000100 37 b8 53 3e b0 e7 35 3e b3 a1 4f 3e b5 e1 06 3e
       0.20675741 0.17764163 0.20276527 0.13172038
000110 45 bf 8e 3e 90 e7 63 3e 02 48 1e 3e 94 31 64 3e
       0.27880302 0.22256303 0.15457156 0.22284538
000120 45 84 45 3e 55 0a 4e 3e 8f a5 88 3e bc 02 52 3e
       0.19288738 0.20121129 0.2668881 0.20508856
000130 7e 99 49 3e af 93 3d 3e 3e 86 1e 3e 61 89 71 3e
       0.19687459 0.18513368 0.15480897 0.23587562
000140 54 55 50 3e 6f 16 71 3e 7f 6d 52 3e 17 55 50 3e
       0.2034505 0.23543714 0.20549582 0.20344959
000150 39 5e 39 3e 8c 20 52 3e f9 ca 7c 3e 9b 4d 09 3e
       0.1810235 0.20520228 0.24686803 0.1340851
000160 99 5c 49 3e d7 5a 84 3e 88 f8 81 3e cb 58 5b 3e
       0.1966423 0.25850555 0.25384927 0.2142059
000170 06 81 84 3e 4d 5f 85 3e dd 2b 72 3e b6 6b 20 3e
       0.25879687 0.2604927 0.23649545 0.15666088
000180 aa db 91 3e 6c e8 4f 3e a8 a0 84 3e f0 b9 6f 3e
       0.28487903 0.20303506 0.2590382 0.23410773
000190 e7 a9 8c 3e d5 4f 3b 3e c9 28 46 3e 95 a7 ca 3d
       0.27473375 0.18292172 0.19351496 0.09895245
0001a0 a7 a4 7b 3e e4 a0 7e 3e ff 89 7f 3e 7a 7d 3d 3e
       0.24574529 0.24866062 0.24954985 0.18504897
0001b0 1d 9c 75 3e df 9e 3f 3e b0 fc 48 3e 06 3f 68 3e
       0.23985334 0.18712948 0.19627643 0.22680292
0001c0 eb 0f 25 3e 1b 91 8d 3e 5c 9d 17 3e d1 33 4e 3e
       0.16119353 0.2764977 0.14806122 0.20136954
0001d0 cd bf 89 3e ae 40 82 3e c1 4c 8a 3e f7 e9 0d 3e
       0.26904145 0.25439972 0.27011684 0.13858782
0001e0 9d 9d f3 3d 0d 81 15 3e 87 6f 45 3e ec 32 57 3e
       0.11895297 0.1460001 0.19280826 0.21015519
0001f0 65 91 0e 3e 58 0b 32 3e cf 8e 26 3e 5f 62 55 3e
       0.13922651 0.1738714 0.16265415 0.20838307

batch_norm_c2.running_var f4 [128]
000000 68 21 45 3d 08 e7 97 3d cd f5 5e 3d 69 dd 90 3d
       0.04812756 0.074171126 0.054433633 0.07073481
000010 2a 28 8d 3c da d1 fb 3c 54 02 6b 3d 72 88 0e 3d
       0.017231066 0.030739713 0.057375267 0.034798093
000020 3c 21 15 3d b8 b3 90 3d 09 72 6b 3d 04 a1 7e 3d
       0.036408648 0.07065529 0.0574818 0.062165275
000030 85 28 7f 3d f0 a3 89 3d f5 fe f4 3d ea 12 6c 3d
       0.0622945 0.06720722 0.11962692 0.057635225
000040 ab e3 64 3d 73 1f 71 3d a0 a4 8c 3d f1 52 25 3d
       0.055881184 0.058867883 0.06867337 0.040362302
000050 a8 23 b9 3d ae 60 c5 3d d9 25 1c 3d 25 87 3d 3d
       0.09040004 0.09637581 0.03812203 0.046271462
000060 75 ff 24 3d 7c e7 6e 3d ac 9f f9 3d d6 5c 98 3d
       0.040282685 0.05832623 0.12188658 0.07439582
000070 bc c6 85 3d 61 f5 be 3c a4 38 37 3d 11 66 22 3d
       0.06532046 0.023310365 0.04473175 0.03964812
000080 07 64 22 3d c2 dd 0a 3d c7 86 5b 3c fd 13 ac 3d
       0.039646175 0.03390289 0.013398833 0.0840225
000090 c2 34 5a 3d d1 99 c0 3d ed ea 69 3d d5 56 71 3d
       0.05327297 0.09404338 0.05710881 0.0589207
0000a0 4a 0a b3 3d 73 0d 89 3d 26 1d de 3d 0e 5d de 3d
       0.08742197 0.06692018 0.108454034 0.108575925
0000b0 68 02 23 3d c5 df e4 3d 41 99 39 3d af d9 a7 3d
       0.039797217 0.11175493 0.04531217 0.08195817
0000c0 24 b0 97 3d ab 71 9d 3d 11 09 5b 3d 91 80 4a 3d
       0.07406643 0.07687696 0.053475443 0.049439017
0000d0 4b 06 88 3d 86 c5 89 3d 29 b2 f5 3c 7d 08 a9 3c
       0.06641825 0.06727128 0.02999218 0.02063393
0000e0 31 5f 29 3d a2 3a 6a 3d 4d ea 29 3d 1f 3a db 3c
       0.041350547 0.057184823 0.041483212 0.026761113
0000f0 3b 1d 90 3d b0 24 cc 3d b8 91 bd 3d 20 85 fb 3d
       0.07036825 0.09967935 0.09256309 0.12281251
000100 ca 04 39 3d f8 da 8f 3d ff b8 59 3d 63 d5 a6 3c
       0.045170583 0.07024187 0.05315494 0.020365423
000110 23 fa 0f 3e 02 2e 7f 3d 48 81 bc 3c 1f a9 81 3d
       0.14060263 0.062299736 0.023010865 0.063310854
000120 1b 5e 93 3d 9d aa 23 3d 79 f4 a6 3d 95 1c 64 3d
       0.071956836 0.03995763 0.08152098 0.05569132
000130 b7 42 66 3d 53 c3 2a 3d 25 77 1a 3d c3 7c 8b 3d
       0.056215968 0.041690182 0.03771128 0.06810906
000140 46 1d c5 3d 1d 89 8d 3d 68 e4 62 3d 15 9e 17 3d
       0.09624724 0.06910918 0.055393606 0.037015993
000150 07 74 12 3d 53 17 5c 3d 66 33 6f 3d 4b 3a 6d 3c
       0.035755184 0.05373318 0.058398627 0.01447923
000160 08 f9 89 3d fb c3 26 3e 90 8d f4 3d 6f 6d 36 3d
       0.06736952 0.16285698 0.119410634 0.044537958
000170 2f f3 e2 3d a7 ab 92 3d 17 68 2f 3d dd 11 14 3d
       0.1108154 0.07161646 0.042823877 0.03614985
000180 4c 33 b8 3d 4e 22 e8 3c 4b 34 9d 3d 68 a4 9b 3d
       0.08994159 0.02833667 0.0767599 0.075997174
000190 aa 29 e7 3d 94 11 05 3d f3 a3 fc 3c 94 10 07 3c
       0.11287244 0.032487467 0.030839896 0.008243699
0001a0 f4 9a 4c 3d e3 ba 9b 3d 73 aa 7c 3d f9 41 60 3d
       0.049952462 0.07604005 0.06168599 0.054750416
0001b0 8b 8b 85 3d ad 37 5c 3d 72 19 7d 3d f5 33 42 3d
       0.06520756 0.053764034 0.061791845 0.04741283
0001c0 b5 53 22 3d 46 0b 9c 3d f3 c0 a0 3c 5c 3c 5d 3d
       0.03963061 0.07619338 0.019623255 0.05401264
0001d0 90 3e 87 3d 00 c9 89 3d f0 32 cd 3d b6 2d fc 3c
       0.0660373 0.06727791 0.10019481 0.030783515
0001e0 8e 3a a8 3c 62 74 91 3c b3 88 64 3d 56 d9 82 3d
       0.020535734 0.017755691 0.05579443 0.0638911
0001f0 60 56 f8 3c 45 e8 4b 3d 15 55 21 3d c7 4e 91 3d
       0.030314624 0.049782056 0.03938778 0.07095104
