lightning_logs/version_10/checkpoints/epoch=29-step=180.ckpt (torch, 145049 bytes, 44 tensors)

batch_norm1.weight f4 [40]
000000 22 70 7d 3f 20 08 88 3f e4 86 7c 3f 65 a6 7e 3f
       0.98999226 1.062748 0.98643327 0.9947265
000010 7a 91 7d 3f 6a 42 7f 3f d5 30 80 3f 03 02 81 3f
       0.99050105 0.99710715 1.0014902 1.0078739
000020 81 7a 7c 3f eb d3 7c 3f 91 e6 7d 3f ea 56 7f 3f
       0.98624426 0.9876086 0.9917994 0.99741995
000030 6e 16 80 3f b6 f8 7e 3f 2a d0 79 3f 6a 5d 7f 3f
       1.0006845 0.9959825 0.9758326 0.99751914
000040 c0 1e 80 3f f9 ee 7d 3f 1b bf 80 3f 47 8f 89 3f
       1.0009384 0.9919277 1.0058321 1.074685
000050 99 a5 93 3f 43 51 7d 3f 05 9c 7e 3f a9 e9 7d 3f
       1.1534911 0.9895212 0.99456817 0.9918466
000060 f3 37 7e 3f bd f8 7b 3f e0 2d 7e 3f 79 ab 76 3f
       0.9930412 0.9842642 0.9928875 0.96355397
000070 b7 6b 7d 3f a5 21 7e 3f 8a d1 7a 3f 5b 20 7b 3f
       0.98992485 0.9927009 0.9797598 0.98096246
000080 f7 19 79 3f c9 06 7e 3f f5 8f 7e 3f 2a fc 7c 3f
       0.97305244 0.99229103 0.9943841 0.9882227
000090 c9 2d 7f 3f 2f 9f 7f 3f cd 4e 7b 3f 39 83 7e 3f
       0.9967924 0.9985227 0.98167115 0.9941898

batch_norm1.bias f4 [40]
000000 b6 da ba 3b be f7 f3 bc 3f 36 8c ba fb c2 e1 3a
       0.005702342 -0.029781219 -0.0010697319 0.0017224246
000010 cc 54 87 bb ce 88 b6 ba 18 63 a9 3b 85 69 9c 3a
       -0.0041299816 -0.0013926269 0.0051692836 0.0011933303
000020 d2 93 6a 3c fd 85 97 3c 13 28 0e 3b d9 99 4b bb
       0.01431747 0.018496508 0.0021691367 -0.0031067042
000030 d0 ad fa b9 3e 42 64 3c 73 68 b3 3b 58 2f 13 3b
       -0.00047813216 0.013931809 0.005475098 0.002245864
000040 ba c9 97 3c f4 85 0e 3c d0 5e 0b bc 1c 6f e2 3c
       0.018528808 0.008698929 -0.008506492 0.027640872
000050 72 4e cd 3d cd 12 83 bb 95 0b 83 39 73 3d e4 3a
       0.10024728 -0.004000044 0.00024994896 0.0017413333
000060 af 0b 0f 3c 9e 7c 4a ba e4 f4 9e 3b a2 fc 9e bb
       0.008730813 -0.0007724258 0.0048509706 -0.0048518935
000070 4c 4e e5 bb 6c a6 4d bb d0 3b cd bb cb 02 79 3c
       -0.006997859 -0.0031379713 -0.0062632337 0.01519842
000080 2a db 14 bb 1c 81 a3 3b 98 33 07 3c e8 27 00 3b
       -0.002271364 0.0049897563 0.008252047 0.0019555036
000090 c8 bc 01 3c 59 ff 11 3b b0 68 81 bb d5 62 b5 bb
       0.007918544 0.0022277443 -0.0039492473 -0.0055354633

batch_norm1.running_mean f4 [40]
000000 db d8 c0 3f 26 7c 73 42 26 9f b0 40 9e 8e 15 40
       1.5066179 60.87124 5.5194273 2.3368297
000010 ba 4c 10 40 60 4d f5 3f ec 7d 34 40 39 4c 05 40
       2.254683 1.9164238 2.8201857 2.0827773
000020 d9 14 1a 40 f9 14 0b 40 ce 28 40 40 71 0c 40 40
       2.4075224 2.173155 3.0024905 3.0007594
000030 e0 83 2b 40 67 4b a8 3f 33 0e 5a 40 ce 80 6b 40
       2.679924 1.3148011 3.4071167 3.6797366
000040 f6 db 5b 40 9b e6 24 40 c3 8d 85 3f 94 d1 f5 3f
       3.4353004 2.576575 1.0433887 1.9204583
000050 41 4d 1a 40 ad 2b b4 40 68 24 8f 3f 20 7e cb 3f
       2.4109652 5.6303315 1.1182985 1.5897865
000060 42 35 14 40 94 3f 4a 40 7f 54 93 3f 48 8a 45 40
       2.3157506 3.1601305 1.1510161 3.086565
000070 83 0b 38 40 cf 11 4a 40 74 58 4a 40 a3 00 9f 40
       2.8757026 3.157337 3.1616488 4.9688277
000080 ed ea 3e 40 62 9b a6 3f 0a 2a 39 41 a7 bb 0d 41
       2.9830887 1.3016169 11.572763 8.858314
000090 2b 45 25 41 5c 82 a4 40 ee 97 81 43 6d 04 95 43
       10.329387 5.140913 259.18695 298.03458

batch_norm1.running_var f4 [40]
000000 e7 ec 7f 3e af 84 26 44 bc 56 06 3f 58 14 ad 3f
       0.24992715 666.0732 0.52476096 1.3521833
000010 d5 7f 46 40 7d 2e 2b 40 9b 66 5f 40 4c 80 3a 40
       3.1015522 2.6747124 3.4906375 2.9140806
000020 b2 fb 5e 40 ab 71 44 40 8b 4d 5c 40 8a 3b 5e 40
       3.4841123 3.0694377 3.4422328 3.472384
000030 91 8f 82 40 ce fe 5c 3e 72 29 a9 40 83 94 9e 40
       4.080025 0.21581575 5.2863092 4.955629
000040 dd 55 b0 40 f2 6d 03 40 7f 3c 07 3e 89 15 74 3f
       5.5104814 2.0535855 0.13206671 0.9534536
000050 61 96 5e 3f 82 94 9a 3f 58 bc 0d 3f fe 48 f4 3f
       0.8694821 1.2076571 0.55365515 1.9084775
000060 b1 be 36 40 58 bc c2 40 39 5e 10 3f c5 e7 5d 40
       2.8553889 6.085491 0.5639377 3.467271
000070 8a 98 69 40 0d 0a 59 40 c4 6d 59 40 88 e3 63 40
       3.6499352 3.3912385 3.3973246 3.5607624
000080 5c 5e 52 40 66 b9 0d 3f 23 fd 09 44 6f a0 33 43
       3.2870092 0.5536102 551.95526 179.6267
000090 7f 0a 0f 44 1d 66 ee 42 e9 c9 07 47 dc 43 26 47
       572.164 119.19944 34761.91 42563.86

dense1.weight_g f4 [16, 1]
000000 e2 b8 f5 3e d5 f2 08 3f 93 d6 14 3f 76 74 26 3f
       0.47992617 0.5349553 0.58139914 0.65021455
000010 89 2e 0e 3f d0 10 00 3f fb 33 0f 3f b6 a8 0c 3f
       0.55539757 0.50025654 0.5593869 0.5494493
000020 76 09 17 3f f6 98 19 3f bd f8 29 3f 8e d0 fe 3e
       0.5899881 0.59999025 0.6639517 0.4976849
000030 0a 2c 29 3f e8 2e 19 3f 71 73 05 3f 95 f3 11 3f
       0.66082823 0.598372 0.52129275 0.570123

dense1.weight_v f4 [16, 40]
000000 0a 8a 4f 3d 2c a6 61 bd 71 e7 c3 3c 2b 90 f6 bc
       0.050668754 -0.055090114 0.02391407 -0.030098042
000010 ee a9 63 3d d7 2d 07 3d 36 d6 a5 bc f5 af ef bd
       0.05558198 0.0330027 -0.020243745 -0.11703483
000020 a1 a7 24 3d 61 03 01 be 10 64 da 3c 85 f2 92 3c
       0.040198926 -0.12598945 0.026659042 0.017937908
000030 30 3a fb bc 7f 18 0b 3e 10 bb a4 3c 71 8e b7 3d
       -0.030667394 0.13583563 0.02010873 0.089627154
000040 17 56 81 3d 53 ec ec bd 61 ad 83 bd 97 cd 4d 3e
       0.063152485 -0.11568513 -0.06429554 0.20097958
000050 d5 08 ea bd bb ac 68 3c 84 3a 92 3c b7 25 ea 3d
       -0.11427466 0.014201338 0.017850168 0.11432975
000060 6c 48 c4 bc ef 17 19 3d 9f c2 e4 bb 6e dd 8a bd
       -0.023960315 0.03737634 -0.0069812085 -0.067805156
000070 2c de a1 bd 18 4c 90 bd 27 e0 05 be f8 d8 ca bd
       -0.07903704 -0.07045764 -0.13073789 -0.09904665
000080 6f b7 6c 3d 62 43 cb 3d ae 54 76 3b f4 3e c2 bd
       0.057792123 0.099249616 0.0037587094 -0.094846636
000090 87 6b 8e 3d a5 1b 6f bd 62 ac dc bc 3d f9 8e bd
       0.06954103 -0.058375973 -0.026937667 -0.06981132
0000a0 8b f9 67 bd 08 96 d6 bd 3e 35 ab 3d bf 5f 8f 3d
       -0.056634467 -0.10477835 0.083597645 0.07000684
0000b0 9c c3 3a 3d b8 9e c9 3d 9a e8 98 3d ed 90 ee bb
       0.045596704 0.09844726 0.0746624 -0.00728046
0000c0 19 fa 6b 3c 40 70 d6 3b a1 10 c5 3d e9 ab fd 3d
       0.01440289 0.006544143 0.09622312 0.12386305
0000d0 48 5a 06 3e 4b 41 a5 3d 35 c4 30 bd f6 ec f0 bb
       0.13120377 0.08069094 -0.043155868 -0.0073524667
0000e0 2c 52 fc bc df bc d3 3d 44 44 1a 3d 55 14 f1 3d
       -0.030800901 0.10338759 0.03766276 0.11771456
0000f0 f0 63 75 3d b2 c5 19 be b7 11 65 3d 3c 6a 1b 3e
       0.05990976 -0.15016821 0.055925097 0.15177244
000100 32 74 00 3e 1f ef b8 bc 81 ce 4b 3d 10 1e 1b be
       0.12544325 -0.02257496 0.049757484 -0.15148187
000110 d9 42 19 bd 41 78 ba 3d 9a f7 08 be c4 7d 14 3e
       -0.037417267 0.09104968 -0.13375703 0.14501101
000120 f1 a7 d6 bd a7 bf 48 3d 42 03 72 bb 0a 4e 5c 3d
       -0.10481251 0.0490109 -0.0036928211 0.05378536
000130 2d 23 64 3c f6 3b 0c be 55 e6 04 bd ad 8a c7 bd
       0.013924402 -0.13694748 -0.032446224 -0.09743247
000140 0d 46 a7 3d 3d a8 4b 3d c2 93 bb bd 4c 7f 02 3d
       0.08167658 0.04972099 -0.09159042 0.03185968
000150 89 4b b0 3d 93 96 b5 bc 69 8f 56 3a c4 73 fc bb
       0.08608157 -0.022166526 0.0008184822 -0.00770423
000160 d2 99 bc bd a3 fd b3 bd 16 ae 27 3b 78 ee e5 bd
       -0.092090264 -0.08788612 0.002558594 -0.11227125
000170 bd f0 cd 3d f6 a3 4d 3c 59 91 a2 3d 7c b7 36 3d
       0.10055683 0.012551298 0.07937879 0.044608578
000180 aa 7b fc bd 6f 2e 9a bd b9 63 9e bd db 9c 40 be
       -0.123282745 -0.07528388 -0.07733864 -0.18809836
000190 83 a7 83 be a9 22 98 bd 58 2f 3a be fd f1 f3 3c
       -0.2571374 -0.07428486 -0.18182123 0.029778475
0001a0 1e 57 a6 3d 0d 9c b2 3c 7c 84 ad 3d c6 6e 67 3d
       0.08122085 0.021802926 0.08472535 0.056502126
0001b0 cf 5a 29 be db 6f 0d 3d 29 4f d9 3d d7 22 a8 bd
       -0.16538547 0.0345305 0.10610802 -0.0820977
0001c0 36 82 d6 bd 8e 1e 31 bc f4 bd 5b bd 3d 4e b9 3c
       -0.104740545 -0.010810507 -0.05364795 0.022620315
0001d0 e6 9b cb 3b 74 63 07 3e fa 86 0b bd 61 33 44 3d
       0.006213653 0.13221532 -0.03406427 0.04790056
0001e0 86 6c b9 3d a1 58 01 3e 32 43 ae bd bc 0c b8 3d
       0.09053902 0.12631465 -0.0850891 0.08986804
0001f0 55 8e e5 3d 49 83 9f bd 0f 93 18 bd 31 b9 79 3d
       0.11208788 -0.077887125 -0.03724962 0.060967628
000200 4e f6 15 be 1f ef 0d be bd 6d da bd 0b 78 10 3d
       -0.14644739 -0.13860749 -0.10665462 0.035270732
000210 31 20 9b bd 61 61 11 be 44 ff 4c 3d 36 71 3e 3d
       -0.075744994 -0.14197303 0.050048128 0.046494685
000220 3d 4f 49 3d 53 f4 f7 bd 96 db 24 3e c9 ab 0b be
       0.049147833 -0.12107148 0.1609939 -0.1363975
000230 e6 a6 a4 be cd 07 99 bd 56 07 dd 3d 4e 4d 61 3d
       -0.32158583 -0.07472191 0.10792415 0.055005364
000240 21 ec 5e bc c8 28 a5 3d 70 dc 15 be fc a4 81 3d
       -0.013606102 0.08064419 -0.14634871 0.063302964
000250 54 59 11 3e ed a7 c1 bd 8c 07 0b bc 38 d2 5d 3a
       0.14194232 -0.094558574 -0.008485686 0.0008461806
000260 e1 9f 0a be 53 ae 0d 3c 39 95 c1 bc e8 de a6 bd
       -0.13537551 0.008647519 -0.023630725 -0.08147985
000270 c9 83 9d bd e6 e0 d7 3b 45 ab e9 3d 64 28 21 3c
       -0.07691152 0.0065880893 0.1140962 0.00983629
000280 fa fc dc bd 30 cd 33 3e ff 33 53 3d 15 a9 0d be
       -0.10790439 0.17558742 0.05156326 -0.13834031
000290 c5 4b 6a 3c 04 d5 0a 3e ad a8 a7 bd c1 bc 25 bd
       0.014300291 0.13557822 -0.08186469 -0.040463213
0002a0 be c1 b0 bd 25 78 ea bd 5a de c6 bd b6 41 48 bb
       -0.086307034 -0.11448697 -0.09710379 -0.0030556745
0002b0 d0 d5 c6 3d 0c 15 bf bc a5 bb ee bd 28 c3 09 bd
       0.0970875 -0.023325466 -0.11656884 -0.03363338
0002c0 81 60 10 be ab d6 1d 3d 28 01 14 3e ea c1 05 3d
       -0.14099313 0.0385348 0.14453566 0.032655634
0002d0 34 8f 6a be 84 1d 75 bd a3 3e 91 3c 36 7e 2a 3d
       -0.2290619 -0.0598426 0.017730063 0.04162427
0002e0 ce 2f 0d be 62 63 93 bd 1d 98 3f bd 16 a8 da bb
       -0.13787767 -0.0719669 -0.046775926 -0.0066728694
0002f0 97 50 cd 3d eb bd 85 3d 35 fd 9d 3c 61 c8 aa bd
       0.10025137 0.065303646 0.019285778 -0.083390005
000300 ec d8 84 3d 58 67 7c 3d 01 de c7 bc 39 54 25 bd
       0.06486687 0.061621994 -0.024397852 -0.040363524
000310 45 72 82 3d ff cc b4 bd 17 bd 27 3d 50 52 b0 3d
       0.063694514 -0.088281624 0.040951815 0.0860945
000320 e7 8c ff bd fc 15 aa bd 30 1a 3c bc 94 0a ed bd
       -0.12478047 -0.083049744 -0.011480853 -0.11574283
000330 c6 e0 45 ba 56 0b 18 3e b1 56 a3 3d 05 fd bd bd
       -0.00075484475 0.14848074 0.079755194 -0.09276775
000340 0a 86 80 bc 3f 64 50 bd e9 48 f8 bd 30 3c 61 bd
       -0.015688915 -0.050876852 -0.121232815 -0.05498904
000350 61 a6 18 bc cb 99 83 bd cf 58 96 bd ab 31 22 3d
       -0.009317012 -0.06425818 -0.07341158 0.03959815
000360 2c d4 b7 3b 8f 69 27 bd f0 17 6b 3d 45 f8 7c 3d
       0.0056100097 -0.040872153 0.057395875 0.061760206
000370 73 62 2c be 60 64 21 be ce 66 d7 3d bf 86 b8 3d
       -0.1683443 -0.15760946 0.10517655 0.09010076
000380 9d 38 47 bb 2c c5 8d bd be 19 aa bd c2 36 a8 3d
       -0.0030398734 -0.06922373 -0.08305691 0.08213569
000390 86 90 65 3d a5 f1 99 bd 87 0a f4 bc 10 8e b0 3d
       0.05604603 -0.07516793 -0.029790176 0.08620846
0003a0 6f cf d4 bc fb 9a 47 bc 32 98 74 bd ee a2 09 3d
       -0.025977818 -0.012182946 -0.059715457 0.033602647
0003b0 6a 22 71 bc e2 ce 70 bd 12 50 e4 bd 97 2f 08 be
       -0.014717678 -0.05879105 -0.11148085 -0.13299404
0003c0 99 c8 52 bd e8 62 11 3d 26 a6 20 be 50 0c 22 be
       -0.051460836 0.035494715 -0.1568838 -0.1582501
0003d0 d1 c6 f5 3d de 1a 86 3c 8a 8c ad 3d a1 75 02 3e
       0.12000812 0.016370233 0.08474071 0.12740184
0003e0 ff bd 15 bd 7b 41 4c bd 72 a5 9a bd ec 3b 10 3d
       -0.036558148 -0.049867135 -0.075510874 0.035213396
0003f0 63 60 e6 3c 8a 90 03 be 3b 36 03 be f2 0b d9 3d
       0.028122133 -0.12848106 -0.12813656 0.105979815

conv1.weight_v f4 [2, 1, 5]
000000 30 b3 ce be f9 2c 02 3e 21 25 29 be c4 ed 93 be
       -0.40371084 0.12712468 -0.1651807 -0.28892338
000010 de ae 23 bd 09 45 5c be 88 85 03 3e d8 76 20 3e
       -0.03996169 -0.2151071 0.12843907 0.15670335
000020 46 c6 b1 3c 77 65 17 3e
       0.02170099 0.147848

batch_norm_c2.weight f4 [2]
000000 9d 1b 85 3f 89 07 85 3f
       1.0399052 1.0392925

batch_norm_c2.bias f4 [2]
000000 63 10 ab 3b ac dc 37 bc
       0.0052204593 -0.011222046

batch_norm_c2.running_mean f4 [2]
000000 f9 ab 4b 3e a5 58 f0 3d
       0.19889821 0.117356576

batch_norm_c2.running_var f4 [2]
000000 f6 13 11 3d 7d c6 d3 3c
       0.035419427 0.025851483

conv2.weight_v f4 [64, 2, 3]
000000 fd a1 6c bd 69 d7 99 3e 8b 68 ac 3e 90 03 03 b9
       -0.05777167 0.30047157 0.3367351 -0.0001249446
000010 aa 77 aa be 6f b4 47 3e bd 3e 20 3e 0c 3d 3e 3e
       -0.3329442 0.19502424 0.15648933 0.18577975
000020 39 30 1c be ec d4 2c 3e c0 c7 9f 3e 0d b2 8a 3e
       -0.1525277 0.16878098 0.31207085 0.27088967
000030 ef bc a2 be b5 33 10 3d 61 44 b1 be d6 a5 b0 be
       -0.3178477 0.03520556 -0.3462248 -0.34501523
000040 1b 63 8d be d2 f3 32 3e 34 e4 90 3e 0f a7 98 be
       -0.27614674 0.17475823 0.28299105 -0.29814956
000050 35 8a a9 bd ea b0 04 3e 08 17 58 3e 4e 5e 36 3e
       -0.08278314 0.12958112 0.21102536 0.17809412
000060 04 b9 91 3e fc 0c 63 3e 50 a1 8d be 1a 52 2c 3e
       0.28461468 0.22172922 -0.27662134 0.16828194
000070 8b 2c 8d 3d 2d 48 ac be 1f 3a 8b 3e 0b 27 82 3e
       0.068932615 -0.33648816 0.2719278 0.25420412
000080 a5 a5 88 be 94 24 29 bc 99 b1 44 3e ba c7 d9 3d
       -0.26688877 -0.010323662 0.19208373 0.10633798
000090 d1 a5 ca 3e 31 cb 9d be 34 3c 3c bd b6 8e cb be
       0.39579633 -0.30819085 -0.04595585 -0.39757317
0000a0 29 74 d2 3e 8e 1c 69 be 4f 3e 53 3e 06 28 7f 3e
       0.41104248 -0.22764799 0.20629238 0.24917611
0000b0 60 2d e2 bd f0 a9 7c be e9 d2 ab 3e 69 4f cf 3e
       -0.11043811 -0.24674201 0.3355935 0.40490273
0000c0 fd d2 4a bd ad 40 44 bd 48 45 b2 3e 00 68 45 3d
       -0.04951762 -0.047913242 0.34818482 0.048194885
0000d0 7c 7a 6c be 12 cf 6f 3e 0c d3 c6 be 72 94 8b 3d
       -0.23093599 0.23418835 -0.3883289 0.06815423
0000e0 e9 b1 95 be fd 5d cb bb fd 12 0f be b4 03 31 be
       -0.29237297 -0.0062062726 -0.13972087 -0.17286569
0000f0 5f 67 25 be e1 51 e9 3d 5f 83 e3 3d 98 d7 ac be
       -0.16152714 0.1139257 0.111090414 -0.33758235
000100 93 5f c4 3e cb a6 87 3e 29 05 a5 be 5b d9 c3 3e
       0.38354167 0.2649444 -0.322305 0.38251767
000110 28 02 92 bd 23 fb 85 be 30 ac 35 3e 07 be ac 3d
       -0.071293175 -0.26168165 0.17741466 0.08434682
000120 f2 83 31 be dc 29 15 3e 22 78 14 3e e4 e4 29 3e
       -0.1733549 0.1456675 0.14498952 0.16591221
000130 49 2c 80 be 0b 05 b6 be 59 d5 83 bd 99 3a c3 be
       -0.25033787 -0.35550722 -0.06437177 -0.38130644
000140 b8 8e a1 3d de a0 ca be e5 b1 97 bd 63 1b a3 3e
       0.078885496 -0.39575857 -0.074069776 0.31856832
000150 43 a1 8e be f5 31 bd bd 1a 07 25 3e bf 09 a1 be
       -0.27857408 -0.09238044 0.1611599 -0.31452748
000160 38 1b c5 be a9 67 24 be b2 8d b9 3d 54 2d c6 3d
       -0.3849733 -0.16055168 0.09060229 0.096766144
000170 2d b5 7a be c7 05 b2 bd 1f 96 a7 bd 6b ba c9 be
       -0.24483176 -0.08692508 -0.0818293 -0.39400038
000180 cd ad 8a 3c eb 9f 5a bd 10 66 ab be 6a 85 4c be
       0.016928578 -0.053375166 -0.33476305 -0.19972768
000190 83 c2 9b 3e 0b 45 1e 3e 18 66 ae be 95 e0 31 3e
       0.30421838 0.15456025 -0.34062266 0.17370827
0001a0 75 03 ce be a4 3d 7a be f4 5b 5f 3d db a2 19 bd
       -0.40237013 -0.24437577 0.054531053 -0.037508827
0001b0 0b 3c 88 be a3 a3 7c 3d cf bf b3 3d 45 20 9e 3e
       -0.2660831 0.061679494 0.08776819 0.30883995
0001c0 a5 b4 9e bd 7f b7 c0 3e 63 bb 83 3e 85 18 21 be
       -0.07749299 0.37639996 0.25728902 -0.1573201
0001d0 e0 50 9b 3e d1 a7 53 be c0 60 ba 3d cd 2c 1b 3e
       0.3033514 -0.20669486 0.09100485 0.15153809
0001e0 16 ff 24 3c 51 f5 ea 3d 65 db 45 3e 7e 46 b9 be
       0.010070583 0.11472572 0.19321974 -0.36186594
0001f0 df 4e 77 3e 55 5c 15 3e ba cc 48 be bd 80 a5 3e
       0.2415118 0.14586003 -0.19609347 0.32324782
000200 b5 ad bd 3d d9 52 94 be aa 5b bc 3e ca d5 28 3e
       0.092616476 -0.28969458 0.36788684 0.16487804
000210 ca 6f 8b 3e 4a 56 8c 3d 8d 3d e5 3d 02 1c a0 3d
       0.27233726 0.06852396 0.111933805 0.07817842
000220 86 78 bb 3e 62 85 b7 3e d1 3c 13 3e a8 b4 13 3b
       0.3661539 0.3584395 0.14378668 0.00225381
000230 8f b7 91 be 8c ff 6a 3e cc 23 57 be b1 21 b5 3c
       -0.28460357 0.22949046 -0.21009749 0.022110792
000240 99 19 7f 3e 24 89 1e be e7 7d 3f bd be 8e 89 be
       0.24912108 -0.15482002 -0.04675093 -0.26866716
000250 c1 4a fd bd 56 45 a8 be ab d5 8a bd de 99 c1 3e
       -0.12367774 -0.328654 -0.06779035 0.37812704
000260 6e 5e ac be ac 21 61 be b7 4e a5 be 00 fc 25 be
       -0.33665794 -0.21985501 -0.32286617 -0.16209412
000270 96 88 84 3e 51 8a 84 3e c7 51 d1 3e 81 ad 11 3e
       0.25885457 0.25886777 0.40882704 0.14226343
000280 1d 81 ad 3e ed 82 43 be cd 3e 3a be 7d fc bd be
       0.33887568 -0.19092913 -0.18188019 -0.37106696
000290 10 94 ce be b8 47 d4 3d f8 55 a3 bd f0 08 9b be
       -0.40347338 0.10365242 -0.079753816 -0.30280256
0002a0 a2 d7 8b bd 47 1a bd be 56 0b 57 3e ff b2 8e 3e
       -0.06828238 -0.3693411 0.21000418 0.27870938
0002b0 bd 45 25 bd 0f 2b 61 bc d9 d9 95 3c ab 59 e0 3c
       -0.04034971 -0.013743176 0.018292354 0.027386507
0002c0 a0 e0 fa 3c 24 62 3c be 9f a4 be bd e4 4e 2d 3e
       0.030624688 -0.18396813 -0.09308743 0.16924626
0002d0 8e b7 46 bd eb 9a 40 3e d9 9a 08 be 0a c2 be 3e
       -0.048514895 0.18809097 -0.1334032 0.37257415
0002e0 04 9e 90 3e 06 81 8b be 85 12 b5 be 13 16 3a 3e
       0.28245556 -0.27246875 -0.35365692 0.18172483
0002f0 c4 99 b0 be c8 cf cc 3e 02 8e bb be ea 9a 75 3e
       -0.34492314 0.40002275 -0.3663178 0.23984876
000300 e8 a5 d8 bb e1 ee cf 3d 68 0f ae 3e 18 35 b2 3e
       -0.0066115744 0.101529844 0.3399613 0.34806132
000310 da 15 d1 bd 50 b7 42 be 3f ee ef 3d ee 88 b4 bc
       -0.10209246 -0.1901524 0.11715364 -0.02203795
000320 8a 52 a2 be 37 f5 ce be 0c 58 95 be cc c4 96 3e
       -0.31703597 -0.4042146 -0.29168737 0.2944702
000330 0d ed d3 3c 42 f3 77 3d 76 2d 57 be 2b 8a 46 be
       0.02586987 0.060534723 -0.21013436 -0.19388644
000340 8a 33 e0 3d 82 e2 a4 3e d9 b7 5f be 25 98 8a be
       0.1094733 0.32204062 -0.21847476 -0.27069202
000350 e0 a8 c4 3d 0a 3b af bb f4 32 f6 bd 5d 99 cf be
       0.09602523 -0.005347614 -0.12021437 -0.40546694
000360 ca 3a ba 3e b9 a8 e3 bd 09 3b 1e 3e 03 23 a6 be
       0.36372977 -0.11116166 0.15452208 -0.32448587
000370 3a 4d ab be ac 23 8d 3e b8 b9 a0 be df c8 1a 3c
       -0.33457357 0.27566278 -0.31391692 0.009447305
000380 cd bd 76 3d 0f e5 6e 3d 39 a4 a3 be 36 90 72 3e
       0.060239602 0.058323916 -0.3196123 0.23687825
000390 63 ce db bc 12 9e 0e 3e 5b 52 9b 3e e8 c5 9b be
       -0.026831811 0.13927487 0.3033627 -0.30424428
0003a0 58 85 1d 3d ea 89 28 3e 12 e6 22 be 10 fb 88 3e
       0.038457245 0.1645886 -0.15908077 0.26754045
0003b0 9b 56 ab 3e ad d4 62 be 20 74 8d bd 70 5e 1b 3e
       0.33464512 -0.22151442 -0.06906915 0.15172744
0003c0 6b 5b 5a be bb 6f d2 be 9e ba cb 3e 76 eb 63 bd
       -0.21323936 -0.4110087 0.39790815 -0.055644475
0003d0 9b 5e 8c 3e 43 35 3b 3e 41 f4 0a bd ba 4d 74 be
       0.27415928 0.18282036 -0.033924345 -0.23857775
0003e0 f6 54 e5 3d 99 03 55 be 1a 9a 0a 3e fb 89 ae be
       0.11197846 -0.20802154 0.13535348 -0.34089646
0003f0 68 09 80 bd 12 4b 02 be 8f a6 9a be 83 92 a7 be
       -0.06251794 -0.1272395 -0.302052 -0.32728967

batch_norm_c3.weight f4 [64]
000000 a4 46 80 3f 63 52 80 3f fa 76 7e 3f 7d ee 7e 3f
       1.0021558 1.0025142 0.99400294 0.99582654
000010 5a bc 7f 3f e3 0b 80 3f de 41 7f 3f 9f 2e 80 3f
       0.99896777 1.0003628 0.9970988 1.0014228
000020 e5 11 80 3f 75 b5 7f 3f 32 81 80 3f ee 51 80 3f
       1.0005461 0.99886256 1.0039427 1.0025003
000030 3d d5 7f 3f 82 d4 7f 3f fb 51 7f 3f 76 10 80 3f
       0.9993475 0.99933636 0.9973447 1.0005023
000040 74 1b 80 3f 3d cf 7f 3f 22 42 80 3f 65 0c 7f 3f
       1.0008378 0.99925596 1.0020182 0.9962829
000050 3f bd 7e 3f be 22 7f 3f d5 10 7f 3f 5f 26 80 3f
       0.99507517 0.9966239 0.9963506 1.001171
000060 85 4c 7f 3f a0 c4 7f 3f e9 b8 7f 3f 58 5c 80 3f
       0.99726135 0.999094 0.99891526 1.0028181
000070 93 aa 7f 3f 51 38 80 3f 1a 4f 80 3f de 1e 80 3f
       0.9986965 1.0017186 1.002414 1.000942
000080 c7 ec 7f 3f c2 0a 80 3f ad 30 80 3f d2 9d 80 3f
       0.9997067 1.0003283 1.0014855 1.0048163
000090 81 01 80 3f cb 79 80 3f 3b 78 80 3f cd d1 7f 3f
       1.0000459 1.0037168 1.0036691 0.99929506
0000a0 1b c9 7e 3f 0b 7d 7f 3f 6e 63 7f 3f 68 d3 7f 3f
       0.9952561 0.99800175 0.9976109 0.99931955
0000b0 4d 4d 80 3f 2c a4 80 3f 0e e2 7f 3f 09 bc 7f 3f
       1.002359 1.0050101 0.9995431 0.99896294
0000c0 80 75 80 3f 25 86 80 3f 22 56 80 3f c7 dc 7f 3f
       1.0035858 1.0040938 1.0026286 0.99946254
0000d0 54 84 7f 3f e2 ee 7e 3f 13 df 7f 3f cd f6 7f 3f
       0.9981129 0.99583256 0.9994976 0.99985963
0000e0 c2 06 80 3f 08 89 7f 3f 91 43 7f 3f d5 72 80 3f
       1.0002062 0.9981847 0.99712473 1.0035044
0000f0 59 1f 80 3f 9e d6 7f 3f 4b 78 80 3f 32 0e 80 3f
       1.0009567 0.99936855 1.003671 1.0004332

batch_norm_c3.bias f4 [64]
000000 1e ca 5a ba 5b 5a 19 b9 2c 8d 34 3b 6c e7 16 b8
       -0.0008346158 -0.00014624877 0.0027549965 -3.5978315e-05
000010 1a cc cb 3a 92 38 4a bb d5 58 25 bb 33 56 76 b9
       0.0015548498 -0.0030856472 -0.002522995 -0.000234925
000020 b2 f0 3d 38 ec 65 14 ba b5 26 3c ba 10 5c 4c bb
       4.5285276e-05 -0.00056609395 -0.00071773987 -0.0031182803
000030 cd 70 1f bb 5b 26 e4 b9 36 92 11 39 22 72 20 3b
       -0.002432871 -0.00043516126 0.00013882745 0.002448209
000040 83 05 af 39 dc 63 f2 ba 2f 24 ba b9 8f c6 c0 3a
       0.00033382708 -0.0018492895 -0.00035503643 0.0014707613
000050 a9 4f 8b 3a f4 29 38 b8 00 11 e2 ba f8 bf 48 ba
       0.0010628599 -4.390809e-05 -0.0017247498 -0.0007658
000060 96 90 f1 b9 9b ae 3c 3b 06 46 36 3a bd ee 0b 38
       -0.00046074827 0.0028790596 0.00069531833 3.3362525e-05
000070 c1 84 fb b9 68 fb 4a 39 6e c9 d4 b9 2c 8c 6d 3a
       -0.0004797336 0.00019357877 -0.00040585868 0.000906172
000080 5f 79 0e 3b 3b 19 0f ba 1b 89 d2 3a 19 cd dc 3a
       0.0021739823 -0.0005458777 0.0016062589 0.0016845792
000090 26 ca db ba c2 09 03 ba 83 29 70 ba e9 17 2b 3b
       -0.0016768619 -0.00049987074 -0.0009161459 0.002610678
0000a0 06 d6 a2 ba 65 c0 bd 3a ca 4f 02 bb 60 83 d7 3a
       -0.0012423403 0.0014476894 -0.0019883984 0.0016442351
0000b0 3a 94 15 bb 05 17 55 bb 99 79 ce 3a 26 ef d1 3a
       -0.0022823946 -0.0032514941 0.0015752792 0.0016016706
0000c0 3a 3d 01 b9 2a 40 aa ba c0 f8 1e 3b 77 ce 79 ba
       -0.00012325207 -0.0012989093 0.0024257153 -0.0009529362
0000d0 3e c0 b3 ba 27 ed d4 3a 65 28 fb 3a dd cb ff ba
       -0.0013713909 0.0016244993 0.0019161819 -0.0019515712
0000e0 64 80 07 3b b9 b7 d4 3a 21 95 72 ba 0a 83 78 ba
       0.0020675892 0.001622907 -0.00092537893 -0.00094799756
0000f0 a0 7c ad 3a 62 24 11 ba f6 0a 0c b8 3c 52 a7 39
       0.0013235994 -0.00055367325 -3.338881e-05 0.00031913992

batch_norm_c3.running_mean f4 [64]
000000 6b c6 9d 3e b1 32 7b 3e 85 a9 88 3e 8a 46 7b 3e
       0.30815443 0.24531056 0.26691833 0.24538627
000010 45 df 6e 3e 2b 58 75 3e 6b 21 99 3e eb 7d a9 3e
       0.23327358 0.23959415 0.29908308 0.3310388
000020 2a ab 64 3e 3f ec 65 3e 6a 03 85 3e 1a 89 83 3e
       0.22330919 0.22453402 0.25979167 0.25690538
000030 65 a4 81 3e 59 4c 87 3e 98 93 96 3e 2f 24 37 3e
       0.25320736 0.26425436 0.2940948 0.17884897
000040 42 52 76 3e ef 9c 7d 3e 54 3d 5e 3e 1d 7b 65 3e
       0.24054816 0.24766897 0.21703082 0.22410245
000050 ab 31 6d 3e 20 a1 8e 3e f0 2f 89 3e f5 47 2f 3e
       0.23163478 0.27857304 0.26794386 0.17117293
000060 9b 9e 47 3e 84 b9 8c 3e 7d 7a 9a 3e 9f 8b a7 3e
       0.19494097 0.27485287 0.30171576 0.3272371
000070 66 b7 7c 3e b0 10 00 3e 62 23 7d 3e 8c 85 9c 3e
       0.24679336 0.12506366 0.24720529 0.30570638
000080 c9 13 7c 3e 06 29 8c 3e 9b 24 4c 3e ab 3c 84 3e
       0.24616922 0.27375048 0.19935839 0.25827536
000090 bb b6 a3 3e 10 44 5b 3e 05 f2 77 3e 01 9a 8e 3e
       0.3197535 0.21412683 0.24213417 0.2785187
0000a0 d6 10 94 3e ec b3 42 3e 1e e2 44 3e 4a 6f 82 3e
       0.28919095 0.19013947 0.19226882 0.25475532
0000b0 74 0c 81 3e 33 12 c4 3e c0 9d 66 3e 13 ce 32 3e
       0.25204813 0.38295135 0.22521114 0.17461424
0000c0 5c 15 a8 3e c8 04 91 3e c1 20 a3 3e 77 e0 6f 3e
       0.32828796 0.2832396 0.31860927 0.2342547
0000d0 57 84 94 3e 85 ba 6d 3e 89 3d 0b 3e 68 aa 62 3e
       0.29007217 0.23215683 0.13597693 0.22135317
0000e0 39 d8 62 3e e2 e0 9b 3e c6 40 4e 3e 86 76 64 3e
       0.22152795 0.3044501 0.20141897 0.22310838
0000f0 46 d9 8c 3e 9d 7e 78 3e 95 29 3d 3e ad bf 44 3e
       0.27509516 0.24267049 0.18472894 0.19213744

batch_norm_c3.running_var f4 [64]
000000 f6 86 76 3e ee 37 81 3e 51 b2 fe 3d 98 68 43 3e
       0.24074921 0.25237983 0.12436355 0.19082868
000010 67 99 0c 3e b5 d2 37 3e 8b 3d 8e 3e c6 18 cd 3e
       0.13730393 0.17951472 0.2778133 0.40057963
000020 bf 28 0a 3e c0 d2 b2 3d 22 d3 5a 3e b0 8d 33 3e
       0.13492106 0.087316036 0.21369603 0.17534518
000030 3e 5e ec 3d dc db 19 3e 0f c5 09 3e 6a 75 63 3d
       0.11541413 0.15025276 0.13454078 0.055531897
000040 35 d2 40 3e 9c 57 e7 3d 9b b4 39 3e ab 42 10 3e
       0.18830188 0.11296007 0.18135302 0.14087932
000050 17 8b f5 3d 48 bf 62 3e 94 3f aa 3e d2 c4 a1 3d
       0.1198942 0.2214328 0.3325163 0.078988686
000060 4c 6c 86 3d 23 a1 28 3e 75 7c 91 3e 65 41 47 3e
       0.06563625 0.16467719 0.28415266 0.1945854
000070 3e 45 25 3e d7 54 1b 3d fd bc 7e 3e df a3 86 3e
       0.16139695 0.037922706 0.24876781 0.262969
000080 aa 7b 43 3e e1 8d 30 3e bb 14 21 3e 5c 48 cd 3d
       0.19090143 0.17241623 0.15730564 0.10023567
000090 10 f4 72 3e eb 8a a6 3d 38 65 12 3e ff 05 55 3e
       0.23725915 0.08131965 0.14296424 0.20803069
0000a0 d4 c8 58 3e 95 95 78 3d 54 c8 6c 3d 1a f0 42 3e
       0.2117036 0.060689528 0.057808235 0.19036904
0000b0 61 ea 00 3e a5 83 c7 3e 76 4e ff 3d 68 81 c1 3d
       0.12589408 0.38967624 0.12466137 0.094485104
0000c0 b8 01 86 3e 80 9c 88 3e e1 8e 98 3e 0b 32 26 3e
       0.26173186 0.266819 0.29796508 0.16230027
0000d0 7a 61 39 3e 27 2f 48 3e f5 1b e8 3c 83 02 50 3e
       0.1810359 0.19549237 0.028333643 0.20313458
0000e0 6d 13 21 3e 25 41 3a 3e 92 17 78 3d 70 6f 62 3e
       0.15730067 0.18188913 0.060569353 0.22112823
0000f0 4d b2 69 3e 5c b3 6d 3e 2b 9f a9 3d a4 bd 3b 3e
       0.22821923 0.23212951 0.08282312 0.18334061

conv3.weight_v f4 [64, 64, 3]
000000 29 b8 7c bd 9f ae 10 3d 34 8f a8 bc ff 80 78 bd
       -0.061699066 0.03532278 -0.020576097 -0.060669895
000010 96 f2 9b 3c 0a b5 23 3d 3e 36 29 bd 7e 9c 03 bd
       0.019036572 0.039967574 -0.041311495 -0.032131664
000020 46 82 12 3d 07 f5 0c 3d 23 a5 58 bd 1c da 69 3c
       0.03576877 0.034413364 -0.05289186 0.014273193
000030 23 32 38 bc 24 8e 6f 3d 18 1b 4d 3d 7c 87 25 bd
       -0.011242422 0.058485165 0.050074667 -0.04041241
000040 ca 00 69 bc da 49 27 bb f5 6e 8f bd 1f 3d 59 b9
       -0.0142213795 -0.0025526197 -0.07003585 -0.00020717502
000050 a5 eb 69 3d d6 c1 86 3d 7e 49 94 3c 4d 92 15 3d
       0.057109494 0.0657994 0.01810145 0.036516476
000060 cc 3e 77 3c 04 a5 ce 3c 20 61 b7 3c 48 c8 23 3d
       0.015090656 0.02522517 0.02238518 0.039985925
000070 9c 9a 48 3d be 1a c9 3c 67 f6 84 bd 98 f6 84 bd
       0.048975572 0.024548884 -0.0649231 -0.064923465
000080 da 0b 9b 3c e3 b5 3a bd b6 2b af bc 69 fd 13 bd
       0.01892655 -0.045583617 -0.021383148 -0.036130343
000090 b2 7e 0a bc ce 9f 76 3d ab c8 8a bc 24 77 3e 3c
       -0.008453058 0.060210995 -0.01694139 0.011625085
0000a0 64 57 24 bd b9 6d 68 bd f7 18 2a bd cd ca 59 bd
       -0.040122405 -0.056745265 -0.041527715 -0.05317192
0000b0 79 d7 50 bd fb 1f 69 bc d5 8b 0e 3d 1c dc 4b 3c
       -0.05098674 -0.014228816 0.034801323 0.012442615
0000c0 6d 88 60 3d 21 ff 86 3d 52 ca 27 3d eb 12 80 3c
       0.054817606 0.06591631 0.040964432 0.01563402
0000d0 fe 91 03 bd 74 8c 39 3d db ac 01 3d e9 21 90 bd
       -0.03212165 0.045299962 0.03165899 -0.07037718
0000e0 ef b0 67 3d e6 cc 49 bd 1e 63 20 3d 44 73 7e 3d
       0.05656522 -0.049267672 0.039157026 0.062121645
0000f0 31 ad 06 3d 90 ed 6a bd c7 fc dd 3c 39 33 30 3c
       0.032880012 -0.057355464 0.027098073 0.0107544
000100 f8 81 c5 3c 9b e6 f0 ba 45 66 70 bd 56 48 0a bd
       0.024109825 -0.0018379273 -0.05869128 -0.03376039
000110 70 8c 84 bb 04 99 41 3c a0 b7 85 3d 28 81 6e bc
       -0.0040450618 0.011816267 0.06529164 -0.01455716
000120 5a 7e ca bc 29 d9 13 3c b7 0e 87 bd 9b 60 0f 3d
       -0.024718452 0.009023943 -0.065946035 0.03500424
000130 15 b3 01 bd 47 1b 46 bd bd 93 75 bd 77 13 85 3d
       -0.031664927 -0.048365857 -0.059955347 0.06497853
000140 5d 2c 92 3d 3a c9 f0 3c 5e a6 4c bc ae 16 77 3d
       0.07137368 0.029392827 -0.012490837 0.060324363
000150 aa 4d 32 bc 32 55 e6 bc 61 b3 62 bc e0 3c 93 3d
       -0.010882774 -0.028116796 -0.013836713 0.07189345
000160 8a 86 57 bd 0a fa 80 bd 7a 38 fa 3c 2a 6c 87 3d
       -0.05261854 -0.06297691 0.030544508 0.066124275
000170 97 0f 7c bd 8d 56 5d bd ae 14 83 bc 82 55 b8 3c
       -0.061538305 -0.05403762 -0.016001072 0.02250171
000180 d3 c3 52 3d dc 6b 08 bd fa 5b 10 bd b0 79 85 3c
       0.051456284 -0.033305988 -0.035243966 0.016293377
000190 18 36 72 3d 37 42 2a 3a ce 06 eb bb d4 15 30 bc
       0.05913362 0.0006494852 -0.007172442 -0.010747392
0001a0 2b 02 95 3d 87 09 52 bd f1 4f 59 bd b5 91 80 3d
       0.07275804 -0.051278617 -0.053054754 0.062777914
0001b0 5f f7 55 3c 05 8d 0e bd 35 bc 83 bd b6 ea 2c bc
       0.013059466 -0.034802455 -0.06432382 -0.010554006
0001c0 4d dc a0 3b d9 8b 37 ba 27 66 9c 3c 77 21 5c 3d
       0.0049090744 -0.0007001735 0.019091679 0.053742852
0001d0 df 94 9b 3d e0 01 53 3c 21 91 db bc 99 55 97 bc
       0.07596754 0.012878865 -0.026802601 -0.018473433
0001e0 d4 eb 4f bd 0d 75 f7 bb f1 83 68 3d 01 5c 1c 3d
       -0.050762013 -0.0075517953 0.056766454 0.03817368
0001f0 8a 6b 4d bd fc 4f 4b 3d 1c 8f 67 bc e6 50 7a bc
       -0.050151385 0.049636826 -0.014133241 -0.015278077
000200 31 b8 42 3d d0 36 68 3c ff 10 ee bc 62 7e 88 bd
       0.04753894 0.014173225 -0.029060839 -0.066647306
000210 67 37 73 bd 7f 24 82 3d 03 8e 24 bd dd 69 2c 3d
       -0.059379008 0.06354617 -0.040174495 0.042093147
000220 42 c2 9b bc 93 9a 81 3d 8a f4 52 3d 92 7f 20 3d
       -0.019013528 0.06328311 0.051502742 0.03918416
000230 33 df 02 bd 49 71 0d 3d 4d 96 39 3d d3 7a d7 bc
       -0.03195114 0.034531865 0.045309354 -0.026303684
000240 de bd 5b bc 0d 24 48 3d de 1a 8e 3d 74 27 1a bd
       -0.013411967 0.048862506 0.06938718 -0.03763528
000250 ef f6 a7 3c 97 90 46 3d 97 74 54 3d d2 4b 03 3c
       0.02050349 0.048477735 0.051869 0.008013682
000260 8c bc 8a 3d da bd 78 bd 78 aa 90 bd 78 49 54 3c
       0.06774244 -0.06072793 -0.07063764 0.012956969
000270 5e 96 1c bb b7 09 35 3d 97 85 cb 3c 38 43 8b 38
       -0.0023893337 0.044198718 0.024843974 6.640557e-05
000280 58 a2 2a bd 9f 12 35 bc 01 8e d1 3b b2 9e 85 3c
       -0.04165873 -0.011051803 0.006395102 0.016311023
000290 fe 00 e0 bc b3 46 4c 3d 81 5e ae bc 5a 13 9d 3d
       -0.027344223 0.04987211 -0.021285297 0.07669707
0002a0 b6 ff b4 3b 32 aa 81 3d ef 50 2e 3c 0c 0c 53 bd
       0.005523647 0.0633129 0.010639413 -0.05152516
0002b0 4f d1 b4 3b 50 f4 32 3d 6d f0 19 3d 2e 38 4e 3d
       0.0055181156 0.043690026 0.037582804 0.050346546
0002c0 92 82 4a bc 8f 66 ad 3c 9e 77 31 3b 04 b8 a8 bc
       -0.012360232 0.021167068 0.0027079354 -0.020595558
0002d0 88 1a b6 bc 34 0e 99 3d 00 40 1b bd f9 aa 76 bc
       -0.022229448 0.07473412 -0.037902832 -0.0150554115
0002e0 8d 25 86 3d b4 79 2d bd fe 5c 82 bd 8d 6c 72 bd
       0.06550131 -0.042352393 -0.06365393 -0.059185553
0002f0 98 3a 81 3d 3a 4b 07 bd 90 df 55 3d 10 cc e4 bb
       0.06310004 -0.033030726 0.05221516 -0.006982334
000300 8f 86 52 3c 0b a3 be bb 71 46 7c bd b8 46 77 bd
       0.012849464 -0.005817776 -0.061590616 -0.060370177
000310 59 c5 5d bd c2 42 ec 3c 9d 16 73 bd 54 e9 71 3d
       -0.054143284 0.028840426 -0.059347738 0.05906041
000320 d6 4e 4e bd a8 7b d6 3c 93 39 a8 ba 5e 5f 62 3d
       -0.050368153 0.02618201 -0.0012834541 0.05526673
000330 57 b1 39 bd 2b a2 13 3d 26 de 87 3c 1e 3e 17 bd
       -0.04533514 0.036043327 0.01658542 -0.036924474
000340 0c 1f 61 3c 0e 89 17 3d 9a 97 71 3c db 1d 53 bd
       0.013740312 0.03699594 0.014745617 -0.051542144
000350 a1 a7 7f 3d 87 88 80 bb f9 6a e8 bc 3e 7a 89 3d
       0.062415723 -0.0039225253 -0.028371321 0.06712769
000360 28 a7 ea 3c 25 bc d8 bc af 86 50 bd bb 89 84 3d
       0.02864416 -0.026456902 -0.050909694 0.064715825
000370 c9 dd 10 3d a8 6e 07 bd 30 e5 8d 3c e0 ab 3d 3d
       0.03536776 -0.033064514 0.0173212 0.04630649
000380 ae 9b 57 3c 2c b3 27 3c 90 7c 63 bd db ab 8a bd
       0.0131596755 0.010235589 -0.055538714 -0.0677106
000390 e6 d7 74 bb 19 25 45 bd 06 5e 87 bd 87 0b e6 ba
       -0.003736013 -0.048131082 -0.066097304 -0.0017551043
0003a0 86 e2 09 bd fc 54 36 3d fc 5f 70 bd 71 c8 07 bd
       -0.033663295 0.04451464 -0.058685288 -0.03315014
0003b0 e4 c1 55 bd 0d e6 ac 3b 95 8d 24 3d c2 e0 35 3d
       -0.05218686 0.0052764476 0.040174086 0.0444038
0003c0 96 45 c0 3c 37 80 8d bd c1 e1 23 bd b6 6d ca bc
       0.023470681 -0.06909221 -0.040010218 -0.024710517
0003d0 bb 74 89 3b a8 40 9d bc 84 10 5b 3d 42 b5 68 3d
       0.0041948236 -0.01919587 0.053482547 0.056813486
0003e0 75 c6 bd bc c3 d8 f5 bc 44 32 4f 3d 48 e7 26 bd
       -0.02316592 -0.030010587 0.050585046 -0.04074791
0003f0 5c d5 a7 bb 96 63 73 bd c5 a1 81 3d a6 08 bc 3c
       -0.00512187 -0.059421144 0.06329683 0.022953343

batch_norm_c4.weight f4 [64]
000000 d7 75 7f 3f 29 ec 7f 3f ca ae 7f 3f ab 89 7f 3f
       0.99789184 0.99969727 0.9987608 0.9981944
000010 bc f0 7f 3f c2 ae 7f 3f 03 1f 7f 3f dd d6 7f 3f
       0.99976707 0.99876034 0.99656695 0.9993723
000020 ad ee 7f 3f 1e 03 80 3f 60 12 80 3f bd 0b 80 3f
       0.99973565 1.0000951 1.0005608 1.0003582
000030 27 7c 7f 3f 94 cb 7f 3f 4e 45 7f 3f 3b ee 7f 3f
       0.99798816 0.9992001 0.99715126 0.99972886
000040 aa 39 7f 3f 2f 39 7f 3f 2c ac 7f 3f 26 15 80 3f
       0.99697363 0.9969663 0.9987209 1.0006454
000050 5e de 7f 3f c7 16 80 3f 5b 05 80 3f e8 11 7f 3f
       0.9994868 1.0006951 1.0001634 0.996367
000060 2c 04 80 3f d8 d7 7e 3f e4 86 7f 3f bd b9 7f 3f
       1.0001273 0.995481 0.998152 0.9989279
000070 37 6d 7f 3f ed ac 7f 3f 5b 54 7f 3f b8 93 7f 3f
       0.99776024 0.9987324 0.9973809 0.99834776
000080 79 0c 7f 3f 9a 96 7f 3f 1f e6 7f 3f a4 94 7f 3f
       0.99628407 0.99839175 0.9996051 0.9983618
000090 22 f9 7f 3f f5 d4 7f 3f 4e a6 7f 3f 98 2a 7f 3f
       0.9998952 0.9993432 0.99863136 0.9967437
0000a0 a1 c6 7f 3f 9b b3 7f 3f 78 04 80 3f a9 0e 80 3f
       0.9991246 0.9988343 1.0001364 1.0004474
0000b0 49 22 80 3f 17 fc 7f 3f 06 ca 7f 3f a0 80 7f 3f
       1.0010463 0.99994034 0.9991764 0.9980564
0000c0 6a 58 7f 3f 0b e1 7f 3f 32 e7 7f 3f 68 21 80 3f
       0.99744284 0.99952763 0.9996215 1.0010195
0000d0 e4 98 7f 3f 1f 77 7e 3f be 12 80 3f 7d e9 7e 3f
       0.9984267 0.99400514 1.000572 0.99575025
0000e0 47 d3 7f 3f 5b d5 7f 3f 53 93 7f 3f 34 8c 7f 3f
       0.9993176 0.9993493 0.99834174 0.9982331
0000f0 6e e4 7f 3f 23 80 7f 3f ca 1f 80 3f 11 0e 7f 3f
       0.9995793 0.99804896 1.0009701 0.9963084

batch_norm_c4.bias f4 [64]
000000 15 32 80 ba 5c 19 c4 b9 58 24 b6 3a 8a d7 94 ba
       -0.0009780551 -0.00037402927 0.0013896329 -0.001135574
000010 4e 18 95 37 96 92 d2 38 b5 67 0c b9 58 d9 f5 b9
       1.7773502e-05 0.00010040884 -0.00013390074 -0.00046891975
000020 90 f4 b8 b9 65 26 51 ba 87 5b aa b8 59 af 87 39
       -0.00035277428 -0.00079784385 -8.12328e-05 0.0002587985
000030 01 f5 02 3a 72 74 26 b8 4b 16 5b 3b 76 05 e3 b9
       0.0004995615 -3.9685932e-05 0.0033430036 -0.00043300883
000040 80 39 5e b9 ac 51 08 38 98 42 bb 38 88 a6 35 ba
       -0.0002119299 3.250099e-05 8.929259e-05 -0.0006929417
000050 bb 5f 32 ba b2 8e f2 ba 83 f6 54 ba c2 23 83 b9
       -0.0006804426 -0.0018505661 -0.00081238913 -0.0002501291
000060 19 f2 f0 b9 f7 c8 03 b9 e2 5f 9e 39 f0 ff fc 37
       -0.00045956744 -0.00012567999 0.00030207547 3.0159921e-05
000070 d6 32 2d ba 19 41 5f ba a9 b6 13 b9 56 b6 ef b8
       -0.00066070014 -0.0008516475 -0.00014087059 -0.00011430371
000080 29 62 ef b9 8d 43 1e 39 b3 a3 00 3b 9c 79 22 ba
       -0.00045658767 0.00015093219 0.0019628822 -0.0006197931
000090 c9 fc 86 39 77 89 42 3b 5e 24 dd 3a e2 87 5a b8
       0.0002574681 0.0029683986 0.00168718 -5.21018e-05
0000a0 43 7a 86 b9 fd 81 dc b9 bb 90 b1 b8 af 96 a0 39
       -0.00025649564 -0.0004205852 -8.466976e-05 0.00030629846
0000b0 c4 6d ee 3a fc bb 0b bb bb 48 7e 3a 66 47 d0 39
       0.0018190672 -0.0021321764 0.0009700169 0.00039726048
0000c0 1e ba 6a 3a d6 fa ff 39 50 6f ea 39 40 65 b6 3a
       0.0008954125 0.00048824277 0.00044714892 0.0013915673
0000d0 21 18 0e b9 36 d4 c6 3a f7 69 50 39 86 9c e3 39
       -0.00013551164 0.0015169445 0.00019875901 0.00043413433
0000e0 48 8f d4 3a 45 55 d5 38 13 3a 4e ba dc 83 21 3a
       0.0016217018 0.00010172514 -0.000786693 0.0006161311
0000f0 34 a9 86 37 1c ad 13 b9 7d d5 2d b9 52 47 6b ba
       1.6052836e-05 -0.000140835 -0.00016578096 -0.0008975166

batch_norm_c4.running_mean f4 [64]
000000 43 24 6b 3e b4 f4 9e 3e 92 21 73 3e 51 d2 92 3e
       0.22963051 0.3104607 0.23743275 0.28676084
000010 37 cc 78 3e e0 a9 7e 3e 30 be 81 3e d7 14 76 3e
       0.24296652 0.2486949 0.25340414 0.24031387
000020 82 56 92 3e ee 10 97 3e 2f 13 87 3e 51 f7 87 3e
       0.28581625 0.29505104 0.26381823 0.26555875
000030 87 d4 4c 3e b3 fc 6f 3e d0 30 a0 3e 09 cc 51 3e
       0.20002948 0.23436241 0.3128724 0.2048799
000040 34 3d 7b 3e d2 b2 94 3e 11 06 8c 3e d8 3f 96 3e
       0.24535066 0.2904268 0.27348378 0.29345584
000050 d7 2b 80 3e f5 12 6f 3e b5 a2 82 3e 76 87 74 3e
       0.25033447 0.23347075 0.2551476 0.23879799
000060 9f b5 53 3e af 28 95 3e 9d 16 90 3e 19 20 41 3e
       0.20674752 0.29132602 0.28142253 0.188599
000070 5c d4 8d 3e 81 64 81 3e 41 e8 76 3e 8d 3c 7b 3e
       0.2770108 0.2527199 0.24112035 0.24534817
000080 df 8f 99 3e 5a 4a 80 3e 36 a7 5e 3e e0 f8 6f 3e
       0.29992577 0.25056726 0.21743473 0.23434782
000090 dc 05 6f 3e a6 6b 7c 3e 9e 14 89 3e c1 63 8f 3e
       0.23342079 0.2465044 0.26773542 0.28005794
0000a0 5b 10 86 3e 59 c7 9a 3e 96 78 76 3e c1 0a 79 3e
       0.26184353 0.30230215 0.24069437 0.24320509
0000b0 19 37 94 3e af ec 81 3e 89 41 62 3e 4a fd 5f 3e
       0.28948286 0.25375888 0.22095312 0.21873966
0000c0 5c b7 80 3e 60 0a 8f 3e 88 1d 9f 3e a4 37 80 3e
       0.25139892 0.27937603 0.31077218 0.2504245
0000d0 9a 41 a9 3e 9e f2 8d 3e 98 c5 6f 3e 24 54 5b 3e
       0.33057863 0.27724165 0.2341522 0.21418816
0000e0 b9 07 85 3e 72 44 78 3e ab 54 79 3e eb a3 91 3e
       0.25982454 0.2424486 0.24348705 0.28445372
0000f0 4f 0a 76 3e c9 41 88 3e 91 a4 4b 3e 86 68 95 3e
       0.2402737 0.2661269 0.19886996 0.29181308

batch_norm_c4.running_var f4 [64]
000000 f4 c6 39 3e f9 96 a9 3e 44 5e 36 3e 55 15 4b 3e
       0.18142301 0.33122995 0.17809397 0.19832356
000010 fa 6d 29 3e eb bf 39 3e 49 47 1d 3e 71 70 3b 3e
       0.16545859 0.18139617 0.15359224 0.18304612
000020 92 53 0a 3e 56 d9 ae 3e c4 3c 2d 3e cc 12 72 3e
       0.13508442 0.3415019 0.16917711 0.23639983
000030 32 85 bd 3d 9b 00 25 3e 64 9b ba 3e 6a cb a7 3d
       0.092539206 0.16113512 0.3644668 0.08193095
000040 37 b3 ff 3d 98 1c 90 3e fc fe 22 3e 54 3a a1 3e
       0.124853544 0.28146815 0.15917581 0.31489813
000050 37 29 33 3e 07 10 e0 3d 20 32 6c 3e 07 2e 43 3e
       0.17496191 0.10940557 0.23065996 0.19060527
000060 1e 47 08 3e 52 c9 32 3e 58 23 0c 3e 76 e9 c9 3d
       0.13308379 0.1745961 0.13685358 0.09858982
000070 aa 4e 19 3e ad 8d f1 3d e2 22 25 3e c1 b5 39 3e
       0.14971414 0.11794601 0.16126588 0.1813574
000080 86 5b 8c 3e dd 66 ff 3d f8 71 d8 3d f1 51 17 3e
       0.27413577 0.124707915 0.10568613 0.14777352
000090 27 e4 de 3d 87 af 51 3e 0c 79 42 3e 5f 42 46 3e
       0.1088336 0.20477115 0.18991488 0.19361256
0000a0 4e 60 23 3e 37 dd 42 3e 71 ad 0e 3e 4e 73 29 3e
       0.15954706 0.190297 0.1393335 0.16547891
0000b0 6b a2 b8 3e b4 1d 3e 3e 26 21 33 3e 4f 0f d0 3d
       0.36061415 0.18566018 0.17493114 0.1015917
0000c0 d1 ac 65 3e 7b 37 81 3e fc af 50 3e 8a 4b 61 3e
       0.22429205 0.2523764 0.20379633 0.22001472
0000d0 54 32 71 3e cd a2 97 3e 52 06 16 3e 6e 62 d8 3d
       0.23554355 0.29616395 0.14650849 0.10565649
0000e0 d6 b6 91 3e 75 3a 22 3e fb e5 2c 3e fd 50 8b 3e
       0.28459805 0.15842612 0.16884606 0.27210227
0000f0 ff e3 f8 3d 8e 48 2a 3e cf ab db 3d 2b a6 4e 3e
       0.12152862 0.1662924 0.10726129 0.20180576

conv4.weight_v f4 [64, 1, 5]
000000 87 2c 90 3e 46 7e bd 3e 5d d7 c7 be 54 bb c9 3e
       0.28158972 0.370104 -0.39031497 0.39400733
000010 b4 b7 cd 3e 82 23 d3 3e ca 54 ce be 5a a8 92 3e
       0.40179217 0.41238028 -0.40299064 0.28644067
000020 f6 84 c6 3d 4f dc fe 3c a9 27 79 3e 16 61 35 be
       0.09693329 0.03111091 0.24331535 -0.17712817
000030 ed c8 c3 bd e6 e3 22 bc ab af e5 be 41 f6 be be
       -0.09559808 -0.0099420305 -0.44860587 -0.37297252
000040 12 79 cc be 26 7f b1 be fd b4 37 be 69 fb 92 3e
       -0.3993612 -0.3466732 -0.17940135 0.28707436
000050 7d d4 e3 be b3 d3 c7 3e 74 a6 a4 bb cd 6f b7 be
       -0.44498053 0.390287 -0.0050247256 -0.35827485
000060 6b b1 8d 3e 3a a2 a2 3e 49 13 bd be 34 9f c6 3e
       0.27674422 0.31764394 -0.36928776 0.38793337
000070 a3 17 66 be b5 8f 04 3e d7 a4 e5 3d ac 4f f8 bc
       -0.22469954 0.12945445 0.11213081 -0.030311428
000080 c7 a3 c0 be ac 52 90 3e a7 92 c6 be 1b da 82 be
       -0.37624952 0.28188074 -0.38783762 -0.25557026
000090 9d ec e8 bc 77 cd 00 3e 1b ce c7 3e 11 ba 8b bc
       -0.028433139 0.12578379 0.39024433 -0.017056497
0000a0 06 c6 a7 bd 05 31 9a be f4 21 d4 3e d9 11 da be
       -0.08192067 -0.30115524 0.41432154 -0.42591742
0000b0 80 16 39 be e3 61 5b be 31 d4 cd be 09 21 29 3e
       -0.1807499 -0.2142406 -0.40200952 0.16516508
0000c0 dc 24 80 3e a2 ba ae 3e 73 03 24 bd 7f 0a e5 be
       0.2502812 0.34126765 -0.040042352 -0.4473457
0000d0 e0 d0 82 3e c0 1c db be c1 6c 86 be d0 27 24 3e
       0.25549984 -0.42795372 -0.26254848 0.16030812
0000e0 f6 53 4c 3e d1 37 e8 3d cf 78 8c be 33 ee 71 be
       0.19953904 0.11338771 -0.2743592 -0.23626022
0000f0 bb 58 1f 3d f8 e4 4d 3e 36 8d b7 bc b5 f5 75 be
       0.03890298 0.20106876 -0.022406202 -0.24019511
000100 53 d7 27 3e ca bd 0d 3e 53 e9 21 be e0 6d 4d bc
       0.16390733 0.1384193 -0.15811662 -0.012538403
000110 05 ca 83 3d 8e b9 5e be 01 93 e4 bd 2d b1 23 be
       0.064350165 -0.21750471 -0.11160851 -0.15985556
000120 46 8f b1 bc 39 59 87 be fc 17 95 be 9e 6a 91 be
       -0.021674763 -0.2643526 -0.2911986 -0.28401655
000130 2b 80 ba 3d 64 4e 8d 3c 82 82 0b be cd 84 b0 ba
       0.09106477 0.017249294 -0.13624004 -0.0013467312
000140 c0 db dc 3d 35 b4 04 3e 28 d0 01 3d cd b9 dd bd
       0.107841015 0.12959369 0.031692654 -0.10826454
000150 fd 11 82 be 17 5f 50 be 6e c6 70 bd f4 f7 a8 be
       -0.2540435 -0.20348774 -0.058782987 -0.33001673
000160 27 de 52 bd 7b ae 94 be f0 01 d7 be d6 3e 42 3e
       -0.051481392 -0.29039368 -0.41993666 0.18969283
000170 8a 28 90 bd e8 b7 e5 bd bb c9 4a 3e 4f 70 91 bd
       -0.07038982 -0.11216718 0.19803517 -0.07101499
000180 34 79 b2 bd fa 79 e5 3e c7 c4 49 3e 8c 69 ba be
       -0.08714524 0.44819623 0.19703971 -0.3640865
000190 46 72 a8 3e e7 52 70 be 2c 2f cf bd 38 e0 55 3e
       0.32899684 -0.23469125 -0.10116419 0.20886314
0001a0 ea 13 d9 3e cb dd b8 be 0c 0d 8c be 54 1a c8 be
       0.42398006 -0.36106715 -0.27353704 -0.39082587
0001b0 2d e6 d8 be f8 90 d2 be 59 cb b1 be fd 41 cc 3d
       -0.4236311 -0.41126227 -0.34725454 0.09973524
0001c0 c1 5c 31 3e 77 89 b5 3e a8 4f 95 3e 0c 89 bc be
       0.17320539 0.3545644 0.29162335 -0.36823308
0001d0 49 4c 27 3b 9c 53 cf be 1f c4 c8 3e f7 b8 a9 bd
       0.0025527647 -0.40493476 0.3921213 -0.08287232
0001e0 12 71 2e 3e 3f 94 92 be 15 2c bf 3e 48 31 a9 be
       0.1703532 -0.28628728 0.3733832 -0.3304541
0001f0 19 08 1d 3e fa df bc bd 79 64 74 bd aa 93 de bd
       0.1533512 -0.09222408 -0.05966613 -0.108680084
000200 a8 22 7f 3e 94 ed c2 3d 59 a1 72 3e 82 60 1a be
       0.24915564 0.09517971 0.23694362 -0.15075877
000210 6b 22 82 be a8 0a 93 3e f6 4d ab be 9c 6d 73 be
       -0.25416884 0.28719068 -0.33457917 -0.23772281
000220 b1 46 d1 bd 95 6a ad be 32 67 9d 3e 49 a0 c6 3e
       -0.102185614 -0.33870378 0.30742794 0.38794163
000230 e2 1c 5b be de 32 9e be 9f 24 55 3d 2f 62 80 3e
       -0.21397737 -0.30898184 0.052036878 0.25074908
000240 42 fd a2 3e 81 65 2c be f4 c1 7b bc 63 32 53 be
       0.31833845 -0.16835596 -0.015366066 -0.2062469
000250 83 a5 de be 86 e7 89 bd 94 77 08 be dd 01 8b 3e
       -0.4348565 -0.06733613 -0.13326865 0.2714986
000260 f7 0d 9a 3e 94 b0 a9 be 1c f0 18 3e b2 07 a3 be
       0.3008878 -0.3314253 0.14935344 -0.3184181
000270 ab e2 7b be df f0 b9 3e 74 53 08 be c9 0d 81 3e
       -0.24598186 0.36316583 -0.13313085 0.2520583
000280 c2 c6 df be ac d5 ca be 1e a9 77 3d 55 4e d3 be
       -0.43706328 -0.39616144 0.060464017 -0.412707
000290 6f 5b 9c 3e 6a 18 b1 3e 3c 36 98 be e9 61 81 3e
       0.30538508 0.3458894 -0.29728878 0.25270012
0002a0 23 22 27 be 2f 67 d4 be e9 8f 69 3e c7 bd 30 3e
       -0.16321616 -0.41484973 0.22808804 0.17259894
0002b0 ab a7 a6 3e 7d d3 99 3c 02 bd 0e 3e 1d 70 bc 3e
       0.32549796 0.018777603 0.13939288 0.36804286
0002c0 07 28 b1 be e5 82 3c 3e a9 4c 8f bd 81 91 28 3e
       -0.3460085 0.18409307 -0.06997044 0.16461755
0002d0 d0 11 ae 3d c1 8e f3 bd d9 0f dd be 6c 49 9d 3d
       0.08499491 -0.118924625 -0.43176153 0.0768002
0002e0 aa 5c b6 be d2 d3 7f 3e 0f 2d 28 3e 43 e1 86 be
       -0.35617572 0.24983147 0.16423438 -0.26343736
0002f0 92 bb 45 3e e1 e8 ca 3e a4 f2 db bd aa 7a 7c 3e
       0.19309834 0.39630798 -0.107396394 0.24656168
000300 52 69 e1 be e3 54 b6 be 1f 1a 4d be a7 9f 6a 3d
       -0.44025666 -0.35611638 -0.20029496 0.057281163
000310 c6 3a 0d 3d 88 ec ad 3e 30 a8 c9 3e b5 46 82 be
       0.03447988 0.33969522 0.3938613 -0.2544457
000320 c6 fe ce be ac ad 5f bc 9b 27 6e 3e 55 27 1c 3e
       -0.40428752 -0.013652246 0.23257296 0.15249379
000330 6a 13 a4 be c4 b2 43 3e fe d0 b3 be fd 7c ba 3e
       -0.32046062 0.19111162 -0.35120386 0.36423483
000340 4e a8 f7 3d eb e9 a0 be c1 1e 01 3d df d3 97 3e
       0.120926484 -0.31428465 0.03152347 0.29653832
000350 69 e7 e2 3e e7 be 12 be 5f 24 74 bd 06 a6 fa 3b
       0.44317177 -0.14330636 -0.059605 0.007649186
000360 90 80 07 be e9 52 a0 3e c3 66 be be cd f1 d1 3e
       -0.13232636 0.31313255 -0.37187776 0.41004792
000370 eb 21 89 3e dd e2 e2 be bc 73 cf 3e c1 4d ba 3e
       0.2678369 -0.44313708 0.40517986 0.36387447
000380 b6 39 be 3d d8 7d 36 be 79 40 4e 3e c5 1c 89 3e
       0.09288351 -0.17821443 0.20141782 0.26779762
000390 43 95 e5 3e 57 d5 8d 3e 3f ea 88 bd d2 a6 1c be
       0.4484044 0.27701828 -0.06685304 -0.15298012
0003a0 fe 44 62 3e cf d2 56 be 63 b3 cf be 7e 4f bf 3e
       0.22096631 -0.20978855 -0.4056655 0.37365335
0003b0 25 6f 75 be c8 69 a3 3d 8f 2f 0c 3d ea 3d 91 be
       -0.2396818 0.079791605 0.034225043 -0.2836755
0003c0 08 41 db be 31 89 bf 3d 7d 72 0f be 02 ff 09 3e
       -0.42823052 0.09352339 -0.14008518 0.13476184
0003d0 14 df e3 bb a5 57 0b 3e 26 75 00 be 0b 57 96 be
       -0.006954083 0.13607652 -0.12544689 -0.29363284
0003e0 ee dc 93 3c 2f 33 e1 3d c8 5b de be cd 71 c4 be
       0.018049683 0.109960906 -0.434294 -0.38368073
0003f0 50 54 d6 3e c4 4f a9 3e ac 88 da be d8 ca 4c be
       0.418612 0.3306867 -0.42682397 -0.19999254
