lightning_logs/version_0/checkpoints/epoch=137-step=1104.ckpt (torch, 678745 bytes, 50 tensors)

batch_norm1.weight f4 [40]
00000000: 6c33 6a3f c659 8f3f b091 723f b0e0 6f3f
00000010: a1d4 713f e479 753f 47c4 793f 0f98 793f
00000020: 490b 7f3f 370a 803f 2736 743f 73a0 723f
00000030: ebc8 823f 8d95 783f 7997 793f 4ee9 6f3f
00000040: 2b76 803f 370d 753f 898c 873f 7a27 a03f
00000050: 0036 b23f ebaa 703f 8cc5 7d3f 0216 7f3f
00000060: 3abf 713f ae43 7d3f dcda 773f 6fa3 773f
00000070: f38b 743f 1ca6 743f 7c33 773f b122 7c3f
00000080: 6493 6e3f 148b 763f 7d48 7b3f ca07 853f
00000090: e8fe 803f b5b5 803f e145 783f a8f8 793f
0.91484714 1.1199272 0.9475355 0.9370222 0.9446507 0.95889115 0.9756512 0.9749765
0.99626595 1.0003117 0.9539513 0.94776076 1.0217565 0.97103196 0.97496754 0.9371537
1.0036062 0.9572329 1.0589763 1.2512047 1.392273 0.940108 0.9912956 0.99642956
0.94432414 0.98931396 0.9681833 0.96733755 0.95526046 0.9556596 0.96562934 0.98490435
0.9319365 0.96305966 0.98157483 1.0393002 1.0077791 1.0055453 0.96981627 0.97645044

batch_norm1.bias f4 [40]
00000000: a601 3bbc bb85 f1bd 9478 1dbc ac33 45bc
00000010: d353 85bc f434 593c d929 acbb 5ed4 ad3d
00000020: 50cd a83d 9221 d53d 0d04 fabb 791b 9b3b
00000030: 4302 4b3c 61ef fa3c 4b62 d03c 1567 533c
00000040: 5802 9abc 0871 9fbc f2a1 b9ba 04e0 0d3e
00000050: ee76 a03e 9aa8 d43c 264a f63b 641a 80b9
00000060: 9e35 93bc 184a 9538 19bc 10bc 766f 8e3b
00000070: 8a53 193c 6bce 293c 94a8 4fbc ad61 0c3c
00000080: cb96 763c f416 1f3b c9ec d33c 735f 8c3c
00000090: e9f1 4abc 272b 853c de14 a1bc 3272 2abc
-0.011413967 -0.11793085 -0.009611268 -0.012036245 -0.016275322 0.013257254 -0.005254012 0.084877715
0.08242285 0.10406794 -0.0076298774 0.0047334996 0.012390676 0.030631723 0.025437495 0.012902995
-0.018799946 -0.019463077 -0.0014162643 0.13854986 0.31340736 0.025959302 0.0075161634 -0.00024433725
-0.017969903 7.118675e-05 -0.0088339085 0.0043467833 0.009358296 0.010364155 -0.0126744695 0.00856821
0.0150506 0.0024275156 0.025869744 0.017135357 -0.012386777 0.016255928 -0.01966327 -0.010403203

batch_norm1.running_mean f4 [40]
00000000: b2e0 83bb ab92 f63b 95ae a539 85ee 5ebb
00000010: 6bbc 00bc bd04 33bc d2b9 15bc 4c8c 4bbc
00000020: 9293 0fbc d376 72bc 119a 53bc a000 27bc
00000030: 66ed 52bb ec4e 15bc 7f29 18bc 191d 00bc
00000040: 82e2 babb a8cc 03bb 22ad 6f3a 9d84 a6bb
00000050: f59f 36ba c71b f4ba b528 5fba 673c 263c
00000060: c2d2 793b 9d64 9239 ef37 86ba 430f 0bbc
00000070: 63d9 3abc 005b 29bc 521e 16bc 2695 723b
00000080: 7966 dfbb 0cf4 2f3b fb0c 96bb 1341 f73a
00000090: 8e4f cabb d131 0d3c 5eee 663b a4e9 8b3c
-0.0040245885 0.0075248084 0.00031601326 -0.003401668 -0.007857422 -0.010926423 -0.009138541 -0.012423586
-0.008763211 -0.014798838 -0.01291515 -0.01019302 -0.0032184958 -0.009113055 -0.009287237 -0.007819437
-0.0057032714 -0.0020110998 0.0009142925 -0.0050817267 -0.00069665845 -0.0018624001 -0.0008512841 0.010146237
0.0038120006 0.00027922253 -0.0010240058 -0.008487525 -0.011404368 -0.0103366375 -0.009162502 0.003701517
-0.0068176356 0.0026848344 -0.004579184 0.0018863998 -0.0061740344 0.008617834 0.0035237293 0.017079182

batch_norm1.running_var f4 [40]
00000000: 0f03 803f 15ee 7d3f 312e 813f 1de6 7c3f
00000010: d928 7b3f 8d77 773f d016 7d3f 2e42 773f
00000020: c3f2 7a3f 544d 773f 0b2d 7b3f 4939 7b3f
00000030: e4bc 7e3f 7b13 7d3f 6845 7e3f 4771 7e3f
00000040: 688b 7f3f 5cea 7e3f 8426 833f 58af 7d3f
00000050: bcea 803f 123b 803f 110b 7c3f 5788 833f
00000060: dd7f 803f a6ef 7f3f cb87 803f 02c2 7c3f
00000070: cec9 7c3f 73ce 7b3f 51e9 7b3f 8d91 7e3f
00000080: 670d 803f 7b86 823f d2e5 653f 594d 683f
00000090: d98a 683f 8c3c 833f 0b23 ca3f 1b57 7040
1.0000933 0.9919141 1.0092221 0.98788625 0.98109204 0.96666795 0.98862934 0.9658536
0.98026675 0.9660237 0.98115605 0.98134285 0.99506974 0.9885785 0.99324656 0.993916
0.9982209 0.99576354 1.0246129 0.9909568 1.0071635 1.0018027 0.98454386 1.0275983
1.0039021 0.9997505 1.0041441 0.9873353 0.9874543 0.9836189 0.9840289 0.9944084
1.000409 1.019729 0.898038 0.90743023 0.90836865 1.0252852 1.5791944 3.7553165

dense1.weight_g f4 [1024, 1]
00000000: cbe2 f83e eeeb 0d3f 32ca 103f 045b 263f
00000010: e2fb 103f b340 fd3e bcf9 133f a213 163f
00000020: ec9e 163f 67ef 0e3f 1aa9 233f 5155 003f
00000030: 522e 323f 45e2 143f 2975 083f 41c1 0e3f
00000040: 6e75 0d3f fc21 203f bd4f 103f 40af 0b3f
00000050: 6b52 1b3f e866 123f a7c4 133f b843 153f
00000060: 8632 133f 18ef 0c3f 47e5 113f a459 1b3f
00000070: 4ba8 193f 6964 0f3f d732 1b3f 6f88 0f3f
00000080: 9017 113f de77 203f 49d5 173f bfe7 173f
00000090: 7046 0e3f e1f7 163f 52ae 1d3f 722c 153f
000000a0: f37b 123f 9ece 133f c984 143f 5f2c 0a3f
000000b0: 0b01 1b3f 34c9 173f 4a4e 143f f6b7 183f
000000c0: a991 1a3f 4ce2 0b3f a2ad 0f3f 7a6b 203f
000000d0: e4f6 173f 929a 183f 3b72 123f 2ba6 f13e
000000e0: 129e 1a3f 0aeb 153f 3619 173f 9584 163f
000000f0: 3361 033f fc70 103f 5c0d 163f 1af3 153f
00000100: 0a3f 133f 9d0f 143f cb2a 203f 7f67 103f
00000110: 022f 123f 1814 213f 0cfc 073f bc89 113f
00000120: fbc6 033f 9721 073f 1c3a 0a3f be2e 133f
00000130: fb99 123f 1341 053f 3dd3 153f 104d 183f
00000140: 202f 163f 592c 213f 3aef 133f f104 003f
00000150: 25c4 133f 24a4 1b3f 107c 0b3f fae5 153f
00000160: d81b 1d3f 6959 053f f07a 053f 249d 213f
00000170: 3316 193f 4f91 233f 8862 173f d117 143f
00000180: 1c01 263f 2fb1 0f3f 8075 0b3f 1925 113f
00000190: 1348 0e3f 405c f73e 37c1 103f 5e30 073f
000001a0: c58f 1a3f c6ce 183f 30ba 233f 90df 063f
000001b0: 8ad7 043f 5eee 1d3f b98c 213f a6ba 133f
000001c0: eb76 2d3f f6af 163f 8b14 073f 2a6a 1a3f
000001d0: b132 1b3f de7d 0a3f 9bb6 1d3f d9e9 143f
000001e0: 1493 043f f13e 0f3f 419c 1c3f 8a8e 0c3f
000001f0: d6f2 1f3f 9da4 193f f35e 183f 56a1 073f
00000200: 13e6 0b3f b33d 083f a61d 1c3f 61fc 0e3f
00000210: cd9b 163f 0e9f 143f 39ac 0d3f 90cc 0e3f
00000220: 96ff 113f 00ca 143f 4315 003f c175 0b3f
00000230: 2435 1c3f 4a73 1b3f dc06 013f 950e 123f
00000240: 9311 163f 4322 053f 2092 183f 7a70 153f
00000250: b0f9 183f 5aeb 1f3f 8890 203f d212 0a3f
00000260: c9aa 213f d4cf 223f 7402 153f f891 0e3f
00000270: a19c 0e3f 6ee6 163f 4ea5 0c3f bdeb e93e
00000280: 6fe3 0d3f ccaf 033f c547 0d3f 9aa3 083f
00000290: f89f 113f 78f2 183f 462d 183f fe39 1e3f
000002a0: d8d4 0b3f fd49 1f3f c27c 183f 069f 183f
000002b0: 4c04 093f dc80 133f 952e 123f 4f9b 0b3f
000002c0: 28a7 213f c450 083f 472a 2b3f 01c5 0c3f
000002d0: 2eee 153f e352 083f e9f4 233f 5278 153f
000002e0: 658b 173f 61a1 0a3f 0668 133f 4ab4 0a3f
000002f0: 783a 113f 9513 163f 6baf 283f 7f03 143f
00000300: dd2f 003f 4c42 0f3f b791 153f 71ec 103f
00000310: b4c9 0d3f 07d7 1c3f 3e47 103f 7379 0e3f
00000320: 327b 293f 6669 143f 382c 153f 7c92 ff3e
00000330: bc8d 0f3f 579d 1e3f 81ea 093f e2fa 043f
00000340: d856 113f ac52 123f 6744 113f 3681 133f
00000350: 7b22 153f b0be 033f 9fff 113f 97f0 fc3e
00000360: 5745 1d3f 351c 0d3f b2d5 133f dec1 163f
00000370: a031 1e3f 7c4e 0c3f 7070 103f 7f94 183f
00000380: 8e52 053f 295a 1c3f b392 1a3f 7495 183f
00000390: ce71 243f 41b5 0b3f 5ec9 0a3f a818 0b3f
000003a0: d290 1b3f 8cef 0e3f fd50 173f 0032 193f
000003b0: dbed 103f 9c94 0b3f 215a 193f 5199 fd3e
000003c0: 1443 183f af20 183f 8b5f 1d3f 672d 083f
000003d0: 4c51 0d3f 0b38 163f 9fcc 1f3f 8eb0 133f
000003e0: 440c fc3e 2126 053f 880c 163f 3af9 0f3f
000003f0: 47ba 113f e547 fb3e 56d5 163f 9e1b 0c3f
0.4861053 0.55438125 0.56558526 0.6498263 0.5663434 0.49463424 0.5780294 0.5862371
0.58836246 0.5583405 0.63929904 0.5013018 0.6960193 0.5815776 0.5330377 0.5576363
0.5525731 0.62551856 0.5637167 0.54564285 0.60672635 0.5718827 0.5772194 0.58306456
0.5749897 0.5505233 0.56990474 0.60683656 0.6002242 0.5601259 0.6062445 0.56067556
0.5667658 0.626829 0.5930982 0.5933799 0.5557623 0.58971983 0.61594117 0.58270943
0.5722038 0.5773715 0.58015114 0.53973955 0.60548466 0.59291387 0.5793196 0.596557
0.6037851 0.54642177 0.5612432 0.62663996 0.593611 0.59610856 0.5720555 0.4719709
0.60397446 0.58561766 0.59022844 0.58796054 0.5132019 0.564224 0.58614135 0.5857407
0.57518065 0.57836324 0.62565297 0.5640792 0.5710298 0.62921286 0.5311897 0.5685079
0.51475495 0.5278563 0.5399492 0.574932 0.57266206 0.5205242 0.5852545 0.5949259
0.5866566 0.62958294 0.57786906 0.5000754 0.5772117 0.60797334 0.5448618 0.5855404
0.6137061 0.52089554 0.5214071 0.631304 0.597995 0.638936 0.5913472 0.5784884
0.6484544 0.56129736 0.54476166 0.5669723 0.55578727 0.4831257 0.5654482 0.5280818
0.60375625 0.5969051 0.63955975 0.5268488 0.51891387 0.61691844 0.6310535 0.5770668
0.6775958 0.58862245 0.5276572 0.60318244 0.60624224 0.5409831 0.6160676 0.58169323
0.51786923 0.55955416 0.61175925 0.54905 0.62479913 0.60016805 0.5951988 0.52980554
0.5464794 0.53219146 0.6098274 0.5585385 0.58831483 0.580552 0.55340916 0.5578089
0.5703062 0.5812073 0.5003244 0.54476553 0.61018586 0.6072279 0.5040109 0.570535
0.58620566 0.52005404 0.5959797 0.5837475 0.5975599 0.62468493 0.6272054 0.5393497
0.6315122 0.6359837 0.5820687 0.5569148 0.55707747 0.5894536 0.54939735 0.45687667
0.5542516 0.5144012 0.55187637 0.53374636 0.5688472 0.5974498 0.5944408 0.6180724
0.5462165 0.6222227 0.59565365 0.5961765 0.5352218 0.576185 0.5710233 0.5453386
0.63145685 0.5324824 0.66861385 0.54988104 0.5856656 0.53251475 0.6404558 0.5838672
0.59197074 0.54152495 0.575806 0.5418135 0.5672984 0.5862363 0.65892667 0.57817835
0.50073034 0.55960536 0.5842547 0.5661078 0.553859 0.61265606 0.56358707 0.55654067
0.66203606 0.57973325 0.582706 0.49916446 0.56075644 0.6195883 0.5387345 0.51945317
0.5677314 0.571574 0.56745 0.57619035 0.5825574 0.5146284 0.5703067 0.49402305
0.6143393 0.55121166 0.5774795 0.5888957 0.6179447 0.5480726 0.56421566 0.5960159
0.52079093 0.61075073 0.60380095 0.5960305 0.6423615 0.54573447 0.5421351 0.543345
0.60767853 0.5583427 0.59107953 0.5984192 0.5661294 0.54523635 0.5990315 0.49531034
0.59477353 0.5942487 0.6147391 0.5319428 0.55202174 0.58679265 0.624216 0.57691276
0.49228108 0.52011305 0.5861287 0.56239665 0.5692486 0.4907829 0.58919275 0.5472964

dense1.weight_v f4 [1024, 40]
00000000: ff7b 133d 9643 45bd 0f0c 413d 403a bfbb
00000010: 2463 8c3d 44fc 103d 19a1 a5bc 1ec2 f8bd
00000020: 463d 253d 2afa 0bbe 8adb a63c c217 2b3c
00000030: 5124 20bd 7a6c 023e 6d31 4b3c 5cc2 873d
00000040: e322 913d 7c51 c2bd 0cae 83bd 7569 163e
00000050: 516f 14be b443 f5bb 8ad4 1ebc ec4f ed3d
00000060: 75b6 90bc 559c 2d3d 3c91 28bc 3d1e b6bd
00000070: 82aa b4bd 38bc 9ebd 1fea 10be f481 d6bd
00000080: dd27 1e3d b785 d63d 0276 4c3c ce80 9abd
00000090: a531 9f3d 610c 86bd 2fdd 20bd ab52 b9bd
000000a0: c1af 4cbd d539 1fbe 827b 8b3d 2af6 6a3d
000000b0: da76 eb3c 3455 9b3d d4c7 8d3d 7756 203c
000000c0: 2721 973c b827 783c 25a3 ae3d b270 d33d
000000d0: 14b7 eb3d edfe be3d d3eb 12bd 7f0b 71bb
000000e0: 2c8c ecbc 8083 c33d 5cbb 9d3c 3a8e 113e
000000f0: 6954 9a3d d739 09be 05dc 3d3d 7f83 163e
00000100: f47c 0d3e 39dc 23ba a626 4f3d 7adc 18be
00000110: 4efd 4bbd 332e 9f3d 10a2 10be 2399 103e
00000120: e10b d2bd 649d 653d ca7c 79bb 8622 ec3c
00000130: 5b8e 903c f46a 18be a26b 18bd 346d cfbd
00000140: bde3 033e ad17 a5bc ca91 22be 708a 1d3d
00000150: f2b8 873d 0009 8fbd f665 0bbc 35ad 873d
00000160: 0733 cdbd b5b0 a9bd ee83 37bc 1642 e1bd
00000170: db7e d53d 147b 953c 3a03 c63d 2278 b73d
00000180: d004 f5bd 632c b4bd b5ec dabd 7a2f 74bd
00000190: 08f7 82bd 39a1 d0bc f9db 1dbe 4136 803d
000001a0: 3c3a bb3d e489 4e3d 7dbf c03d 03d2 f83d
000001b0: 0f3d 1dbe 97df ea3c 06c5 183e dcfb dcbd
000001c0: d137 8fbd 55ae e5ba 0367 cebd 3c32 c8bc
000001d0: 19ba ecbc b2e9 163e d4ba 55bc 7cce ab3d
000001e0: da7c e13d d4aa 923d 8035 0fbe ebf5 ed3d
000001f0: 57aa d23d db04 e3bd 18b8 57bd 0852 d73d
00000200: 90a5 22be d24f 10be fb1a debd 3eca 463d
00000210: f58a 79bd 0c1d 0cbe b4b8 823d e143 ac3d
00000220: c05f 753d 826a 06be 056d 213e e6d4 37bc
00000230: 9d6c 28be 09ca c9bc 66ef c93d fbaf 8f3d
00000240: 7aa5 ecba 0567 dc3d b842 0fbe 8476 e03d
00000250: ff1d 1f3e 4e8f c1bd f2c9 f93c 0ef4 c2bc
00000260: 5f16 06be 6285 5db8 1c70 6ebd 002b 0bbe
00000270: 2d7a f6bd 7079 bb3b 182d 153e b5a2 643d
00000280: 3581 d2bd 1d19 e43d 4efe 3c3c 9652 1dbe
00000290: 3a75 e83b 231f d23d e6ad c0bd 4527 22bc
000002a0: 9a7e babd 132a 02be d7cc bebd 57bf 333c
000002b0: 051b c23d 2311 02bd 3c58 13be 0d70 83bb
000002c0: f3ad 10be e10a cd3b 0d83 f63d e9de 943d
000002d0: b8f3 f2bd a5b2 30bd a9f3 803d 555e 303d
000002e0: 3226 13be 776e bcbd 3a97 5abd 87db 543d
000002f0: 665a 083e 6cdb 863d 8052 473d 6ca0 03be
00000300: d095 c43d 783c 6d3d 4a4f 69bd 3e88 a6bd
00000310: 2e99 343d 7517 abbd e4ea 6d3d db4e ea3d
00000320: 625a cebd ef5b b4bd 9536 89bd d20a 0fbe
00000330: ae1e 9bbc e12f cb3d 850a 4f3d e710 4fbd
00000340: 95b6 dfbc aad5 8fbd a22c 06be 3ec1 40bd
00000350: 07b2 bc3b 00f7 a8bd 69f8 f9bd 41e4 2e3d
00000360: f955 8c3c b72d 63bd c81b 2d3d f017 103e
00000370: ffe5 8cbc a4d6 e3bd 6db4 173e 0e5f ec3d
00000380: c98a 4ebc 4dc6 96bd 26e6 88bd d803 083e
00000390: 1318 983d 96d5 adbd 6a77 d2ba c8a7 053d
000003a0: 9c4e 213d d0b6 2cbc f22b b1bd 8a60 49bc
000003b0: 3840 1ebd 8f6b 59bd 5d45 a3bd 0088 a3bd
000003c0: 361b 8abd a8b6 933d 739f 07be 5547 20be
000003d0: 5362 033e 6ddc 653d 083d a93d c69a 893d
000003e0: 61a1 87bd b000 d0bd cc3a dfbd 3cd1 8abc
000003f0: d2e8 e53c 03e9 1bbe 417c 00be 2280 ad3d
0.036006924 -0.048160158 0.04713064 -0.0058358014 0.06854847 0.03539683 -0.020218419 -0.121464
0.040341638 -0.13669649 0.020368356 0.010442676 -0.039097134 0.12736693 0.012401921 0.06628868
0.07086732 -0.09488198 -0.06429681 0.14688666 -0.14495589 -0.0074848775 -0.009694228 0.115875095
-0.017665127 0.042385418 -0.010288533 -0.08892486 -0.08821584 -0.07750744 -0.1415181 -0.10474005
0.038612235 0.10474723 0.012479307 -0.07544099 0.07773141 -0.0654533 -0.039273437 -0.09048971
-0.0499723 -0.15549405 0.068106666 0.057363667 0.028743196 0.075846106 0.0692288 0.00978624
0.018448425 0.015146188 0.08527211 0.10324229 0.11509529 0.09325967 -0.03586943 -0.0036780534
-0.028875433 0.09546566 0.019254379 0.14214411 0.07535631 -0.1340097 0.046352405 0.146986
0.13817197 -0.0006250772 0.050573967 -0.14927855 -0.049802117 0.07772484 -0.14124322 0.14120917
-0.10256172 0.056058303 -0.0038068765 0.028825056 0.017646005 -0.1488455 -0.03721202 -0.10128251
0.12879844 -0.020152891 -0.15875927 0.038462102 0.066270724 -0.069841385 -0.008508196 0.066248335
-0.10019498 -0.08285657 -0.011200888 -0.10998933 0.104245864 0.018247165 0.09668584 0.089584604
-0.119638085 -0.087975286 -0.106896795 -0.05961559 -0.06394774 -0.025467502 -0.15415944 0.06260348
0.09141967 0.05042447 0.094115235 0.121494316 -0.15355323 0.02867107 0.14918908 -0.10790226
-0.06993068 -0.0017523268 -0.10078242 -0.024438016 -0.028897332 0.14737585 -0.013045032 0.08388993
0.11010142 0.07161489 -0.13985252 0.11619171 0.10286396 -0.110849105 -0.0526658 0.10513693
-0.1588347 -0.14092949 -0.1084499 0.048532717 -0.060923535 -0.13682956 0.063828856 0.084113844
0.059905767 -0.13126567 0.15764244 -0.011220193 -0.16447683 -0.02463247 0.09860115 0.070159875
-0.0018054687 0.10761837 -0.13990295 0.10960105 0.15538786 -0.09451161 0.030491803 -0.023798015
-0.13094471 -5.281473e-05 -0.058212385 -0.13590622 -0.12035022 0.0057212636 0.14567983 0.055819232
-0.102785505 0.111376025 0.01153524 -0.15363535 0.0070940526 0.10259845 -0.094081685 -0.009897058
-0.091061786 -0.12711363 -0.09316414 0.010970912 0.0947781 -0.031754624 -0.14389127 -0.00401116
-0.14128856 0.0062574004 0.12036715 0.07269079 -0.11862892 -0.04313912 0.062964745 0.043058712
-0.14370039 -0.09200757 -0.053366877 0.05196717 0.13315734 0.0658482 0.048662663 -0.12854165
0.09598887 0.057918996 -0.05696038 -0.08131455 0.044091396 -0.083540834 0.058085337 0.11440822
-0.10075833 -0.088065974 -0.06699864 -0.13968971 -0.018935528 0.099212416 0.05054714 -0.05055323
-0.027308742 -0.07023175 -0.13102964 -0.04705929 0.005758527 -0.082502365 -0.122055836 0.04269815
0.017130839 -0.05546352 0.042262822 0.14071631 -0.017199514 -0.11124924 0.1481492 0.11541568
-0.012606331 -0.073620416 -0.06684522 0.13282716 0.07426467 -0.08488004 -0.0016057317 0.03263071
0.03938161 -0.010541633 -0.0865096 -0.012291083 -0.038635463 -0.05308109 -0.07972214 -0.07984924
-0.06743471 0.07212573 -0.13244419 -0.15652211 0.12830476 0.056118418 0.08263594 0.06718974
-0.066225775 -0.10156381 -0.108998865 -0.016945474 0.028065119 -0.15225606 -0.12547399 0.08471705

batch_norm_c1.weight f4 [64]
00000000: 0000 803f 0000 803f 51ff 7f3f bbff 7f3f
00000010: c8ff 7f3f 00ff 7f3f 0000 803f feff 7f3f
00000020: e5fc 7f3f 0000 803f 0af7 7f3f 0000 803f
00000030: 0000 803f ecff 7f3f 6eff 7f3f e2ff 7f3f
00000040: 0000 803f f2fc 7f3f 8dff 7f3f dcff 7f3f
00000050: feff 7f3f ffff 7f3f dcff 7f3f d5ff 7f3f
00000060: edff 7f3f d0fe 7f3f 85ff 7f3f ffff 7f3f
00000070: 70e7 7f3f 87fe 7f3f f1fd 7f3f cffa 7f3f
00000080: 0000 803f 33fe 7f3f 1e00 803f 0100 803f
00000090: 0000 803f 2a00 803f ffff 7f3f 0000 803f
000000a0: 26ff 7f3f c2ff 7f3f ffff 7f3f f7ff 7f3f
000000b0: 6af3 7f3f 0000 803f 0000 803f feff 7f3f
000000c0: b3ff 7f3f 89ff 7f3f 0000 803f 43cf 7f3f
000000d0: e3fc 7f3f d4fd 7f3f 0600 803f f8ff 7f3f
000000e0: 0000 803f 68fd 7f3f b6fb 7f3f a0f6 7f3f
000000f0: bafe 7f3f 0000 803f fcff 7f3f 3dff 7f3f
1.0 1.0 0.99998957 0.9999959 0.99999666 0.99998474 1.0 0.9999999
0.9999526 1.0 0.99986327 1.0 1.0 0.9999988 0.9999913 0.9999982
1.0 0.9999534 0.99999315 0.99999785 0.9999999 0.99999994 0.99999785 0.99999744
0.99999887 0.9999819 0.99999267 0.99999994 0.9996252 0.9999775 0.9999686 0.9999208
1.0 0.9999725 1.0000036 1.0000001 1.0 1.000005 0.99999994 1.0
0.999987 0.9999963 0.99999994 0.99999946 0.99980795 1.0 1.0 0.9999999
0.9999954 0.9999929 1.0 0.9992563 0.9999525 0.99996686 1.0000007 0.9999995
1.0 0.9999604 0.99993455 0.99985695 0.99998057 1.0 0.99999976 0.9999884

batch_norm_c1.bias f4 [64]
00000000: de19 473a 803a 1abb 0631 863b 2ad0 83bb
00000010: 5bda 60bb d58d ecbb 6bfc 8aba afe5 d6b9
00000020: 6019 35bc b048 2d3a b0fd 8b3c e059 83ba
00000030: a933 143a 4a09 463b 8b41 81bb a5b0 29bb
00000040: 3e10 103b d5d5 22bc 2ddb 82bb 2b77 5bbb
00000050: bd81 56ba 1bc1 03bb 2c1b 3abb bd88 623b
00000060: 2e40 073b 4beb d8bb 79be 98bb 40c0 6b39
00000070: 34b3 e7bc 6279 ed3b 23e7 0cbc f53b 553c
00000080: a984 1d39 9ad2 0d3c fc51 0f39 57ea ee39
00000090: ba01 3138 c5a8 14bb 5be3 08bb 95df afba
000000a0: 3850 b83b 8859 853b b343 7aba e3bc 7dbb
000000b0: 76b0 a43c c3bd d2ba 977a 46ba 393d 0b3b
000000c0: 0647 7d3b 43ac 9dbb 3879 6db9 b769 24bd
000000d0: 7b4d 23bc 006c 103c 7086 b9b7 891a 31bb
000000e0: 30f0 42b9 3a05 17bc b00c 423c 98ff 8ebc
000000f0: 497b dabb 55a9 aa39 63dd 113b c442 b03b
0.0007595102 -0.0023533404 0.0040951995 -0.004022618 -0.0034309838 -0.007219056 -0.0010603791 -0.00040988388
-0.011053413 0.00066102576 0.017088741 -0.0010021292 0.000565345 0.003021794 -0.003944581 -0.0025892642
0.0021982337 -0.009938677 -0.003993413 -0.0033487778 -0.00081827847 -0.0020104114 -0.0028397543 0.0034566366
0.002063762 -0.006619846 -0.004661378 0.00022482965 -0.028283693 0.007247136 -0.008600029 0.013014783
0.00015022107 0.008656168 0.00013668084 0.00045569494 4.2201696e-05 -0.0022683602 -0.0020887468 -0.0013418073
0.005624797 0.004069511 -0.0009546831 -0.0038717322 0.020103674 -0.0016078282 -0.0007571368 0.0021246208
0.003864707 -0.004811795 -0.00022647239 -0.04013988 -0.009967203 0.008814812 -2.211632e-05 -0.0027023873
-0.00018590759 -0.009217555 0.011843845 -0.017455861 -0.0066675288 0.0003255109 0.00222572 0.005379053

batch_norm_c1.running_mean f4 [64]
00000000: 4c6a 9d3d b573 b23d 0c9b b63d 0300 b83d
00000010: aef6 b43d 9b36 cf3d acdc a33d 4a11 b73d
00000020: ae77 8a3d 05d7 ad3d a2ce 8a3d 2d88 bb3d
00000030: 8bde be3d 1d65 b13d 482a a03d 39d2 b53d
00000040: 3770 8a3d 0fe7 a53d 47e1 ab3d a571 ac3d
00000050: 4f09 a13d 0f1f aa3d 47c3 9f3d d5da af3d
00000060: 47eb a63d 2acc 953d 4832 a43d 1058 b23d
00000070: 393a c43d a6da 7e3d 8e98 a53d 8a07 b03d
00000080: 6fda be3d a441 953d 0204 9c3d 2508 b53d
00000090: 2215 ad3d 02c7 a73d f973 c23d a74b c23d
000000a0: dda8 bc3d 307c c23d ed58 a63d dae1 9b3d
000000b0: a3c0 a43d cf44 cb3d 70cd be3d 7063 9e3d
000000c0: 0280 b83d deef bf3d e491 973d 5c56 a43d
000000d0: 05e1 a03d e50f 983d ec77 a53d c707 9f3d
000000e0: 7c1f c63d 3396 cc3d b515 b23d 032d 9a3d
000000f0: 70d4 8e3d 8687 a03d e7b5 b43d 2f61 9a3d
0.0768629 0.087134756 0.089162916 0.08984377 0.08836113 0.10117837 0.08001074 0.089388445
0.06761108 0.08488277 0.06777693 0.09156833 0.093197905 0.08661864 0.078205645 0.088779874
0.067596845 0.081007116 0.083925776 0.084201135 0.078631036 0.08306705 0.07800918 0.08586661
0.08150344 0.07314332 0.08017403 0.08708203 0.095814176 0.06222024 0.08085738 0.08595188
0.09319007 0.072879106 0.07617952 0.08839444 0.084512964 0.081922546 0.09494776 0.09487086
0.092118956 0.09496343 0.0812243 0.07611437 0.08044555 0.099252336 0.09316528 0.0773381
0.090087906 0.09371923 0.07400873 0.08024284 0.07855419 0.07424907 0.08079514 0.07765155
0.09673974 0.09989586 0.086955465 0.075281166 0.06974113 0.07838349 0.088237576 0.075380675

batch_norm_c1.running_var f4 [64]
00000000: 49bb 973e 54ad a03e 99d6 ab3e 3fe0 a33e
00000010: 276f a93e 1d54 a63e 5c7f a73e 332e ab3e
00000020: ca0e 8e3e f055 a03e 96e2 993e 9521 b03e
00000030: 392d a33e 5847 b13e 6e10 a03e e9ca a23e
00000040: eb08 993e 08f1 ab3e 9abe 9b3e cdb8 a53e
00000050: 5689 9e3e 7b0c a63e 537e a23e 0b07 a33e
00000060: 514c ab3e bdda 933e 99a2 9d3e 5afa a53e
00000070: d23e a63e 58be 8e3e 1cd6 9f3e b707 a33e
00000080: 0ccf ab3e 1e6b 953e dca0 9c3e f529 9a3e
00000090: 2a4d 9b3e e353 9a3e 83ed a73e 40d7 a73e
000000a0: 33cb af3e b32a bb3e fbe7 923e 5504 903e
000000b0: 6c4c 973e d06a b83e 882e a53e 2ed7 a13e
000000c0: 9a20 a53e 25a3 9e3e a613 983e 7e6f a13e
000000d0: 92b4 a53e 10bb a73e bbc7 a43e 70ea af3e
000000e0: e0a9 c23e ae9b a53e a6ce aa3e 825c 9d3e
000000f0: 8ac4 9f3e e64e a13e c459 af3e bf08 9e3e
0.29635075 0.3138224 0.33562163 0.32007024 0.33092615 0.32486048 0.32714355 0.33433685
0.27745658 0.31315565 0.30055684 0.3440062 0.3187044 0.34624743 0.31262535 0.31795433
0.29889616 0.3358233 0.30418855 0.32367554 0.30964154 0.32431397 0.31737003 0.3184131
0.33456662 0.28877822 0.30788115 0.32417566 0.32469803 0.27879596 0.3121804 0.31841823
0.33556402 0.29183286 0.30591476 0.30110136 0.3033231 0.30142125 0.32798395 0.3278141
0.34334716 0.36556014 0.28692612 0.28128305 0.29550493 0.3601899 0.32262063 0.31609482
0.32251436 0.30983844 0.2970249 0.31530374 0.32364327 0.32759905 0.32183632 0.3435855
0.3802023 0.32345337 0.33360785 0.3073464 0.31204635 0.31505507 0.34248173 0.30866048

conv1.weight_v f4 [128, 1, 5]
00000000: c85c 4d3e d5b1 8c3e ca8a 8fbd 8f15 613d
00000010: 702e a9be fd70 623e 6a78 2d3e 386f 363e
00000020: 74b6 aebe 6090 95be e6fa d53e 156f a0bd
00000030: 9bb9 cebd 7632 3d3e 6de2 b3be 8c59 443e
00000040: 7801 80be 55e0 7abe 728c e83e 1d9c 8dbe
00000050: 4db8 22be fa0e e03c 4a3a 7bbd d991 ec3d
00000060: a066 d2be e70b ccbd b62f 73be 78f2 c0bc
00000070: 2e66 703e 69e9 e2be 7372 f3bd a9cd 3c3e
00000080: fb61 623e c03f 2a3e 6bb1 1a3e 858e 0bbe
00000090: 4945 573e c057 bdbe bac8 65be 907c 38be
000000a0: 7b47 5abd 2ed5 9bbe a319 b33e 007b ec3c
000000b0: d255 68be fea4 02bd 7bf4 183d 496e 973e
000000c0: a1ac 283e b56f 9c3e 5a37 dabe d56c 50be
000000d0: 8bfe 10be 22d6 473e 99cc b7be 68e2 51be
000000e0: 3725 0abc 1dea bebe 1b7b d7bd 4ce4 d7be
000000f0: b9b6 7b3e 2246 92be 91b1 b5be 0aa9 393e
00000100: 4613 903e 4219 433e 9a0a 70be d265 843e
00000110: 22f0 de3e 6b07 b9be 03ff 613e 0fa2 69be
00000120: bfcf c0be 9357 a13e 9bf3 e63e 621e c73e
00000130: 026a 45be c020 873e f4bd cc3d 3184 d6be
00000140: 3203 20be 1c99 a3be 388e 4dbe 081f 29be
00000150: 804a 19be 7f85 78bd 739e 263e fd29 d53e
00000160: 2787 3f3d ded9 2fbe 5525 61bd 6f2f babd
00000170: 6216 853e b20c 873e b682 a63e a556 a73c
00000180: fb17 88be d407 953e 07db 5bbe ad71 ad3e
00000190: 6c9a df3e 1fce 553e fe93 5a3e a11c 1d3d
000001a0: dbf6 e1bd 1a05 c73e 78b5 563e 88a7 1abe
000001b0: d0ec cabe 8793 da3e 5d47 abbe b822 813e
000001c0: ecc2 2abe 1564 0abd 1a66 a33e 5c1f 3ebd
000001d0: 6e31 d83e 94e2 ffbd 17bb 4bbe 3052 6b3e
000001e0: e174 4f3c 663c abbe fea3 16be 87fd c13e
000001f0: 7e44 15be cec4 1e3e 0b66 053e 929d 883e
00000200: e3cd bbbe 2aa4 8fbe 2f5d a33d 0dd3 d73e
00000210: d556 ae3e 786d 653d 0505 45be 5fd1 bb3e
00000220: bdee 85be 72fe 1fbe 3489 a83e 5e58 313e
00000230: 53bb 33be 15ea c33e 5b2f 763e f5b9 1c3d
00000240: d621 17bd d9e8 17be c843 9cbe 9997 f23d
00000250: 3978 003e 5d4c 4bbe c42e 70be bb95 88be
00000260: a524 a23e e00a 8dbe 86af abbe 372b 923e
00000270: fa22 04be 537c f33d fedd 82be 5579 a63e
00000280: 991d 7cbe a5dc 44bd b90c 40bd bff4 993e
00000290: c469 073e 5e90 9cbd 7e6b a23e b9a5 93be
000002a0: c5e6 883e 546f 833d 61cc ec3d 43f0 82be
000002b0: ced5 b73b 5a8f 7bbe c8a1 8ebd ab88 ae3e
000002c0: e7e2 903e 5f57 edbc c0bf bdbe 303e 17be
000002d0: 63f6 353e 90cc 9abe 976e adbe 13c6 ae3e
000002e0: 0b7d 98be ce84 d63e a8da d7be 27f8 50be
000002f0: 8829 4fbe 654e ccbe cc7b 263e 5a0d 9dbe
00000300: fefe 81be 51c7 263e 4b0d 943e 5105 b9be
00000310: d584 8bbe 8e37 9d3d 56fe 913e 36cc 973d
00000320: e564 84bd 232b cf3e d353 973e ea8b d2be
00000330: ad9c bd3e 5f36 813e 65e4 c03e a8b2 2abe
00000340: dcd0 c33e c7d5 3fbe 059e db3e c58c b6be
00000350: 8688 fbbd 09d2 e73e ffa9 173e d12b cbbd
00000360: d3f1 2b3e 731c cf3e d68f 9a3e 67f9 90be
00000370: 1a58 e1bd 4efd 653e a402 2abe 414a 933e
00000380: 6532 d6be 1b3b 53be c462 d9be 0e78 bbbe
00000390: 1fa4 9abe ce2c 9e3e d7d7 f73d c43c 8e3d
000003a0: 1fcb 54be 7f70 da3e 8597 b9be f62d 89bd
000003b0: 4fc3 dcbd 8c0c 9b3e 54e5 d63e c7bc 10be
000003c0: d5dc 44be 45a5 d2be 0cb9 11be 797f 89be
000003d0: 3d81 c83e 0948 d13e 14ed babe 63b7 22bd
000003e0: 040a 9cbe d8e8 dc3e d002 ad3e aef5 1d3e
000003f0: 7a8a 4ebe a7e4 9b3e 8b28 703b 1775 81be
0.20054924 0.27479425 -0.07008894 0.0549522 -0.33043242 0.22113414 0.16940466 0.17815864
-0.34123576 -0.29211712 0.41792983 -0.07833687 -0.10093995 0.1847628 -0.35133687 0.19174784
-0.2500112 -0.24499638 0.4541965 -0.27658167 -0.15890618 0.027350891 -0.061334886 0.11551256
-0.41093922 -0.09963208 -0.23748669 -0.023553118 0.23476478 -0.44318703 -0.11887064 0.18437828
0.22107689 0.16625881 0.15106742 -0.13628586 0.21022524 -0.3698101 -0.22439852 -0.18016267
-0.053290825 -0.3043608 0.34980497 0.028867245 -0.22688988 -0.03189563 0.03734253 0.29576328
0.16472103 0.30553976 -0.42620355 -0.20354016 -0.141596 0.19515279 -0.35898283 -0.20496523
-0.008431724 -0.3728799 -0.105215274 -0.42166364 0.24581422 -0.28569132 -0.35487035 0.1813089
0.28139704 0.19052604 -0.23441544 0.25858933 0.43542582 -0.36138472 0.22069936 -0.22815727
-0.37658498 0.31512126 0.4510773 0.38890368 -0.1927872 0.26392174 0.09997168 -0.4189773
-0.15626219 -0.3195275 -0.20073783 -0.16515744 -0.14969826 -0.060674187 0.16271381 0.41633597
0.04675975 -0.17172953 -0.054967243 -0.090910785 0.2599364 0.26376873 0.325216 0.020427058
-0.26580796 0.29107535 -0.21470271 0.3387579 0.43672502 0.2087941 0.21345517 0.03835738
-0.11033412 0.3887108 0.20967662 -0.1510297 -0.396338 0.4269068 -0.33452883 0.252218
-0.1667592 -0.033786852 0.31913835 -0.046416625 0.42225212 -0.12494388 -0.19895588 0.22980571
0.012662143 -0.33444518 -0.14710996 0.3788874 -0.14576909 0.15504763 0.13027208 0.26682717
-0.36680517 -0.28054935 0.07976758 0.42153206 0.34050623 0.0560126 -0.19240196 0.36683175
-0.26158705 -0.15624407 0.32917178 0.17318866 -0.17551927 0.38264528 0.24041502 0.03826328
-0.036897503 -0.14834918 -0.30520463 0.11845321 0.12545861 -0.19853349 -0.2345534 -0.26676735
0.31668583 -0.2754736 -0.3353235 0.28548595 -0.12903967 0.11888947 -0.25559992 0.32514444
-0.24620666 -0.048061986 -0.046887133 0.3006954 0.1322394 -0.07644723 0.31722635 -0.28837374
0.26738563 0.064177185 0.1156242 -0.2557393 0.0056102043 -0.24566403 -0.06964451 0.34088644
0.28298113 -0.028972326 -0.37060356 -0.14769816 0.1776977 -0.30234194 -0.33873436 0.34135494
-0.297829 0.41898197 -0.4215901 -0.20407163 -0.20230687 -0.3990356 0.16258162 -0.3067425
-0.25389856 0.1628697 0.28916392 -0.3613687 -0.2724978 0.07676612 0.28514355 0.07411997
-0.064645566 0.40462598 0.2955614 -0.4112237 0.37033597 0.25236794 0.3767425 -0.16669714
0.38245285 -0.18733893 0.42893997 -0.35654274 -0.12281899 0.45277432 0.14810942 -0.09920467
0.16791467 0.40451393 0.30187863 -0.2831528 -0.11003132 0.2245991 -0.1660257 0.2876759
-0.41835323 -0.20628016 -0.42458165 -0.36615032 -0.3020334 0.30893558 0.12101715 0.06945184
-0.2078061 0.42663953 -0.36248413 -0.066982195 -0.1077944 0.3028301 0.41971838 -0.14134513
-0.19224866 -0.41141716 -0.14230746 -0.26855066 0.391611 0.4087527 -0.36509 -0.039725672
-0.3047639 0.43146396 0.33791208 0.1542575 -0.20170012 0.30447885 0.003664526 -0.25284645

batch_norm_c2.weight f4 [128]
00000000: 0d2f 7f3f 92cc 803f a6b0 803f 654b 813f
00000010: ea9b 7e3f 4c22 7e3f fe82 7f3f e86f 803f
00000020: 7b6e 803f 473d 803f e69f 7f3f 7688 7e3f
00000030: 87f0 7f3f b43d 803f 9c8f 803f 288d 803f
00000040: 2566 803f c3f6 803f 92f8 7e3f cc02 813f
00000050: 1c8a 803f 7dc9 7f3f 5f3a 803f b646 813f
00000060: e96f 813f 001c 813f d543 7e3f 4324 803f
00000070: ba1f 7f3f 6de6 7e3f 57fd 7d3f 2f3e 803f
00000080: 1910 7f3f 6e7b 803f 93a8 7f3f 42dd 803f
00000090: b7e6 7e3f 4c04 803f 5e67 803f 1349 803f
000000a0: 5d4b 803f d6d3 7f3f 2a6a 7f3f e729 813f
000000b0: 737a 7e3f 07cb 803f 4b5d 803f c7f8 803f
000000c0: ec07 803f 016c 803f 8b36 803f 4cda 803f
000000d0: 95c0 7f3f 5ba0 803f 0244 803f f738 803f
000000e0: 8bd6 803f ba12 813f 30f1 803f 1ee4 7f3f
000000f0: ba40 7f3f 7b7a 7f3f 4129 803f a190 803f
00000100: 3e12 7f3f 3940 803f 2d64 803f d166 813f
00000110: 8a04 7f3f d032 803f 43cd 7f3f 6b59 803f
00000120: 6d35 803f 513e 803f 9c77 7e3f ba2b 803f
00000130: 68ba 803f 9591 803f da31 803f 620e 803f
00000140: ed04 7f3f 7540 803f edbb 803f f4f9 803f
00000150: a504 803f dd25 813f e69a 7f3f ce22 813f
00000160: 4984 7f3f b4ea 7e3f 1852 803f b95b 7f3f
00000170: 19f2 7f3f 6dd7 803f 92d4 7f3f ecb8 7e3f
00000180: bd08 813f 5942 7f3f 0dbc 7f3f 0bcc 803f
00000190: c9d8 803f 33f6 7e3f f948 813f b2b8 803f
000001a0: 8e99 7f3f 0cd0 7f3f e892 803f c4f2 7f3f
000001b0: 5f89 803f 61a6 803f 454f 803f 3149 803f
000001c0: 4941 7f3f f7b3 7e3f 525e 803f 8af3 7d3f
000001d0: 7dde 7e3f 35d5 7f3f af07 803f 2f9d 803f
000001e0: 65b1 7f3f f775 7f3f 8e8b 803f a8fc 7f3f
000001f0: 8442 803f 8d2d 7d3f 4b64 803f 4862 7f3f
0.9968117 1.006243 1.0053909 1.0101134 0.99456656 0.9927108 0.99809253 1.0034151
1.0033716 1.00187 0.9985336 0.9942697 0.9997639 1.001883 1.0043826 1.0043077
1.0031172 1.0075306 0.9959804 1.0078979 1.0042148 0.9991682 1.0017813 1.0099704
1.0112277 1.008667 0.99322253 1.0011066 0.99657786 0.9957035 0.9921469 1.0018977
0.9963394 1.0037668 0.998666 1.0067523 0.9957079 1.0001311 1.0031545 1.00223
1.0022999 0.9993261 0.9977137 1.0090913 0.9940559 1.0061959 1.0028471 1.0075921
1.0002418 1.003296 1.0016645 1.0066619 0.9990323 1.0048937 1.0020754 1.0017384
1.0065473 1.008384 1.0073605 0.99957454 0.9970814 0.99796265 1.001259 1.0044137
0.9963721 1.0019599 1.0030571 1.0109502 0.996163 1.0015507 0.9992258 1.0027288
1.0016304 1.0019017 0.9940126 1.0013344 1.0056887 1.0044428 1.0015213 1.0004389
0.9961689 1.0019671 1.005735 1.007628 1.0001417 1.008968 0.9984573 1.0088747
0.99811226 0.9957688 1.0025053 0.9974933 0.99978787 1.0065743 0.9993373 0.9950092
1.0080792 0.99710613 0.9989632 1.0062269 1.0066158 0.9959442 1.0100394 1.0056365
0.9984368 0.9992683 1.0044832 0.99979806 1.0041922 1.0050775 1.0024191 1.0022336
0.9970899 0.99493355 1.0028784 0.99199736 0.9955824 0.99934703 1.0002345 1.0047969
0.9988006 0.99789375 1.0042589 0.999949 1.0020299 0.9889763 1.0030607 0.9975934

batch_norm_c2.bias f4 [128]
00000000: fa1a 4cbb 47f9 cc3a 3074 1dbb 7a0a 933a
00000010: b015 94bb 1388 ad3a 0fb4 99ba be30 2cbb
00000020: 2689 c6ba 033d 383b bedb acba 416c c5ba
00000030: cd59 b03b 070e 283b 7005 67bb e589 79ba
00000040: f8fe fe3b 0fbc 503b 0634 753a fe2c e1bb
00000050: 96ed e6bb b1d9 35bb 8067 f838 3ecb 9ebb
00000060: 7a68 753a 64e6 9ab9 73cd f73a 517c 0f3b
00000070: 25de 503b e92e 373b deda f8ba a6ed 4e3a
00000080: 3bf2 a5bb e940 28bb 9c19 5ebb ccbb 9d39
00000090: 286b a03a 2e72 80ba 8b8f 6dbb efe7 d039
000000a0: 5d91 05b9 d8e5 613a d951 473b 8009 a63a
000000b0: e45a b839 22bf 813b 22fb a43a 53eb dd38
000000c0: 20ce 15bb f081 923a 330a 62b9 4350 74bb
000000d0: b9e9 d4ba fd5e 5dbb bbc1 6cba aff9 92ba
000000e0: 2bcc d3ba aae5 13bc 2253 4bbb d8ef bbb9
000000f0: 9132 e9ba 288b 0439 540f 323a ad27 993b
00000100: dd85 9e38 5ddf 523b 3616 6d3b 8b74 29bc
00000110: 40b8 c2b8 0001 aa3a e472 d1b9 bb63 daba
00000120: ce82 853b 3504 a2ba eccd b93a 949d ba3b
00000130: 807c 3c3b 8873 82ba fe8b 22bb 98fa 02bb
00000140: f5a5 d1b9 cac2 a9ba 7a92 beba 0268 f73a
00000150: a0be eaba ed56 eaba 763a 11ba 338d 27bb
00000160: 118b 73ba ff68 b0ba dbfe 013b f0c4 7ab8
00000170: aae0 703b 064c 83bb e54b c1ba 5da9 ce3a
00000180: 00fa 34bb d16a 4abb ef91 5e36 5c9a f33b
00000190: 241d 13bb 8eae b33a 066b 4b3c aa42 a839
000001a0: 3c15 423a d932 07bb 6e3c 4339 24fa 7fbb
000001b0: 8aea 493a 897e 19bb 418b f33a 7ce9 c23b
000001c0: 72df 053b a6cb d2ba 7035 baba b812 1f3b
000001d0: 6040 a63a 39a7 62bb b7b1 51bb 7035 46bb
000001e0: 9e97 ab3b beb1 39bb 70b1 9dbb d57b 07bb
000001f0: 9b00 843a d5ec 99ba fbbd 8cbb 536a 223b
-0.003114401 0.0015638255 -0.0024025552 0.0011218332 -0.004519187 0.0013239406 -0.0011726635 -0.002627417
-0.0015147075 0.0028112538 -0.0013188047 -0.0015062169 0.005381799 0.0025643127 -0.0035251044 -0.0009519144
0.0077818595 0.0031850373 0.00093537604 -0.0068718186 -0.0070473654 -0.0027748162 0.0001184484 -0.0048460057
0.00093615765 -0.00029544823 0.0018905833 0.0021894167 0.003187069 0.0027951545 -0.0018986126 0.0007893689
-0.0050642765 -0.0025673455 -0.0033889776 0.00030085293 0.0012238966 -0.0009799653 -0.0036248888 0.00039845656
-0.0001273802 0.0008617318 0.0030413775 0.0012667626 0.00035162934 0.0039595524 0.001258705 0.00010581934
-0.0022858456 0.001117764 -0.00021556839 -0.0037279285 -0.0016243971 -0.0033778541 -0.00090315536 -0.0011213328
-0.0016158869 -0.009026924 -0.0031024893 -0.00035846117 -0.0017791559 0.0001264034 0.0006792445 0.004673919
7.558961e-05 0.0032176592 0.0036176569 -0.010342727 -9.28496e-05 0.0012970269 -0.00039949187 -0.0016661802
0.004074431 -0.0012360873 0.0014175749 0.0056950543 0.0028760731 -0.0009952644 -0.002480268 -0.0019985791
-0.00039987234 -0.0012951728 -0.0014539503 0.0018875601 -0.0017909594 -0.0017878689 -0.00055400224 -0.002556634
-0.0009290437 -0.0013459026 0.0019835744 -5.9788057e-05 0.0036755004 -0.0040068654 -0.001474735 0.0015767027
-0.0027614832 -0.0030886421 3.3165522e-06 0.0074341726 -0.002244779 0.0013708638 0.012415653 0.00032093126
0.0007403677 -0.0020629673 0.00018619161 -0.0039059008 0.00077024905 -0.0023421368 0.001858093 0.0059482437
0.0020427373 -0.001608242 -0.00142066 0.0024272632 0.001268398 -0.0034584536 -0.0031996795 -0.0030244254
0.00523658 -0.0028334702 -0.004812412 -0.0020673175 0.0010070981 -0.0011743555 -0.0042951084 0.0024782612

batch_norm_c2.running_mean f4 [128]
00000000: 34de 363e 7caf 5a3e dfd4 5f3e 2773 853e
00000010: 4053 1f3e 6463 473e 79ec 153e 9151 4a3e
00000020: 7529 403e dee5 273e a6bc 653e 0b0e 683e
00000030: d04c 5c3e 6c07 783e de11 883e 616d 5f3e
00000040: dc5d 353e 7576 363e 37d4 3d3e 2971 573e
00000050: 7c29 4e3e f7c4 863e 2db8 4b3e 1847 443e
00000060: bb31 4e3e a34d 563e 5c20 5b3e 1e73 553e
00000070: 7878 323e 2d66 193e 5794 6b3e dcdc 3c3e
00000080: 10c2 1a3e 3921 313e 66ef 103e e3dc 553e
00000090: 350b 753e 841b 8b3e 538d 463e b483 483e
000000a0: 8ca9 883e 89e0 643e 30de 883e ab02 6e3e
000000b0: 56f0 613e a10a 8c3e fd3e 5d3e 5f6f 4f3e
000000c0: c9e6 793e fbd1 7a3e 8a93 3b3e 53bd 5a3e
000000d0: b128 5b3e 5cc4 243e 2b82 343e 827e 0f3e
000000e0: 8789 4f3e 4717 5c3e 5f0e 423e 4401 db3d
000000f0: 19c7 693e bf57 843e 507c 483e 5cef 5b3e
00000100: 3418 523e d68c 333e 737e 4c3e 2ce9 043e
00000110: bf8e 8e3e 606f 643e 2186 1d3e 517a 643e
00000120: 4ac8 443e cf4f 4f3e 30d3 873e 346c 533e
00000130: 79ef 493e 0f4a 3a3e e11d 1d3e 083b 713e
00000140: c592 513e 7178 6f3e 1ffd 4e3e 23ee 4c3e
00000150: f058 383e e13d 513e 5586 7a3e e3e3 0a3e
00000160: 5411 4d3e 056f 873e d9c0 813e 531f 5a3e
00000170: 4313 853e 9ccc 843e 0aae 713e d144 1e3e
00000180: 0dc9 8f3e 2ea3 4c3e ee17 843e c784 6e3e
00000190: a6c9 8b3e cf69 3a3e af51 4f3e 0c7f c83d
000001a0: 7aeb 7b3e c716 7c3e bcf7 7d3e 6ca6 3d3e
000001b0: 8693 723e 1b3a 403e 324f 483e 7760 673e
000001c0: 427e 263e 4001 8d3e 60f6 173e b3b4 4c3e
000001d0: ba07 883e 2ff6 7a3e 6867 8d3e 2c33 0f3e
000001e0: 6110 f33d 3338 163e 295b 453e f307 573e
000001f0: 4643 0d3e fe13 313e b367 263e 41b4 553e
0.17858201 0.21356004 0.21858548 0.26064417 0.15559101 0.19471508 0.14640988 0.19757678
0.18765815 0.16396281 0.22435245 0.22661607 0.21513677 0.24221581 0.26576132 0.21819068
0.17711586 0.17818625 0.18537985 0.21039261 0.20133013 0.26322147 0.19894476 0.19167745
0.20136158 0.20928054 0.21399063 0.20844695 0.17428768 0.14980383 0.23005806 0.18443626
0.15113091 0.1729783 0.14153823 0.20885043 0.23930056 0.2716943 0.19389848 0.19581491
0.26691854 0.22351278 0.26732016 0.23243205 0.22064337 0.2735186 0.2160606 0.20257328
0.24404444 0.24494164 0.18318 0.21361284 0.21402241 0.1609053 0.1762778 0.14013103
0.20267306 0.21493255 0.18950795 0.10693601 0.22829856 0.25848195 0.19578671 0.21478027
0.20517045 0.17534193 0.19970112 0.12979573 0.27843282 0.22308111 0.15383197 0.22312285
0.19217029 0.20245288 0.2652831 0.20646745 0.19720258 0.18192314 0.15343429 0.23557675
0.20466144 0.23385789 0.20213746 0.20012717 0.18002677 0.20433761 0.24465306 0.13563494
0.20026141 0.2645189 0.25342444 0.21301012 0.25991258 0.25937355 0.23601547 0.15455939
0.28083077 0.19984123 0.25799507 0.23292838 0.27302283 0.18204425 0.20246004 0.09789857
0.24601546 0.24618064 0.24801534 0.18520516 0.23689088 0.18772165 0.1956146 0.22595392
0.16259101 0.27540016 0.14840078 0.19990806 0.26568395 0.24507974 0.27617955 0.13984364
0.118683584 0.14669876 0.19273056 0.20999126 0.13795194 0.17292783 0.16250496 0.20869543

batch_norm_c2.running_var f4 [128]
00000000: f3a6 493d c458 953d 9e7a 663d 5671 923d
00000010: 6396 8b3c 3c70 fb3c e911 713d d385 103d
00000020: e7b6 143d e748 903d 79e7 683d 0bb8 803d
00000030: 74f2 7b3d a0e7 8c3d b46c fd3d 05f4 6c3d
00000040: 843e 633d 5aa4 793d 0d98 8d3d 193e 2e3d
00000050: 1dba c03d 9e4f c03d 772a 1f3d b697 493d
00000060: c58c 263d 6418 693d 69b1 f73d 3b77 973d
00000070: d8e0 893d 1da7 b83c f48e 383d 8fd2 293d
00000080: 5222 253d c2fb 083d 10f6 7a3c 2062 aa3d
00000090: 65eb 593d 9ea8 bf3d 2196 6c3d dd9d 683d
000000a0: 6a8d b43d 2b08 893d 627d db3d ede1 e63d
000000b0: 7113 1c3d a7cd e03d e516 3a3d 00db a73d
000000c0: 705b 963d f56b a03d d72a 6b3d 6516 513d
000000d0: 6927 8e3d 03c8 8b3d b0ff f63c 4f8c a33c
000000e0: 54da 2d3d 8455 7f3d 6bd0 2a3d 1b3f d53c
000000f0: 0b31 8f3d 5fc1 cd3d 2fec ca3d 039f 063e
00000100: 2733 353d 3f0e 923d b7a1 523d 2520 a73c
00000110: 8154 113e 49cb 803d 3567 bb3c b6fa 773d
00000120: 549a 8c3d 1ebd 273d ec6f a93d 4b3f 6e3d
00000130: 5339 683d 823a 283d c2ce 143d 8ad9 8a3d
00000140: d22c c03d b4d5 8f3d 0b3e 5c3d c92e 163d
00000150: d4c2 173d a7f1 5f3d 89dd 673d 96ad 743c
00000160: badc 8b3d 97ab 293e 6639 fc3d 1a0f 373d
00000170: 1b7a e13d b5d3 933d 3915 2f3d 93f3 143d
00000180: 4278 b83d 5f09 e93c f570 9a3d 2578 9d3d
00000190: bd2c e83d e06a 053d c0e1 0e3d e781 0a3c
000001a0: c763 503d 2fd9 9c3d 91af 823d 35ae 723d
000001b0: e296 833d ff7f 633d b6f1 813d 828b 3c3d
000001c0: 8a0b 263d c717 9a3d 3861 ab3c 422d 653d
000001d0: 8541 883d c929 823d a50b cf3d 2a85 033d
000001e0: a870 a23c c192 983c bfcb 633d daf6 843d
000001f0: 7578 f23c 9239 4c3d 682c 233d 339d 903d
0.04923148 0.07292321 0.05626928 0.07150523 0.017039483 0.030693166 0.05885497 0.035283875
0.03630724 0.07045155 0.056861375 0.062851034 0.06151052 0.068801165 0.12374249 0.057849903
0.05547954 0.060947753 0.06913767 0.04253969 0.09410498 0.09390186 0.038858857 0.04921695
0.040661592 0.056908026 0.12094385 0.07395788 0.06732339 0.022540623 0.045058206 0.04146057
0.040315934 0.03344322 0.015317455 0.08319497 0.053203005 0.09358333 0.05776036 0.056791175
0.08816035 0.06691011 0.10717274 0.11273561 0.03810448 0.10976725 0.04543199 0.08196068
0.07341659 0.07833091 0.057413902 0.051046748 0.06941111 0.068252586 0.030151218 0.019964365
0.042444542 0.062337413 0.04170267 0.026031068 0.06991776 0.10046648 0.0990833 0.13146596
0.044238236 0.071316235 0.051423755 0.02040107 0.14192392 0.062887736 0.022876361 0.06054183
0.06865373 0.04095184 0.082733005 0.05816583 0.056695294 0.041071422 0.036329992 0.067797735
0.09383549 0.070231825 0.053770106 0.03666571 0.037051037 0.054673817 0.056607757 0.014933964
0.068292096 0.16569363 0.123156354 0.044692136 0.11009618 0.07218114 0.04274485 0.036365103
0.09007312 0.028446851 0.07541076 0.076889314 0.11336658 0.032572627 0.03488326 0.008453823
0.050876405 0.07658612 0.06381143 0.059248168 0.06425263 0.05554199 0.06344931 0.046031483
0.04053835 0.075240664 0.020920381 0.055951364 0.06653122 0.06355626 0.10109643 0.032109417
0.01982911 0.018624665 0.05561423 0.06492396 0.029598454 0.04985959 0.03983727 0.07061233

conv2.weight_v f4 [64, 128, 3]
00000000: a0b6 71bc 6f10 383c dbdf 03bd 09bf e1bc
00000010: 9e44 12bc c895 113b f039 793c 4813 8cbc
00000020: 824a a5bc b80d 053d 8385 f4bc dd60 5a3c
00000030: bc1e 9cbc 27d0 c5bc 8987 6b3c aa7e 2fbb
00000040: effb dcbc 5fdd c4bc 380f e4bb efa1 f5bc
00000050: caa4 6f3d aaa7 0bbc 2753 45bb 407e da3c
00000060: c2cd 25bc a66f 4abd 154e b73c e81c e7bc
00000070: 01b4 a93c eb0e 83bd 2746 16bd 0569 2bbd
00000080: eca2 c4bb e511 35bd bf96 1fbd 0acf 333d
00000090: 6890 403c a54a 6d3c e070 bcba 5d5a 3ebd
000000a0: 6ed1 333d 5720 44bd aa54 c53c cdb9 9c3a
000000b0: 83c2 613d 23cb 3f3d 8b94 813d af17 3f3b
000000c0: 3297 4dbc 7b08 a23b 7453 f33c 797a db3c
000000d0: 483d 30bc 2963 203b 27d0 1ebd bd80 3cbd
000000e0: bcef 26bd e4d6 74bd a4b8 16bd 0d3e 96bc
000000f0: 0074 263c 7ac1 993c 03d7 b73c 7147 443c
00000100: 46e4 d03c df44 7bbc 1835 f43c dcc8 4ebd
00000110: bad6 193d bf0a b9bc b960 c5ba 73b2 403d
00000120: d561 5abd e4fd 423c e03a 293c 0c08 9dbc
00000130: d428 46bc 6c89 393c 7aeb d7bc 7320 3dbd
00000140: 8070 d13c 44cf b53b b21d 00bd a128 a23c
00000150: 7674 823c f3e7 38bd 3a59 ce3c 5058 643d
00000160: d499 9abc 7246 eb3c 0e3e 14bd 85df 84bd
00000170: 9df9 5bbd 1a0a 37bd 8431 35bc 3a4e 0f3d
00000180: a333 593d 416a 38bd fd67 6e3c a9c6 283c
00000190: f906 103d 8360 303c 9e92 10bd 5eee 0d3b
000001a0: 382a 293d d6e9 1dbd 54c8 e73b ba5d f13c
000001b0: c234 6fbc 63ce 513d ac1e f5bc 4dec bb3c
000001c0: 199e 823c 6ab8 93bb dbe6 b53a 9050 b23c
000001d0: 7311 973c fbef ac3c ae2a 84bc 1e1f 4abd
000001e0: e94b 70bd 41b3 8b3b 27d0 543c ce36 4ebd
000001f0: 1778 2d3d c64e 173d 3ef5 de3c 2475 56bc
00000200: 9a35 e3bc 58e8 1abc 4469 babb e09e e63c
00000210: ddd0 e83a a00d 23bd d47e 8a3c 86bf a0bc
00000220: 1643 cb3c 8c39 a6bc 100c 33bd cdec d53a
00000230: 2852 363a 528b aa3c 25e2 0fbd ca1d 3dbd
00000240: 644e 3fbd 84e8 29bc 8dcc ea3c 5eb0 643c
00000250: 6bd1 68bc 49c5 b03c db2d 03bd 73d2 333d
00000260: 97a0 96bc 0c8e 8b3c 0682 d73c b62d 85bb
00000270: 3e3d c7bc 93a8 24bd dbc4 833b 4593 123d
00000280: bc62 90ba a827 a2bc ac1a d5bc 762a 1abd
00000290: 522d 443d dfdb 29bd 6061 7c3c 5d83 59bc
000002a0: 8822 133d dd6e 933b 91ce c2bc d185 31bd
000002b0: 06e1 3abd 755e 99ba bc64 f13b dbf1 423b
000002c0: 2c14 9dbc 6390 a03c 5221 13bb 8f02 143c
000002d0: 3c16 2bbd d05c 00bd b882 d83c 6bd3 f0bc
000002e0: 6782 9b3a 88c7 433c ff63 023b b636 383b
000002f0: 896d 13bd f6a9 93ba ac92 da3c 8c67 a5bc
00000300: 00da 4fbd b25b 333d 904e 8dbb a578 d5bc
00000310: c45e 393d 7bf7 eabc 6469 21bd 8ae9 2e3d
00000320: 13d5 d03b f64d 6eba b522 23bb 0303 1b39
00000330: a3d8 b23c 77c7 98bb ba63 653d 8d26 f8bc
00000340: 4d55 733d f546 4b3b e43a 9239 f1be 493d
00000350: 4cb5 febb e8be 60bc 12a4 91bb f74c 6fbd
00000360: 3b04 583d 8edd 2bbd 0dee a63c 0299 ee3c
00000370: 20c5 42bc ac99 c33c bf49 cdbc 6a54 0e3d
00000380: a1bb 03bd 7111 cc3b 02f1 9d3c 671f 6d3c
00000390: 02dd 51bb 7628 37bc ad6c c0bb 37e7 81bd
000003a0: 2677 153d 82d6 2e3d f2f3 593c 1d28 a33a
000003b0: 280e 9abc 05f1 c53c 3710 8cbc 5e79 973c
000003c0: 2f65 bb3c deb1 bcbc 25bd 2b3b 4961 62bc
000003d0: 42dd 793c ebcc ae3c 599f 3ebd 386d 01bd
000003e0: d6ae 423b d804 06bd 92c5 11bd 47e9 9ebc
000003f0: cecf 1a3d e191 bc3c 1685 883b 529a 0cbd
-0.014753014 0.011234387 -0.032195907 -0.027556913 -0.008927492 0.002221452 0.015211567 -0.017099038
-0.02017713 0.032483786 -0.02984882 0.013328758 -0.019057624 -0.024147106 0.014375576 -0.0026778379
-0.0269756 -0.02403134 -0.006959822 -0.029984443 0.058506764 -0.008523861 -0.0030109377 0.026671529
-0.010119857 -0.049422882 0.0223761 -0.028212026 0.020715715 -0.0639933 -0.036687996 -0.0418482
-0.006000867 -0.04420652 -0.038962122 0.04389862 0.011753179 0.014483129 -0.0014376901 -0.046472896
0.0439009 -0.047882404 0.024088223 0.0011957228 0.05511714 0.046824586 0.063271604 0.0029158404
-0.012548255 0.0049448586 0.02970288 0.026791798 -0.010756798 0.0024473167 -0.03877273 -0.046021212
-0.040755972 -0.05977525 -0.03679718 -0.018340135 0.0101594925 0.018769015 0.022441393 0.011979924
0.025499474 -0.015336244 0.029810473 -0.050484523 0.037558295 -0.022588132 -0.0015058733 0.047045182
-0.053315956 0.011901353 0.010328978 -0.019168876 -0.012094695 0.011324268 -0.026357401 -0.046173524
0.02556634 0.0055483896 -0.03127832 0.019794764 0.015924674 -0.04514308 0.02518903 0.055748284
-0.01887218 0.028720114 -0.036191992 -0.064879455 -0.053704847 -0.044687368 -0.011059169 0.034986712
0.05302776 -0.045023207 0.01455116 0.0103012705 0.0351629 0.010765198 -0.035296075 0.002165697
0.04130003 -0.03855308 0.0070734415 0.029463638 -0.014599981 0.051222216 -0.029921852 0.022939825
0.015944527 -0.004508068 0.0013878004 0.02176693 0.018440938 0.021110525 -0.016133633 -0.049346082
-0.058666144 0.004263312 0.0129890805 -0.050345235 0.042350855 0.03694036 0.02721655 -0.013089452
-0.02773552 -0.009454809 -0.005688818 0.02815193 0.0017762441 -0.039807916 0.01690618 -0.019622575
0.024812263 -0.020291112 -0.043712676 0.0016321182 0.0006954991 0.020818386 -0.035127778 -0.046170987
-0.04670562 -0.010370377 0.02866199 0.013958065 -0.014210085 0.021578448 -0.032026153 0.043901872
-0.018387122 0.017035507 0.026307117 -0.004064287 -0.024321195 -0.040199827 0.0040212697 0.03578498
-0.0011015753 -0.0197943 -0.026013695 -0.03763815 0.047894783 -0.04146945 0.015404075 -0.013275948
0.035921603 0.0044993 -0.02378014 -0.043340508 -0.045624755 -0.0011701124 0.007366745 0.0029746208
-0.019174658 0.019600099 -0.002245028 0.009033813 -0.04176925 -0.031338513 0.026429519 -0.029397687
0.0011864424 0.011949427 0.0019896028 0.0028108782 -0.035993133 -0.0011265862 0.026681267 -0.020190977
-0.05074501 0.04378862 -0.004312344 -0.026058504 0.04525639 -0.028682461 -0.03940715 0.04270319
0.0063730567 -0.00090905966 -0.0024892513 0.00014783074 0.021831816 -0.00466245 0.05600331 -0.03029182
0.05940752 0.0031017635 0.00027891167 0.04925436 -0.007773077 -0.013717391 -0.0044446075 -0.05842301
0.05273841 -0.041959338 0.020377183 0.029125694 -0.011887819 0.023876987 -0.025059579 0.034748472
-0.03216136 0.006227665 0.01927996 0.014472819 -0.00320226 -0.01117908 -0.00587233 -0.06342929
0.036490582 0.04268504 0.01330279 0.0012447868 -0.018805578 0.024162779 -0.017097576 0.01849049
0.022875397 -0.023034032 0.0026205268 -0.01381714 0.015250506 0.021337947 -0.046538685 -0.0315983
0.002970626 -0.032719463 -0.03558881 -0.019398345 0.037795834 0.02301878 0.0041662557 -0.03432686

batch_norm_c3.weight f4 [64]
00000000: f28c 7f3f 1327 7f3f 25d5 7f3f 72d7 7e3f
00000010: cd93 7e3f d268 803f 99cc 7f3f ffd8 7f3f
00000020: cf52 803f d582 7f3f 5a6b 7f3f cb40 803f
00000030: e8eb 7f3f 77b0 803f 6971 803f b332 803f
00000040: f53b 803f a23d 803f 99c7 7f3f 3e93 803f
00000050: 76c0 7e3f e750 7e3f d63e 7f3f 8e0d 803f
00000060: e832 803f 0e3a 7f3f c78a 7d3f b5b9 7e3f
00000070: beac 813f 31a0 7f3f 1f13 7f3f 312c 803f
00000080: a076 803f 837c 803f 855e 803f 3f78 7f3f
00000090: 674e 7f3f 3931 803f 0689 7f3f ad23 7f3f
000000a0: d03e 803f 7d1b 803f 5c90 803f 7d22 7f3f
000000b0: 7c9e 7e3f ade0 7e3f 1609 7f3f 403b 803f
000000c0: 2000 803f b299 7e3f 5ad8 7f3f 0417 813f
000000d0: f9e0 7f3f 4195 803f ad14 803f 680d 803f
000000e0: 6775 803f 7654 803f 8cf3 7f3f ba34 803f
000000f0: cab1 7f3f 690a 803f 59e3 803f 182c 803f
0.9982444 0.99669 0.9993461 0.99547493 0.99444276 1.0031989 0.99921566 0.99940485
1.0025271 0.9980901 0.9977318 1.0019773 0.9996934 1.0053853 1.003461 1.0015472
1.0018297 1.0018809 0.99913937 1.0044935 0.9951242 0.993422 0.99705255 1.0004137
1.0015535 0.9969796 0.9903988 0.99502116 1.0130842 0.9985381 0.9963855 1.0013486
1.0036201 1.0037998 1.0028845 0.99792856 0.9972901 1.0015022 0.99818456 0.9966381
1.0019169 1.0008389 1.0044055 0.99662 0.9946058 0.9956158 0.9962324 1.0018082
1.0000038 0.9945327 0.999395 1.0085149 0.99952656 1.0045549 1.000631 1.0004091
1.0035828 1.0025775 0.99981 1.0016091 0.9988066 1.0003177 1.0069381 1.0013456

batch_norm_c3.bias f4 [64]
00000000: 3305 073b 6e73 b0ba c5f8 64bb 61eb 5eba
00000010: b8c6 f938 5d97 213b 9ea4 21ba cef6 dbba
00000020: 9fdf 0bbb 09b7 813a e3f7 10ba 1263 a039
00000030: e900 c1b9 64be 8739 fc80 41bb af26 293b
00000040: bb92 07bb 88a6 38bb 6997 32bb 1f8e bdba
00000050: 18ce fb36 ae4e 633b 21ae 2e3a 3d3d 4bbb
00000060: 3a0a bb3a b90b 86b9 3bff f8ba 9565 423b
00000070: 2b42 a2bb 5bed b7ba 3b4b 82ba 785e 9c3a
00000080: 5de6 303b 94d4 f5ba 04df f7ba bcc5 d83a
00000090: b6e1 0dbb 16d3 41b9 5fa3 153b 003e 3f39
000000a0: c081 edba 8671 523b e101 98b9 9844 32ba
000000b0: 59c1 23bb 9570 67bb 26e2 82bb 5941 953b
000000c0: 2027 09ba d7a0 79ba ea51 97ba 87c2 a0b9
000000d0: f9d7 1c3b 9f81 06bb 0b60 c8ba 6907 26ba
000000e0: fad4 c43a 2ce5 24bb a4a5 b0ba 26d0 0ebb
000000f0: 3f1f 83ba 46ed 233a 60e1 65bb 717d 5a3a
0.0020602464 -0.0013462135 -0.0034938317 -0.0008503702 0.000119102595 0.002465687 -0.00061661925 -0.0016781928
-0.0021343005 0.0009896468 -0.0005530102 0.0003059139 -0.00036812507 0.0002589106 -0.0029526344 0.002581041
-0.0020686823 -0.0028175432 -0.0027250892 -0.0014461911 7.5043754e-06 0.0034684348 0.00066635205 -0.0031011843
0.0014270016 -0.00025567206 -0.0018996963 0.0029662598 -0.0049517355 -0.001403253 -0.0009940633 0.0011930009
0.0026992776 -0.001875537 -0.0018911068 0.0016538422 -0.0021649427 -0.0001848455 0.0022832972 0.00018238276
-0.0018120334 0.0032111122 -0.000289931 -0.00068003824 -0.002498707 -0.0035314907 -0.003994244 0.004554909
-0.00052319653 -0.0009522563 -0.0011544798 -0.00030662512 0.002393244 -0.0020524038 -0.0015287412 -0.00063335017
0.0015017085 -0.002516101 -0.0013477099 -0.0021791547 -0.0010003819 0.0006253313 -0.003507696 0.0008334732
