lightning_logs/version_3/checkpoints/epoch=138-step=834.ckpt (torch, 678745 bytes, 50 tensors)

batch_norm1.weight f4 [40]
00000000: a4b4 773f d02d 8c3f 7401 803f 0e9f 773f
00000010: 0228 763f 956e 793f de61 753f 72cc 7d3f
00000020: 42e9 7c3f 532f 783f 8f67 783f 79a5 783f
00000030: 35b8 773f 8060 7d3f bea6 783f d76c 793f
00000040: ccfa 7c3f a940 793f 2b58 873f b445 943f
00000050: fc6d 9f3f 5817 7b3f 3e04 823f a2a7 7a3f
00000060: 9765 763f 6d20 7b3f 1ffc 813f d8ed 793f
00000070: 9b41 7a3f 7dfb 793f 21ac 753f 0124 793f
00000080: a806 7a3f c657 783f 20b3 803f 8833 843f
00000090: 9e67 803f e500 803f f196 7a3f 7f21 793f
0.9676001 1.0951481 1.0000443 0.96727073 0.961548 0.9743436 0.9585246 0.99140084
0.98793423 0.9694721 0.9703302 0.9712749 0.9676545 0.9897537 0.9712943 0.974317
0.98820186 0.9736429 1.0573782 1.1583772 1.245544 0.98082495 1.0157545 0.9791204
0.96248764 0.9809635 1.0155066 0.97628546 0.97756356 0.97649366 0.9596577 0.9732056
0.97666407 0.9700893 1.0054665 1.0328226 1.0031621 1.0000273 0.9788657 0.97316736

batch_norm1.bias f4 [40]
00000000: 876f 943c ed8d 3ebd 1643 6fbc fa1c 1cbc
00000010: 9bb2 7bbb 96b8 79bb 4bb8 20bc c640 203c
00000020: 3393 8d3c 4a4a 603c 64c8 36bc afa2 d13b
00000030: 3179 5fb9 eede 743b 5b0d cdbb b1fb 573b
00000040: c50e 86bb f31b 62bc 26c6 d9ba f595 ba3d
00000050: ceaa 8a3e 5e11 293b f77e 753c 9d0b 02bb
00000060: 283d 6b3b e7f4 2cbb ae65 a9bb 1895 3abb
00000070: aa9f 6fbb 5a7b ea39 7bee 7cbc 850a 8e3c
00000080: 677a 183c c966 0a3a 7698 513c 8724 4cbb
00000090: bc6a f9bb fa2a 473b a35a 40ba 4d36 babb
0.018119587 -0.04652207 -0.014603397 -0.009528393 -0.0038406018 -0.0038104407 -0.009809564 0.009781068
0.017282104 0.013689587 -0.011156175 0.006397567 -0.00021312085 0.0037364322 -0.0062576956 0.0032956416
-0.004091116 -0.013800609 -0.0016614839 0.09110633 0.2708344 0.0025797705 0.014983884 -0.0019843348
0.0035894606 -0.002639109 -0.005169592 -0.0028470214 -0.0036563673 0.00044723862 -0.015437718 0.017339
0.009306527 0.00052795984 0.012792697 -0.0031149702 -0.0076116007 0.0030390606 -0.00073377247 -0.0056827427

batch_norm1.running_mean f4 [40]
00000000: 74e5 bf3f c599 7242 8e91 b040 17ec 1440
00000010: 9930 0f40 179f f83f 920e 3440 df1e 0440
00000020: 2187 1840 25dc 0a40 5e9b 4140 6267 4040
00000030: 42e0 2940 214b a83f 4add 5b40 605e 6c40
00000040: 0d5a 5a40 1d68 2440 ff6a 853f 4b87 f53f
00000050: aba7 1940 de2b b440 3f8e 8d3f a33e cb3f
00000060: 7c9a 1140 6491 4640 3931 923f c241 4540
00000070: d995 3940 7da3 4a40 c3f5 4a40 e4ef 9e40
00000080: 7a85 4040 7e56 a63f 0bf0 3841 c564 0e41
00000090: 9d90 2841 4501 a640 fcd5 8043 1239 9443
1.4991899 60.650166 5.517768 2.3269098 2.2373412 1.942355 2.8133893 2.0643842
2.3832476 2.1696866 3.0251079 3.00631 2.6543126 1.3147928 3.4353814 3.6932602
3.4117463 2.5688546 1.0423278 1.9181913 2.4008586 5.630355 1.1059035 1.587849
2.275054 3.102624 1.1421272 3.0821385 2.899771 3.1662285 3.17125 4.9667835
3.0081468 1.2995145 11.558604 8.899602 10.535306 5.187655 257.67175 296.44586

batch_norm1.running_var f4 [40]
00000000: dc0a 803e 15a2 2944 46b7 0c3f 00a7 a73f
00000010: 2154 4540 42c0 3040 c090 5e40 290b 3840
00000020: 7da6 5d40 991e 4440 2c6f 5d40 8001 5f40
00000030: ec0d 8140 1d05 5d3e 1a09 a940 171c 9f40
00000040: e59f b140 77b3 0140 41be fd3d 04b1 713f
00000050: 26c1 5e3f a8db 983f 83d1 fa3e b86b f13f
00000060: 6e94 3340 f08b c140 6ff3 083f 18dc 5e40
00000070: b4a3 6a40 e70a 5a40 a37b 5a40 508e 6240
00000080: 2c53 5040 7703 0a3f e27c 0844 a5fa 3943
00000090: 5e9a 1744 7c71 f142 d9f5 0647 80bf 2447
0.25008285 678.53253 0.54967153 1.3097839 3.0832598 2.7617345 3.4775848 2.8756812
3.4632866 3.0643675 3.4599104 3.4844666 4.0329494 0.21583982 5.282361 4.972179
5.5507684 2.0265787 0.12389804 0.9441073 0.8701347 1.1942034 0.4898797 1.8860998
2.8059344 6.048332 0.5349645 3.4821835 3.6662416 3.4069154 3.4137962 3.539936
3.2550764 0.53911537 545.9513 185.97908 606.412 120.72165 34549.848 42175.5

dense1.weight_g f4 [1024, 1]
00000000: 1397 fa3e 048f 0d3f ff90 113f ee33 273f
00000010: dc55 103f e70c fd3e 6a96 133f d201 153f
00000020: f26a 163f 0fb4 0f3f 811f 233f 2a77 003f
00000030: 52ef 323f 1b9d 143f f1f5 073f 53ae 0e3f
00000040: fdd4 0d3f 70a5 203f 0da9 0e3f 3e81 0c3f
00000050: 79a4 1b3f 7f83 113f fc0e 153f 6aa5 153f
00000060: b7ef 133f b1f0 0b3f ffda 0f3f cdd0 1a3f
00000070: 55c0 1a3f bb4d 0e3f c789 1b3f a512 103f
00000080: ed3e 113f 541f 203f 3e09 173f 18ff 183f
00000090: 6dac 0e3f d241 173f 180a 1e3f a6d2 153f
000000a0: ce2e 123f 1c69 123f 309c 153f 0140 0b3f
000000b0: 74b2 1a3f b8e8 163f 33e0 123f 652e 193f
000000c0: d31b 1b3f a1cf 0b3f 65a1 103f d978 203f
000000d0: ceca 163f 8a2b 183f ea03 133f 2f7f f73e
000000e0: 31df 193f 6d7b 143f d53e 163f 6a9f 173f
000000f0: d6f7 023f 57f9 0f3f 5dee 153f d820 173f
00000100: 54aa 133f 029a 143f 56a4 1f3f c73f 103f
00000110: e71b 113f f153 213f 6344 083f f934 123f
00000120: 20be 033f b6d7 063f 3f9c 093f 7198 123f
00000130: 2bf7 133f 2c07 063f 0f44 153f 6beb 163f
00000140: e7c2 163f df8a 213f 827e 143f 9519 003f
00000150: 1add 123f 9878 193f ffb7 0b3f 00d4 153f
00000160: 088d 1c3f 1836 063f 060e 053f 7615 213f
00000170: b775 193f ea64 233f 0929 183f d0e8 133f
00000180: a00b 263f e293 103f 6202 0c3f 73f3 0f3f
00000190: fdec 0e3f f7b6 f83e b6b1 103f 44c0 073f
000001a0: a239 1b3f 96ff 183f ba18 233f 8cf0 063f
000001b0: 1116 053f 5661 1e3f 09f9 1f3f 050b 133f
000001c0: 35b1 2d3f b921 173f e5fb 063f e5ea 1a3f
000001d0: 61d7 1b3f f1f8 083f 6773 1e3f 35b9 143f
000001e0: cff2 013f 3398 113f 08a5 1c3f 02e1 0c3f
000001f0: d03a 203f 3f1f 193f 4c2e 173f 93b3 073f
00000200: d1a6 0b3f 062b 083f 04bc 1d3f 2cfa 0e3f
00000210: bab5 153f dc49 133f 197d 0d3f 323e 0f3f
00000220: 8643 143f 81b9 143f 7319 003f 0f53 093f
00000230: bd55 1c3f 93c9 1a3f 8c3f 013f c5bf 123f
00000240: 19f7 163f 7a1e 043f ac44 173f fa09 133f
00000250: fa0c 1b3f ff6e 203f d8f6 203f 1eeb 0a3f
00000260: 8714 213f 5859 223f 1225 153f 5d8a 0f3f
00000270: 6bd8 0d3f de05 173f 6161 0d3f 3d11 e93e
00000280: ba7d 0f3f 9cea 013f 3426 0d3f e264 093f
00000290: 82f7 113f 320b 183f f2d9 163f fab6 1e3f
000002a0: f61c 0a3f 4b31 1f3f 50ec 183f 3832 1a3f
000002b0: 7292 093f 0b3c 133f 10d2 123f 8695 0b3f
000002c0: 01a6 213f 3f71 063f 39dc 2b3f afe6 0b3f
000002d0: e0c3 163f 0a7f 083f 4338 253f 0577 163f
000002e0: 18c7 173f 1e37 0a3f ea45 113f a68b 0c3f
000002f0: 08c8 123f a057 163f 8c1f 273f 0703 143f
00000300: ee01 023f d473 0f3f bff1 143f 81b7 103f
00000310: 46e5 0c3f 1bab 1c3f beeb 113f 041b 0e3f
00000320: 7bfb 273f 9a01 143f dc15 153f 0912 003f
00000330: 34ca 0f3f 8206 1f3f ce97 093f c7df 053f
00000340: b740 113f b365 123f c3e4 113f 6f3e 133f
00000350: 38c4 123f 3c56 033f f4e2 113f 5908 fc3e
00000360: 43fb 1a3f a012 103f be5a 173f e3d4 153f
00000370: adcb 1e3f cfbf 0b3f 8c77 103f bc31 183f
00000380: a056 043f 81b0 1d3f e2f6 193f 7700 1a3f
00000390: f6f7 233f a40c 0c3f 8c90 093f f7fa 093f
000003a0: a6d5 1b3f 2b43 0f3f 9e31 173f bfce 193f
000003b0: cfed 0f3f 184b 0c3f ea81 193f b8d0 fd3e
000003c0: cbfd 173f d4ff 173f 85e5 1c3f 1302 0a3f
000003d0: 2716 0d3f 22bc 153f 2d4c 1f3f 4177 133f
000003e0: 5c4f fc3e 8832 023f 400e 173f 105e 113f
000003f0: a7df 123f e5bf fa3e 48ff 163f 6f5b 0c3f
0.48943385 0.5529635 0.5686187 0.65313613 0.5638101 0.49423906 0.5765139 0.582059
0.58756936 0.5613412 0.63719946 0.5018183 0.69896424 0.58052224 0.5310965 0.5573475
0.5540312 0.6275244 0.557267 0.5488471 0.6079784 0.5684127 0.5822599 0.58455527
0.5778765 0.5466414 0.56193537 0.60474855 0.60449725 0.5558736 0.60757107 0.5627845
0.5673664 0.625478 0.5899848 0.5976424 0.5573185 0.5908481 0.6173415 0.5852455
0.5710267 0.57191634 0.5844145 0.5439454 0.6042855 0.5894885 0.5737335 0.5983642
0.6058933 0.5461369 0.5649627 0.626844 0.58903205 0.59441435 0.5742785 0.4833922
0.6010619 0.5800083 0.58689624 0.5922762 0.5115942 0.5623984 0.5856684 0.5903449
0.57681775 0.580475 0.6236013 0.56347317 0.566832 0.6301871 0.5322935 0.5711208
0.5146198 0.526729 0.5375404 0.5726386 0.57799023 0.52354693 0.58306974 0.5895297
0.5889115 0.63102525 0.58005536 0.50039035 0.57368624 0.59949636 0.5457763 0.5852661
0.61152697 0.5242629 0.51974523 0.6292337 0.59945244 0.6382586 0.59437615 0.5777712
0.6486149 0.5647565 0.54691136 0.5623085 0.55830365 0.4857709 0.56521165 0.5302775
0.60634816 0.59764993 0.63709605 0.52710795 0.51986796 0.6186727 0.6248937 0.5743869
0.6784852 0.5903583 0.5272811 0.6051467 0.6087552 0.53504854 0.6189484 0.58095104
0.5076112 0.5687286 0.6118932 0.55030835 0.6258974 0.598133 0.5905502 0.53008384
0.54551417 0.5319065 0.61615014 0.5585048 0.5848042 0.57534575 0.5526901 0.5595428
0.5791553 0.58095556 0.5003883 0.5364236 0.61068326 0.6046383 0.5048759 0.5732387
0.5897079 0.51609004 0.5908916 0.574371 0.60566676 0.62669367 0.62876654 0.5426501
0.6292195 0.6341758 0.5825969 0.560705 0.5540835 0.5899333 0.55226713 0.45520964
0.5605122 0.5074861 0.5513642 0.5366956 0.5701829 0.5939208 0.5892631 0.6199795
0.5395044 0.6218459 0.59735584 0.6023288 0.5373908 0.57513493 0.5735178 0.5452503
0.63143927 0.5251655 0.6713291 0.5464887 0.5889263 0.53318846 0.64538974 0.5877536
0.5928817 0.5399035 0.56747305 0.54900587 0.57336473 0.58727455 0.6528251 0.5781712
0.50784194 0.56036115 0.58181375 0.56530005 0.55037344 0.61198586 0.5700034 0.5550997
0.65618104 0.57814944 0.5823648 0.5002752 0.5616791 0.62119305 0.5374726 0.5229458
0.5673937 0.5718643 0.5698969 0.5751714 0.57330656 0.5130346 0.5698693 0.4922512
0.60539645 0.5627842 0.59122837 0.58527964 0.62029535 0.5458955 0.56432414 0.5945089
0.5169468 0.6159745 0.6014234 0.6015696 0.64050233 0.5470679 0.53736186 0.53898567
0.60872877 0.55961865 0.59060085 0.60081095 0.5622224 0.54802084 0.5996386 0.49573302
0.5937163 0.5937474 0.6128772 0.53909415 0.55111927 0.5849019 0.6222561 0.5760384
0.49279296 0.50858355 0.5900612 0.56784153 0.57372516 0.4897453 0.5898328 0.54827017

dense1.weight_v f4 [1024, 40]
00000000: 9f5b 133d 7fd8 3abd 2065 343d a8f5 2cbc
00000010: 215c 863d f824 0f3d 50b3 a0bc 6517 ffbd
00000020: 3ff0 123d 670f 0fbe 1634 a23c 00e4 103c
00000030: ff69 17bd af84 033e a4ff 493c 8c58 863d
00000040: f414 8b3d 95c6 c0bd a4d9 82bd 9546 193e
00000050: f7a1 1bbe 01dc 33bc 7e5c 35bc 799c e33d
00000060: db86 7ebc 0ab1 2b3d 1bfe c8bb 04e5 b7bd
00000070: c64b b9bd 5fcc a0bd 4a29 12be 3d22 d4bd
00000080: 85d3 173d 4a9f d13d abe5 373c b4a4 99bd
00000090: b63b 9b3d 7496 80bd e829 11bd b573 b1bd
000000a0: 4afc 45bd 0380 1dbe 5cf0 873d 2aa5 6d3d
000000b0: f711 e83c cead 9a3d e8dd 843d 97aa 053c
000000c0: 3748 8a3c 52b9 393c b26e a93d 343c d63d
000000d0: 1a32 e33d 44c0 be3d 2b7d 1abd a17d ccbb
000000e0: d723 fabc 9874 af3d a96c 923c 01b7 153e
000000f0: c3c2 a03d 7f71 0cbe 7b70 3b3d 070b 1c3e
00000100: 02f2 0d3e 9be0 8bbb 1fa4 573d deac 1abe
00000110: b49d 52bd e778 993d 02d4 14be d464 103e
00000120: e3d1 d3bd 1df9 523d b501 c8bb 9daa dd3c
00000130: 03a7 7e3c ab74 15be 8c34 11bd 835e cfbd
00000140: 1394 093e cdea 99bc c62d 23be ca5b 1c3d
00000150: 0382 8f3d 13a8 8fbd 19e9 66bc 759b 863d
00000160: 2ef8 c5bd 69f6 abbd 3264 82bc 2d47 e2bd
00000170: f73d c53d 5efb 773c fb2e c43d 08a1 ad3d
00000180: bd4d f8bd bdb6 ccbd 8fe1 dbbd 6104 5fbd
00000190: 8f65 74bd 52b4 d2bc 1142 1dbe 4a45 8d3d
000001a0: 7c62 b83d 6ae8 493d ae6a ce3d 8e1c f23d
000001b0: eaf5 1dbe 9b37 d53c bcca 143e 0f2d dfbd
000001c0: 0f88 8cbd 180f e5bb fa63 cdbd 7c62 e4bc
000001d0: 9f8d d5bc e561 143e 3f43 2bbc 3f00 ae3d
000001e0: 72ba e83d b531 9d3d 3d1a 0dbe 4786 f43d
000001f0: 4584 d93d ea80 e1bd 0589 60bd b3e4 d53d
00000200: f520 1fbe abd1 0ebe aa69 dcbd 0039 4a3d
00000210: 1c98 84bd b870 0fbe 52fc 7d3d 4418 a23d
00000220: 02ff 683d 7172 06be de57 213e a4e3 79bc
00000230: 4e56 27be 4cd2 b4bc 5bd0 cf3d 2a32 993d
00000240: 9115 76b9 1bf6 e03d d068 13be c0c0 e13d
00000250: 1789 1f3e edcc bdbd ac7c fc3c 131e abbc
00000260: e453 07be 1f68 313b 2384 62bd fae5 07be
00000270: 2701 ecbd 492c b33b 9fc8 123e 4e35 5a3d
00000280: a8b0 d9bd f94e eb3d f873 513c 5403 1cbe
00000290: 2830 433c 7100 d93d ad4a babd 6b00 2abc
000002a0: 21b4 a9bd 2117 fabd f338 b7bd 1cc3 8f3c
000002b0: 5ff4 ce3d 8880 dfbc 93e4 0dbe 6827 583a
000002c0: 25b8 0dbe 3b3b 333c 00f2 023e c3b2 913d
000002d0: 1328 e4bd 69cd 07bd d5e3 853d 9e31 393d
000002e0: 9807 11be 2074 b3bd a6c6 6abd 061b 6f3d
000002f0: e7a1 0f3e 43e5 943d 2bc0 663d 8433 05be
00000300: bf4b be3d 916b 613d d4c1 54bd ced3 9abd
00000310: d0d7 363d 9332 aebd 7cee 803d 28d1 f23d
00000320: ddf3 d8bd 62cd bdbd 8068 80bd a8a7 0bbe
00000330: 39e4 8dbc a148 d13d f512 633d 2e48 5dbd
00000340: a5b4 c5bc ecea 8abd edc8 03be 24a1 38bd
00000350: 048c 153c 78f3 a6bd 9154 f1bd 03c7 2d3d
00000360: 75d6 913c e888 4fbd fa76 483d cf2b 153e
00000370: 01ee 03bc 0cc4 ddbd e808 183e e838 eb3d
00000380: 738d 41bc b202 8fbd 3efa 87bd b750 0d3e
00000390: 7476 a53d 878c a5bd e76f 163a c3fe 073d
000003a0: 2f0e 0f3d 4e68 18bc d0ee abbd 5a37 cfbb
000003b0: a5d2 29bd 59ea 5dbd 1bc4 9ebd 0306 a0bd
000003c0: 3399 9ebd f254 833d c7e5 05be 0535 1abe
000003d0: 3ff4 083e 3daf 783d febc ac3d d6d4 883d
000003e0: dcf2 84bd 3b10 c6bd 7df8 ddbd 89d5 2bbc
000003f0: 1197 163d ac95 16be 0530 f3bd b2a6 b53d
0.03597605 -0.045616623 0.044041753 -0.010556616 0.06560541 0.034947366 -0.019616753 -0.12455634
0.035873648 -0.1397072 0.019800227 0.008843422 -0.03696632 0.12843584 0.012329016 0.06559858
0.06791106 -0.094128765 -0.06389168 0.14968331 -0.15198503 -0.010977746 -0.011069415 0.11113829
-0.015535082 0.041916884 -0.0061338074 -0.08979228 -0.09047656 -0.07851481 -0.14273563 -0.10358093
0.037066955 0.1023546 0.011224191 -0.07502118 0.07579748 -0.06278697 -0.035440356 -0.086646475
-0.048336305 -0.15380864 0.06637642 0.05801884 0.028328879 0.07552682 0.06487638 0.008158348
0.016880138 0.011335688 0.082730666 0.104607016 0.110935405 0.093140155 -0.037717026 -0.006240562
-0.030534668 0.0856716 0.017874079 0.14620592 0.07849648 -0.1371517 0.045761567 0.15238582
0.1386185 -0.0042687184 0.052646752 -0.15105006 -0.05141993 0.074937634 -0.14534 0.14100963
-0.10342767 0.051507104 -0.006103719 0.027058894 0.015542748 -0.14595287 -0.035450503 -0.101254486
0.13435392 -0.01878872 -0.1593543 0.038173474 0.0700722 -0.070144795 -0.014093661 0.0657262
-0.09666477 -0.083966084 -0.015916917 -0.11048732 0.096309595 0.015135614 0.09579273 0.0847798
-0.121242024 -0.09995792 -0.10736381 -0.054447535 -0.059667166 -0.025720749 -0.15357234 0.068979815
0.090031594 0.049293913 0.10078941 0.118218526 -0.1542584 0.026027491 0.14530462 -0.10897266
-0.068618886 -0.0069903247 -0.10028835 -0.027878992 -0.026068507 0.14490469 -0.010453044 0.08496141
0.113636866 0.076754965 -0.1377954 0.11939674 0.106209315 -0.110109165 -0.054818172 0.104440115
-0.15539916 -0.1394717 -0.10762341 0.049370766 -0.06474325 -0.14007843 0.06200821 0.079147846
0.05688382 -0.13129593 0.15756175 -0.015252028 -0.16341516 -0.022072934 0.101471625 0.07480271
-0.00023468422 0.10984441 -0.14395452 0.11023092 0.1557964 -0.09267602 0.030821167 -0.020888364
-0.13215595 0.0027070118 -0.055301797 -0.13271323 -0.11523657 0.0054679257 0.14334343 0.05327349
-0.10629398 0.11489672 0.012783997 -0.15235645 0.011913337 0.10595787 -0.090962745 -0.010376076
-0.0828631 -0.12211443 -0.08946409 0.01754909 0.10105204 -0.027282968 -0.13856725 0.0008245618
-0.13839777 0.010939415 0.12787628 0.07114174 -0.11140456 -0.03315488 0.06537596 0.045213334
-0.14163053 -0.087623835 -0.057318352 0.05837538 0.14026605 0.07270291 0.05633561 -0.13007933
0.09291791 0.055034224 -0.05194266 -0.0755993 0.04463941 -0.0850574 0.06295487 0.118563
-0.10593388 -0.09267689 -0.06269932 -0.13638175 -0.01732074 0.10218931 0.055438 -0.054023914
-0.02413399 -0.06783089 -0.12869616 -0.04507555 0.009127621 -0.08151907 -0.11783708 0.04242612
0.017802456 -0.050667673 0.04894159 0.14567493 -0.00805235 -0.108284086 0.14847147 0.114854634
-0.011813509 -0.06982936 -0.06639527 0.13800322 0.08079234 -0.08083444 0.00057387206 0.033201944
0.034925636 -0.009302212 -0.08395159 -0.006323737 -0.041460652 -0.05417857 -0.07752248 -0.07813647
-0.07744064 0.064126864 -0.13075934 -0.15059288 0.13374422 0.060713995 0.08434485 0.0668122
-0.06491634 -0.096710645 -0.10838411 -0.0104879225 0.036765162 -0.14705533 -0.118743934 0.08869685

batch_norm_c1.weight f4 [64]
00000000: 0000 803f 0000 803f beff 7f3f 0300 803f
00000010: f3ff 7f3f 3700 803f 0000 803f cfff 7f3f
00000020: fdfe 7f3f 0000 803f 7eff 7f3f 0000 803f
00000030: 0000 803f f0ff 7f3f 0f00 803f 0800 803f
00000040: 0000 803f faff 7f3f 0300 803f ffff 7f3f
00000050: b0ff 7f3f 0000 803f cdff 7f3f f6ff 7f3f
00000060: 0000 803f 0000 803f e4ff 7f3f eeff 7f3f
00000070: 19ff 7f3f d1ff 7f3f 66ff 7f3f fffd 7f3f
00000080: 0000 803f 1000 803f 85fe 7f3f 0000 803f
00000090: f7ff 7f3f fcfd 7f3f 0000 803f b8ff 7f3f
000000a0: e6ff 7f3f fdff 7f3f 0000 803f 0f00 803f
000000b0: c7fc 7f3f 0000 803f 0000 803f 0000 803f
000000c0: 0000 803f 0a00 803f 0000 803f d7f7 7f3f
000000d0: a5fe 7f3f 65ff 7f3f ffff 7f3f c5ff 7f3f
000000e0: f6ff 7f3f ebff 7f3f 0000 803f 0000 803f
000000f0: a9ff 7f3f 0000 803f 0000 803f 7cff 7f3f
1.0 1.0 0.99999607 1.0000004 0.9999992 1.0000066 1.0 0.9999971
0.99998456 1.0 0.99999225 1.0 1.0 0.99999905 1.0000018 1.000001
1.0 0.99999964 1.0000004 0.99999994 0.99999523 1.0 0.99999696 0.9999994
1.0 1.0 0.99999833 0.9999989 0.99998623 0.9999972 0.9999908 0.9999694
1.0 1.0000019 0.9999774 1.0 0.99999946 0.99996924 1.0 0.9999957
0.99999845 0.9999998 1.0 1.0000018 0.9999508 1.0 1.0 1.0
1.0 1.0000012 1.0 0.9998755 0.9999793 0.99999076 0.99999994 0.9999965
0.9999994 0.99999875 1.0 1.0 0.9999948 1.0 1.0 0.99999213

batch_norm_c1.bias f4 [64]
00000000: 6a20 333a 1b21 7aba 45cf 0dbb 897c 0dbb
00000010: f365 433b 69dc 113b 4bc4 7dba a948 4fbb
00000020: 296c d4bb 0d69 69ba 24f4 a03b ebb8 883a
00000030: 5b6f 303a 3f7c e33a 091c 343a a2a4 1939
00000040: 6d53 f838 c060 abba ea3d 8dba 59fe 7fba
00000050: 7462 84bb cb09 863a ab17 803b 9399 dd3a
00000060: ab46 d3b9 93d8 cab9 6f91 303b daaa 423a
00000070: 9ae5 c8bb 1ab9 793b 007d a6bb 80b2 093c
00000080: 7366 0cba 0d12 0b38 702d f6bb 984c a339
00000090: 1be9 263b 52ce 0abc 86ec 58ba 60fa 80bb
000000a0: 5d80 273b 6d42 c53a 55b7 e639 a156 48ba
000000b0: cfbd 2e3c d706 b139 470e 7cba 2635 31b9
000000c0: e52a a1ba d125 0039 4c8b 413a 6cd5 8abc
000000d0: 536b e5bb ccbd a43b 13c9 48bb 7bff 4d3b
000000e0: c13b ca3a 5931 11bb 09b6 03bb afec f5b9
000000f0: 8be5 4dbb 6c11 a3ba ffa2 3f3a a74d 9d3b
0.0006833138 -0.0009541676 -0.0021638435 -0.0021589121 0.0029815405 0.0022256619 -0.0009680434 -0.0031629002
-0.0064826203 -0.00089038984 0.0049119163 0.0010431086 0.00067304604 0.0017355754 0.00068706326 0.00014652548
0.00011841101 -0.0013075098 -0.0010775898 -0.0009765379 -0.004040057 0.0010226307 0.0039090714 0.0016906731
-0.00040297708 -0.00038689803 0.0026942154 0.00074259716 -0.0061308863 0.0038104714 -0.005080819 0.008404374
-0.00053558423 3.3156994e-05 -0.007512741 0.0003114685 0.0025468532 -0.008472042 -0.0008274991 -0.003936097
0.0025558688 0.0015049704 0.00044005612 -0.0007642303 0.010665371 0.00033765167 -0.00096151646 -0.00016899835
-0.0012296109 0.00012221119 0.00073831226 -0.01694747 -0.0070013194 0.0050275084 -0.0030637428 0.0031432796
0.0015429185 -0.0022154658 -0.0020097515 -0.00046906385 -0.0031417336 -0.0012441105 0.000731036 0.0048005166

batch_norm_c1.running_mean f4 [64]
00000000: 5aa2 ae3d cac4 b23d cfc9 b63d e8bf a43d
00000010: 9502 aa3d 29dc cd3d 7de1 b03d 34ba b63d
00000020: 3994 963d bccc af3d ab52 973d 8618 bf3d
00000030: b1e3 b93d 22b6 a83d d022 983d 03f3 ab3d
00000040: d432 943d cfb3 a63d b6d6 ac3d 8096 b13d
00000050: 6f8b ac3d 73cb a83d 0b42 ae3d a63c ab3d
00000060: b2df a63d 8658 9b3d ddcf a73d 72ab ac3d
00000070: 7aa8 a13d 7570 853d 2c3d b03d 5e8f b43d
00000080: 09d9 bd3d 4086 9a3d d407 b23d ed73 b23d
00000090: 49d3 ad3d b0d4 ab3d a03d bf3d d7e8 c73d
000000a0: c4f0 b93d 72be c63d c3a5 a83d fb4b a03d
000000b0: 48d3 983d 5cca ca3d 12f0 bc3d 3d0f a63d
000000c0: 03c4 b73d 850f b73d beab 983d ac19 a13d
000000d0: 1d0e a93d 5905 aa3d 0a92 ae3d 2a53 a63d
000000e0: 6de4 bd3d faa8 ba3d 896b a93d 1099 993d
000000f0: aa55 973d f410 a53d 232c bb3d 8976 a13d
0.0852706 0.08728941 0.08925211 0.08044416 0.08301274 0.10051758 0.086367585 0.08922234
0.0735249 0.08583972 0.073888145 0.09330849 0.09076632 0.08237864 0.07428515 0.0839596
0.07236257 0.081397645 0.0843939 0.08671284 0.08425032 0.0824193 0.085086904 0.08361177
0.08148135 0.07585244 0.08193944 0.08431138 0.078934625 0.0651559 0.086054176 0.088164076
0.09269912 0.075451374 0.08692899 0.08713517 0.08487565 0.08390176 0.09337926 0.097612076
0.090791255 0.09704293 0.082347415 0.07826992 0.07462174 0.09901878 0.09225477 0.08108375
0.08972933 0.08938507 0.07454632 0.07866225 0.08254645 0.08301801 0.085239485 0.08121331
0.092720844 0.09114261 0.08272464 0.074998975 0.07389386 0.08059874 0.09139278 0.07883937

batch_norm_c1.running_var f4 [64]
00000000: ae0d 9e3e 94e1 a23e 1f9b ad3e ffa5 9d3e
00000010: b5f0 a73e b90c a73e 0b78 ac3e dba6 ab3e
00000020: 0e1f 903e 6a13 a33e d630 9c3e fc3f b23e
00000030: e68e a13e c365 af3e 06eb 9c3e 3086 9e3e
00000040: 1342 9a3e 7122 aa3e 5cef 9c3e 82aa a43e
00000050: 15ec a33e b422 a33e 8286 a43e 7c67 a13e
00000060: 191d a93e c89a 923e d268 983e 2546 a33e
00000070: 31f6 973e e967 903e 35cf a43e aada a03e
00000080: b828 ac3e e118 953e d4cd a13e 4718 9d3e
00000090: 935e 9c3e 5827 9d3e 37ad a83e 9304 ad3e
000000a0: 9b00 ac3e 9464 b73e 8db3 943e f4a5 8f3e
000000b0: 631a 963e a433 b73e 99d5 a63e 1895 a23e
000000c0: f9ce a63e 472c 9d3e 34c2 973e d99d 9e3e
000000d0: 1f83 a53e 8229 ac3e 1c25 a53e 2dea ac3e
000000e0: e224 bd3e c7a1 a13e 8ab2 a33e 2fbb 9a3e
000000f0: a67f a33e acfb a33e 2ce1 ae3e c1c2 a03e
0.30869812 0.31812727 0.3390741 0.30790707 0.32800832 0.32626894 0.33685336 0.33525738
0.28148693 0.3185075 0.3050601 0.3481444 0.31554335 0.34257326 0.3064806 0.30961752
0.30128536 0.33229402 0.30651367 0.32161337 0.32016054 0.31862414 0.3213387 0.31524265
0.33030012 0.28633714 0.29767472 0.31889454 0.29680017 0.28204277 0.32189336 0.31416827
0.33624816 0.29120544 0.31602347 0.30682585 0.30540904 0.3069408 0.32944652 0.33792552
0.33594212 0.35818923 0.29043236 0.280563 0.29317006 0.35781586 0.32584837 0.31754375
0.32579783 0.30697843 0.29640353 0.30979803 0.323266 0.33625418 0.32254875 0.33772412
0.36942202 0.3156874 0.31972152 0.30220935 0.31933326 0.32027948 0.34156168 0.31398585

conv1.weight_v f4 [128, 1, 5]
00000000: 4d2f 4c3e 31e6 8d3e ebfd 7fbd cc0d 843d
00000010: da78 a8be 38af 6e3e 41df 323e 486e 3c3e
00000020: 5af3 aabe 2fa6 91be 3f4f d53e 9ecc 8ebd
00000030: 333e ecbd 0f01 413e 9e5b b2be c3ca 543e
00000040: ba1f 7cbe a1bc 84be a2fc e13e a15f 8dbe
00000050: cbf6 13be 9313 c13c 8814 91bd 10b7 d63d
00000060: 4beb d5be c6ee d4bd 0cb3 6bbe 60cd f8bc
00000070: f52d 6b3e 148f e5be 08c1 e1bd 933a 363e
00000080: 87db 623e bd01 2e3e 5c35 243e f874 dcbd
00000090: 39f4 6c3e 19f7 b8be df35 75be a481 2fbe
000000a0: fee0 51bd e50e 9abe 4633 b53e 9580 ed3c
000000b0: e321 67be 78b0 1cbd fe75 333d b962 993e
000000c0: 8a43 1f3e 302f 9c3e ca6f e2be 6aa0 46be
000000d0: aa95 20be fcb5 413e 33c4 aebe 474e 52be
000000e0: d62e 1b3b 777a bbbe 7b17 d0bd 7646 dbbe
000000f0: 9fbc 7c3e 092f 97be e03a b2be 90c6 3b3e
00000100: ba32 8e3e f37f 353e 2c54 83be 1cf8 843e
00000110: c785 dd3e 1113 b6be 5553 6a3e f3e3 6cbe
00000120: dd40 c1be 030a a13e f3de e33e 755e c83e
00000130: 0cf5 55be 2eb6 813e 327e b53d 920a d6be
00000140: cab2 12be cec8 a2be d385 4fbe de89 2dbe
00000150: 4d27 22be 54d1 86bd ea8a 2e3e 3a3f d33e
00000160: f8f2 253d cb25 31be 93ed 74bd 38a2 afbd
00000170: 0582 843e 1d9d 8c3e 4c9e a23e bdc4 c0b9
00000180: 1763 87be 5953 8a3e ec5f 60be dd88 b53e
00000190: f397 df3e 68b8 5d3e e60f 413e d3ca 7a3c
000001a0: e029 11be 5ae6 c73e f2a5 463e 9df4 25be
000001b0: da0a ccbe b475 da3e fa99 b0be d3d6 673e
000001c0: e066 2cbe c84c bfbc 3faa a73e 2043 7fbd
000001d0: 364e d33e f7e4 0abe 7d69 59be 84ae 663e
000001e0: 4594 833c 131e afbe 7839 14be 358a be3e
000001f0: 8902 17be 8f1f 103e 169b 083e af4b 8c3e
00000200: 6dbb babe 529a 90be 88dd 973d 8170 d83e
00000210: 0a2e af3e 9b50 763d a55d 40be 5e12 bb3e
00000220: 9dcf 84be 6aee 21be 6f1d ab3e 5f2e 2c3e
00000230: 81ca 30be 794e c33e 6945 7b3e 9261 223d
00000240: 81fa e4bc d014 17be fb30 97be 1616 093e
00000250: 627d 083e ac01 4cbe 4ed9 65be a096 83be
00000260: 60b6 ae3e 7439 8fbe a2d8 a4be 8acb 8f3e
00000270: 3add f5bd ab83 f13d 1234 8bbe 5ab3 a33e
00000280: bd88 83be 3c5b 86bd d24f 2fbd 41bb 963e
00000290: f29c f43d 8628 89bd 076c ac3e e62b 8dbe
000002a0: 8932 863e 90d4 503d c5eb 0f3e 474f 83be
000002b0: cac2 4a3d 7fc8 68be d6de 85bd 26b2 b13e
000002c0: 8911 8f3e fe90 ebbc 7488 bdbe 1f70 10be
000002d0: b452 473e f2d3 99be de6a aabe 79e5 ac3e
000002e0: 559b 99be 65c9 dc3e f97c d5be c611 4abe
000002f0: f66d 52be ecff c8be 49a6 173e 570e 9dbe
00000300: bcb5 83be 76a3 293e 4eb9 953e 1010 b8be
00000310: 0ff5 87be b296 a13d 0a8f 953e 2246 a13d
00000320: 25ae 87bd 60f1 ca3e bea1 983e 3b14 d3be
00000330: a564 c03e 9dba 843e 3527 bf3e f7d9 29be
00000340: 6795 c33e c2ef 3ebe 3216 dd3e 9f58 b8be
00000350: 8a89 02be 52b5 e53e 6e0f 0f3e f61b e9bd
00000360: f3c0 263e 9900 ce3e a14d 9a3e 2789 91be
00000370: 9cea c9bd 8a80 723e c220 16be a9e9 9c3e
00000380: f808 d1be b2cc 59be ec7c dcbe e42c bdbe
00000390: 2ee8 97be 0827 983e 3732 103e 064f 963d
000003a0: 8a5d 52be aa63 da3e 2e43 b6be f340 88bd
000003b0: 9e1f ebbd 3df7 9b3e 39f9 d63e f898 06be
000003c0: 8b9c 43be 6543 ccbe 42f2 15be d8a5 8dbe
000003d0: 26b9 cb3e 78f7 d83e 6f5f b7be cfee 11bd
000003e0: f7a2 98be f706 db3e 7fdc aa3e 0750 173e
000003f0: 0b0c 57be 04e6 9c3e 9d93 53bc 7445 85be
0.19939919 0.27714685 -0.062498014 0.06447944 -0.32904702 0.23309028 0.17467977 0.18401444
-0.33388788 -0.284471 0.41662022 -0.069726214 -0.11535301 0.1884806 -0.34835523 0.20780472
-0.24621478 -0.25925162 0.44138056 -0.27612022 -0.14449613 0.023568904 -0.07083994 0.10484135
-0.41781077 -0.10397105 -0.2301752 -0.030371368 0.2296675 -0.44835722 -0.11023146 0.17795782
0.22154056 0.1699285 0.1603598 -0.107644975 0.23140039 -0.3612602 -0.23946331 -0.17139298
-0.05123996 -0.3008949 0.3539068 0.028991977 -0.2257152 -0.03825423 0.043813698 0.29958132
0.15553108 0.3050475 -0.44225913 -0.1939713 -0.15682092 0.18917078 -0.34134063 -0.20537673
0.002367904 -0.3661687 -0.101607285 -0.42827195 0.24681328 -0.29528072 -0.34810543 0.18337464
0.27773076 0.1772459 -0.25650156 0.25970542 0.43266127 -0.35561422 0.22883351 -0.2313383
-0.377448 0.3145295 0.44506034 0.39134565 -0.20894259 0.25334305 0.088619605 -0.4180494
-0.14326015 -0.31793827 -0.20265894 -0.16947123 -0.15835305 -0.06582895 0.17045179 0.41259176
0.040514916 -0.17299573 -0.05979688 -0.08575863 0.25880447 0.27463618 0.31761396 -0.00036767675
-0.26442787 0.27016714 -0.21911591 0.3545598 0.43670616 0.21652377 0.18853721 0.015307146
-0.1417613 0.39042932 0.1939924 -0.16206594 -0.3985203 0.42667925 -0.34492475 0.22640543
-0.16836119 -0.023352042 0.32747075 -0.062319875 0.41270608 -0.13563906 -0.21231647 0.2252751
0.016061911 -0.34202632 -0.14475048 0.3721482 -0.14747061 0.14074539 0.1334041 0.27401492
-0.3647112 -0.28242737 0.074153006 0.42273334 0.34214813 0.060135465 -0.18785723 0.3653745
-0.25939646 -0.15813604 0.33420894 0.16814564 -0.17264749 0.38145807 0.24538197 0.03964383
-0.02795148 -0.14754033 -0.29529557 0.13387331 0.1332908 -0.19922513 -0.22446176 -0.25700855
0.34123516 -0.2797352 -0.32196528 0.28084975 -0.12005086 0.11792692 -0.27188164 0.31972772
-0.2569026 -0.0656037 -0.042800732 0.29439738 0.119439974 -0.06697182 0.33676168 -0.27572554
0.2621043 0.050983965 0.14054783 -0.2564642 0.04950217 -0.22732733 -0.06536643 0.3470623
0.27943066 -0.028755661 -0.37018168 -0.14105271 0.19465142 -0.30044514 -0.33284658 0.33768824
-0.3000132 0.43122402 -0.4169691 -0.19733343 -0.2054976 -0.39257753 0.14809527 -0.30675003
-0.2572459 0.16566262 0.2924294 -0.35949755 -0.26554152 0.07890071 0.29210693 0.07874705
-0.06625012 0.3963728 0.298109 -0.41226372 0.37576786 0.25923625 0.373346 -0.16587053
0.38199922 -0.18646148 0.43180996 -0.36005113 -0.1274778 0.448649 0.1397073 -0.11382286
0.16284542 0.4023483 0.3013735 -0.2842495 -0.09859201 0.23681846 -0.14660934 0.3064702
-0.40827155 -0.21269491 -0.43064058 -0.3694831 -0.29669327 0.29717278 0.14081655 0.07339291
-0.20543495 0.42654163 -0.3559813 -0.06653013 -0.1148064 0.30462065 0.41987017 -0.1314429
-0.19102685 -0.39895168 -0.14643195 -0.2766559 0.39789695 0.42376304 -0.35814998 -0.035628136
-0.29811832 0.4277875 0.3337135 0.14776622 -0.21000688 0.30644238 -0.012913612 -0.2602955

batch_norm_c2.weight f4 [128]
00000000: 9486 803f a33a 803f ee6e 803f 7737 803f
00000010: a7b6 7e3f 4d59 7f3f beb8 7e3f dc2e 803f
00000020: daf9 803f a1b2 7f3f 5a53 803f 0679 7f3f
00000030: 9d9a 7f3f 7cbb 7f3f a061 803f 8ecf 803f
00000040: 77cf 7f3f dc47 803f cb64 7f3f 5602 813f
00000050: f1cc 803f 8f7a 7f3f 2039 803f 5811 813f
00000060: f9cb 803f 4697 803f f2eb 7e3f cc05 803f
00000070: 82ea 7f3f 8142 803f 9d79 7f3f 46c0 803f
00000080: a8eb 7f3f 9344 803f b9b5 7f3f 460d 803f
00000090: a5a3 7f3f 015d 803f 1a93 803f 265f 7f3f
000000a0: 3f54 803f 5088 7f3f 05a7 7f3f 4969 803f
000000b0: 1216 803f 8e9c 803f a5a0 7f3f 893d 803f
000000c0: 8c05 803f d511 7f3f 45c4 803f 69aa 803f
000000d0: 288f 7f3f f128 803f 5887 7f3f ccc7 7f3f
000000e0: f335 803f ba12 803f f15f 803f c586 803f
000000f0: a90e 803f b4ea 7f3f ef3e 803f 1740 803f
00000100: c47b 7e3f 485b 803f f978 803f 5d6f 803f
00000110: 84b7 7f3f 1fd1 803f b312 803f 44a1 7f3f
00000120: cb3d 803f 6b59 803f 120c 803f 171d 803f
00000130: c758 803f 1073 803f 982c 803f 32f0 7f3f
00000140: eb59 7f3f 1a8a 803f 83a9 7f3f 3a82 803f
00000150: 2560 803f 86f6 803f 6027 803f d0e0 803f
00000160: 80c2 7f3f f240 803f 5318 803f bc13 7f3f
00000170: d923 803f 301a 803f 90b6 7f3f 0a0b 803f
00000180: 9254 803f 6f5f 803f 0b46 803f 303d 803f
00000190: de9b 7f3f 0f22 803f d33f 813f ebc2 7f3f
000001a0: 8b7c 803f 3b9d 7e3f e641 803f b0d0 7f3f
000001b0: ec88 803f 94ab 803f 6c23 803f 1d33 7f3f
000001c0: 90c2 7f3f 1b9e 7f3f 2315 803f ece0 7f3f
000001d0: f011 7f3f 9229 803f f88d 7f3f 9d67 803f
000001e0: bc2d 7f3f a968 7f3f b221 803f ed38 803f
000001f0: 5a65 803f 9f9c 7e3f 108e 803f 3fd8 7f3f
1.004107 1.0017895 1.0033853 1.0016927 0.99497455 0.9974564 0.99500644 1.00143
1.0076249 0.9988194 1.0025437 0.9979404 0.99845296 0.99895453 1.0029793 1.0063341
0.9992594 1.002193 0.9976317 1.0078838 1.0062543 0.99796385 1.0017433 1.0083418
1.0062248 1.0046165 0.99578774 1.0001769 0.99967206 1.0020295 0.9979494 1.0058677
0.9996896 1.0020927 0.9988666 1.0004051 0.99859077 1.0028383 1.0044892 0.9975456
1.002571 0.9981737 0.99864227 1.003213 1.0006735 1.0047777 0.998545 1.0018779
1.0001693 0.99636585 1.0059897 1.0052005 0.99827814 1.0012494 0.99815893 0.9991424
1.0016464 1.0005715 1.0029279 1.0041128 1.0004474 0.99967504 1.0019206 1.0019559
0.994076 1.0027857 1.0036918 1.0033985 0.998894 1.0063819 1.0005707 0.99855447
1.0018858 1.0027288 1.0003684 1.0008878 1.0027093 1.0035114 1.0013609 0.99975884
0.9974658 1.0042145 0.9986803 1.0039742 1.0029341 1.0075233 1.0012016 1.0068607
0.9990616 1.001982 1.0007423 0.9963949 1.001094 1.0007992 0.99887943 1.0003369
1.0025809 1.0029124 1.0021375 1.0018673 0.9984721 1.0010394 1.0097603 0.99906796
1.0038007 0.99458665 1.0020111 0.99927807 1.0041785 1.0052361 1.001081 0.9968737
0.99906254 0.99850625 1.000645 0.9995258 0.99636745 1.0012686 0.99826 1.003162
0.9967916 0.99769074 1.0010283 1.0017372 1.003093 0.99457735 1.0043354 0.9993934

batch_norm_c2.bias f4 [128]
00000000: 5458 61bb 6cd5 a9b9 b5f1 28bb 03de 32bb
00000010: ebd3 c2b9 84fa 163b 0462 173b d0b8 5fbb
00000020: 46fc 90bb 11e9 403b f576 0ebb f024 b53a
00000030: 3adf 293b 65a7 8eba 5eed a5ba 2c4b b739
00000040: 4fd4 b43b 2037 deba 4cb8 86ba be3c 87bb
00000050: 9666 81bb 2779 88bb 1cd1 c43a e095 8a3a
00000060: 314a 253b 38b2 bc38 29e6 c5ba 1b17 95ba
00000070: 8ba0 9db9 987b b53a 1e5a 30b7 4100 4aba
00000080: 4586 7cbb 416c 0abb c94f 3ebb 4585 aeb9
00000090: 76f7 fc39 87c8 95ba cbd3 233b c65e aeb9
000000a0: 6426 7db9 fffe 9dba 2dd1 063b 5a76 98ba
000000b0: 1410 8cba a35e 763b dd1b 03ba abc5 adb8
000000c0: ab55 313a d654 f9b8 c6fe b7ba f74c 12bb
000000d0: 32c9 5eba 51d5 a63a 239e e8ba 934b 90b9
000000e0: 8e20 c4ba e012 b0bb 2709 b3ba d404 8cba
000000f0: 0dfb 5bb9 b245 04bb 0315 aeb8 daf7 7d39
00000100: 14fa c739 9d6b 0a3b 3587 2e3a 028a 15bb
00000110: df82 eab9 78ed 8f3a b495 e138 8be1 3fbb
00000120: 85b9 4aba fae0 a8ba ffc1 fcb9 fe5a c23a
00000130: 7f61 1c3a 0a9c 03bb 6495 843a 9566 3abb
00000140: bf66 76bb 6ee9 4ebb a9ea 133b a358 2eba
00000150: 6c29 5e3a 0f0d c9ba 8ad6 c238 3962 b0bb
00000160: 4e96 c2ba 842a 82bb 7247 1dbb 377b 4fbb
00000170: cd1e d73a c4ca 2cbb 9684 28bb 7d23 08ba
00000180: 6232 fcba 0c84 96ba 4ce7 63bb fc09 45ba
00000190: cfc4 d9ba 3a73 a7ba 14d6 ab3b fcd7 0ebb
000001a0: 7c09 9139 bd73 ef39 1bb1 53ba cfa1 a5ba
000001b0: 947f 283a 598b 00bb 7f28 673b a6b3 3f3b
000001c0: 9d16 aeba 1ac9 34ba 2688 fc3a 2d4e a0b9
000001d0: e831 44b9 64c3 83ba fcb7 f2ba 734f 91bb
000001e0: 74a4 84b9 a8c4 f5ba 4425 50bb 21a8 62bb
000001f0: 38e0 74bb e7fa af3a 473c a1ba 850e 3f3b
-0.0034384923 -0.00032393204 -0.0025778834 -0.0027292974 -0.00037160455 0.0023037503 0.0023099193 -0.0034137256
-0.0044246046 0.0029435793 -0.0021738384 0.0013820212 0.0025920407 -0.0010883628 -0.0012659242 0.00034960487
0.005518473 -0.0016953684 -0.0010278313 -0.004127114 -0.003948997 -0.004164833 0.0015015933 0.0010573231
0.0025221223 8.9977344e-05 -0.00150985 -0.0011374684 -0.00030064987 0.0013846038 -1.05113995e-05 -0.00077057263
-0.003853218 -0.0021121653 -0.0029039255 -0.0003328716 0.00048249558 -0.001142756 0.0024998065 -0.00033258478
-0.00024142262 -0.0012054144 0.0020571456 -0.0011631951 -0.0010685944 0.003759303 -0.00050014054 -8.2861014e-05
0.00067647797 -0.00011889047 -0.001403772 -0.0022323707 -0.00084986084 0.0012728368 -0.0017747324 -0.00027522127
-0.0014963315 -0.005373344 -0.0013659344 -0.0010682591 -0.00020978991 -0.0020183143 -8.30088e-05 0.00024220292
0.0003814256 0.0021121271 0.00066577207 -0.0022817855 -0.00044729465 0.0010980805 0.000107567204 -0.0029278721
-0.0007733333 -0.0012884431 -0.00048209724 0.0014828143 0.0005965456 -0.002008202 0.0010115323 -0.0028442491
-0.0037597863 -0.003157224 0.0022570288 -0.0006650781 0.00084748 -0.0015338975 9.290602e-05 -0.005382803
-0.001484582 -0.0039723534 -0.0023998884 -0.0031659135 0.0016412378 -0.0026365975 -0.0025713793 -0.00051932764
-0.001924109 -0.0011483445 -0.0034775315 -0.00075164414 -0.001661444 -0.0012775429 0.005244026 -0.0021796217
0.00027663622 0.00045671864 -0.0008075402 -0.0012636724 0.0006427702 -0.0019614308 0.003527194 0.0029251366
-0.0013281886 -0.00068964215 0.001926665 -0.00030575824 -0.00018710608 -0.0010052738 -0.0018517966 -0.00443452
-0.0002529953 -0.0018750625 -0.0031760493 -0.0034585076 -0.003736509 0.0013426215 -0.0012301289 0.0029152941

batch_norm_c2.running_mean f4 [128]
00000000: 65ff 393e ede1 5d3e eff3 633e 61d4 873e
00000010: 51ac 233e 0813 4b3e 52a4 163e 58ed 4b3e
00000020: f9bc 443e a83e 2d3e a5d7 643e 302d 643e
00000030: feaa 613e 0862 7b3e c9bb 8b3e 457e 663e
00000040: 6b1b 353e 1570 393e ed7f 423e 7f88 573e
00000050: 2a82 493e 14a1 8b3e 909c 4e3e c158 473e
00000060: 130f 533e 1e61 5b3e a5c9 603e 523e 5c3e
00000070: 36af 383e 01af 1c3e 1341 6d3e 0aba 483e
00000080: 2f24 1e3e 679c 333e b323 113e 41fe 5a3e
00000090: 81ba 793e c1c5 8d3e a146 4a3e b975 4d3e
000000a0: 194e 8b3e 938e 663e 522e 8d3e 802c 733e
000000b0: 5c01 653e 06b6 8c3e 0da6 5f3e 731d 543e
000000c0: a65d 813e 23ec 7e3e cc41 3f3e 7f90 5c3e
000000d0: d9e3 623e 08c4 293e fd68 383e 34ca 113e
000000e0: 87c1 593e c0ec 483e 0079 463e bcd7 de3d
000000f0: 3516 6d3e c3fc 853e 1691 493e d12c 5c3e
00000100: 0777 573e d182 393e abee 523e 9a5f 073e
00000110: dcff 963e 47e4 653e 90d8 213e 1047 673e
00000120: 5cfb 493e ac6f 513e 844e 8b3e 5e58 563e
00000130: a745 4d3e 15c1 3f3e e69b 233e b028 733e
00000140: 3f56 583e f9aa 763e 270c 553e 1e03 543e
00000150: 4c9f 3d3e d454 563e b76e 7f3e 0086 0a3e
00000160: b34b 4d3e 63be 863e 4d7f 853e e44e 5f3e
00000170: 4bd7 873e 2d14 873e 687f 723e a6be 223e
00000180: e89a 933e 6f84 4f3e d1d3 863e d818 753e
00000190: e86c 8d3e 237f 3f3e 0186 473e 6b87 cf3d
000001a0: b5b4 813e ad87 823e cd64 813e 8f57 3f3e
000001b0: 64ed 7a3e dffa 423e d5cc 4e3e e761 6b3e
000001c0: 09a5 2b3e 57b1 923e b26f 1a3e 7ce8 523e
000001d0: ba0f 8e3e c164 853e 1879 8b3e b420 113e
000001e0: 376e fa3d 50d5 193e 12c0 483e 1da1 593e
000001f0: d707 123e 0cc8 343e 8d66 2a3e 3758 5a3e
0.18163832 0.21668215 0.22261022 0.2652922 0.15983702 0.19831479 0.1471112 0.19914758
0.19212712 0.16918433 0.22347887 0.22282863 0.22037885 0.24549115 0.27291706 0.22509106
0.1768624 0.18109162 0.18994112 0.21048163 0.1967856 0.2727133 0.20176911 0.1946745
0.20611219 0.21423766 0.21951921 0.21508148 0.18035588 0.15301134 0.23169355 0.19602218
0.1544349 0.17540132 0.14173774 0.21386053 0.24387552 0.27689937 0.19753505 0.20064439
0.2720802 0.22515325 0.27574402 0.23747444 0.223638 0.27482623 0.21840687 0.20714359
0.2526676 0.24894767 0.18677443 0.21539496 0.2215723 0.16578686 0.180088 0.1423729
0.21265231 0.19621563 0.19382095 0.10880992 0.23153003 0.26169404 0.19684252 0.21501471
0.21041499 0.18116309 0.20598857 0.13220063 0.2949208 0.22450362 0.15805268 0.22585702
0.19724792 0.20452756 0.2720834 0.20932147 0.20046102 0.18725999 0.1597744 0.2374599
0.2112665 0.24088658 0.20805417 0.20704314 0.18517798 0.20930797 0.24944578 0.1352768
0.20048408 0.2631713 0.26073685 0.21807438 0.26531443 0.2638258 0.23681414 0.15893039
0.28829122 0.20265363 0.26333478 0.23935258 0.2762215 0.18700843 0.19484712 0.10133251
0.2533318 0.25494137 0.25272217 0.18685745 0.2450462 0.19041012 0.20195325 0.22986566
0.16762175 0.28650925 0.15081671 0.20596498 0.27746373 0.26053432 0.27240825 0.14172632
0.12228053 0.15022779 0.19604519 0.21252866 0.14260803 0.17654437 0.16640683 0.21322714

batch_norm_c2.running_var f4 [128]
00000000: 5a6b 473d 0ef7 983d b762 5e3d cfe3 8d3d
00000010: 2f01 8f3c 885d fd3c 523c 553d 9356 153d
00000020: fbf5 0f3d 14da 8a3d 5352 6f3d 4908 823d
00000030: f998 7e3d da61 8b3d 5b83 eb3d 6c80 5d3d
00000040: 2747 593d 6e8f 703d 9548 903d 1621 203d
00000050: 9923 b03d c6e4 be3d 439c 193d 41c0 373d
00000060: f31c 213d 08dd 6c3d 1097 e83d cccc 8b3d
00000070: c864 843d 2389 c23c fa82 3f3d 422f 1a3d
00000080: a727 1d3d b174 073d 4973 653c ecb2 a23d
00000090: 8687 513d 92a7 bf3d c233 693d c699 723d
000000a0: 574e 9e3d 041a 763d 4a21 d13d b2c4 d13d
000000b0: 4633 1e3d 80fe e13d 8e5e 333d 9df3 9e3d
000000c0: feb5 9d3d 9476 9e3d 6e98 513d 8502 453d
000000d0: 8f63 863d 645e 823d 0ad0 f23c 40dd a23c
000000e0: a391 2c3d 593f 6d3d aaa3 2c3d aed4 cc3c
000000f0: 7179 8e3d 6eed c83d d8a2 b43d 0568 f43d
00000100: 96f3 383d 7b44 8b3d b174 533d 172a a23c
00000110: 71c6 133e db47 7e3d a83c b83c 97e3 803d
00000120: af3b 863d 9ecd 253d 01e4 a03d d7da 623d
00000130: 73e8 653d 78ee 253d 1bd3 163d 6bff 843d
00000140: e65f b43d 8436 923d 2c5d 643d 1a8e 153d
00000150: 977d 123d 65b6 5d3d c9d8 663d 29eb 683c
00000160: 002d 783d 7ce8 153e eb89 ee3d 42d4 2c3d
00000170: df52 e63d 9994 903d 6646 283d 0c6e 163d
00000180: 40c4 b63d 58a2 df3c 5842 973d 7532 983d
00000190: 13f2 e03d c827 043d 9d08 f43c f744 043c
000001a0: 1844 4e3d 297b 943d 91b9 7b3d 90d8 5e3d
000001b0: 1374 833d 3bf4 5a3d 0110 803d 0a1f 443d
000001c0: fb3d 143d 471b 9b3d 6cbc 9e3c 2300 4f3d
000001d0: 8b54 903d 21fc 943d f420 d23d e6f1 003d
000001e0: 5f51 9a3c 5363 9a3c 69e1 553d 494b 823d
000001f0: c61b e73c e646 423d 8e1a 223d f914 8a3d
0.048686363 0.07468997 0.05429336 0.06928217 0.01745662 0.030928388 0.05205948 0.036459517
0.035146695 0.06779876 0.05842812 0.063492365 0.062157605 0.06805773 0.114996634 0.05407755
0.05304637 0.058730535 0.07045094 0.039094053 0.0860054 0.09320979 0.03750254 0.044861082
0.03933425 0.05782798 0.11356938 0.06826171 0.06464535 0.023747033 0.04675577 0.037642725
0.038367894 0.03307027 0.014004537 0.07944283 0.051154636 0.093581334 0.056934126 0.05922868
0.07729786 0.060083404 0.102114275 0.10242595 0.038623117 0.1103487 0.043791346 0.07761309
0.07700728 0.07737461 0.05117076 0.048098106 0.06561958 0.0636566 0.029640216 0.01988089
0.042131077 0.05792174 0.04214827 0.025003757 0.06956757 0.09810911 0.088201225 0.11933903
0.045154177 0.06800171 0.051624957 0.01979546 0.14431168 0.062080245 0.02248986 0.06293409
0.065543525 0.040479295 0.07855988 0.055384483 0.056129884 0.040510625 0.03682242 0.064940296
0.08807354 0.07139304 0.055752918 0.03651247 0.035764303 0.054129023 0.056359086 0.014216223
0.06058979 0.14639467 0.116473995 0.042194612 0.11246275 0.07059593 0.041082762 0.036726043
0.089241505 0.027299091 0.07385701 0.07431499 0.10983672 0.0322645 0.029789263 0.008073083
0.050357908 0.072500534 0.061456267 0.05440575 0.06418624 0.053455573 0.062530525 0.047881164
0.03619192 0.07573562 0.019376956 0.05053724 0.07047375 0.07274652 0.102601916 0.031480692
0.018837629 0.01884619 0.05221692 0.06362016 0.028211486 0.047430895 0.039576106 0.067422815

conv2.weight_v f4 [64, 128, 3]
00000000: 5562 2fbc e46a 1e3c ae56 08bd 7ac2 c9bc
00000010: 9df5 a9bc bb05 0b3b 3907 cf3c f499 86bc
00000020: 8bf4 7fbc 9668 203d 3d4e 8fbc df07 893c
00000030: cdea e0bc ce42 f1bc 2abb 3d3c 0eaa 90bc
00000040: 3389 adbc 18eb d7bc a561 6bbb c95c 50bd
00000050: d4ab 523d 923b d0bb d298 a83c de77 cc3c
00000060: a3cf fabc f281 2dbd d8fe a73c 3d41 f3bc
00000070: 12b6 0c3d b25c 42bd 2987 29bd e22c 39bd
00000080: e8f7 c139 0dcb 53bd acec 63bd 3f9f 3e3d
00000090: 7bfd 973c 0c17 5d3c bd72 013b f03c e5bc
000000a0: 7023 383d 1185 eebc ed1e 6a3c 0aae 853b
000000b0: 864a 1a3d d0cc 5c3d 5602 fb3c 36ab 013c
000000c0: 33d7 7cbc 3c17 243c 07dc 073d c8fa 1a3d
000000d0: 5d36 32bc af16 313c 703d c4bc b262 64bd
000000e0: 95c9 2fbd 10ae 53bd 3764 2dbd 3a5d dcbb
000000f0: 858b 843c f814 d13c 3a0c 023d 139d 013d
00000100: 39db bd3c a5e7 683b 78ca 143d 5ffe 09bd
00000110: eacf 1b3d 3066 ddbc 3b59 bb3c 0dd6 3a3d
00000120: 90e3 49bd 70e7 d53c bc72 9f3b bd27 0abc
00000130: f6cd afbb 21ec e33c 93f0 38bc 7110 33bd
00000140: ff3d c13c 0b01 953b 21bb 2fbd ee5d 9a3b
00000150: 9da2 653b 83f2 0dbd 5cd8 cd3c 0995 663d
00000160: 1488 9abc 0fb1 123d d6cb 19bd f8b9 1dbd
00000170: b22c 7bbd f7ae 31bd b363 debc eb85 2e3d
00000180: 17c9 5b3d bc95 45bd d1e7 723c e53b 633c
00000190: 6573 393d 1774 d73c cbb7 1ebd 8571 49bb
000001a0: a214 313d 16fb 1bbd d3ab 023d 275d 1c3d
000001b0: 79d9 2ebc d612 413d be4e 31bd 140f 8f3c
000001c0: b84c 6d3b 4bd5 a0bc 2a0f 283c 4db3 d13c
000001d0: 7966 f83c 06da 1a3d ada6 a2bc 2376 2cbd
000001e0: 35c4 4cbd 4bb0 213c c211 5c3c b873 3fbd
000001f0: 6002 063d 7f86 253d 5ece 033d 4791 10bc
00000200: c1d4 e8bc 48db 9cbc 1653 20bc a9ac ed3c
00000210: 6fd3 fdb9 f4a7 25bd 493e c43b 7372 2abc
00000220: da9a 123d 2773 c3bb fd60 24bd fb42 0f3c
00000230: 709d 9e3c 916e 1e3d 6c17 0bbd 6619 33bd
00000240: 6c4d 26bd b7a1 9ebc b0d7 ce3c dbeb e13c
00000250: 781c cebc 1c1a fc3c 9dcd dcbc 27e4 003d
00000260: 2c15 11bd 7fd9 bb3c 37b0 fb3c be4a 09bc
00000270: b439 9ebc ed48 06bd ee1f 963a d01f d63c
00000280: 1fb7 95bb b946 acbc 9a8f 3ebc 3e87 26bd
00000290: 134b 333d 9b43 c5bc 7ea0 bf3c 9ba5 edbc
000002a0: 61e5 2b3d 9b4a f8bb 0207 0abd 5c58 21bd
000002b0: f610 42bd 976e ab3c 5d84 643c cee0 063b
000002c0: 4f72 c5bc 5f16 003d ff40 683c 4f94 b33c
000002d0: f754 4bbd cccc 21bd 6476 2a3d 2a56 e9bc
000002e0: b565 a7bc fa88 ddbb 8168 053c 14bc 933b
000002f0: 29a6 32bd cbf8 06bc 7ebd e23c 326d b1bc
00000300: 71fd 5cbd f9cc 143d 13d8 4a3a 0260 92bc
00000310: 9746 123d 18ba cabc c142 03bd d3fa 2b3d
00000320: bacb 833c 1262 183c 8792 7d3b 7c5f 343c
00000330: 96ba 9b3c d675 76bc 834b 123d 9bdb 18bd
00000340: c0d3 5e3d bfb8 2cba 92da 223b 1f1c 4d3d
00000350: 02a6 35bc f721 bd3b d8aa 35bc 9c5b 43bd
00000360: 2aef 573d 048a 56bd ff54 7f3c 30be f83c
00000370: 300f 8cbb 82d6 db3c 3ab8 18bd 6be5 0f3d
00000380: c466 30bd f837 0e3c d14f a03c f1e5 1d3c
00000390: ff8e 19bb 04e3 fabc d891 42bc 0b9d 80bd
000003a0: 5fe7 913c 0753 093d 6250 ad3b 4b59 863a
000003b0: 749d c5bc b6e0 173c 3018 1ebc 849d bf3c
000003c0: 2a64 053d 8077 81bc 3b12 a43c 99d4 cfbb
000003d0: 036c a43a 360d 603c 20a9 49bd a66b 80bc
000003e0: 549c 6fba 4478 1dbd 59ef e7bc 6d94 a1bc
000003f0: 6693 033d 740a 1e3d efd8 b438 2f68 99bc
-0.0107045965 0.009669039 -0.03328579 -0.024628866 -0.020747 0.0021213132 0.025271999 -0.016430832
-0.015622268 0.03916224 -0.017493362 0.016727386 -0.027455712 -0.0294508 0.011580268 -0.017659213
-0.021183586 -0.026357219 -0.0035916355 -0.050869737 0.0514334 -0.0063547576 0.020580683 0.0249595
-0.030616587 -0.042360254 0.020507261 -0.029694194 0.034353323 -0.047451682 -0.041388664 -0.04520882
0.00036996533 -0.051707316 -0.05564563 0.046538588 0.018553486 0.013494264 0.0019752227 -0.027983159
0.04495567 -0.029116185 0.0142896 0.004079585 0.037668727 0.053906262 0.030640762 0.007914355
-0.015432167 0.010015305 0.03316882 0.03783682 -0.010877219 0.010808631 -0.023955077 -0.055758186
-0.042916853 -0.05167967 -0.0423319 -0.0067249807 0.01617981 0.025522694 0.03174994 0.03164394
0.023175823 0.0035538462 0.0363259 -0.033689853 0.03804008 -0.027026266 0.022869697 0.04561429
-0.049289286 0.026111335 0.0048659723 -0.008432326 -0.0053651286 0.027822556 -0.011287826 -0.04371685
0.023589132 0.0045472435 -0.04290307 0.0047109043 0.0035039552 -0.034655105 0.025127582 0.056294475
-0.018863715 0.035813387 -0.03754791 -0.03850743 -0.06132192 -0.04337975 -0.02714715 0.042608183
0.05365857 -0.0482385 0.014825777 0.01386926 0.045276064 0.026300473 -0.038749497 -0.003073783
0.043232568 -0.03808125 0.031902146 0.038174774 -0.010671967 0.047137104 -0.043287985 0.017463244
0.0036209058 -0.019632956 0.010257522 0.025598193 0.0303223 0.03780558 -0.019854868 -0.04210485
-0.049991805 0.009868692 0.013431968 -0.046741217 0.03271711 0.04041147 0.03217923 -0.008823699
-0.028421761 -0.01914753 -0.009785434 0.029012995 -0.0004841345 -0.040443376 0.0059888703 -0.010403263
0.03579221 -0.005964655 -0.040131558 0.008743997 0.019362181 0.038679663 -0.033957884 -0.043725394
-0.04060118 -0.019364221 0.025249332 0.027578285 -0.02516006 0.030774169 -0.026953513 0.031467583
-0.03542058 0.022930859 0.030723674 -0.008379636 -0.019314624 -0.03278439 0.0011453608 0.026138216
-0.004568949 -0.021029817 -0.011630917 -0.04065632 0.04377277 -0.024080088 0.023391958 -0.02900963
0.0419668 -0.007577253 -0.03369809 -0.039390907 -0.047379456 0.020926757 0.0139475735 0.0020580771
-0.024102358 0.031271335 0.0141756525 0.021921305 -0.049641576 -0.03950195 0.041616812 -0.028483469
-0.02043424 -0.0067607136 0.008142591 0.0045085046 -0.043615494 -0.008238028 0.027678248 -0.021658514
-0.053952638 0.03632829 0.0007737886 -0.017868046 0.03571185 -0.02474694 -0.032046083 0.04198725
0.016088355 0.009300726 0.0038692073 0.011009093 0.01900987 -0.015042743 0.035716545 -0.037318807
0.05440116 -0.00065888086 0.0024849516 0.050075646 -0.011086943 0.005771871 -0.011088096 -0.047694787
0.05271832 -0.052377716 0.0155842295 0.030364126 -0.0042742714 0.026835684 -0.037285067 0.0351309
-0.043066755 0.008680336 0.01956931 0.009637342 -0.002343118 -0.030625828 -0.011875592 -0.062799536
0.017810522 0.033526447 0.0052891234 0.001025 -0.024122931 0.009269884 -0.009649321 0.023390539
0.032566227 -0.015804052 0.020028224 -0.0063424823 0.0012544397 0.013675025 -0.049233556 -0.01567633
-0.0009140421 -0.038444772 -0.028312372 -0.019724095 0.032122992 0.038584188 8.623476e-05 -0.018726436

batch_norm_c3.weight f4 [64]
00000000: 0426 7f3f c334 7f3f 0b4c 7f3f 9617 803f
00000010: 24ee 7e3f b9fc 7f3f 15ca 7e3f 72f4 803f
00000020: b122 803f 93fc 7f3f c629 7f3f a269 803f
00000030: 1fe7 7f3f 7217 803f a572 803f 3edf 7f3f
00000040: b908 803f a457 803f f036 803f fe2d 803f
00000050: ed0a 803f 4726 7f3f b61f 803f 8b50 803f
00000060: ea8c 7f3f bcc4 7f3f dfbe 7e3f da26 803f
00000070: 96dd 803f ae20 803f ddf3 7e3f 452f 7f3f
00000080: a693 803f d48a 803f 5fc3 7f3f 38ad 7f3f
00000090: 7c08 803f a3ad 7f3f 2b25 803f 5db1 7f3f
000000a0: 77be 803f f80d 803f 3d77 7f3f 1e63 7f3f
000000b0: 5fbf 7f3f 3ec9 7f3f bd6c 7e3f 983b 803f
000000c0: c627 803f c1c0 7f3f 82f0 7f3f c0be 7f3f
000000d0: a7a0 803f bc1c 803f 4400 803f 33f4 7f3f
000000e0: 1a2e 7f3f 4ab1 803f 352d 803f 825c 7f3f
000000f0: 643a 7f3f 2d1d 803f d54a 803f 6678 7f3f
0.9966738 0.99689883 0.9972541 1.0007198 0.99582124 0.99995 0.995271 1.0074599
1.0010587 0.9999477 0.99673116 1.0032237 0.9996204 1.0007155 1.0034987 0.99950016
1.0002662 1.0026746 1.0016766 1.0014036 1.0003334 0.9966778 1.0009677 1.002458
0.9982439 0.9990957 0.99509996 1.0011857 1.0067623 1.0009973 0.99590856 0.996815
1.0045059 1.0042367 0.9990749 0.99873686 1.0002589 0.99874324 1.0011343 0.9988001
1.0058125 1.0004263 0.9979132 0.99760616 0.99901384 0.99916446 0.9938467 1.0018187
1.0012138 0.99903494 0.9997636 0.99900436 1.0049027 1.0008769 1.0000081 0.99981993
0.9967972 1.0054104 1.0013796 0.9975053 0.9969847 1.0008904 1.0022837 0.9979309

batch_norm_c3.bias f4 [64]
00000000: 4c8a 053b 8114 fe36 2249 16b8 9866 1fba
00000010: d69c c439 ed9e c6ba 1d74 a5ba 752a dbba
00000020: 132e 1dbb 58c1 d1ba c096 243b 6356 c93a
00000030: 421d 15bb b70b e139 e39b bfb9 6c45 9139
00000040: 444a 08ba fe30 a838 20ee 4239 a8b4 9fba
00000050: 2154 13bb 8d4c 363b 11a1 cc39 a20a a53a
00000060: 0003 86ba 2022 d2ba 6d57 9239 189e 0c39
00000070: 6470 a3ba a713 ecba 76c1 d2b9 e1f1 113b
00000080: 61aa 01bb 875b acbb d3db a33a d7f4 0f3b
00000090: fca8 49bb 1681 1c3b a18d 61b9 6f94 e5ba
000000a0: d95d 14bb c5df ad3a 64ec b5ba 117e 333a
000000b0: 19e4 73bb 7670 1aba 2d7f 3c3b b61a cb3a
000000c0: c171 0abb 27c4 0f3a 6699 bfb8 17ce ebb6
000000d0: d01b c0ba cf66 3fba f131 00ba 4fd6 deba
000000e0: 647b 9b3b 8446 81ba eb4a 98bb 0740 8cba
000000f0: 44b1 543b 1af6 42bb c75f 04bb b642 6e3a
0.002037662 7.572177e-06 -3.5830897e-05 -0.00060806563 0.00037500885 -0.0015153565 -0.0012623105 -0.0016721027
-0.0023983761 -0.0016003055 0.0025114268 0.0015360828 -0.0022753035 0.00042924072 -0.00036546504 0.00027708279
-0.0005199055 8.01999e-05 0.0001858999 -0.0012184577 -0.0022480565 0.0027816624 0.00039029916 0.001259167
-0.0010224283 -0.0016031899 0.00027912427 0.00013410335 -0.0012469408 -0.0018011228 -0.0004019846 0.0022269415
-0.0019785392 -0.0052599343 0.0012501426 0.0021966004 -0.0030770889 0.0023880652 -0.00021510433 -0.001751555
-0.0022638945 0.0013265541 -0.0013879654 0.00068470935 -0.0037214814 -0.0005891392 0.0028762326 0.0015495631
-0.0021124932 0.0005484246 -9.1361624e-05 -7.027538e-06 -0.0014656726 -0.00073013915 -0.00048902543 -0.0017001125
0.004744934 -0.0009862934 -0.004647603 -0.0010700234 0.0032454291 -0.0029748739 -0.002019869 0.000908892
