lightning_logs/version_2/checkpoints/epoch=138-step=834.ckpt (torch, 678745 bytes, 50 tensors)

batch_norm1.weight f4 [40]
0	0x3f77cd63	0.9679777
1	0x3f8c6097	1.0966977
2	0x3f7ffeab	0.9999797
3	0x3f775525	0.96614295
4	0x3f761071	0.9611884
5	0x3f79369a	0.9734894
6	0x3f75904d	0.9592331
7	0x3f7df488	0.9920125
8	0x3f7ccdd8	0.9875159
9	0x3f785e51	0.97018915
10	0x3f78b31b	0.97148293
11	0x3f78f5e6	0.9725021
12	0x3f771c0c	0.9652717
13	0x3f7d400e	0.98925865
14	0x3f78aa1c	0.97134566
15	0x3f795448	0.9739423
16	0x3f7d5f5b	0.98973626
17	0x3f793580	0.9734726
18	0x3f876061	1.0576288
19	0x3f9432a7	1.1577958
20	0x3f9f4fe8	1.244626
21	0x3f7ad78d	0.97985154
22	0x3f81fc60	1.0155144
23	0x3f7a3c4b	0.9774825
24	0x3f767f64	0.9628813
25	0x3f7b50be	0.9817008
26	0x3f81f2df	1.0152243
27	0x3f7a01b8	0.9765887
28	0x3f7a753c	0.97835135
29	0x3f7a1ade	0.97697246
30	0x3f76128e	0.9612206
31	0x3f7961a4	0.9741461
32	0x3f7a1087	0.9768147
33	0x3f786c21	0.9703999
34	0x3f80e54b	1.0069975
35	0x3f84307d	1.0327297
36	0x3f805439	1.0025703
37	0x3f7fa71d	0.9986437
38	0x3f7aa155	0.97902423
39	0x3f78e3a2	0.9722234

batch_norm1.bias f4 [40]
0	0x3c846374	0.016160704
1	0xbd366417	-0.044529047
2	0xbc783664	-0.0151496865
3	0xbc3fd64c	-0.011708807
4	0xbb844f00	-0.004037738
5	0xbb854860	-0.0040674657
6	0xbc409379	-0.01175391
7	0x3c1da112	0.009620922
8	0x3c8935e4	0.01674933
9	0x3c61c256	0.013779243
10	0xbc1e4f39	-0.009662443
11	0x3bf38dd9	0.007432681
12	0xba97cd9f	-0.0011581666
13	0x3b5c2c39	0.0033595695
14	0xbba97b41	-0.0051721637
15	0x3a53fd83	0.00080867874
16	0xbb97a17c	-0.0046274047
17	0xbc4ab72b	-0.012372772
18	0xbae0bcd5	-0.001714612
19	0x3db9d6ce	0.09074174
20	0x3e8aae1d	0.27085963
21	0x3a1ba3d5	0.00059371936
22	0x3c687765	0.014188622
23	0xbb7efe05	-0.0038908732
24	0x3b91e317	0.00445212
25	0xbae92699	-0.0017787992
26	0xbb487f7f	-0.0030593572
27	0xbb5fe501	-0.0034163597
28	0xbbb2b848	-0.005454097
29	0xba843708	-0.0010087201
30	0xbc6e9366	-0.01456151
31	0x3c919885	0.017772922
32	0x3c24b9b5	0.010054042
33	0x3ad4b71e	0.001622889
34	0x3c4aa089	0.012367376
35	0xbb5a2a2d	-0.00332893
36	0xbc0809b7	-0.008303097
37	0x3b86dc40	0.0041156113
38	0xbad0c1c4	-0.0015926887
39	0xbb8a4671	-0.004219823

batch_norm1.running_mean f4 [40]
0	0xbbcb71af	-0.0062086205
1	0x3c0b086f	0.008485897
2	0xbbc2b326	-0.0059417663
3	0xbc38d943	-0.011282268
4	0x3c40f191	0.011776344
5	0x3c64072d	0.013917726
6	0x3c56c9db	0.0131096495
7	0xba8c6c95	-0.0010713512
8	0x3bc6a778	0.0060624443
9	0x3c490d52	0.012271242
10	0x3c7c11c7	0.015385098
11	0x3c218dbc	0.009860452
12	0xbc33b80c	-0.010969173
13	0xbbcbfecb	-0.006225442
14	0x3a8ea327	0.0010882363
15	0xbb69776f	-0.0035624166
16	0x3b128540	0.0022357255
17	0xbbae2e02	-0.005315543
18	0x3b29b4e1	0.0025895166
19	0xbb91bee1	-0.0044478034
20	0xbc34180a	-0.0109920595
21	0x3c83cbdd	0.01608842
22	0xbba56fcd	-0.005048728
23	0x3c2491fa	0.010044569
24	0xbb4aa041	-0.0030918273
25	0xbc04753d	-0.008084592
26	0xbc462f9a	-0.01209631
27	0x3c72d378	0.014820926
28	0x3c80c29b	0.015717795
29	0x3c8bd882	0.017071012
30	0x3c7e6e1c	0.015529182
31	0xbb119813	-0.0022215887
32	0x3ba0281e	0.004887595
33	0xba0ce450	-0.00053745974
34	0xbabf0ca4	-0.0014575911
35	0x3a87eb0d	0.0010369733
36	0x3b607c4a	0.003425377
37	0x3bd4cec3	0.0064943745
38	0xbbf90ff7	-0.00760078
39	0xbb2eee35	-0.0026692275

batch_norm1.running_var f4 [40]
0	0x3f800b8c	1.0003524
1	0x3f7edb8e	0.99553764
2	0x3f855200	1.041565
3	0x3f76aa96	0.96354043
4	0x3f823f1e	1.0175512
5	0x3f83ed85	1.030686
6	0x3f8287b3	1.0197662
7	0x3f8033e7	1.0015839
8	0x3f827d08	1.0194407
9	0x3f831e31	1.0243589
10	0x3f81a40a	1.0128186
11	0x3f817e70	1.0116711
12	0x3f7ea7c7	0.9947476
13	0x3f7ee8b0	0.995738
14	0x3f801928	1.0007677
15	0x3f80bd93	1.0057853
16	0x3f80b238	1.0054388
17	0x3f7cea88	0.98795366
18	0x3f807528	1.0035753
19	0x3f7b0044	0.9804728
20	0x3f764f75	0.9621499
21	0x3f703931	0.9383727
22	0x3f75a26f	0.9595098
23	0x3f823e64	1.017529
24	0x3f801a23	1.0007976
25	0x3f7f5786	0.99742925
26	0x3f72948f	0.9475793
27	0x3f81beca	1.0136349
28	0x3f81e13c	1.0146861
29	0x3f81ac8d	1.0130783
30	0x3f8181c0	1.0117722
31	0x3f7ef875	0.99597865
32	0x3f7efc94	0.99604154
33	0x3f80cab5	1.0061861
34	0x3f763a66	0.9618286
35	0x3f7729e5	0.965483
36	0x3f8108c7	1.0080804
37	0x3f86c601	1.0529176
38	0x39ea09f1	0.00044639365
39	0x3f7e02c3	0.99222964

dense1.weight_g f4 [1024, 1]
0	0x3efa8688	0.48930764
1	0x3f0d9867	0.5531067
2	0x3f1169f2	0.56802285
3	0x3f271dc4	0.65279794
4	0x3f1057f5	0.5638421
5	0x3efcdfaa	0.49389392
6	0x3f13805b	0.5761773
7	0x3f14fd1a	0.581987
8	0x3f1683df	0.5879497
9	0x3f0fb783	0.5613939
10	0x3f231995	0.6371091
11	0x3f0071df	0.50173753
12	0x3f331d64	0.6996672
13	0x3f14ae68	0.5807862
14	0x3f07f88a	0.53113616
15	0x3f0eb960	0.5575161
16	0x3f0db21c	0.553499
17	0x3f20a754	0.6275532
18	0x3f0ed24a	0.55789626
19	0x3f0c771c	0.54869246
20	0x3f1bc3ec	0.6084583
21	0x3f1181ba	0.5683857
22	0x3f14f56a	0.5818697
23	0x3f15b3e9	0.58477646
24	0x3f13c9ac	0.577296
25	0x3f0bed6d	0.5465916
26	0x3f0fe314	0.5620587
27	0x3f1ad280	0.6047745
28	0x3f1ac9fd	0.6046446
29	0x3f0e5443	0.55597323
30	0x3f1bab96	0.60808694
31	0x3f1003ab	0.56255597
32	0x3f113fb1	0.5673781
33	0x3f200bf6	0.6251825
34	0x3f172833	0.59045714
35	0x3f18f605	0.59750396
36	0x3f0e92ad	0.5569256
37	0x3f175a3d	0.5912207
38	0x3f1dfaa6	0.61710584
39	0x3f15b91f	0.584856
40	0x3f123074	0.57105184
41	0x3f127c62	0.57221043
42	0x3f15847a	0.5840527
43	0x3f0b5335	0.5442384
44	0x3f1acb64	0.604666
45	0x3f16ce32	0.5890838
46	0x3f1307e3	0.5743391
47	0x3f193b8c	0.59856486
48	0x3f1b0e59	0.6056877
49	0x3f0baa1c	0.5455644
50	0x3f109477	0.5647654
51	0x3f2095c1	0.62728506
52	0x3f16c55a	0.58894885
53	0x3f18345e	0.59454906
54	0x3f13272a	0.57481635
55	0x3ef7852f	0.483438
56	0x3f1a0746	0.6016735
57	0x3f1466db	0.57969445
58	0x3f163850	0.58679676
59	0x3f1797a9	0.5921579
60	0x3f02f734	0.5115845
61	0x3f0ff324	0.5623038
62	0x3f15fba4	0.585871
63	0x3f170a7e	0.59000385
64	0x3f139cdc	0.57661223
65	0x3f14a88f	0.580697
66	0x3f1fac59	0.62372357
67	0x3f102cee	0.5631856
68	0x3f1124ab	0.56696576
69	0x3f215c2f	0.63031286
70	0x3f085183	0.53249377
71	0x3f121e58	0.5707755
72	0x3f03a6d0	0.5142641
73	0x3f06d787	0.5267262
74	0x3f09af3d	0.5378302
75	0x3f1294bb	0.57258195
76	0x3f140c25	0.5783103
77	0x3f0602c0	0.52347946
78	0x3f153d54	0.58296704
79	0x3f16eac6	0.58951986
80	0x3f16c13b	0.58888596
81	0x3f219848	0.6312299
82	0x3f14861f	0.5801715
83	0x3f0048d1	0.5011111
84	0x3f12e130	0.5737486
85	0x3f197c53	0.5995533
86	0x3f0b9e8a	0.54538786
87	0x3f15d15b	0.58522576
88	0x3f1c7e60	0.6113033
89	0x3f061056	0.52368677
90	0x3f050b4a	0.5197035
91	0x3f20fa2f	0.6288175
92	0x3f1974bd	0.59943753
93	0x3f236a73	0.63834304
94	0x3f1838d8	0.59461737
95	0x3f13ece1	0.57783324
96	0x3f26160b	0.64877385
97	0x3f109de5	0.5649093
98	0x3f0bea68	0.5465455
99	0x3f0ff935	0.56239635
100	0x3f0f1588	0.5589223
101	0x3ef8efa5	0.48620334
102	0x3f10bbce	0.5653657
103	0x3f079727	0.52965015
104	0x3f1b34a7	0.60627216
105	0x3f18ea42	0.5973245
106	0x3f230d81	0.6369248
107	0x3f06d26f	0.52664846
108	0x3f05027d	0.5195692
109	0x3f1e779c	0.6190126
110	0x3f200a3b	0.6251561
111	0x3f130ed8	0.57444525
112	0x3f2dae9c	0.6784456
113	0x3f171fed	0.5903309
114	0x3f070483	0.5274126
115	0x3f1ad11d	0.6047533
116	0x3f1be074	0.60889363
117	0x3f0910c1	0.5354119
118	0x3f1e8092	0.6191493
119	0x3f150af7	0.58219856
120	0x3f01e94e	0.5074662
121	0x3f118aa7	0.5685219
122	0x3f1c92ba	0.61161387
123	0x3f0cdfa1	0.5502873
124	0x3f20306d	0.6257389
125	0x3f190948	0.5977979
126	0x3f172637	0.59042686
127	0x3f07aa55	0.5299428
128	0x3f0bb630	0.5457487
129	0x3f081475	0.53156215
130	0x3f1dbd2f	0.61616796
131	0x3f0efe68	0.55856943
132	0x3f15ab63	0.5846464
133	0x3f13514a	0.5754591
134	0x3f0d7159	0.5525108
135	0x3f0f29a3	0.5592291
136	0x3f143945	0.57899886
137	0x3f14a296	0.58060586
138	0x3f00524a	0.50125563
139	0x3f0959c2	0.53652585
140	0x3f1c6445	0.610905
141	0x3f1ab6a0	0.60434914
142	0x3f013e5f	0.50485796
143	0x3f12d9bc	0.57363486
144	0x3f16f75c	0.5897119
145	0x3f040a4d	0.5157822
146	0x3f1757f6	0.5911859
147	0x3f131ab0	0.57462597
148	0x3f1b368a	0.60630095
149	0x3f2078ab	0.62684125
150	0x3f20fde1	0.6288739
151	0x3f0ac6a6	0.54209363
152	0x3f214e31	0.63009936
153	0x3f222111	0.63331705
154	0x3f1509e3	0.5821821
155	0x3f0f8f60	0.5607815
156	0x3f0dd334	0.55400395
157	0x3f1702ea	0.5898882
158	0x3f0d48c6	0.5518917
159	0x3ee8fdca	0.45506126
160	0x3f0f8522	0.5606252
161	0x3f01e23a	0.5073582
162	0x3f0d207e	0.55127704
163	0x3f098d4d	0.5373123
164	0x3f12198a	0.5707022
165	0x3f18067f	0.5938491
166	0x3f16b791	0.5887385
167	0x3f1ed455	0.6204274
168	0x3f0a2cd7	0.5397467
169	0x3f1f21a1	0.6216069
170	0x3f18e880	0.59729767
171	0x3f1a3334	0.6023438
172	0x3f0988d3	0.537244
173	0x3f133b08	0.5751195
174	0x3f12c06c	0.5732486
175	0x3f0b8438	0.54498625
176	0x3f21b293	0.6316311
177	0x3f06902d	0.52563745
178	0x3f2bd155	0.6711629
179	0x3f0bba28	0.54580927
180	0x3f169e6d	0.5883549
181	0x3f089b06	0.53361547
182	0x3f251673	0.6448738
183	0x3f165f44	0.58739114
184	0x3f182136	0.59425676
185	0x3f0a4809	0.54016167
186	0x3f1166f5	0.56797725
187	0x3f0c8485	0.5488971
188	0x3f12b409	0.5730596
189	0x3f166772	0.58751595
190	0x3f270eea	0.6525713
191	0x3f13fb11	0.5780497
192	0x3f01f8de	0.50770366
193	0x3f0f7279	0.56034046
194	0x3f14d8cf	0.58143324
195	0x3f10ad92	0.5651485
196	0x3f0d0d1d	0.55098134
197	0x3f1c9d23	0.6117727
198	0x3f11f5aa	0.5701548
199	0x3f0e2d3f	0.5553779
200	0x3f280abc	0.6564138
201	0x3f142894	0.5787442
202	0x3f151630	0.5823698
203	0x3effc766	0.49956816
204	0x3f0fb4c9	0.5613523
205	0x3f1f069d	0.62119466
206	0x3f09b6f8	0.53794813
207	0x3f05d24a	0.52274
208	0x3f112fbc	0.5671346
209	0x3f126ea9	0.57200104
210	0x3f120289	0.5703512
211	0x3f133d68	0.57515574
212	0x3f12e073	0.5737373
213	0x3f034e3b	0.51291245
214	0x3f11f017	0.57006973
215	0x3efbc544	0.4917394
216	0x3f1aced8	0.6047187
217	0x3f1009b6	0.5626482
218	0x3f174df9	0.5910335
219	0x3f15d175	0.5852273
220	0x3f1ec531	0.6201964
221	0x3f0bc482	0.5459672
222	0x3f10980d	0.5648201
223	0x3f183e0c	0.59469676
224	0x3f0451a4	0.51687074
225	0x3f1d8bc2	0.6154138
226	0x3f19eb96	0.601251
227	0x3f19fed7	0.6015448
228	0x3f23faea	0.6405474
229	0x3f0c2054	0.5473683
230	0x3f098aad	0.5372723
231	0x3f0a00dc	0.5390756
232	0x3f1bb529	0.60823303
233	0x3f0f4ca7	0.5597634
234	0x3f1740b8	0.5908313
235	0x3f19d9ed	0.60098153
236	0x3f0fea6b	0.5621707
237	0x3f0c4123	0.5478689
238	0x3f19969b	0.5999543
239	0x3efde36d	0.49587575
240	0x3f180f94	0.5939877
241	0x3f181994	0.5941403
242	0x3f1d00f7	0.613296
243	0x3f0a0903	0.5392
244	0x3f0d1fd1	0.55126673
245	0x3f158e0c	0.5841987
246	0x3f1f0f8a	0.62133086
247	0x3f137f5d	0.57616216
248	0x3efc4ae8	0.492759
249	0x3f022d0f	0.50850004
250	0x3f171dde	0.5902995
251	0x3f1173b7	0.5681719
252	0x3f12be88	0.5732198
253	0x3efad8a3	0.48993406
254	0x3f16ff95	0.5898374
255	0x3f0c6be2	0.54852116

dense1.weight_v f4 [1024, 40]
0	0x3d14a9bc	0.036294684
1	0xbd3afe35	-0.045652587
2	0x3d348459	0.04407153
3	0xbc2abd53	-0.010421115
4	0x3d87446b	0.066048466
5	0x3d0fec4c	0.03513746
6	0xbc9f8082	-0.019470457
7	0xbdfee446	-0.124458835
8	0x3d130252	0.035890885
9	0xbe0eefb2	-0.13958624
10	0x3ca4458e	0.020052698
11	0x3c169962	0.009191843
12	0xbd16c9cd	-0.036813546
13	0x3e039295	0.12848885
14	0x3c46bb3a	0.012129599
15	0x3d86e9aa	0.06587537
16	0x3d8b3266	0.06796722
17	0xbdc0a072	-0.094056025
18	0xbd82acbd	-0.063806035
19	0x3e197a8c	0.14988154
20	0xbe1bbc6d	-0.15208597
21	0xbc32bf85	-0.01090992
22	0xbc359a61	-0.01108417
23	0x3de3c119	0.11120815
24	0xbc79c9ae	-0.015245838
25	0x3d2c771a	0.04210577
26	0xbbc9ed82	-0.0061623463
27	0xbdb7685d	-0.089554526
28	0xbdb8f8d0	-0.09031832
29	0xbda080ac	-0.07837042
30	0xbe11ea83	-0.14249615
31	0xbdd3515e	-0.10318254
32	0x3d17fc48	0.03710583
33	0x3dd2198a	0.102587774
34	0x3c38ab35	0.011271288
35	0xbd9915e9	-0.07474882
36	0x3d9b5864	0.075852185
37	0xbd80ecc7	-0.06295162
38	0xbd1133fb	-0.035449963
39	0xbdb1bbd8	-0.086784065
40	0xbd467be5	-0.048458
41	0xbe1d8701	-0.15383531
42	0x3d88762b	0.06663164
43	0x3d6d6996	0.057962023
44	0x3ce8b33b	0.028405776
45	0x3d9ac2c8	0.07556683
46	0x3d85651a	0.06513424
47	0x3c05a7c4	0.008157674
48	0x3c86e1cb	0.016465088
49	0x3c3e4c1b	0.011614825
50	0x3da9fa3a	0.0829968
51	0x3dd61102	0.10452463
52	0x3de35821	0.11100794
53	0x3dbf3d6b	0.093378864
54	0xbd1ab2d1	-0.03776819
55	0xbbbe7377	-0.0058121043
56	0xbcf775df	-0.030207573
57	0x3daf16b3	0.085492514
58	0x3c932fd9	0.017967151
59	0x3e157c14	0.14598113
60	0x3da09fae	0.078429565
61	0xbe0c77cd	-0.13717575
62	0x3d3aa75b	0.04556976
63	0x3e1b5b20	0.1517148
64	0x3e0ded33	0.13860016
65	0xbb80cc69	-0.0039306176
66	0x3d58a8bf	0.052895304
67	0xbe1acb6b	-0.1511666
68	0xbd528a62	-0.051401503
69	0x3d994c0a	0.074852064
70	0xbe14bce8	-0.14525187
71	0x3e104eb2	0.1409252
72	0xbdd3118c	-0.10306081
73	0x3d550442	0.052006014
74	0xbbcd01b9	-0.006256309
75	0x3cde30be	0.027122851
76	0x3c7c8190	0.0154117495
77	0xbe15dde8	-0.14635432
78	0xbd129bca	-0.035793103
79	0xbdcff7ca	-0.10154684
80	0x3e093396	0.13398585
81	0xbc9c6974	-0.019093253
82	0xbe22eed1	-0.15911414
83	0x3d1b79a9	0.03795782
84	0x3d8f22df	0.06989073
85	0xbd8f1b90	-0.06987679
86	0xbc674af0	-0.014116988
87	0x3d865cf7	0.065607004
88	0xbdc7539d	-0.09732745
89	0xbdabb3cb	-0.08383902
90	0xbc861944	-0.01636947
91	0xbde36416	-0.11103074
92	0x3dc51a23	0.09624126
93	0x3c80f55a	0.015741993
94	0x3dc4ffa5	0.09619073
95	0x3dadfcf5	0.08495513
96	0xbdf8006c	-0.121094555
97	0xbdcd7f32	-0.10034026
98	0xbddb744e	-0.10715543
99	0xbd5f4a2c	-0.054514095
100	0xbd75cafe	-0.06000804
101	0xbcd2099a	-0.025639344
102	0xbe1d56ee	-0.15365192
103	0x3d8cfc41	0.06884051
104	0x3db7eceb	0.089807354
105	0x3d4ba5de	0.04971873
106	0x3dcedde6	0.101009175
107	0x3df198b8	0.11796707
108	0xbe1e5b2e	-0.1546447
109	0x3cd1ccb6	0.02561031
110	0x3e14608e	0.14489958
111	0xbde03dbe	-0.109492764
112	0xbd8b3567	-0.06797295
113	0xbbd65cd8	-0.0065418296
114	0xbdcebbb1	-0.10094393
115	0xbce99ec3	-0.028518086
116	0xbcd6f6f8	-0.02624081
117	0x3e139875	0.14413626
118	0xbc35330c	-0.011059534
119	0x3daccc65	0.08437423
120	0x3de71c27	0.112846665
121	0x3d9d2723	0.0767348
122	0xbe0cb6b2	-0.13741568
123	0x3df4a0d3	0.11944737
124	0x3dd882c9	0.1057182
125	0xbde121e4	-0.10992792
126	0xbd60b070	-0.054855764
127	0x3dd5fe23	0.10448863
128	0xbe1f5d72	-0.1556299
129	0xbe0f5564	-0.13997418
130	0xbddd2cd3	-0.10799565
131	0x3d47fbcd	0.04882412
132	0xbd84bf30	-0.064817786
133	0xbe0f168d	-0.13973446
134	0x3d7f9f66	0.062407874
135	0x3da224c4	0.07917169
136	0x3d6a0da2	0.057141908
137	0xbe06f14a	-0.13177982
138	0x3e215940	0.15756702
139	0xbc79ce32	-0.015246915
140	0xbe27d09a	-0.16388169
141	0xbcb305bd	-0.021853322
142	0x3dcfcad0	0.10146105
143	0x3d98f765	0.07469062
144	0xba662044	-0.00087786117
145	0x3de09814	0.109665066
146	0xbe136609	-0.14394392
147	0x3de13a16	0.10997407
148	0x3e1f7398	0.1557144
149	0xbdbe532a	-0.09293206
150	0x3cf8a1b9	0.030350553
151	0xbcadbd94	-0.021208562
152	0xbe06c7a8	-0.131621
153	0x3b35f4d7	0.0027764344
154	0xbd62cc69	-0.055370722
155	0xbe089e3c	-0.13341612
156	0xbdebdacf	-0.11516344
157	0x3bc07510	0.00587333
158	0x3e12a95b	0.14322416
159	0x3d5a53a3	0.05330242
160	0xbdda596a	-0.10661586
161	0x3deb0137	0.11474841
162	0x3c5593c1	0.013035716
163	0xbe1bf4fc	-0.15230173
164	0x3c401948	0.0117247775
165	0x3dd935b1	0.10605944
166	0xbdba4325	-0.09094838
167	0xbc233e37	-0.009963564
168	0xbda9597b	-0.0826902
169	0xbdfa399e	-0.12218021
170	0xbdb770a2	-0.0895703
171	0x3c8b9bc6	0.017042052
172	0x3dcf30b0	0.10116708
173	0xbcdf5396	-0.027261537
174	0xbe0d6c1c	-0.13810772
175	0x3a22b6e4	0.00062070624
176	0xbe0df910	-0.13864541
177	0x3c2f593a	0.010702426
178	0x3e024b41	0.1272402
179	0x3d911dcb	0.07085761
180	0xbde491b9	-0.11160607
181	0xbd08d79e	-0.033408754
182	0x3d86669e	0.065625414
183	0x3d3a10b6	0.045426093
184	0xbe118c9d	-0.14213796
185	0xbdb4b71e	-0.08823989
186	0xbd69dd3b	-0.057095747
187	0x3d6ed95d	0.058312763
188	0x3e0f83f8	0.14015186
189	0x3d94c65c	0.072643965
190	0x3d66fa6d	0.05639117
191	0xbe058336	-0.13038334
192	0x3dbe9898	0.09306449
193	0x3d617194	0.055039957
194	0xbd52e166	-0.051484488
195	0xbd9a1efa	-0.075254396
196	0x3d370fad	0.044692684
197	0xbdada3f5	-0.08478538
198	0x3d808f92	0.06277384
199	0x3df2ad83	0.11849501
200	0xbdd961e3	-0.106143735
201	0xbdbe6ea7	-0.09298449
202	0xbd805115	-0.06265465
203	0xbe0b580e	-0.13607809
204	0xbc90d19f	-0.01767808
205	0x3dd12339	0.10211796
206	0x3d6515c3	0.055928957
207	0xbd5e8128	-0.05432239
208	0xbcc37d98	-0.023863599
209	0xbd8bcfcd	-0.06826744
210	0xbe038655	-0.12844212
211	0xbd391c1f	-0.045192834
212	0x3c1131e9	0.008861997
213	0xbda73031	-0.08163489
214	0xbdf220c0	-0.11822653
215	0x3d2d11bc	0.04225324
216	0x3c9097da	0.017650533
217	0xbd4d69d8	-0.05014977
218	0x3d4714ce	0.048603825
219	0x3e14f204	0.14545447
220	0xbbfa2168	-0.007633377
221	0xbddccb86	-0.107810065
222	0x3e17e1d0	0.14832234
223	0x3deb4247	0.11487251
224	0xbc416da2	-0.011805924
225	0xbd909ae9	-0.07060797
226	0xbd889803	-0.06669619
227	0x3e0d43f4	0.13795453
228	0x3da60124	0.08105686
229	0xbda4af2b	-0.08041223
230	0x3a7b03a2	0.00095754315
231	0x3d06edfa	0.032941796
232	0x3d0f3a8f	0.034967955
233	0xbc1330ed	-0.008983833
234	0xbdac0a24	-0.08400372
235	0xbbcd7f2a	-0.0062712627
236	0xbd2aacbb	-0.041668635
237	0xbd5bf4f4	-0.053700402
238	0xbd9f0af3	-0.0776576
239	0xbda078c4	-0.07835534
240	0xbd9e7b59	-0.077383704
241	0x3d835292	0.064122334
242	0xbe05c586	-0.1306363
243	0xbe1a0f97	-0.1504501
244	0x3e09b8c6	0.13449392
245	0x3d78120d	0.06056409
246	0x3dad1e43	0.084530376
247	0x3d890eab	0.06692251
248	0xbd84c17b	-0.06482216
249	0xbdc5bdd6	-0.09655349
250	0xbddc2850	-0.107498765
251	0xbc283f4d	-0.010268998
252	0x3d168405	0.036746997
253	0xbe16ef81	-0.14739801
254	0xbdf4fcb2	-0.1196226
255	0x3db5c679	0.08875746

batch_norm_c1.weight f4 [64]
0	0x3f7ffffe	0.9999999
1	0x3f800000	1.0
2	0x3f7fffba	0.9999958
3	0x3f800001	1.0000001
4	0x3f7fffe7	0.9999985
5	0x3f800045	1.0000082
6	0x3f800000	1.0
7	0x3f7fffcb	0.99999684
8	0x3f7fff28	0.9999871
9	0x3f800000	1.0
10	0x3f7fff7f	0.9999923
11	0x3f800000	1.0
12	0x3f800000	1.0
13	0x3f7ffff7	0.99999946
14	0x3f80000f	1.0000018
15	0x3f80000c	1.0000014
16	0x3f800000	1.0
17	0x3f800000	1.0
18	0x3f800003	1.0000004
19	0x3f7fffff	0.99999994
20	0x3f7fffec	0.9999988
21	0x3f800000	1.0
22	0x3f7fffce	0.999997
23	0x3f800000	1.0
24	0x3f800000	1.0
25	0x3f800000	1.0
26	0x3f7fffc4	0.9999964
27	0x3f7ffff3	0.9999992
28	0x3f7ffed8	0.99998236
29	0x3f7ffff3	0.9999992
30	0x3f7fff6e	0.9999913
31	0x3f7ffdce	0.9999665
32	0x3f800000	1.0
33	0x3f800010	1.0000019
34	0x3f7ffe83	0.9999773
35	0x3f800001	1.0000001
36	0x3f800004	1.0000005
37	0x3f7ffdc3	0.99996585
38	0x3f800000	1.0
39	0x3f7fffcb	0.99999684
40	0x3f7ffff1	0.9999991
41	0x3f800000	1.0
42	0x3f800000	1.0
43	0x3f80000c	1.0000014
44	0x3f7ffcde	0.9999522
45	0x3f800000	1.0
46	0x3f800000	1.0
47	0x3f800000	1.0
48	0x3f800000	1.0
49	0x3f80000b	1.0000013
50	0x3f800000	1.0
51	0x3f7ff71b	0.9998643
52	0x3f7ffef9	0.9999843
53	0x3f7fff55	0.9999898
54	0x3f800007	1.0000008
55	0x3f7fffd3	0.9999973
56	0x3f7ffffa	0.99999964
57	0x3f7fffe7	0.9999985
58	0x3f800004	1.0000005
59	0x3f800000	1.0
60	0x3f7fff9b	0.999994
61	0x3f800000	1.0
62	0x3f7fffff	0.99999994
63	0x3f7fff57	0.9999899

batch_norm_c1.bias f4 [64]
0	0x3a96dbba	0.0011509575
1	0xba849b02	-0.0010116997
2	0xbb176c13	-0.0023105189
3	0xbb220666	-0.0024723052
4	0x3b4d3804	0.0031313905
5	0x3afe6a9d	0.0019410435
6	0xba9d1f93	-0.0011987559
7	0xbb53956c	-0.0032285107
8	0xbbc542b3	-0.006019914
9	0xba5a07dd	-0.0008317212
10	0x3ba2ad06	0.0049644737
11	0x3a8d94eb	0.0010801827
12	0x3a403877	0.00073326327
13	0x3ab83fde	0.001405712
14	0x3a096115	0.00052406016
15	0x3a0c559b	0.00053533324
16	0x3913f72a	0.00014111088
17	0xbac68657	-0.0015146238
18	0xbabdd0f8	-0.0014481833
19	0xba6ddcf6	-0.0009073758
20	0xbb6c8402	-0.0036089425
21	0x3a927eb2	0.0011176674
22	0x3b7088f7	0.003670273
23	0x3ad23327	0.0016036973
24	0xba2fdf80	-0.00067090243
25	0xba2a9f6e	-0.0006508742
26	0x3b553db8	0.0032538008
27	0x3a2de5f2	0.0006633691
28	0xbbe4e04e	-0.006984747
29	0x3b627019	0.0034551679
30	0xbba4bad1	-0.005027153
31	0x3c0f4ce4	0.0087463595
32	0xb9f9bc84	-0.00047633436
33	0xba524169	-0.0008020611
34	0xbbf6a90f	-0.0075274776
35	0xb9490a59	-0.00019172709
36	0x3b16af18	0.0022992548
37	0xbc1293ca	-0.0089463685
38	0xba3eff1e	-0.000728594
39	0xbb5325eb	-0.0032218646
40	0x3b209666	0.0024503707
41	0x3a9fc0db	0.0012188213
42	0x3a340152	0.0006866652
43	0xba4ffd30	-0.0007934151
44	0x3c2bfbce	0.010497047
45	0xb7b688dd	-2.1759823e-05
46	0xba76eb86	-0.0009419251
47	0xb9c608ee	-0.00037772156
48	0xba9ef01b	-0.0012126
49	0x3a31f157	0.00067879766
50	0x3a61f2b0	0.0008619232
51	0xbc90511e	-0.017616805
52	0xbbc93f4d	-0.0061415792
53	0x3baba81d	0.0052385465
54	0xbb289760	-0.0025724992
55	0x3b42a89a	0.0029702545
56	0x3abc71c4	0.0014377167
57	0xbb248e9e	-0.002510942
58	0xbadef0de	-0.001700904
59	0xba7d2947	-0.0009657335
60	0xbb4b2a4e	-0.0031000557
61	0xbab835ee	-0.0014054158
62	0x3a595fef	0.0008292188
63	0x3bade912	0.005307325

batch_norm_c1.running_mean f4 [64]
0	0x3dadec13	0.08492293
1	0x3db2f035	0.08737222
2	0x3db68b29	0.089132614
3	0x3da48ad5	0.080342926
4	0x3da9bdb7	0.08288138
5	0x3dcdacdc	0.10042736
6	0x3db11c42	0.08647968
7	0x3db6150f	0.08890735
8	0x3d966d49	0.07345063
9	0x3dafab7b	0.08577629
10	0x3d977070	0.073944926
11	0x3dbe7e51	0.09301437
12	0x3dba2e72	0.0909089
13	0x3da8818b	0.08227833
14	0x3d97f1aa	0.07419141
15	0x3dab407d	0.083619095
16	0x3d943137	0.072359495
17	0x3da67330	0.08127439
18	0x3dad30b4	0.08456555
19	0x3db1cf96	0.08682172
20	0x3dac7bc2	0.084220424
21	0x3da8e399	0.08246536
22	0x3dae1628	0.0850032
23	0x3dab871c	0.083753794
24	0x3da6b58b	0.08140095
25	0x3d9b8fe7	0.075958066
26	0x3da7a221	0.081852205
27	0x3dac6458	0.084175766
28	0x3da0bb56	0.078482315
29	0x3d859a67	0.065235905
30	0x3db04417	0.08606737
31	0x3db4d910	0.08830464
32	0x3dbdd5fe	0.092693314
33	0x3d9a6cf2	0.07540311
34	0x3db1ac9b	0.086755
35	0x3db23ff7	0.087036066
36	0x3dad28b2	0.08455028
37	0x3dac1298	0.08401984
38	0x3dbf886d	0.09352193
39	0x3dc87725	0.0978835
40	0x3dba3eb4	0.09093991
41	0x3dc65e4e	0.09685956
42	0x3da84523	0.08216312
43	0x3da036cc	0.07822952
44	0x3d977926	0.07396154
45	0x3dcb1cf9	0.099176355
46	0x3dbd0fe7	0.09231549
47	0x3da637f4	0.08116141
48	0x3db80ded	0.08987031
49	0x3db6c7e2	0.08924843
50	0x3d98d6af	0.07462823
51	0x3da11c46	0.07866721
52	0x3da8e119	0.08246059
53	0x3daa14ca	0.083047464
54	0x3dae1a6a	0.08501132
55	0x3da5f668	0.08103639
56	0x3dbda366	0.092596814
57	0x3dbadbb7	0.091239385
58	0x3da8b4de	0.08237623
59	0x3d996dd9	0.07491655
60	0x3d9731e7	0.07382565
61	0x3da4db55	0.08049647
62	0x3dbb2a48	0.09138924
63	0x3da1d369	0.079016514

batch_norm_c1.running_var f4 [64]
0	0x3e9deb30	0.30843496
1	0x3ea2cf73	0.31798896
2	0x3eada966	0.33918303
3	0x3e9da779	0.30791834
4	0x3ea809ca	0.32819968
5	0x3ea6f994	0.32612288
6	0x3eac679f	0.33672807
7	0x3eab9637	0.33513042
8	0x3e90167a	0.28142148
9	0x3ea2f307	0.3182604
10	0x3e9c5725	0.30535236
11	0x3eb2104d	0.34778062
12	0x3ea18fd7	0.31555054
13	0x3eaf4704	0.34233868
14	0x3e9cc4c2	0.30618864
15	0x3e9e7100	0.30945587
16	0x3e9a29d5	0.3011004
17	0x3eaa01a8	0.3320439
18	0x3e9d0567	0.30668184
19	0x3ea4833c	0.32131374
20	0x3ea3ef14	0.3201834
21	0x3ea30737	0.31841442
22	0x3ea47077	0.32117054
23	0x3ea16bc9	0.31527546
24	0x3ea8f64a	0.33000404
25	0x3e92865d	0.28618136
26	0x3e983150	0.29725122
27	0x3ea32c56	0.31869763
28	0x3e97b812	0.29632622
29	0x3e90597f	0.2819328
30	0x3ea4b37d	0.3216819
31	0x3ea0eff7	0.3143308
32	0x3eac4ec8	0.33653855
33	0x3e94fcb2	0.2909904
34	0x3ea1d849	0.31610325
35	0x3e9d39a6	0.30708045
36	0x3e9c6ac7	0.30550215
37	0x3e9d18c9	0.30682972
38	0x3ea88a34	0.3291794
39	0x3ead20df	0.3381414
40	0x3eabfdc5	0.33592048
41	0x3eb7549c	0.3580674
42	0x3e948e78	0.29014945
43	0x3e8f7dfa	0.280258
44	0x3e95d640	0.29265022
45	0x3eb742fa	0.35793287
46	0x3ea6b442	0.325594
47	0x3ea28a34	0.31746066
48	0x3ea6c206	0.32569903
49	0x3e9d089c	0.3067063
50	0x3e97becb	0.2963775
51	0x3e9e7900	0.3095169
52	0x3ea56bb0	0.32308722
53	0x3eac2117	0.33618996
54	0x3ea4f75f	0.3221998
55	0x3eace068	0.33764958
56	0x3ebd0b06	0.36922473
57	0x3ea19b55	0.3156382
58	0x3ea3a5c5	0.3196241
59	0x3e9a9071	0.30188325
60	0x3ea394b3	0.31949386
61	0x3ea3e110	0.32007647
62	0x3eaf0579	0.34183863
63	0x3ea0d447	0.31411955

conv1.weight_v f4 [128, 1, 5]
0	0x3e4c63be	0.19959924
1	0x3e8df5dc	0.27726638
2	0xbd7f396b	-0.062310617
3	0x3d87ca54	0.06630388
4	0xbea83065	-0.32849422
5	0x3e6deef4	0.23235685
6	0x3e3200d9	0.17383136
7	0x3e3cd01d	0.18438764
8	0xbeab0740	-0.3340397
9	0xbe920152	-0.28516632
10	0x3ed513dd	0.41616717
11	0xbd8e4156	-0.069460556
12	0xbdec6e38	-0.1154446
13	0x3e42e1e8	0.19031489
14	0xbeb222a5	-0.34792057
15	0x3e55b570	0.20869994
16	0xbe7b8ca6	-0.24565372
17	0xbe8491b5	-0.25892416
18	0x3ee20bda	0.44149667
19	0xbe8d5895	-0.27606645
20	0xbe108648	-0.14113724
21	0x3cc6eba2	0.02428228
22	0xbd8cfbef	-0.0688399
23	0x3dd7827f	0.10522937
24	0xbed69ba1	-0.4191561
25	0xbdd3cd60	-0.103419065
26	0xbe6c842c	-0.23097295
27	0xbd025ed9	-0.031828735
28	0x3e6b3aba	0.22971621
29	0xbee559a3	-0.4479495
30	0xbde3f6f5	-0.11131088
31	0x3e36a448	0.17836106
32	0x3e61b210	0.22040582
33	0x3e2e7abf	0.17039011
34	0x3e2415ef	0.16023992
35	0xbdd909e9	-0.10597593
36	0x3e6e23d6	0.23255858
37	0xbeb9260d	-0.36161843
38	0xbe747cc0	-0.23875713
39	0xbe2f34ce	-0.17109987
40	0xbd4f598e	-0.050622515
41	0xbe9ad3eb	-0.30239806
42	0x3eb4aa41	0.35286143
43	0x3ce66e88	0.028128877
44	0xbe67001d	-0.22558637
45	0xbd1c767c	-0.038198933
46	0x3d3496b9	0.044089053
47	0x3e9984bd	0.29984084
48	0x3e1ec890	0.15506196
49	0x3e9c292b	0.3050016
50	0xbee24ebe	-0.442007
51	0xbe4605a3	-0.19338088
52	0xbe1f529c	-0.15558857
53	0x3e426d93	0.18987112
54	0xbeaf312d	-0.34217206
55	0xbe527c52	-0.20555237
56	0x3b3db0b3	0.0028944432
57	0xbebaec47	-0.3650839
58	0xbdd4ed71	-0.10396851
59	0xbedb69fe	-0.42854303
60	0x3e7c4923	0.24637274
61	0xbe96f87a	-0.29486448
62	0xbeb27c75	-0.34860578
63	0x3e3b63f6	0.18299851
64	0x3e8e6d8a	0.27817947
65	0x3e35e6d7	0.1776384
66	0xbe82d6ce	-0.25554508
67	0x3e84cadb	0.25936016
68	0x3edd62e5	0.43239513
69	0xbeb69e88	-0.35667825
70	0x3e6be111	0.23035075
71	0xbe6c54a7	-0.23079167
72	0xbec14374	-0.37746775
73	0x3ea01a46	0.31270045
74	0x3ee443f3	0.4458309
75	0x3ec87fca	0.39159995
76	0xbe5729a5	-0.2101198
77	0x3e818a2e	0.25300735
78	0x3db6901e	0.08914207
79	0xbed5a947	-0.4173071
80	0xbe136e97	-0.14397655
81	0xbea2a17d	-0.3176383
82	0xbe4ec41d	-0.20191999
83	0xbe2e5e81	-0.17028238
84	0xbe222f2e	-0.1583831
85	0xbd88fde2	-0.06689049
86	0x3e2e9ded	0.17052431
87	0x3ed311d4	0.4122454
88	0x3d243e69	0.04009858
89	0xbe319893	-0.17343359
90	0xbd7059e0	-0.05867946
91	0xbdaf1f57	-0.085508995
92	0x3e84b208	0.25917077
93	0x3e8c6727	0.2742245
94	0x3ea2c9b7	0.3179452
95	0xba2012ab	-0.00061062974
96	0xbe87a57a	-0.26493436
97	0x3e8a05c3	0.2695752
98	0xbe5fe8fb	-0.21866219
99	0x3eb5b5b4	0.3549019
100	0x3edfa01a	0.43676835
101	0x3e5e3766	0.2170082
102	0x3e40a942	0.18814567
103	0x3c70ba25	0.014692818
104	0xbe10cdfa	-0.14141074
105	0x3ec84195	0.39112535
106	0x3e489cd3	0.19591074
107	0xbe25acf8	-0.16179264
108	0xbecb88de	-0.3975286
109	0x3eda3638	0.4261949
110	0xbeb01ebb	-0.34398445
111	0x3e6a7d51	0.22899367
112	0xbe2c4e32	-0.16826704
113	0xbcb823de	-0.02247804
114	0x3ea74bcf	0.32675025
115	0xbd796b3e	-0.06089329
116	0x3ed2e24c	0.41188276
117	0xbe0b2c05	-0.13591011
118	0xbe59da08	-0.21274579
119	0x3e680846	0.22659406
120	0x3c89ec18	0.016836211
121	0xbeaf391d	-0.3422326
122	0xbe12675d	-0.14297242
123	0x3ebec514	0.37259734
124	0xbe170aea	-0.14750257
125	0x3e1052c0	0.14094067
126	0x3e076bf2	0.13224772
127	0x3e8c4ae5	0.2740089
128	0xbebae865	-0.36505428
129	0xbe909c89	-0.28244427
130	0x3d989979	0.074511476
131	0x3ed88069	0.4228547
132	0x3eaf0108	0.34180474
133	0x3d7b5082	0.061356075
134	0xbe402be3	-0.18766741
135	0x3ebb422c	0.36573923
136	0xbe852b93	-0.26009807
137	0xbe219f9e	-0.15783545
138	0x3eaab9ea	0.33344966
139	0x3e2c1944	0.16806513
140	0xbe31635b	-0.17323057
141	0x3ec37d87	0.38181707
142	0x3e7a0953	0.2441762
143	0x3d2542d9	0.040346954
144	0xbced8c55	-0.02899758
145	0xbe15ccc7	-0.14628898
146	0xbe9746f4	-0.2954632
147	0x3e094b5d	0.13407655
148	0x3e071118	0.13190114
149	0xbe4d8058	-0.2006849
150	0xbe65d572	-0.22444704
151	0xbe834fcf	-0.25646827
152	0x3eaf3cc4	0.34226048
153	0xbe8f417a	-0.27979642
154	0xbea47d55	-0.3212687
155	0x3e8f9a33	0.28047332
156	0xbdf46676	-0.119336054
157	0x3df4b290	0.119481206
158	0xbe8b5e09	-0.2722018
159	0x3ea39283	0.31947717
160	0xbe8367fe	-0.25665277
161	0xbd86eab5	-0.065877356
162	0xbd2ee3c4	-0.042697683
163	0x3e96baac	0.29439294
164	0x3df57b53	0.11986413
165	0xbd8c2998	-0.06843871
166	0x3eac4739	0.3364809
167	0xbe8c92b9	-0.2745569
168	0x3e86b6c7	0.26311323
169	0x3d54e807	0.05197909
170	0x3e103eb5	0.14086421
171	0xbe82cae2	-0.25545412
172	0x3d41c47e	0.04730653
173	0xbe6a9ff3	-0.22912578
174	0xbd828f8d	-0.063750364
175	0x3eb1e475	0.3474461
176	0x3e8ef4fa	0.27921277
177	0xbcef153b	-0.029184928
178	0xbebd6bf0	-0.36996412
179	0xbe106938	-0.14102638
180	0x3e47062e	0.19435951
181	0xbe99af3e	-0.30016512
182	0xbeaa842f	-0.33303973
183	0x3eace971	0.33771852
184	0xbe99b877	-0.30023548
185	0x3edcac34	0.4310013
186	0xbed5b58e	-0.41740078
187	0xbe4b1eb4	-0.19835931
188	0xbe51ccf0	-0.20488334
189	0xbec8ca7e	-0.3921699
190	0x3e16ef85	0.14739807
191	0xbe9d7fac	-0.30761468
192	0xbe84166a	-0.2579835
193	0x3e289c06	0.16465768
194	0x3e956600	0.29179382
195	0xbeb87f8b	-0.36034808
196	0xbe87c73a	-0.26519185
197	0x3da4e34a	0.080511644
198	0x3e950425	0.29104725
199	0x3da07313	0.07834449
200	0xbd86e5e7	-0.06586819
201	0x3ecb21d4	0.39674246
202	0x3e985c99	0.29758146
203	0xbed37dd5	-0.4130694
204	0x3ebffd52	0.37497956
205	0x3e851708	0.25994134
206	0x3ebef992	0.37299782
207	0xbe28c933	-0.16483001
208	0x3ec43098	0.38318324
209	0xbe3d1801	-0.18466188
210	0x3edcad10	0.43100786
211	0xbeb8aad5	-0.36067834
212	0xbe02fa10	-0.12790704
213	0x3ee5ca46	0.44880885
214	0x3e0f02e4	0.13965946
215	0xbdeacb90	-0.11464608
216	0x3e26b71a	0.16280785
217	0x3ece3be0	0.40280056
218	0x3e9a343b	0.30117974
219	0xbe9126b8	-0.28349853
220	0xbdcbdbac	-0.099540085
221	0x3e73f412	0.23823574
222	0xbe147739	-0.14498605
223	0x3e9cce80	0.30626297
224	0xbed0dd83	-0.40794
225	0xbe5a4c47	-0.2131816
226	0xbedc8bcd	-0.4307541
227	0xbebd458c	-0.36967123
228	0xbe975450	-0.29556513
229	0x3e985848	0.29754853
230	0x3e114026	0.14184627
231	0x3d97a959	0.074053474
232	0xbe50e390	-0.20399308
233	0x3eda129b	0.4259232
234	0xbeb6c8f3	-0.35700187
235	0xbd880d7d	-0.06643198
236	0xbde962e4	-0.11395815
237	0x3e9c2537	0.30497143
238	0x3ed6f276	0.41981858
239	0xbe06c0db	-0.13159506
240	0xbe4237f3	-0.18966655
241	0xbecc1381	-0.3985863
242	0xbe166752	-0.14687851
243	0xbe8dff96	-0.2773406
244	0x3ecbea47	0.39827177
245	0x3ed8d8e2	0.42352968
246	0xbeb75533	-0.3580719
247	0xbd0ed848	-0.03487423
248	0xbe98c09f	-0.29834458
249	0x3edb2121	0.42798713
250	0x3eaa681a	0.33282548
251	0x3e1777fd	0.14791866
252	0xbe574497	-0.21022259
253	0x3e9d44f3	0.30716667
254	0xbc5ace34	-0.013354827
255	0xbe84ad1b	-0.2591332

batch_norm_c2.weight f4 [128]
0	0x3f80a96e	1.0051706
1	0x3f80364f	1.0016574
2	0x3f8063ba	1.0030434
3	0x3f802f7d	1.0014492
4	0x3f7eb2f4	0.9949181
5	0x3f7f42d2	0.99711335
6	0x3f7ed276	0.9953989
7	0x3f803a76	1.0017841
8	0x3f80e432	1.006964
9	0x3f7fcba3	0.999201
10	0x3f8053ff	1.0025634
11	0x3f7f9e83	0.99851245
12	0x3f7f9ee4	0.9985182
13	0x3f7f9240	0.99832535
14	0x3f805a6c	1.0027595
15	0x3f80e69c	1.0070376
16	0x3f7fe57e	0.9995955
17	0x3f8035d9	1.0016433
18	0x3f7f802b	0.99804944
19	0x3f80faf3	1.0076584
20	0x3f80de5d	1.006786
21	0x3f7f951d	0.99836904
22	0x3f803a8e	1.001787
23	0x3f811f6d	1.0087715
24	0x3f80c0b9	1.0058814
25	0x3f808e1e	1.0043371
26	0x3f7ed5db	0.9954507
27	0x3f7fee9a	0.9997345
28	0x3f800a85	1.000321
29	0x3f804d40	1.0023575
30	0x3f7f81a9	0.9980722
31	0x3f80cd3f	1.0062636
32	0x3f7fe46a	0.9995791
33	0x3f804fb5	1.0024325
34	0x3f7fba52	0.9989368
35	0x3f7ff951	0.999898
36	0x3f7fd46b	0.999335
37	0x3f80810f	1.0039386
38	0x3f808e41	1.0043412
39	0x3f7f5718	0.9974227
40	0x3f804801	1.0021974
41	0x3f7f377e	0.9969405
42	0x3f7fa8ce	0.9986695
43	0x3f8068f8	1.0032034
44	0x3f7ffecd	0.9999817
45	0x3f80a9e6	1.0051849
46	0x3f7f9ab3	0.9984543
47	0x3f80446d	1.0020882
48	0x3f80140e	1.000612
49	0x3f7edc07	0.99554485
50	0x3f80bc57	1.0057477
51	0x3f80b175	1.0054156
52	0x3f7f858f	0.9981317
53	0x3f804102	1.0019839
54	0x3f7fb1bc	0.99880576
55	0x3f7fc42c	0.9990871
56	0x3f8028b0	1.0012417
57	0x3f801a83	1.0008091
58	0x3f805fdf	1.0029258
59	0x3f8088be	1.004173
60	0x3f800132	1.0000365
61	0x3f7fcf12	0.9992534
62	0x3f80346e	1.0016
63	0x3f8042ac	1.0020347
64	0x3f7ea541	0.9947091
65	0x3f806a4d	1.003244
66	0x3f80830b	1.0039991
67	0x3f807ce6	1.0038116
68	0x3f7fcfca	0.99926436
69	0x3f80ca1c	1.0061679
70	0x3f801b34	1.0008302
71	0x3f7fa17d	0.99855787
72	0x3f802311	1.0010701
73	0x3f805b68	1.0027895
74	0x3f8005be	1.0001752
75	0x3f801a41	1.0008012
76	0x3f8055c6	1.0026176
77	0x3f80625f	1.003002
78	0x3f801324	1.0005841
79	0x3f7fd768	0.9993806
80	0x3f7f6e75	0.9977792
81	0x3f8089b9	1.004203
82	0x3f7f8b36	0.99821794
83	0x3f80635d	1.0030323
84	0x3f804d99	1.0023681
85	0x3f80e893	1.0070976
86	0x3f8019b7	1.0007848
87	0x3f80efa5	1.0073134
88	0x3f7fcf74	0.99925923
89	0x3f80410f	1.0019854
90	0x3f8016e9	1.0006992
91	0x3f7f2b9e	0.9967593
92	0x3f803eee	1.0019205
93	0x3f8000a3	1.0000194
94	0x3f7fae54	0.9987538
95	0x3f800575	1.0001665
96	0x3f80573a	1.002662
97	0x3f806b7c	1.0032802
98	0x3f8050b8	1.0024633
99	0x3f8042fa	1.002044
100	0x3f7f70cb	0.99781483
101	0x3f802073	1.0009903
102	0x3f813251	1.009348
103	0x3f7fb9c2	0.9989282
104	0x3f8082f4	1.0039964
105	0x3f7ea16c	0.9946506
106	0x3f803f2b	1.0019277
107	0x3f7ff465	0.9998229
108	0x3f8087d5	1.0041453
109	0x3f80b14c	1.0054107
110	0x3f802c63	1.0013546
111	0x3f7efad0	0.9960146
112	0x3f7fd78a	0.9993826
113	0x3f7fa12c	0.99855304
114	0x3f802685	1.0011755
115	0x3f7ffac8	0.99992037
116	0x3f7f3974	0.9969704
117	0x3f80176e	1.000715
118	0x3f7f9117	0.99830765
119	0x3f8064aa	1.003072
120	0x3f7f0238	0.9961276
121	0x3f7f56c9	0.997418
122	0x3f801b54	1.000834
123	0x3f803b91	1.0018178
124	0x3f806823	1.003178
125	0x3f7eab60	0.9948025
126	0x3f809e31	1.0048276
127	0x3f7fe185	0.9995349

batch_norm_c2.bias f4 [128]
0	0xbb3ff308	-0.0029289145
1	0xba10b6a3	-0.0005520379
2	0xbb314a48	-0.0027052332
3	0xbb392d3d	-0.0028255724
4	0x396b98f1	0.00022468322
5	0x3b163c1c	0.0022924012
6	0x3b26ebd7	0.0025470161
7	0xbb65b889	-0.0035052618
8	0xbb89af9e	-0.0042018434
9	0x3b6fbe44	0.0036581913
10	0xbb0d872b	-0.002159546
11	0x3a925c91	0.0011166503
12	0x3af1354e	0.0018402727
13	0xba8b0d97	-0.0010608908
14	0xba44ad52	-0.00075026334
15	0x3a0dc326	0.00054078025
16	0x3bac74d7	0.005262952
17	0xbb0bdbda	-0.0021340759
18	0xba4a286d	-0.00077117124
19	0xbb8d593e	-0.004313617
20	0xbb8fff90	-0.004394479
21	0xbb615318	-0.0034381803
22	0x3af91170	0.0019002389
23	0x3a6f0ce8	0.00091190496
24	0x3b0f4ed5	0.0021867056
25	0x3a07cffe	0.00051808346
26	0xbafb398d	-0.0019166932
27	0xba485830	-0.00076425355
28	0xba8d49ce	-0.0010779442
29	0x3af7e2f3	0.0018912241
30	0x3985f4ac	0.00025550032
31	0xba710c50	-0.0009195255
32	0xbb70cf0e	-0.0036744508
33	0xbaf86807	-0.0018951901
34	0xbb2f19a9	-0.0026718176
35	0x3883b793	6.28076e-05
36	0x398cf242	0.00026883377
37	0xbac18107	-0.0014763185
38	0x3b34b046	0.0027570887
39	0x385e8908	5.3056545e-05
40	0x39821518	0.00024811248
41	0xba9f74a5	-0.00121655
42	0x3b13acbf	0.0022533385
43	0xba464cfa	-0.0007564571
44	0xba3836e0	-0.000702722
45	0x3b7906c2	0.0037998413
46	0xba194cb9	-0.00058479194
47	0x37224036	9.670903e-06
48	0x3a3ca4e1	0.00071962
49	0x398ecbe6	0.00027236267
50	0xbac146e5	-0.001474586
51	0xbad10528	-0.0015946971
52	0xba9cd662	-0.0011965747
53	0x3aad5c8d	0.0013226435
54	0xbaaa8bce	-0.0013011636
55	0xb83e531c	-4.537693e-05
56	0xba904423	-0.0011006634
57	0xbb9f77a1	-0.004866556
58	0xba78f1d8	-0.0009496487
59	0xbaaadd85	-0.0013035989
60	0xb95131fa	-0.00019950411
61	0xbaf45177	-0.0018640001
62	0xb9cf4ada	-0.00039537885
63	0x3a274a68	0.0006381632
64	0x380ea6f4	3.4010925e-05
65	0x3b06edd5	0.0020588536
66	0x3a8795c1	0.0010344313
67	0xbb14d55c	-0.002271018
68	0xb9740e72	-0.00023275035
69	0x39816330	0.00024678698
70	0x3933a509	0.0001713225
71	0xbb4c31d3	-0.0031157627
72	0xba52678f	-0.00080262957
73	0xbad86d78	-0.0016512116
74	0xba246e3d	-0.00062725303
75	0x3a883a0b	0.0010393275
76	0x3a0f6348	0.0005469811
77	0xbb13579c	-0.002248264
78	0x3a5cf2a9	0.0008428493
79	0xbb3842dc	-0.0028116023
80	0xbb5709b3	-0.0032812178
81	0xbb3bff77	-0.0028686204
82	0x3b302120	0.0026875213
83	0xb9e5143a	-0.00043693354
84	0x3a71a579	0.0009218078
85	0xbb113364	-0.0022155875
86	0x3907d9a9	0.00012955688
87	0xbbafbadd	-0.005362852
88	0xba989c2a	-0.001164322
89	0xbb760dc5	-0.0037544828
90	0xbb503f37	-0.003177596
91	0xbb19bc0a	-0.0023458027
92	0x3ad4a8e3	0.0016224649
93	0xbb32df4a	-0.0027293735
94	0xbb1f0940	-0.0024266988
95	0xb94bacd6	-0.00019423975
96	0xbb09fee2	-0.0021056463
97	0xba5b0881	-0.0008355454
98	0xbb773924	-0.0037723267
99	0xba8386b8	-0.0010034656
100	0xbaba616d	-0.0014219709
101	0xbaa8a980	-0.0012867898
102	0x3bafaf88	0.005361501
103	0xbb0bde77	-0.0021342316
104	0x3a0545a2	0.00050839235
105	0x3a2850b2	0.0006420716
106	0xba9b9826	-0.0011870905
107	0xbaaaf296	-0.0013042267
108	0x3a20920b	0.0006125278
109	0xbaef3341	-0.0018249528
110	0x3b3e63b0	0.0029051118
111	0x3b3e3429	0.002902279
112	0xba336fa8	-0.0006844946
113	0xb9879d10	-0.00025866227
114	0x3b13514d	0.002247888
115	0x393a773c	0.0001778276
116	0xb9c9861d	-0.0003843763
117	0xba9477ae	-0.0011327171
118	0xbaf105a4	-0.0018388522
119	0xbb95f4e2	-0.0045763114
120	0xb924b2cf	-0.0001570687
121	0xbacc4ea5	-0.0015587403
122	0xbb21f4b3	-0.0024712502
123	0xbb3da5df	-0.0028937978
124	0xbb740579	-0.0037234707
125	0x3a901784	0.0010993336
126	0xbad6c0b2	-0.0016384332
127	0x3b375690	0.002797518

batch_norm_c2.running_mean f4 [128]
0	0x3e3a1669	0.18172611
1	0x3e5de8e7	0.21670876
2	0x3e64069e	0.2226815
3	0x3e87e035	0.26538244
4	0x3e23c0c0	0.15991497
5	0x3e4b0835	0.1982735
6	0x3e167d47	0.14696227
7	0x3e4bf349	0.19917025
8	0x3e44c732	0.19216612
9	0x3e2d3b06	0.16917047
10	0x3e64e8d3	0.2235444
11	0x3e643c7e	0.22288701
12	0x3e618ffb	0.2202758
13	0x3e7b681d	0.24551435
14	0x3e8bbd0c	0.2729267
15	0x3e668095	0.22509988
16	0x3e34de00	0.17662811
17	0x3e3977a6	0.18112049
18	0x3e427697	0.18990551
19	0x3e5766b5	0.21035273
20	0x3e498e3b	0.19683163
21	0x3e8bc190	0.27296114
22	0x3e4ebcbe	0.20189187
23	0x3e4761c7	0.19470893
24	0x3e5313ac	0.20612973
25	0x3e5b634b	0.21424596
26	0x3e60c1ae	0.21948883
27	0x3e5c1165	0.2149101
28	0x3e3888b6	0.18020901
29	0x3e1ca03c	0.152955
30	0x3e6d0ae5	0.23148687
31	0x3e48db7f	0.19614981
32	0x3e1e34a0	0.15449762
33	0x3e339199	0.1753601
34	0x3e111e62	0.14171746
35	0x3e5b1fb3	0.21398811
36	0x3e79e031	0.24401928
37	0x3e8dd63e	0.27702516
38	0x3e4a6e41	0.19768621
39	0x3e4d8086	0.20068559
40	0x3e8b6145	0.27222648
41	0x3e667d33	0.22508697
42	0x3e8d30b5	0.27576223
43	0x3e734d5a	0.23759976
44	0x3e64e464	0.22352749
45	0x3e8cd073	0.27502784
46	0x3e5f939a	0.2183365
47	0x3e542c84	0.20720106
48	0x3e815e07	0.2526705
49	0x3e7ee2ab	0.24891154
50	0x3e3f34e1	0.18672515
51	0x3e5c77b3	0.21530037
52	0x3e62ea5f	0.22159718
53	0x3e29d27f	0.16584204
54	0x3e3869fd	0.18009181
55	0x3e11d2e8	0.1424061
56	0x3e59b2bb	0.21259587
57	0x3e49898b	0.19681375
58	0x3e468f69	0.19390644
59	0x3ddee500	0.10883522
60	0x3e6d0c31	0.23149182
61	0x3e85f6c7	0.2616484
62	0x3e49b645	0.19698437
63	0x3e5c420a	0.21509567
64	0x3e578a15	0.21048768
65	0x3e398c65	0.18119963
66	0x3e52f917	0.20602833
67	0x3e07b146	0.13251218
68	0x3e9707a9	0.29498032
69	0x3e65f817	0.2245792
70	0x3e21eafc	0.15812296
71	0x3e67816f	0.22607969
72	0x3e49fc23	0.19725089
73	0x3e517174	0.20453435
74	0x3e8b6b4c	0.272303
75	0x3e5675f2	0.2094343
76	0x3e4d3737	0.20040594
77	0x3e3fd0ac	0.18731946
78	0x3e238bca	0.15971294
79	0x3e731588	0.23738682
80	0x3e585f79	0.2113017
81	0x3e76a721	0.24087192
82	0x3e5528eb	0.2081639
83	0x3e54242c	0.20716923
84	0x3e3da666	0.18520507
85	0x3e5665fc	0.20937341
86	0x3e7f9d4b	0.24962346
87	0x3e0a4424	0.13502556
88	0x3e4d388e	0.20041105
89	0x3e86b3f0	0.26309156
90	0x3e856fc1	0.26061824
91	0x3e5f64ca	0.21815792
92	0x3e87cfa0	0.26525593
93	0x3e8710fd	0.2638015
94	0x3e72b6bf	0.23702525
95	0x3e22b9e6	0.15891227
96	0x3e939492	0.28824288
97	0x3e4f7f9c	0.20263523
98	0x3e86cc82	0.26327902
99	0x3e756714	0.23965102
100	0x3e8d5511	0.27603963
101	0x3e3f6aca	0.1869308
102	0x3e47d720	0.19515657
103	0x3dcfc0ab	0.101441704
104	0x3e818379	0.25295618
105	0x3e8285e2	0.2549277
106	0x3e816144	0.2526952
107	0x3e3f52e4	0.18683964
108	0x3e7ae5ae	0.24501678
109	0x3e42b1e6	0.19013175
110	0x3e4ec0c6	0.20190725
111	0x3e6b4854	0.2297681
112	0x3e2b7be2	0.16746476
113	0x3e92b867	0.28656313
114	0x3e1a5cef	0.15074514
115	0x3e52c673	0.20583515
116	0x3e8df16a	0.27723247
117	0x3e855120	0.26038456
118	0x3e8baef9	0.2728193
119	0x3e11420d	0.14185353
120	0x3dfa793e	0.12230156
121	0x3e19b36c	0.1500985
122	0x3e48bad0	0.19602513
123	0x3e599651	0.21248747
124	0x3e120331	0.1425903
125	0x3e34c760	0.1765418
126	0x3e2a7d44	0.16649348
127	0x3e5a66d3	0.21328287

batch_norm_c2.running_var f4 [128]
0	0x3d475701	0.048666958
1	0x3d98bc8f	0.0745784
2	0x3d5e359b	0.05425034
3	0x3d8e0dc2	0.06936218
4	0x3c8ee4d9	0.017443107
5	0x3cfd0893	0.030887878
6	0x3d54c199	0.05194244
7	0x3d151919	0.036400888
8	0x3d0f7ab3	0.035029124
9	0x3d8aba02	0.067737594
10	0x3d6f1133	0.05836601
11	0x3d8285f8	0.06373209
12	0x3d7e7932	0.0621273
13	0x3d8b1782	0.06791593
14	0x3deb511e	0.11490081
15	0x3d5d1562	0.05397547
16	0x3d589ec5	0.05288579
17	0x3d70ca1d	0.0587865
18	0x3d903507	0.07041364
19	0x3d1fe7b2	0.03903932
20	0x3db05672	0.08610238
21	0x3dbfccbd	0.093652226
22	0x3d19956f	0.037496027
23	0x3d37a364	0.044833556
24	0x3d213424	0.039356366
25	0x3d6c66ea	0.057715334
26	0x3de901e5	0.113773145
27	0x3d8b8ee2	0.06814362
28	0x3d83e913	0.0644094
29	0x3cc1d6be	0.023661967
30	0x3d3f5859	0.046715114
31	0x3d1a22f5	0.037630994
32	0x3d1d7304	0.038439766
33	0x3d078eb6	0.033095084
34	0x3c665b60	0.014059871
35	0x3da305d9	0.079601
36	0x3d51ad05	0.051190395
37	0x3dbfa931	0.093584426
38	0x3d69072d	0.05689161
39	0x3d725087	0.059158828
40	0x3d9e4631	0.07728232
41	0x3d766970	0.060159147
42	0x3dd12e10	0.10213864
43	0x3dd1e780	0.10249233
44	0x3d1e8fec	0.038711473
45	0x3de26d9b	0.11056062
46	0x3d33823b	0.04382537
47	0x3d9f4152	0.07776131
48	0x3d9daccf	0.07698976
49	0x3d9e76d6	0.0773751
50	0x3d511771	0.051047746
51	0x3d44d1af	0.048051532
52	0x3d867a87	0.06566339
53	0x3d81abf1	0.06331623
54	0x3cf2cba1	0.029638113
55	0x3ca44682	0.020053152
56	0x3d2c9ca5	0.042141575
57	0x3d6e8de4	0.058240786
58	0x3d2cbfd3	0.042175125
59	0x3cccb0b5	0.024986604
60	0x3d8e70a6	0.0695508
61	0x3dc8f468	0.09812242
62	0x3db51ca4	0.088433534
63	0x3df4bd46	0.119501635
64	0x3d394ff7	0.045242276
65	0x3d8b0724	0.06788471
66	0x3d533a4b	0.051569264
67	0x3ca2bbf3	0.019865012
68	0x3e13a882	0.1441975
69	0x3d7ec117	0.062195864
70	0x3cb7cc8d	0.022436405
71	0x3d810be2	0.063010946
72	0x3d86bb73	0.06578722
73	0x3d26133b	0.040545683
74	0x3da0c5a2	0.078501955
75	0x3d62cc82	0.055370815
76	0x3d65c638	0.05609724
77	0x3d262621	0.040563706
78	0x3d177c88	0.036983997
79	0x3d850a59	0.06496114
80	0x3db4b5de	0.08823751
81	0x3d91d4c8	0.07120663
82	0x3d6498e6	0.055809878
83	0x3d159c8c	0.036526248
84	0x3d12af70	0.03581184
85	0x3d5e167d	0.054220665
86	0x3d67a9c3	0.05655838
87	0x3c68bbc4	0.014204923
88	0x3d77386b	0.06035654
89	0x3e15aa98	0.14615858
90	0x3deefbb5	0.11669103
91	0x3d2c8d99	0.042127226
92	0x3de64449	0.11243493
93	0x3d90b8b4	0.07066479
94	0x3d283b6e	0.0410723
95	0x3d162af3	0.036662053
96	0x3db6e3b8	0.08930153
97	0x3cdecd91	0.027197631
98	0x3d9754d2	0.07389225
99	0x3d9823ba	0.07428689
100	0x3de0baeb	0.10973152
101	0x3d0445dc	0.032293186
102	0x3cf6f9e5	0.030148456
103	0x3c01c724	0.007921014
104	0x3d4e10d3	0.050309014
105	0x3d947503	0.07248881
106	0x3d7bec41	0.061504606
107	0x3d5e3b86	0.054255985
108	0x3d83192d	0.06401286
109	0x3d5a7ac1	0.053339723
110	0x3d7fbc6d	0.062435556
111	0x3d441a97	0.04787692
112	0x3d14a35e	0.03628861
113	0x3d9b88cb	0.075944506
114	0x3c9ef968	0.019406036
115	0x3d4fe8d0	0.050759137
116	0x3d900f88	0.07034212
117	0x3d94df57	0.07269161
118	0x3dd2aed7	0.10287254
119	0x3d0157c6	0.031577848
120	0x3c9af2b8	0.018914565
121	0x3c99a533	0.018755531
122	0x3d56da6e	0.052454405
123	0x3d824550	0.063608766
124	0x3ce73e46	0.028227936
125	0x3d432e2f	0.047651466
126	0x3d21aaad	0.03946941
127	0x3d8a1dc0	0.067439556
