lightning_logs/version_2/checkpoints/epoch=85-step=688.ckpt (torch, 678745 bytes, 50 tensors)

batch_norm1.weight f4 [40]
000000 14 2a 71 3f d1 0a 91 3f b2 88 80 3f 2b cd 72 3f
       0.9420483 1.1331426 1.0041716 0.9484431
000010 bd b5 77 3f 0f 57 78 3f d4 43 77 3f bc b2 78 3f
       0.96761686 0.9700784 0.9658787 0.97147727
000020 e8 e6 76 3f b1 8d 77 3f 1b 73 76 3f d2 7b 70 3f
       0.96446085 0.9670058 0.96269387 0.93938935
000030 ff 06 7d 3f 55 f5 7c 3f eb c4 76 3f a6 b5 71 3f
       0.988388 0.98811847 0.9639422 0.944178
000040 86 17 7d 3f 0f 41 7a 3f c8 9a 87 3f 4d 9d a5 3f
       0.9886402 0.9775552 1.059411 1.2938629
000050 3f 00 af 3f 45 88 74 3f 31 f1 76 3f 86 d3 75 3f
       1.367195 0.9552043 0.9646178 0.96025884
000060 5b a4 72 3f d3 6f 79 3f 6e a1 7b 3f 66 e2 73 3f
       0.94782037 0.97436255 0.982932 0.9526733
000070 7e be 76 3f 18 f4 73 3f 2a d6 70 3f 55 ea 76 3f
       0.9638442 0.9529433 0.9407679 0.9645131
000080 5c 17 78 3f 49 ae 73 3f 42 ec 7b 3f 1f 90 83 3f
       0.96910644 0.95187813 0.98407376 1.0278357
000090 d6 82 80 3f 44 8b 81 3f cc c5 79 3f 4e 20 7b 3f
       1.0039928 1.0120625 0.9756744 0.9809617

batch_norm1.bias f4 [40]
000000 39 52 e4 bb c7 4e de bc b7 8e 37 bc d3 e4 af bc
       -0.0069678095 -0.027137173 -0.011203459 -0.021471417
000010 71 12 19 bb 61 69 0d 3c 1c 69 a1 bb 0a 8e 0e 3d
       -0.002335694 0.008631081 -0.00492586 0.034803428
000020 31 2d 31 3d d9 bb 2d 3d 2d c1 d0 bc 62 3e b1 bb
       0.04325599 0.042415474 -0.025482738 -0.005409048
000030 ff fd 98 3b 03 f2 b9 ba 6f a3 91 bb 6e 82 09 3c
       0.0046689506 -0.0014186505 -0.0044445316 0.008392913
000040 14 08 c2 bc f3 89 59 bb 5a 30 c7 bb 46 e2 23 3e
       -0.023685493 -0.0033193796 -0.006078762 0.16004285
000050 ab 8f b7 3e 0e 4b e3 3b fc b3 17 3b 51 5f 2a bc
       0.35851797 0.0069364375 0.002314805 -0.010398702
000060 a9 eb b0 3b cd 16 2f 3b 7c 20 4f bc 0d 15 28 bc
       0.0053991866 0.0026716471 -0.012642022 -0.010258925
000070 eb 86 49 bc 27 72 71 bc 12 e0 6e bc 12 83 b1 3c
       -0.012300233 -0.014736689 -0.01457979 0.021668945
000080 49 6d 28 3c 3a 1e 01 bc d5 7f 7f 3c e7 d5 ac 3c
       0.010279962 -0.007880742 0.015594442 0.02109809
000090 bb 58 a8 bc 6e ce b1 3b 91 2a 87 bc 36 75 e9 b8
       -0.020550122 0.0054262197 -0.01649979 -0.00011132138

batch_norm1.running_mean f4 [40]
000000 04 2f 10 bd 02 b6 22 3e 1d 65 23 3d 09 a1 c9 3b
       -0.035201088 0.15889743 0.03989135 0.00615323
000010 df 46 04 3d cd ad d9 3c f8 12 10 3d 0c 90 93 bd
       0.03229415 0.026572132 0.03517434 -0.07205209
000020 a6 a5 1d bd 1a 59 8d bd 6f 21 6f 3c fe a4 d2 3c
       -0.038488053 -0.069017604 0.0145953735 0.02571344
000030 96 23 72 3c ef e4 d6 bd 99 f7 98 bd 90 26 76 bd
       0.014778992 -0.10492884 -0.074691005 -0.06009537
000040 d0 13 d0 bd 39 1c be bc 3d 66 97 3c 13 8b bf bd
       -0.10160029 -0.023206817 0.018481368 -0.09352698
000050 0a fc 29 be 6b c0 99 bc 57 92 11 bd 1d fb 13 bd
       -0.16600052 -0.01876851 -0.03553995 -0.036128152
000060 b0 8e d4 3a 14 d2 18 bc 69 5f 0b bd de a3 9a 3c
       0.0016216841 -0.00932743 -0.034026537 0.018876966
000070 b6 22 ec 3b 58 0b 55 3c d2 9f 42 3c f6 ae 85 bd
       0.0072062863 0.013003193 0.011878924 -0.06527512
000080 67 bc f3 bc 61 92 f0 bc b3 40 47 bc b3 dc 45 3d
       -0.029752923 -0.029366674 -0.012161422 0.04830618
000090 86 d5 da bc 99 af f4 3c 53 92 8e 3a 6f c1 14 3d
       -0.026713144 0.029868888 0.0010877348 0.036317285

batch_norm1.running_var f4 [40]
000000 7a 0b 7a 3f f3 ee 53 3f 88 dd 52 3f d0 1d 81 3f
       0.9767376 0.8278648 0.8236928 1.0087223
000010 e3 82 82 3f b4 9b 82 3f a0 ce 80 3f c7 ff 6d 3f
       1.0196193 1.0203767 1.0063057 0.9296841
000020 08 62 7e 3f 8f 76 72 3f be 36 80 3f c1 e8 7f 3f
       0.99368334 0.94712156 1.0016706 0.9996453
000030 de 11 7b 3f 88 fe 65 3f 0f bf 77 3f 55 f9 79 3f
       0.9807414 0.8984151 0.9677591 0.97646075
000040 7d bd 74 3f 06 1c 6e 3f cc 32 8c 3f 13 db 88 3f
       0.95601636 0.9301151 1.0953002 1.0691856
000050 7b 30 90 3f cb 03 80 3f 84 c1 43 3f af 0e 68 3f
       1.1264795 1.0001158 0.76467156 0.90647405
000060 a8 90 7a 3f 24 b2 7c 3f 49 8e 48 3f c4 86 80 3f
       0.9787698 0.9870932 0.7834211 1.0041127
000070 f2 5a 81 3f 31 c8 80 3f 33 c6 80 3f e9 bd 88 3f
       1.0105879 1.0061094 1.0060486 1.0682956
000080 40 6d 76 3f af 15 6f 3f fa c2 4f 3f cf 75 77 3f
       0.9626045 0.9339246 0.81156886 0.96664137
000090 cd db 45 3f 4c 39 79 3f 5b ae 84 3f 8e a9 6c 3f
       0.77288514 0.97353053 1.0365709 0.9244622

dense1.weight_g f4 [1024, 1]
000000 47 c4 f7 3e 92 db 0c 3f 5f 1b 11 3f 4c c9 26 3f
       0.48391935 0.5502254 0.5668239 0.65150905
000010 9c 90 10 3f c9 b2 fe 3e e0 04 14 3f c0 de 14 3f
       0.56470656 0.49745777 0.5781994 0.5815239
000020 c0 5e 16 3f 8f 4b 10 3f e9 50 22 3f 29 1b 01 3f
       0.5873833 0.56365293 0.6340471 0.5043207
000030 a2 15 33 3f 4e 7b 14 3f a5 46 08 3f 52 1b 0f 3f
       0.69954884 0.5800065 0.53232795 0.5590106
000040 49 63 0e 3f 9c 8d 20 3f 2c 26 0f 3f e0 63 0d 3f
       0.5562025 0.6271608 0.5591762 0.5523052
000050 12 0c 1b 3f 93 f0 11 3f 77 ae 14 3f 6d fa 15 3f
       0.6056529 0.5700771 0.5807871 0.58585244
000060 76 02 13 3f cd 20 0b 3f fb 4c 11 3f 3b f5 1a 3f
       0.5742563 0.54346925 0.5675809 0.6053044
000070 68 8c 19 3f e2 bf 0e 3f 34 07 1b 3f c3 c9 0f 3f
       0.5997987 0.5576154 0.60557866 0.5616724
000080 6e 58 11 3f 63 f4 1f 3f 75 f1 16 3f 15 af 18 3f
       0.5677556 0.6248228 0.58962184 0.59642154
000090 d8 c4 0e 3f 2e 90 17 3f 11 d0 1d 3f 6e 35 15 3f
       0.5576911 0.59204376 0.6164561 0.5828465
0000a0 d8 4f 13 3f dc 23 12 3f 6a 70 15 3f f5 54 0a 3f
       0.57543707 0.5708597 0.58374655 0.54035884
0000b0 00 60 1b 3f 59 eb 16 3f 40 44 13 3f fe d1 18 3f
       0.6069336 0.5895286 0.57526016 0.5969542
0000c0 22 26 1b 3f 1b 02 0d 3f 0a ae 10 3f 61 20 20 3f
       0.6060506 0.5508134 0.5651556 0.62549406
0000d0 81 ec 16 3f ce cb 17 3f 80 f0 12 3f f3 9d f6 3e
       0.58954626 0.59295356 0.57398224 0.4816738
0000e0 4c 53 1a 3f 89 ba 14 3f 1d ef 17 3f d3 57 17 3f
       0.6028335 0.5809713 0.5934923 0.59118384
0000f0 6b b7 01 3f 77 94 10 3f 0b c4 15 3f 21 5e 16 3f
       0.506705 0.5647654 0.5850226 0.5873738
000100 37 8a 13 3f 5a ac 14 3f 29 35 20 3f 62 67 11 3f
       0.57632774 0.5807549 0.62581116 0.56798375
000110 bb cc 11 3f 7f ec 20 3f fc 2e 07 3f b9 c2 11 3f
       0.5695302 0.62860864 0.5280607 0.5693775
000120 c6 49 03 3f 0c a0 06 3f 74 fd 0a 3f b3 17 12 3f
       0.51284444 0.5258796 0.5429299 0.5706741
000130 1c 42 12 3f 7a c7 08 3f 24 f9 14 3f 9e f8 15 3f
       0.57132125 0.5342938 0.5819266 0.58582485
000140 24 61 17 3f cc b7 21 3f ce ba 15 3f 14 73 ff 3e
       0.591326 0.63171077 0.58488166 0.49892485
000150 76 75 12 3f 3d c4 1b 3f bd a7 0a 3f 05 ed 15 3f
       0.5721048 0.6084631 0.541622 0.5856479
000160 ff d5 1c 3f 68 f2 06 3f f6 0e 05 3f ba 83 20 3f
       0.6126403 0.5271363 0.51975954 0.62701
000170 99 59 19 3f 9b 6c 22 3f 71 67 18 3f 35 f2 13 3f
       0.5990234 0.6344697 0.5953284 0.57791454
000180 95 b4 25 3f 94 af 10 3f ff 2a 0b 3f d6 43 0f 3f
       0.6472867 0.5651791 0.5436248 0.55962884
000190 c2 20 0e 3f c3 c3 fa 3e 15 0c 10 3f 24 0d 08 3f
       0.55518734 0.4897748 0.56268436 0.5314505
0001a0 e6 66 1b 3f 5a 1b 19 3f f5 9c 22 3f 8b dd 07 3f
       0.60703886 0.5980736 0.6352075 0.5307242
0001b0 d0 e9 04 3f 57 22 1e 3f f1 d1 20 3f af a9 13 3f
       0.5191927 0.6177115 0.62820345 0.5768079
0001c0 81 8a 2d 3f 69 73 17 3f 38 c1 07 3f 47 e4 1a 3f
       0.67789465 0.59160477 0.53029203 0.60504574
0001d0 0f 17 1b 3f 85 e9 09 3f 2b c5 1d 3f 1b 43 15 3f
       0.6058206 0.5387195 0.6162898 0.5830552
0001e0 d3 b0 03 3f 9d a5 10 3f 22 23 1b 3f eb 2d 0d 3f
       0.5144169 0.56502706 0.60600483 0.5514819
0001f0 5f ca 1f 3f 76 ce 19 3f 67 30 17 3f 51 9b 06 3f
       0.6241817 0.6008066 0.5905823 0.52580744
000200 36 be 0b 3f de e4 07 3f 6e e2 1d 3f fd 15 0e 3f
       0.54587114 0.530836 0.6167363 0.555023
000210 fc b1 14 3f 05 f9 13 3f f7 aa 0d 3f 10 d7 0f 3f
       0.5808408 0.5780185 0.55338997 0.56187534
000220 7e cf 12 3f dd 24 14 3f 59 3e 02 3f 07 dd 0a 3f
       0.5734786 0.5786875 0.50876385 0.5424351
000230 4f b7 1b 3f 84 59 1b 3f e8 ce 01 3f 28 73 12 3f
       0.6082658 0.60683465 0.5070634 0.57206964
000240 35 b4 16 3f fc 97 04 3f 4b 8a 17 3f 9d 65 12 3f
       0.58868724 0.5179441 0.59195393 0.571863
000250 25 2a 1c 3f 7d 29 21 3f 4f 39 20 3f cc f4 09 3f
       0.6100181 0.6295393 0.62587446 0.53889155
000260 56 cf 1f 3f f1 94 22 3f 02 ee 14 3f e0 10 0f 3f
       0.62425745 0.63508517 0.5817567 0.55885124
000270 02 bc 0e 3f 28 06 17 3f 94 76 0d 3f 1c 9f e9 3e
       0.5575563 0.5899377 0.5525906 0.45629203
000280 44 62 0e 3f 5c c6 02 3f 53 5c 0d 3f 00 fe 08 3f
       0.5561869 0.5108392 0.55219 0.53512573
000290 ed a1 12 3f 37 6f 19 3f 20 f8 16 3f 9c 88 1e 3f
       0.5727833 0.59935325 0.5897236 0.619272
0002a0 27 9c 0a 3f d2 30 1f 3f c1 2e 19 3f 71 d2 18 3f
       0.5414452 0.6218387 0.59836966 0.5969611
0002b0 53 ce 08 3f d7 26 13 3f 5a d8 12 3f a9 87 0b 3f
       0.53439826 0.5748114 0.57361376 0.54503876
0002c0 9f b3 21 3f 18 13 07 3f af a8 2d 3f a1 1e 0c 3f
       0.63164705 0.5276351 0.67835516 0.54734236
0002d0 c1 ea 15 3f 1f f5 08 3f 8d 44 25 3f 82 a6 15 3f
       0.5856133 0.53499025 0.64557725 0.58457196
0002e0 00 20 18 3f 75 91 08 3f 07 8a 11 3f c6 7c 0b 3f
       0.5942383 0.5334695 0.5685124 0.54487264
0002f0 3a f9 12 3f 4c 98 15 3f c7 08 28 3f 0a 66 13 3f
       0.5741154 0.5843551 0.65638393 0.57577574
000300 e0 d9 01 3f 05 ad 0f 3f 1d f5 15 3f e9 7b 10 3f
       0.50723076 0.5612338 0.5857714 0.5643907
000310 84 61 0c 3f eb d1 1c 3f 53 55 10 3f cd 38 0e 3f
       0.548363 0.6125781 0.56380194 0.5555542
000320 11 12 28 3f 49 35 14 3f cb 86 16 3f fb 2b 00 3f
       0.6565257 0.57893807 0.5879943 0.5006711
000330 4b b5 0f 3f d3 02 1f 3f e9 4d 09 3f 30 02 05 3f
       0.56136006 0.62113684 0.53634506 0.5195646
000340 96 14 11 3f 62 17 12 3f a9 86 11 3f 0e a6 12 3f
       0.56672037 0.5706693 0.568461 0.5728463
000350 27 bb 13 3f 09 8a 03 3f fb 4d 12 3f 27 98 fa 3e
       0.57707447 0.513825 0.5715024 0.48944208
000360 ba 6a 1d 3f b6 c1 0e 3f 9d ae 15 3f 71 01 16 3f
       0.61490977 0.5576433 0.58469564 0.5859595
000370 d9 b7 1e 3f 1c 3f 0c 3f 5d a2 10 3f 66 40 18 3f
       0.6199928 0.547838 0.56497747 0.59473264
000380 3f fc 04 3f ee 98 1c 3f ac be 19 3f ea ba 18 3f
       0.51947397 0.6117085 0.6005657 0.5966021
000390 ee a3 24 3f 0c 9d 0b 3f 85 ad 08 3f d3 6b 0b 3f
       0.64312637 0.5453651 0.5338977 0.544614
0003a0 77 bc 1b 3f cf f1 0e 3f 98 cc 17 3f 66 0d 19 3f
       0.6083445 0.5583772 0.5929656 0.5978607
0003b0 de 2a 11 3f 21 4d 0c 3f 8b 39 19 3f fb 07 00 3f
       0.56706035 0.5480519 0.5985343 0.5001218
0003c0 dd e7 17 3f ff ea 17 3f 2b 6b 1d 3f c3 91 09 3f
       0.5933817 0.5934295 0.6149165 0.5373804
0003d0 ca 37 0c 3f e6 c2 15 3f e0 2b 21 3f 40 de 13 3f
       0.5477263 0.58500516 0.6295757 0.57761
0003e0 95 27 fb 3e 8e 7d 02 3f 77 bf 16 3f a0 bb 10 3f
       0.49053636 0.5097283 0.588859 0.56536293
0003f0 15 90 11 3f b2 44 fb 3e 49 70 17 3f 85 d4 0c 3f
       0.56860477 0.49075848 0.5915571 0.5501178

dense1.weight_v f4 [1024, 40]
000000 99 09 13 3d a3 e9 2c bd f3 79 3f 3d 63 b1 1a bc
       0.035897825 -0.042215 0.04674716 -0.009441706
000010 bb e5 8a 3d 43 bd 13 3d 0f 02 97 bc 24 1b 01 be
       0.06782099 0.036069166 -0.018433599 -0.1260801
000020 3e 79 17 3d 23 06 10 be 1a 09 a5 3c e5 c5 25 3c
       0.03698086 -0.14064841 0.020145942 0.0101179825
000030 0d da 1c bd b0 81 02 3e c6 3b f8 3b c6 e2 82 3d
       -0.038293887 0.12744784 0.007575485 0.0639091
000040 3a b6 8b 3d af cd c4 bd 7e 16 82 bd 78 e1 18 3e
       0.06821866 -0.096095435 -0.06351946 0.1492976
000050 19 b9 1b be f7 cb 28 bc 07 57 37 bc 93 c1 e3 3d
       -0.15207328 -0.010302535 -0.0111901825 0.11120906
000060 f0 16 98 bc 35 3f 2b 3d da 00 f8 bb 67 46 b6 bd
       -0.018565625 0.041808326 -0.007568461 -0.08900147
000070 52 7a b7 bd 32 ff a1 bd e7 0e 13 be ba e6 da bd
       -0.089588776 -0.07910003 -0.14361154 -0.10688539
000080 4a 24 20 3d 3e d4 c9 3d b8 65 3a 3c 4d 31 93 bd
       0.039097108 0.09854935 0.011376791 -0.07187138
000090 44 ee 92 3d 6f 90 7e bd a7 28 0f bd 3b 80 b2 bd
       0.07174352 -0.06214946 -0.03495088 -0.08715864
0000a0 91 ac 51 bd 5a 4b 19 be 83 f2 8a 3d 69 b6 75 3d
       -0.051189963 -0.1497015 0.06784537 0.059988413
0000b0 82 97 f6 3c 6e 68 a1 3d f9 d0 90 3d b4 23 e9 3b
       0.030101541 0.078812465 0.07071108 0.007114852
0000c0 cf 4e 90 3c e2 30 4f 3c 43 b8 b3 3d 65 75 dc 3d
       0.017615704 0.012645932 0.087753795 0.10764579
0000d0 48 53 e7 3d dc f0 bb 3d ad e4 27 bd b4 1e f0 bb
       0.112951815 0.091768 -0.040989567 -0.007327879
0000e0 bf 3f 00 bd 8d 71 b9 3d 78 56 9f 3c ea 60 0f 3e
       -0.031310793 0.09054861 0.019450411 0.14001814
0000f0 c0 95 96 3d 7f 2c 0d be a6 cf 43 3d 4a b4 19 3e
       0.07352781 -0.13786505 0.04780545 0.15010181
000100 d3 0d 0d 3e bc e1 5a bb 3c f3 4e 3d 32 4b 17 be
       0.13774805 -0.0033398708 0.050524935 -0.14774778
000110 a4 ae 42 bd 12 e3 a4 3d 4c 24 11 be 68 6d 0f 3e
       -0.04752983 0.08051123 -0.14174002 0.14006579
000120 a7 47 d3 bd 4c 52 5a 3d 39 c0 d5 bb a8 e3 f9 3c
       -0.10316401 0.05330114 -0.006523159 0.030504063
000130 d0 68 4d 3c f8 28 17 be ce c0 12 bd 9a ee d3 bd
       0.012537196 -0.14761722 -0.035828404 -0.10348244
000140 7e 28 06 3e d9 46 8d bc 1b 8c 22 be 76 c6 25 3d
       0.13101384 -0.017245697 -0.15873758 0.04047247
000150 06 a2 8a 3d 37 77 8b bd 03 65 3e bc be 71 85 3d
       0.06769185 -0.06809848 -0.011620763 0.06515835
000160 2d 1b c7 bd ae 7d aa bd 86 32 51 bc 48 95 df bd
       -0.0972198 -0.08324753 -0.012768393 -0.10917145
000170 ef 0d c9 3d db 4c 8a 3c 74 b4 c3 3d 87 de b5 3d
       0.09817111 0.01688235 0.09555903 0.08880334
000180 41 2d f4 bd 1a 53 bf bd 39 0c de bd 8f 4b 85 bd
       -0.11922694 -0.09342022 -0.10842175 -0.06508552
000190 d5 b4 8c bd 5f e9 e0 bc b9 f7 1c be bf 1d 89 3d
       -0.068704285 -0.02745503 -0.15328874 0.06695127
0001a0 14 58 b1 3d 82 a8 3a 3d d7 a5 cc 3d d2 46 f6 3d
       0.08659378 0.045570858 0.09992569 0.12025227
0001b0 f0 cc 1d be dd ab eb 3c 20 97 17 3e 41 99 e2 bd
       -0.15410209 0.028768474 0.14803743 -0.11064387
0001c0 e6 ce 86 bd a1 0a 28 bb 40 22 d1 bd c2 bf d0 bc
       -0.065824315 -0.00256411 -0.10211611 -0.025482062
0001d0 04 e8 e4 bc d0 2e 14 3e 77 9a 3a bc 09 5a ac 3d
       -0.027942665 0.14470983 -0.011389366 0.0841561
0001e0 e2 09 e2 3d 59 27 94 3d 55 54 0b be a1 a2 f0 3d
       0.11037041 0.072340675 -0.13606389 0.11749769
0001f0 bc 1e d0 3d 44 9f e1 bd 7f 33 67 bd 97 7a ce 3d
       0.10162112 -0.11016706 -0.056445595 0.10081976
000200 a7 92 25 be 21 ee 10 be 28 c2 e2 bd 43 58 46 3d
       -0.16169225 -0.14153339 -0.110721886 0.048424017
000210 9e 6a 7b bd 4b 86 0d be 32 78 83 3d aa a6 a7 3d
       -0.061380975 -0.1382076 0.0641941 0.081860855
000220 50 11 69 3d 8e 50 02 be e5 bb 21 3e a1 ec 96 bc
       0.056901276 -0.12726042 0.15794332 -0.01842338
000230 57 d0 2f be 88 5e e2 bc 2f 90 d0 3d 72 87 94 3d
       -0.17169319 -0.027632967 0.10183751 0.07252397
000240 c6 f7 17 bb 88 ae dd 3d 67 a1 12 be c1 52 db 3d
       -0.0023188456 0.10824305 -0.14319383 0.107091434
000250 91 a9 1b 3e e1 fc c0 bd e3 9c ec 3c df 68 d4 bc
       0.15201403 -0.09423233 0.028883403 -0.025928913
000260 25 bd 02 be 2e 93 1e 3c 70 42 72 bd 58 5d 0e be
       -0.12767465 0.009678645 -0.05914539 -0.13902795
000270 14 8e ee bd be e9 7f 3b 9f 11 11 3e aa 40 5b 3d
       -0.11648193 0.0039049233 0.14166878 0.053528465
000280 72 dd d3 bd 0f fb e2 3d 39 c5 69 3c a4 00 1e be
       -0.10344972 0.11083042 0.014268213 -0.15429932
000290 e0 32 1c 3c 1c 1f d5 3d e4 a6 c0 bd fa a0 51 bc
       0.009533614 0.10406324 -0.09406832 -0.012794727
0002a0 c5 37 b6 bd 32 88 01 be cf 63 be bd 8d f5 57 3c
       -0.08897356 -0.1264961 -0.09296381 0.013181102
0002b0 b1 7d cc 3d e3 aa e8 bc ec e4 0a be 3f 53 9c ba
       0.09984911 -0.028401798 -0.1356389 -0.0011926665
0002c0 56 ea 0f be ac d3 1b 3c 70 f0 fb 3d 9c 0d 99 3d
       -0.14054236 0.009510916 0.12301719 0.07473299
0002d0 78 3c ee bd 00 33 26 bd ef db 88 3d 25 f3 3b 3d
       -0.11632627 -0.04057598 0.06682574 0.045886178
0002e0 59 ce 0e be ec 62 b7 bd f6 71 6a bd 36 af 5e 3d
       -0.13945903 -0.08954415 -0.057237588 0.054366313
0002f0 36 a6 09 3e 2d dc 8d 3d 56 1b 58 3d fa 70 01 be
       0.1344231 0.06926761 0.052760445 -0.12640753
000300 0f 44 c0 3d 76 a8 7b 3d d1 d6 5c bd 2d 20 a5 bd
       0.09387981 0.061439954 -0.053915802 -0.08062778
000310 2f d0 3f 3d c1 2b ae bd 69 09 77 3d 02 1e ef 3d
       0.0468294 -0.08504439 0.06031171 0.116756454
000320 75 b6 d1 bd 91 c0 c1 bd 5b 12 7d bd d8 4c 0c be
       -0.10239879 -0.09460557 -0.061785083 -0.13701189
000330 a7 77 63 bc 7b 2f ca 3d 3c 77 5f 3d 62 c9 56 bd
       -0.013883508 0.098723374 0.05455707 -0.052438147
000340 8e da dd bc dd ae 90 bd f7 d1 03 be eb 7e 3b bd
       -0.027081754 -0.070646025 -0.12873064 -0.045775335
000350 2f f2 1b 3c 25 28 a4 bd c3 d6 f0 bd 38 5e 2d 3d
       0.00951819 -0.080154695 -0.117597125 0.042326182
000360 b1 65 8a 3c d4 4e 4f bd 48 9e 32 3d d7 33 13 3e
       0.016894193 -0.050612286 0.04360798 0.14375244
000370 66 b9 29 bc 9e f9 e4 bd 2d aa 1b 3e d7 28 f1 3d
       -0.010359144 -0.11180423 0.15201636 0.11775368
000380 f6 01 0d bc 07 11 96 bd ff 31 8b bd da c0 09 3e
       -0.008606425 -0.073274665 -0.067966454 0.13452473
000390 9e 97 9c 3d 60 6c a6 bd 00 94 19 3b 45 a9 10 3d
       0.07646106 -0.0812614 0.0023434162 0.035317678
0003a0 ff f9 1d 3d 27 a2 12 bc 54 21 ad bd 70 b5 46 bc
       0.038568493 -0.008949793 -0.084536225 -0.012128219
0003b0 18 a2 21 bd e3 36 5f bd 61 e9 a1 bd 09 76 9c bd
       -0.039461225 -0.054495703 -0.079058416 -0.07639701
0003c0 8d 0e 91 bd 93 62 89 3d 64 0d 08 be f0 c8 1c be
       -0.070828535 0.06708255 -0.13286358 -0.15311027
0003d0 b1 66 0a 3e 31 1d 6b 3d e8 78 b4 3d 1a 22 92 3d
       0.13515736 0.057400886 0.088121235 0.071354106
0003e0 60 7d 74 bd c6 b5 cb bd d2 95 d7 bd 40 8d 5b bc
       -0.05968988 -0.0994678 -0.10526623 -0.013400376
0003f0 cf 41 15 3d bb aa 19 be f2 a9 f8 bd 92 43 af 3d
       0.036439713 -0.15006535 -0.121417895 0.0855781

batch_norm_c1.weight f4 [64]
000000 00 00 80 3f d4 ff 7f 3f 4c ff 7f 3f 8c fa 7f 3f
       1.0 0.9999974 0.9999893 0.9999168
000010 3a ff 7f 3f f6 fe 7f 3f ed ff 7f 3f d3 ff 7f 3f
       0.9999882 0.99998415 0.99999887 0.9999973
000020 f2 f9 7f 3f 00 00 80 3f d5 fe 7f 3f 04 00 80 3f
       0.9999076 1.0 0.9999822 1.0000005
000030 00 00 80 3f 00 00 80 3f fe ff 7f 3f 14 fe 7f 3f
       1.0 1.0 0.9999999 0.9999707
000040 00 00 80 3f 49 fe 7f 3f e3 fe 7f 3f 00 00 80 3f
       1.0 0.99997383 0.999983 1.0
000050 fc ff 7f 3f 00 00 80 3f d2 ff 7f 3f 93 ff 7f 3f
       0.99999976 1.0 0.99999726 0.9999935
000060 ba ff 7f 3f 01 00 80 3f f4 ff 7f 3f 00 00 80 3f
       0.9999958 1.0000001 0.9999993 1.0
000070 a0 fe 7f 3f d9 ff 7f 3f 20 fd 7f 3f df fe 7f 3f
       0.999979 0.9999977 0.99995613 0.9999828
000080 00 00 80 3f b0 ff 7f 3f ac fd 7f 3f d3 ff 7f 3f
       1.0 0.99999523 0.9999645 0.9999973
000090 00 00 80 3f fb f8 7f 3f 00 00 80 3f c3 ff 7f 3f
       1.0 0.9998929 1.0 0.99999636
0000a0 4c ff 7f 3f 6c ff 7f 3f 00 00 80 3f 21 00 80 3f
       0.9999893 0.9999912 1.0 1.0000039
0000b0 a8 ec 7f 3f ff ff 7f 3f 00 00 80 3f 45 ff 7f 3f
       0.99970484 0.99999994 1.0 0.99998885
0000c0 fd ff 7f 3f 79 ff 7f 3f 00 00 80 3f 56 e9 7f 3f
       0.9999998 0.99999195 1.0 0.9996542
0000d0 52 fe 7f 3f 8c ff 7f 3f ee fe 7f 3f f8 ff 7f 3f
       0.99997437 0.9999931 0.99998367 0.9999995
0000e0 f0 ff 7f 3f 5a fd 7f 3f e6 ff 7f 3f 44 fe 7f 3f
       0.99999905 0.9999596 0.99999845 0.99997354
0000f0 e5 fe 7f 3f ff ff 7f 3f f4 ff 7f 3f 69 fe 7f 3f
       0.99998313 0.99999994 0.9999993 0.99997574

batch_norm_c1.bias f4 [64]
000000 e0 6c 9d b9 de d3 6e bb 38 4f 9d 3b c1 20 58 bc
       -0.00030026492 -0.00364422 0.0048007034 -0.013191403
000010 b7 9a b7 3b 5c db f6 bb 4e 35 1c bb 23 8c 50 bb
       0.0056031602 -0.007533474 -0.0023835483 -0.003182181
000020 eb 2d 6a bc 83 84 4d ba a1 b4 cf 3b 46 56 66 3a
       -0.014293174 -0.0007839875 0.0063386713 0.00087866595
000030 fd 67 ab 3a 5a 99 73 3a 7e c2 2b ba 44 ca 03 bc
       0.0013077256 0.00092925655 -0.0006552114 -0.008043829
000040 2d 6a 2c 39 9c b9 ee bb bc fa cf bb 0e b4 a8 39
       0.00016442752 -0.00728531 -0.0063470285 0.00032177608
000050 10 05 16 bb 11 25 06 3b e8 2e 1c 3b 89 65 8f 3b
       -0.00228912 0.002046887 0.002383167 0.0043761176
000060 6b d1 57 3b 3b fb 10 bb e4 7d c8 3a 4c 6f ac b9
       0.003293122 -0.0022122401 0.0015296307 -0.0003288932
000070 9b 03 02 bc da 97 53 3b 20 42 1f bc f2 16 d3 3b
       -0.00793543 0.0032286556 -0.009720355 0.0064419443
000080 56 ee 91 ba 18 dc 8f 3b 12 1d 0f bc ea 50 30 3b
       -0.0011133652 0.004390251 -0.008734958 0.0026903697
000090 e7 b9 7a 3a e3 2f 78 bc 2b 2a 4e 3a 56 06 4f bb
       0.0009564445 -0.015148136 0.000786456 -0.003158947
0000a0 92 46 a4 3b fa aa a7 3b b5 18 75 3a fe 29 fd ba
       0.0050132954 0.0051168175 0.000934969 -0.0019314883
0000b0 a9 da cc 3c ae 96 a2 3a b1 b8 c4 39 4c 7e a8 3b
       0.025006609 0.0012404525 0.0003752164 0.005142009
0000c0 3f e0 90 b8 10 b4 9b 3b 4c dd ad 39 a4 a6 e7 bc
       -6.908224e-05 0.0047516897 0.0003316201 -0.028277703
0000d0 c9 c0 f9 bb 7b 9d 9d 3b 30 a3 e2 bb 42 37 20 3b
       -0.0076218587 0.004810033 -0.006916426 0.0024446999
0000e0 9e d3 1b bb 37 9b 1d bc 2b 92 03 bb d1 0d 01 bc
       -0.0023777257 -0.009619526 -0.0020076137 -0.007876829
0000f0 26 5a bb bb 23 80 14 bb 36 cc 8c 3a b5 c5 fa 3b
       -0.0057175336 -0.0022659383 0.0010742012 0.007652963

batch_norm_c1.running_mean f4 [64]
000000 58 aa ae 3d 16 46 bd 3d 21 85 b8 3d 8e 2a ad 3d
       0.08528584 0.092418835 0.09009767 0.08455382
000010 e2 54 ae 3d 93 b5 e6 3d dc 7c ab 3d 22 74 b8 3d
       0.08512284 0.11265101 0.083734244 0.090065256
000020 70 37 97 3d dc d1 b2 3d 96 4c 94 3d 7a ed bc 3d
       0.07383621 0.08731434 0.0724117 0.092249826
000030 7f ee c3 3d 07 ba a9 3d 61 22 97 3d 13 a5 b3 3d
       0.09566974 0.08287435 0.07379604 0.0877172
000040 26 eb 8f 3d bc 88 a1 3d cc dd b6 3d 49 a3 ba 3d
       0.07027273 0.07887408 0.08929023 0.091131754
000050 97 a0 a6 3d 30 53 a7 3d ac 3d ad 3d 02 4b ad 3d
       0.08136099 0.08170164 0.084590286 0.08461572
000060 98 09 a8 3d 58 d3 9e 3d e6 59 b4 3d 15 62 ae 3d
       0.08204955 0.07755154 0.08806209 0.085148014
000070 0f 42 af 3d a3 ea 70 3d f6 29 b2 3d d3 2c bc 3d
       0.085575216 0.058817517 0.0869941 0.09188237
000080 8a 4f c2 3d 79 c0 91 3d 41 c5 b1 3d 30 c9 b1 3d
       0.09487827 0.07116789 0.08680201 0.086809516
000090 c5 96 b3 3d 22 7f b5 3d 5c 75 c6 3d f8 4d cd 3d
       0.087689914 0.08862139 0.09690353 0.10024637
0000a0 33 23 c2 3d b1 37 ca 3d 8a 7c a5 3d 0a 6a ab 3d
       0.0947937 0.098739035 0.080803946 0.08369835
0000b0 3a bb a5 3d 51 d3 d1 3d 76 70 c5 3d b2 fd a7 3d
       0.08092351 0.102453835 0.09640591 0.082026854
0000c0 9c be bb 3d 9d 31 c4 3d 94 8a 98 3d b2 da a3 3d
       0.09167215 0.095797755 0.07448307 0.08000697
0000d0 e5 cb a4 3d 40 3d a4 3d 2f 88 a8 3d 3e ff a8 3d
       0.08046702 0.08019495 0.082291 0.082518086
0000e0 18 33 c9 3d 23 ad cb 3d 5c c8 a5 3d 6f 2f 96 3d
       0.098241985 0.099451326 0.08094856 0.07333266
0000f0 a6 26 8b 3d ae d3 a4 3d 41 7a bc 3d 34 2c 97 3d
       0.06794481 0.08048187 0.092030056 0.07381478

batch_norm_c1.running_var f4 [64]
000000 a8 3f 9d 3e 7d c3 a4 3e 22 36 af 3e 7d 37 a3 3e
       0.30712628 0.32180396 0.34220988 0.31878272
000010 17 b9 ac 3e 1b d4 ad 3e a8 2a ad 3e 4d 7d aa 3e
       0.33734962 0.33950886 0.33821607 0.33298722
000020 e7 19 91 3e 3b 1c a5 3e c7 ac 9c 3e 8e 7c b3 3e
       0.28340074 0.322481 0.3060057 0.35055965
000030 92 e9 a5 3e cd 95 aa 3e 60 0a 9f 3e f8 0e 9e 3e
       0.32404763 0.33317414 0.31062603 0.30870795
000040 0f 28 9a 3e 4c 09 ac 3e 5e 67 9f 3e 04 bf a8 3e
       0.30108687 0.33600843 0.3113355 0.32958233
000050 2e 04 a5 3e 20 a9 a3 3e d0 91 a5 3e da 9b a0 3e
       0.3222975 0.3196497 0.3233781 0.31368905
000060 48 87 aa 3e 70 b8 95 3e e1 7d 9e 3e 88 d3 a3 3e
       0.33306336 0.29242277 0.30955413 0.31997323
000070 51 66 9c 3e fd 70 8f 3e 1f 1f a5 3e 43 6c a2 3e
       0.3054681 0.2801589 0.32250306 0.31723222
000080 dc 3e ad 3e fb 89 95 3e 57 a3 a4 3e df 24 9b 3e
       0.3383702 0.29206833 0.32155868 0.30301568
000090 61 47 9c 3e bc a5 a0 3e 01 d5 aa 3e 37 b1 af 3e
       0.30523208 0.31376445 0.33365634 0.34314892
0000a0 d9 e9 ac 3e 79 a2 bb 3e e1 f8 93 3e e3 c6 94 3e
       0.33772162 0.36647394 0.28900817 0.2905799
0000b0 42 f0 97 3e 71 f4 b7 3e 78 20 a8 3e a2 68 a4 3e
       0.2967549 0.35928681 0.32837272 0.32111079
0000c0 7d 19 a9 3e 3b 7c 9d 3e 16 11 99 3e 5e 74 a2 3e
       0.3302726 0.30758843 0.29895848 0.31729406
0000d0 46 f5 a4 3e 4f 91 af 3e 85 5b a4 3e d7 65 af 3e
       0.3221838 0.3429055 0.32101074 0.34257385
0000e0 cd 10 bf 3e eb 77 a3 3e 9d e1 a5 3e 73 08 9c 3e
       0.37317505 0.31927428 0.32398692 0.30475196
0000f0 28 91 9e 3e 01 a5 a4 3e 0c 1a af 3e 35 e4 9e 3e
       0.3097012 0.32157138 0.3419956 0.31033483

conv1.weight_v f4 [128, 1, 5]
000000 0c ab 45 3e d0 f3 8f 3e 12 db 78 bd 69 6c 88 3d
       0.1930353 0.28115702 -0.060755797 0.066613026
000010 05 95 a8 be 34 3e 63 3e 91 2e 2b 3e 5b 42 2f 3e
       -0.32926193 0.22191697 0.16716982 0.17115156
000020 3f f7 af be 2f 9a 96 be fd 83 d5 3e 48 16 a0 bd
       -0.3436832 -0.29414508 0.41702262 -0.0781675
000030 49 c2 be bd f0 aa 45 3e 36 48 b3 be 95 d6 54 3e
       -0.09314401 0.19303489 -0.3501603 0.20784982
000040 21 67 83 be ff 6b 85 be 60 4d dd 3e 8c 41 8f be
       -0.2566462 -0.26058957 0.43223095 -0.27979696
000050 01 32 1b be 4d e1 27 3d f1 80 7a bd 04 43 f1 3d
       -0.15155794 0.040986348 -0.061158124 0.1178036
000060 b6 eb d2 be b4 7e c5 bd f0 73 76 be 10 45 45 bd
       -0.41195458 -0.09643307 -0.24067664 -0.048161566
000070 c3 3f 60 3e bb 85 e5 be 13 98 d5 bd a6 be 38 3e
       0.21899323 -0.4482859 -0.104293965 0.18041477
000080 78 24 6c 3e ce 28 27 3e 89 5a 1f 3e 35 9b ed bd
       0.23060787 0.1632416 0.1556188 -0.11601869
000090 c7 a5 5c 3e cd 4f bc be 95 05 6c be 17 c2 3c be
       0.21547614 -0.36779633 -0.23049004 -0.18433414
0000a0 70 bd 55 bd c0 30 99 be 90 6d b6 3e 8c d2 ac 3c
       -0.052182615 -0.29920006 0.35630465 0.02109649
0000b0 bb 28 66 be 1e f7 26 bc 1d 0e 5e 3d 33 0e 9c 3e
       -0.22476475 -0.010190753 0.05421268 0.30479583
0000c0 f4 55 24 3e 13 80 98 3e e8 2e e2 be e9 82 51 be
       0.16048414 0.29785213 -0.44176412 -0.20460095
0000d0 2b 87 12 be d2 94 2c 3e 61 79 b4 be 6c f5 56 be
       -0.14309375 0.16853645 -0.35248855 -0.20992059
0000e0 c8 0d 81 bb 0c 0d ba be 0f 70 ea bd 69 b0 d9 be
       -0.0039384104 -0.3633808 -0.11447155 -0.42517403
0000f0 08 28 75 3e 38 10 93 be fa 51 b8 be 24 fb 3a 3e
       0.23941052 -0.2872331 -0.36000043 0.18259865
000100 30 53 8e 3e fa 33 37 3e 4f 78 7d be df 8f 82 3e
       0.27797842 0.17890921 -0.24752925 0.2550039
000110 25 48 dd 3e e5 da ba be d2 44 69 3e f0 8a 6d be
       0.43219104 -0.36495128 0.22780159 -0.23197532
000120 17 56 c1 be 74 71 a0 3e 65 51 e4 3e 91 bf c5 3e
       -0.37760994 0.31336558 0.4459335 0.38622716
000130 b1 9b 53 be b9 fb 86 3e 26 2b d2 3d 98 22 d4 be
       -0.2066486 0.26363924 0.10262136 -0.41432643
000140 2a 50 18 be 10 d3 a0 be 55 1a 4d be e7 69 33 be
       -0.1487433 -0.31411028 -0.20029576 -0.17520867
000150 87 75 21 be 00 8e 77 bd 66 69 2c 3e bb 73 d4 3e
       -0.1576749 -0.060438156 0.16837081 0.41494545
000160 f3 f1 05 3d 40 1a 31 be 43 bd 88 bd ac 5d b0 bd
       0.032701444 -0.1729517 -0.06676724 -0.086116165
000170 d2 e0 85 3e 34 c2 8b 3e bb 75 a1 3e 0c 59 e5 3a
       0.26148087 0.27296603 0.31535134 0.0017497852
000180 11 04 8c be 0b 5b 8a 3e 9c 19 60 be 71 00 b2 3e
       -0.27346852 0.27022585 -0.21884769 0.34765962
000190 02 91 df 3e 0b fa 5a 3e 1c c3 48 3e 82 4d a9 3c
       0.4366532 0.21384446 0.19605678 0.020666841
0001a0 8b 23 0a be 2a 57 c8 3e 0a 91 4a 3e d0 82 23 be
       -0.13490121 0.39129 0.1978189 -0.1596787
0001b0 18 c9 c9 be f3 b3 db 3e b9 e8 af be 1f 0b 74 3e
       -0.39411235 0.42910728 -0.3435724 0.23832367
0001c0 14 54 2f be 8b 64 7e bc 70 76 a3 3e 3d e7 3d bd
       -0.17121917 -0.015526901 0.31926298 -0.046363104
0001d0 9e 63 dc 3e 3b a0 08 be 98 a5 40 be 3e f3 5f 3e
       0.43044752 -0.13342373 -0.18813169 0.21870133
0001e0 21 c4 27 3c 8f 5c ac be b6 28 19 be b7 05 bf 3e
       0.010239632 -0.33664367 -0.14956936 0.37309048
0001f0 17 a8 1c be 53 76 26 3e 72 bf 0f 3e 46 e4 8e 3e
       -0.15298496 0.16256075 0.14037874 0.27908534
000200 d4 e2 b5 be d6 72 8c be 39 bc 9a 3d 94 4b d9 3e
       -0.3552462 -0.27431363 0.07555432 0.42440474
000210 e5 7b ad 3e 7b 2d 60 3d 8f af 43 be 96 f2 bb 3e
       0.33883587 0.054730874 -0.19109939 0.36708516
000220 3b e4 84 be d3 4d 24 be d2 4b aa 3e 87 09 29 3e
       -0.25955376 -0.16045313 0.3326097 0.1650754
000230 23 41 2d be 8b d0 c4 3e 1a 8a 77 3e c3 72 4f 3d
       -0.16919379 0.38440356 0.24173775 0.050646555
000240 b5 01 b6 bc d3 45 23 be 90 6a 98 be ca a2 f2 3d
       -0.02221761 -0.15944605 -0.297688 0.11847456
000250 64 6a 11 3e c3 7a 42 be 85 e7 6f be 5f d6 83 be
       0.14200741 -0.18992142 -0.23428161 -0.2574949
000260 16 50 a7 3e 8e f2 8b be b8 6d ab be 31 12 92 3e
       0.32678288 -0.27333492 -0.33482146 0.28529504
000270 50 df 02 be c8 77 05 3e cb 8b 82 be 81 d0 a4 3e
       -0.127805 0.13033974 -0.2549728 0.32190326
000280 ff 36 7d be d4 d0 8c bd d1 a9 71 bd ba 15 9a 3e
       -0.2472801 -0.06875768 -0.05899984 0.300947
000290 d1 fb ea 3d d2 48 83 bd 93 ae ae 3e ef 45 8d be
       0.114738114 -0.06410374 0.34117565 -0.27592418
0002a0 a6 21 84 3e e7 b0 34 3d 02 1c 05 3e 81 36 81 be
       0.25806922 0.04411402 0.12998965 -0.25236896
0002b0 0e 63 c8 3c b2 e3 77 be b3 8d 85 bd 4a 96 ae 3e
       0.024461295 -0.24207953 -0.065211676 0.34099036
0002c0 24 a9 92 3e b7 b9 e0 bc 85 66 bc be 01 30 17 be
       0.2864467 -0.027432306 -0.36796966 -0.14764406
0002d0 89 a3 3a 3e 0e 40 99 be ad fa ae be f7 66 ac 3e
       0.18226446 -0.29931682 -0.34175625 0.33672306
0002e0 3b 92 99 be 27 ce d9 3e 73 81 d3 be 35 f9 4e be
       -0.29994377 0.42540094 -0.413097 -0.20212252
0002f0 d3 40 54 be 76 94 cc be db fa 18 3e 8f 96 9d be
       -0.20727853 -0.39957017 0.14939444 -0.3077893
000300 54 e8 80 be 13 c2 2b 3e 1e a0 96 3e 3e 5f b6 be
       -0.25177252 0.16773252 0.29419035 -0.3561954
000310 75 dc 84 be 9c 31 b3 3d 42 ae 98 3e 12 90 a7 3d
       -0.25949445 0.087496966 0.29820448 0.08181776
000320 8a 79 7a bd 4c 13 cb 3e fd 8a 98 3e 5c e2 d5 be
       -0.061151065 0.3966316 0.2979354 -0.4177426
000330 7e a1 bd 3e 67 cf 87 3e e2 6a bf 3e 99 a9 28 be
       0.3703727 0.26525423 0.37386233 -0.16470946
000340 a0 df c1 3e e8 30 3d be 74 1e dc 3e 71 8a b7 be
       0.37865925 -0.18475688 0.42991984 -0.3584781
000350 5c af 04 be cb 92 e6 3e 3c 90 11 3e 9f 7e db bd
       -0.1295752 0.4503387 0.14215177 -0.107175104
000360 72 2b 2e 3e 6a 0a cd 3e 89 ca 9a 3e ce 83 91 be
       0.1700876 0.40047008 0.30232647 -0.28420871
000370 02 30 c2 bd 02 ab 6f 3e 66 04 1b be 67 e7 95 3e
       -0.09481813 0.23405078 -0.15138397 0.29278108
000380 10 7c d6 be 2e b3 5a be 84 3e dc be ab dd bb be
       -0.41891527 -0.21357414 -0.43016446 -0.36692557
000390 bb 68 96 be 8f 43 9b 3e 08 74 0d 3e 8e 6d a5 3d
       -0.29376778 0.3032498 0.13813794 0.080775365
0003a0 05 25 50 be fc 54 da 3e e3 a9 b6 be 1f 5d 7a bd
       -0.20326622 0.42642963 -0.35676488 -0.061123963
0003b0 fd f0 de bd be 12 9a 3e 36 ea da 3e d4 c7 fa bd
       -0.108858086 0.30092424 0.42756814 -0.122451454
0003c0 0c 03 46 be f9 f0 cd be b2 c4 16 be 44 61 89 be
       -0.193371 -0.4022291 -0.14723471 -0.2683202
0003d0 68 37 cc 3e 83 bf d7 3e 62 94 ba be f5 ca 15 bd
       0.39886022 0.421383 -0.36441332 -0.036570508
0003e0 97 85 96 be 7b f0 da 3e d5 37 ab 3e 95 3a 15 3e
       -0.29398796 0.42761597 0.33441034 0.14573129
0003f0 f8 1c 4c be 11 ab a0 3e 87 a2 18 bc e8 a6 88 be
       -0.19932926 0.31380513 -0.009316093 -0.2668984

batch_norm_c2.weight f4 [128]
000000 7b 51 80 3f 18 76 80 3f 01 8c 80 3f 28 ab 80 3f
       1.0024866 1.0036039 1.0042726 1.0052233
000010 ec 6d 7f 3f 81 df 7d 3f 56 cc 7e 3f b6 a1 7f 3f
       0.997771 0.99169165 0.9953054 0.99856126
000020 5f 0a 81 3f 67 8c 7f 3f 65 73 80 3f db c2 80 3f
       1.008129 0.9982361 1.0035216 1.0059465
000030 df 03 80 3f 58 e5 7e 3f 32 4e 80 3f 07 44 81 3f
       1.0001181 0.995687 1.0023863 1.0098885
000040 ba 34 80 3f 87 7e 81 3f 41 4e 7f 3f 48 61 80 3f
       1.0016091 1.0116738 0.9972878 1.0029688
000050 70 5f 80 3f 67 91 7e 3f 9c 15 80 3f 15 2e 81 3f
       1.0029125 0.99440616 1.0006595 1.0092188
000060 99 b6 80 3f da 3c 80 3f c4 60 7e 3f ca 9c 7f 3f
       1.0055724 1.001857 0.993664 0.99848616
000070 fa 4b 7f 3f 85 83 7f 3f c8 41 7e 3f 1d 94 80 3f
       0.99725306 0.9981006 0.99319124 1.00452
000080 ce c0 7f 3f 6a 9c 7f 3f 1f d9 7e 3f 8e c1 80 3f
       0.9990357 0.99848044 0.9955005 1.0059068
000090 e9 e8 7f 3f c2 69 80 3f c5 9e 80 3f 7e 9b 7f 3f
       0.9996477 1.0032275 1.0048453 0.9984664
0000a0 0a 1f 80 3f 46 72 7f 3f b2 4d 7f 3f cc 22 81 3f
       1.0009472 0.9978374 0.9972793 1.0088744
0000b0 87 04 7e 3f 38 22 81 3f 32 2a 80 3f e6 6a 80 3f
       0.9922566 1.0088568 1.0012877 1.0032623
0000c0 61 05 80 3f 70 5a 80 3f 4d 26 80 3f d6 30 81 3f
       1.0001642 1.0027599 1.0011688 1.0093029
0000d0 26 4a 7f 3f 5d e5 7f 3f b3 15 80 3f 1e 7a 80 3f
       0.99722517 0.99959356 1.0006622 1.0037267
0000e0 00 b8 80 3f 53 6a 80 3f 81 65 81 3f 61 34 80 3f
       1.0056152 1.0032448 1.0109102 1.0015985
0000f0 f9 34 7f 3f f8 46 7f 3f 87 98 80 3f f1 c8 80 3f
       0.99690205 0.99717665 1.0046548 1.0061322
000100 33 16 7f 3f 7f 15 80 3f 30 87 80 3f c7 e9 80 3f
       0.9964325 1.000656 1.0041256 1.0071343
000110 da 58 7f 3f 1c 32 7f 3f 42 58 7f 3f c0 bb 7e 3f
       0.9974495 0.99685836 0.99744046 0.99505234
000120 d3 1f 80 3f 69 fb 7f 3f 2d d0 7f 3f 88 78 7f 3f
       1.0009712 0.99992996 0.99927026 0.9979329
000130 59 5f 80 3f fd 56 80 3f f7 49 80 3f 39 24 80 3f
       1.0029098 1.0026547 1.0022572 1.0011054
000140 ab a5 7f 3f 45 c4 7f 3f 16 92 7f 3f 71 2a 80 3f
       0.99862164 0.9990886 0.99832284 1.0012952
000150 35 78 80 3f 8d ee 80 3f a0 d5 7f 3f 5c 09 82 3f
       1.0036684 1.00728 0.9993534 1.0159106
000160 d9 a1 7f 3f 85 1c 7f 3f 21 9b 80 3f e1 d9 7e 3f
       0.99856335 0.9965289 1.0047342 0.99551207
000170 71 8b 80 3f 96 94 80 3f ac dd 7f 3f eb be 7e 3f
       1.0042554 1.0045345 0.9994762 0.9951007
000180 84 5a 80 3f 64 22 7f 3f e8 a2 7f 3f 14 03 81 3f
       1.0027623 0.9966185 0.9985795 1.0079064
000190 ab 2f 80 3f 32 42 7f 3f 5d 93 82 3f de f7 80 3f
       1.0014547 0.9971038 1.0201222 1.0075643
0001a0 94 e6 7f 3f 6f de 7f 3f bb 1b 80 3f 26 6c 80 3f
       0.9996121 0.9994878 1.0008463 1.0033004
0001b0 ca b2 80 3f f0 71 81 3f fd 05 80 3f 16 5c 80 3f
       1.0054562 1.0112896 1.0001827 1.0028102
0001c0 bd 23 80 3f 2d fa 7f 3f d4 cc 80 3f 46 07 80 3f
       1.0010906 0.9999111 1.0062509 1.000222
0001d0 81 bf 7e 3f 15 5f 80 3f 75 43 7f 3f f4 57 80 3f
       0.9951096 1.0029017 0.99712306 1.0026841
0001e0 d3 dd 7e 3f be d4 7f 3f 94 6c 80 3f 77 d8 7f 3f
       0.99557227 0.99933994 1.0033135 0.99939674
0001f0 fe 31 80 3f 33 0c 7c 3f 2f 04 81 3f b4 e3 7f 3f
       1.0015256 0.98456115 1.0079402 0.9995682

batch_norm_c2.bias f4 [128]
000000 7d 12 9f bb fb 4e 97 3a f7 54 53 bb e3 b1 bc 3a
       -0.004854499 0.0011543924 -0.0032246688 0.0014396276
000010 99 53 18 ba a5 a2 07 3b 16 35 f3 ba bc 15 cc ba
       -0.0005810797 0.002069631 -0.001855525 -0.0015570442
000020 a2 c5 eb b9 3c 23 20 3b f0 e5 db ba ec 7b b2 ba
       -0.0004496994 0.0024435064 -0.0016776901 -0.0013617254
000030 4b f4 a4 38 f6 e6 df 3a 5d 84 94 bb 39 e4 6b ba
       7.8656325e-05 0.0017082382 -0.0045323805 -0.00089985464
000040 1c 66 d0 3a 3d a6 a2 3a c0 f9 38 3b a6 bf 69 bb
       0.0015899572 0.0012409162 0.0028225034 -0.003566721
000050 ba 74 cb bb 49 89 00 bb 24 d4 a8 ba 37 16 c1 39
       -0.0062089832 -0.0019613078 -0.0012880606 0.0003682838
000060 8d 34 be 3a bc 32 d0 ba 3a d2 92 38 c5 5f 14 3a
       0.0014511511 -0.0015884261 7.00098e-05 0.0005660023
000070 15 c9 80 3b 86 07 36 39 1a 0a b4 3a cc 09 ac 3a
       0.003930221 0.00017359675 0.0013735921 0.0013125478
000080 cb 36 a0 bb 84 f5 cc b9 23 b5 84 ba 8d 27 2d ba
       -0.0048893443 -0.00039092836 -0.0010124784 -0.000660532
000090 79 a2 9f 39 78 81 a2 ba 46 02 4c 3a 6d ca d5 3a
       0.00030447895 -0.0012398204 0.0007782321 0.0016310938
0000a0 e7 90 5d 38 05 18 b4 3a a7 ad 77 b9 ad fe fa ba
       5.2825457e-05 0.0013740069 -0.00023620446 -0.0019149386
0000b0 de 84 c5 3a 2c 5a 20 ba 16 a8 ad b9 95 36 8c 3b
       0.0015069505 -0.0006116952 -0.00033122365 0.0042789676
0000c0 3b 34 ba 3a e5 bd f3 3a 62 7e b8 38 62 5a a3 bb
       0.001420624 0.0018596022 8.797344e-05 -0.0049851397
0000d0 50 1a 7e 3a 74 8d 97 3a 0f b6 7f 38 f5 3f a2 b9
       0.0009693252 0.0011562542 6.0966293e-05 -0.000309467
0000e0 25 62 ef ba d9 7f f7 bb 59 81 36 ba 7d e8 56 3a
       -0.0018263502 -0.0075530824 -0.00069620233 0.00081980956
0000f0 75 a7 a9 b9 6d 0c 2d 39 8d bf 13 ba ff c2 55 3b
       -0.00032358957 0.00016503195 -0.0005636148 0.0032617447
000100 0f 0a 3c bb 76 38 2d 3b a4 26 60 3b 0e d5 02 bc
       -0.0028692519 0.0026431358 0.003420272 -0.0079853665
000110 49 ff 58 3a f3 ff d8 3a 46 2d be 3a f3 1b 58 ba
       0.00082777865 0.0016555771 0.0014509342 -0.0008243911
000120 fb a0 62 3b 16 2b af 3a e6 7c c0 ba d7 77 10 3c
       0.0034580815 0.0013364281 -0.001468566 0.008817635
000130 24 04 4f 3a a9 8e d7 ba ce 98 d5 ba ab 0e 7d bb
       0.00078970403 -0.0016445714 -0.001629615 -0.003861348
000140 27 ef 42 bb 0e 3b f5 ba 10 9d fa b9 0a ea 2f ba
       -0.0029744597 -0.0018709616 -0.00047800737 -0.0006710595
000150 6c 72 78 3a ac 16 6a bb 8c cf 0c 3b 5f 6f dc bb
       0.00094774994 -0.003571908 0.0021486012 -0.0067271437
000160 28 98 02 39 b7 ef c3 3a ce ae 30 3a 8f b9 c4 ba
       0.00012454449 0.001494876 0.0006739915 -0.0015008914
000170 0d 95 aa 3b 61 42 81 bb 41 67 9e ba 9b 60 af 3a
       0.0052057565 -0.0039446806 -0.0012085215 0.0013380231
000180 52 55 58 bb 6a be 75 bb b5 f4 00 bb df 0e 30 3b
       -0.003300984 -0.0037497529 -0.0019677107 0.0026864333
000190 aa 28 ca ba c1 ec 31 bb cb a5 d1 3b b9 85 28 bb
       -0.0015423496 -0.0027149173 0.006397938 -0.002571447
0001a0 5c 10 fc 39 18 31 34 ba 8e 14 0e bb 89 25 6b bb
       0.00048077374 -0.00068737706 -0.0021679732 -0.0035880527
0001b0 33 83 27 3a 8d a0 8c ba a9 56 60 3b cf 83 9a 3b
       0.00063900946 -0.0010729 0.003423134 0.00471542
0001c0 46 43 e6 b9 83 da 13 ba 16 90 06 3a 66 c6 f7 3a
       -0.0004391914 -0.0005640166 0.0005133165 0.0018903732
0001d0 22 f3 47 3a 2b 54 8b bb 00 b3 e3 ba 38 a9 92 bb
       0.0007627477 -0.004251977 -0.0017372072 -0.004475739
0001e0 c7 21 74 3b f2 29 d6 ba 12 bf c4 bb fc ba 4f 39
       0.0037251578 -0.0016339405 -0.0060042227 0.00019810715
0001f0 3f db 96 3a 43 58 ab b9 a3 21 52 bb 95 23 a7 ba
       0.0011509432 -0.00032681422 -0.0032063506 -0.0012751693

batch_norm_c2.running_mean f4 [128]
000000 15 38 39 3e be f6 5c 3e 87 34 64 3e 54 c1 87 3e
       0.180878 0.215785 0.22285663 0.26514685
000010 06 93 21 3e 52 59 48 3e cb 1c 15 3e a2 ee 4f 3e
       0.15778741 0.19565323 0.14561765 0.20305875
000020 5f d0 43 3e 4f 53 2f 3e 48 2c 6c 3e a0 23 6d 3e
       0.19122456 0.17121623 0.23063767 0.23158121
000030 02 d4 5c 3e 0e d4 78 3e 37 c5 8b 3e 4e f9 64 3e
       0.2156525 0.24299642 0.272989 0.22360727
000040 40 59 35 3e f9 dd 36 3e bb ed 40 3e 19 6c 59 3e
       0.17709827 0.17858113 0.18840687 0.21232642
000050 ef 9e 49 3e 52 f1 89 3e bc cb 4c 3e 37 cf 45 3e
       0.19689535 0.26941925 0.19999593 0.19317327
000060 cb 3c 50 3e 69 a2 5a 3e cb 88 5f 3e a6 5a 5c 3e
       0.2033569 0.21351017 0.21829526 0.21518955
000070 90 9d 37 3e 4a 3d 1c 3e 7f 95 70 3e db f6 44 3e
       0.17931199 0.15257755 0.23494528 0.19234793
000080 17 d6 1d 3e da 41 33 3e 0c af 11 3e 15 ff 57 3e
       0.154137 0.17505589 0.14226931 0.210934
000090 6d 24 7b 3e 6b 74 8d 3e bc 8c 4a 3e 4b d6 4c 3e
       0.24525614 0.27627882 0.19780248 0.20003621
0000a0 db d0 8a 3e 0d a3 65 3e 55 fd 8b 3e d7 a9 72 3e
       0.2711247 0.2242548 0.27341715 0.23697601
0000b0 28 8a 62 3e d3 66 8d 3e 3c c2 5e 3e 0d 23 54 3e
       0.22123015 0.2761751 0.21753782 0.20716496
0000c0 e9 7d 80 3e 7f 45 7f 3e cd fb 3e 3e 98 ed 5c 3e
       0.25096062 0.24928854 0.18650742 0.2157501
0000d0 2a fd 63 3e 35 ec 27 3e 7a 03 37 3e 2e 49 12 3e
       0.22264543 0.163987 0.1787242 0.14285728
0000e0 40 05 57 3e b0 38 4a 3e a0 59 47 3e a8 7c df 3d
       0.20998096 0.19748187 0.19467783 0.10912448
0000f0 e6 3d 6c 3e 83 68 85 3e 20 ca 48 3e ac 87 5b 3e
       0.23070487 0.260563 0.19608355 0.21438473
000100 b9 3f 55 3e 2a 3d 36 3e 6b cb 50 3e bd 69 06 3e
       0.2082509 0.1779677 0.20390098 0.13126273
000110 a3 67 95 3e 72 cd 65 3e 81 a9 20 3e f6 c4 66 3e
       0.2918063 0.22441652 0.1568966 0.22536072
000120 ad 7f 48 3e f5 cf 52 3e 68 5b 8d 3e 2d 95 58 3e
       0.19579954 0.20587142 0.276088 0.21150656
000130 22 7f 4a 3e 71 44 3c 3e d2 cd 23 3e 60 ae 74 3e
       0.1977506 0.18385483 0.15996483 0.23894644
000140 24 2e 59 3e e7 8e 75 3e f2 d6 52 3e fb 21 50 3e
       0.21209008 0.23980294 0.20589808 0.20325463
000150 4d ba 3a 3e 40 9e 53 3e 06 59 7c 3e 92 6b 0d 3e
       0.1823513 0.20665836 0.24643335 0.13810566
000160 89 16 52 3e df d8 8a 3e 3b e3 84 3e 76 76 5e 3e
       0.20516409 0.27118585 0.25954613 0.21724877
000170 4f bd 85 3e 4d 05 87 3e 92 6b 71 3e 11 ae 22 3e
       0.26120993 0.26371232 0.23576191 0.15886714
000180 5a df 91 3e b2 4c 4e 3e bb b8 86 3e 83 ee 73 3e
       0.28490716 0.20146444 0.26312813 0.23821454
000190 a9 df 8c 3e 06 e4 3d 3e 75 10 4b 3e bc e8 ca 3d
       0.2751439 0.18544015 0.19830497 0.09907672
0001a0 ae 39 81 3e bb 83 81 3e dd 9d 80 3e 93 29 3e 3e
       0.2523932 0.25295815 0.2512044 0.18570547
0001b0 69 70 7a 3e 71 2f 44 3e 57 a6 4c 3e 72 cf 6b 3e
       0.24456944 0.19158722 0.19985329 0.23028353
0001c0 f9 72 29 3e d9 0e 92 3e fd 1f 1b 3e 93 5e 4f 3e
       0.16547765 0.28526953 0.15148921 0.20250921
0001d0 62 ff 8b 3e eb ba 84 3e ff 2d 8d 3e 3c 91 10 3e
       0.2734328 0.25923857 0.27574155 0.14117903
0001e0 c5 3e fb 3d b6 4f 19 3e d4 a1 48 3e 3c 9d 59 3e
       0.12267832 0.14971814 0.19592983 0.21251386
0001f0 9f e9 0f 3e ff ee 33 3e 57 34 28 3e 8c 54 59 3e
       0.14053963 0.17571639 0.16426216 0.21223658

batch_norm_c2.running_var f4 [128]
000000 d8 70 48 3d 22 85 96 3d 65 3a 5e 3d 6b 0f 8c 3d
       0.04893574 0.07349612 0.054254908 0.06838878
000010 70 87 8a 3c 2f f9 f4 3c c6 cd 60 3d bf cc 16 3d
       0.016910285 0.029903976 0.05488374 0.036816355
000020 07 ac 13 3d 0f 15 90 3d 9f 8d 76 3d f5 fe 88 3d
       0.03605273 0.070352666 0.060193654 0.06689254
000030 b0 6a 73 3d 07 6f 8a 3d 7f 40 ee 3d 40 6f 5e 3d
       0.059427917 0.06759458 0.116333954 0.054305315
000040 c7 be 53 3d 79 fb 75 3d 3d 41 90 3d 52 00 21 3d
       0.05169561 0.060054276 0.07043693 0.039306946
000050 e5 df b2 3d 80 3c bd 3d f6 4e 19 3d 40 90 43 3d
       0.08734111 0.09240055 0.03742882 0.04774499
000060 a4 f7 21 3d c0 35 72 3d 95 c2 e2 3d a1 18 8b 3d
       0.03954281 0.05913329 0.1107227 0.06791807
000070 73 31 87 3d fa 4e c3 3c f5 41 44 3d 5b b0 1f 3d
       0.066012286 0.02384137 0.047914464 0.038986545
000080 3f 15 1c 3d 9b d3 04 3d c2 31 73 3c e9 8d a4 3d
       0.0381062 0.032428365 0.014843406 0.0803488
000090 06 c9 55 3d 42 ee bf 3d 1e ab 71 3d 68 c3 76 3d
       0.052193664 0.09371616 0.05900108 0.060244948
0000a0 69 d8 9f 3d 49 4f 7b 3d ab a0 d1 3d 5f 42 d8 3d
       0.07804949 0.06135491 0.10235723 0.10559534
0000b0 44 7c 19 3d 76 ab df 3d fd b5 33 3d f1 34 a3 3d
       0.037472025 0.109213755 0.04387473 0.07969082
0000c0 9b 12 9d 3d d9 85 9c 3d d7 e0 5d 3d 2f ab 47 3d
       0.07669564 0.07642717 0.054169502 0.048747238
0000d0 9f 12 8d 3d 5e c4 80 3d 40 5a f0 3c ca 7f a2 3c
       0.06888317 0.06287454 0.02933991 0.019836325
0000e0 4f 31 30 3d 5b 0e 6b 3d db 5e 3c 3d 48 73 c3 3c
       0.043015774 0.057386737 0.0459889 0.023858681
0000f0 52 f5 8c 3d 22 cd c7 3d 8c ca b5 3d a9 49 f4 3d
       0.06882729 0.09755923 0.088765234 0.11928112
000100 b5 ed 31 3d 4f f0 8b 3d b8 88 52 3d 90 bd a0 3c
       0.043439586 0.068329446 0.051399916 0.01962164
000110 86 6d 0d 3e d9 a5 81 3d 37 76 be 3c ed 1d 82 3d
       0.13811311 0.06330461 0.023249729 0.06353364
000120 d6 da 83 3d a5 21 27 3d 1f 34 a9 3d 04 65 67 3d
       0.06438224 0.04080357 0.082618944 0.05649282
000130 f0 44 62 3d 31 c6 22 3d 17 b5 1b 3d fa 02 88 3d
       0.055241525 0.03973979 0.038014498 0.06641193
000140 3d d4 ba 3d 94 33 93 3d 5c d9 5d 3d d9 32 12 3d
       0.091225125 0.07187572 0.05416237 0.035693023
000150 2d 70 11 3d 29 76 57 3d 51 04 5f 3d c9 5c 6f 3c
       0.03550737 0.05260292 0.054447476 0.014609524
000160 f4 8b 7d 3d 66 d7 1c 3e eb b1 f2 3d 23 87 2a 3d
       0.061901048 0.15316543 0.118503414 0.041632783
000170 ea d8 df 3d 5d 78 91 3d bc e0 29 3d 7a 20 18 3d
       0.10930045 0.071030356 0.04147409 0.037140347
000180 b3 d5 b5 3d 77 75 e6 3c 71 d4 9a 3d e2 05 95 3d
       0.088786505 0.028132183 0.07560051 0.07276513
000190 05 a1 e2 3d 9b e6 03 3d 2f 1f 0b 3d 66 0d 09 3c
       0.11065868 0.032202344 0.033965286 0.008365011
0001a0 16 71 50 3d fb 05 95 3d 4c 76 7d 3d 8c c7 66 3d
       0.050889097 0.07276531 0.061880395 0.056342646
0001b0 c5 d9 83 3d c4 3b 5f 3d 33 87 80 3d b7 21 3f 3d
       0.064380206 0.054500356 0.06275787 0.046663012
0001c0 82 2a 1c 3d ab 87 9c 3d a5 47 ae 3c 3b 8d 5e 3d
       0.038126476 0.07643064 0.021274397 0.054333907
0001d0 a8 b2 8e 3d ea ad 92 3d 75 07 d2 3d 4f 86 01 3d
       0.0696767 0.07162078 0.102553286 0.031622227
0001e0 5f 49 9b 3c 65 59 9e 3c d6 7e 58 3d eb 5a 82 3d
       0.018955885 0.019329736 0.052855335 0.063649975
0001f0 95 9d e6 3c 5b 92 3f 3d 1d 7a 20 3d 6a f4 8b 3d
       0.028151313 0.046770435 0.039178956 0.06833728
