lightning_logs/version_2/checkpoints/epoch=21-step=132.ckpt (torch, 678745 bytes, 50 tensors)

batch_norm1.weight f4 [40]
0	0x3f7c6ed5	0.98606616
1	0x3f8440a4	1.0332227
2	0x3f7f270f	0.99668974
3	0x3f7e798a	0.99404204
4	0x3f7c5404	0.985657
5	0x3f7db896	0.9910978
6	0x3f7ba279	0.9829479
7	0x3f802412	1.0011008
8	0x3f7ec32a	0.99516547
9	0x3f7d5edc	0.9897287
10	0x3f7ce2e2	0.98783696
11	0x3f7d1860	0.9886532
12	0x3f7c68a0	0.98597145
13	0x3f7edd95	0.9955686
14	0x3f7d9d91	0.9906855
15	0x3f7d6b78	0.9899211
16	0x3f7f004e	0.9960984
17	0x3f7e0751	0.99229914
18	0x3f83388f	1.0251635
19	0x3f86e321	1.0538064
20	0x3f923af8	1.1424246
21	0x3f7ced7a	0.9879986
22	0x3f800fe5	1.0004851
23	0x3f7da02f	0.99072546
24	0x3f7c7718	0.9861922
25	0x3f7d47ca	0.98937666
26	0x3f7fd4b6	0.99933946
27	0x3f7e1a03	0.9925844
28	0x3f7ed5fd	0.9954527
29	0x3f7e35b7	0.9930071
30	0x3f7d45c6	0.9893459
31	0x3f7bc117	0.98341507
32	0x3f7c5a9b	0.9857575
33	0x3f7e4990	0.99331
34	0x3f7f3480	0.99689484
35	0x3f81acac	1.013082
36	0x3f7fa1b2	0.998561
37	0x3f804e34	1.0023866
38	0x3f7d400c	0.9892585
39	0x3f7c858c	0.98641276

batch_norm1.bias f4 [40]
0	0x3c038748	0.008027859
1	0xbc33d53d	-0.010976133
2	0xbc366c9c	-0.011134293
3	0xbb4ab79b	-0.0030932191
4	0x3a22d433	0.000621143
5	0xbb54d46c	-0.0032475246
6	0xbb075863	-0.0020652048
7	0xbb8ef9ca	-0.0043632733
8	0x3c15149c	0.009099152
9	0x3b9b63bc	0.004742114
10	0xbb67ba35	-0.003535879
11	0x3a011fb5	0.0004925684
12	0x3b9d6984	0.004803838
13	0x3a5c07e9	0.00083935127
14	0xbb1a4f16	-0.0023545674
15	0x3b0fbe31	0.0021933431
16	0xbaa1f476	-0.001235618
17	0xba908def	-0.0011028628
18	0xbace8d6e	-0.0015758702
19	0x3c9b5326	0.018960547
20	0x3d88f4df	0.066873305
21	0x3ba48160	0.0050203055
22	0x3b4700da	0.0030365498
23	0x39970e89	0.00028811794
24	0x3b204393	0.002445434
25	0x39082a49	0.00012985723
26	0xbbbac0de	-0.005699261
27	0x3b12bb5e	0.0022389512
28	0xb9a9d633	-0.00032393783
29	0xba500752	-0.0007935661
30	0xbb933e5e	-0.0044935187
31	0x3b9fc42f	0.004875682
32	0x3c1cd70c	0.009572756
33	0xbb8bd65a	-0.004267496
34	0x3b32f946	0.0027309223
35	0xbb347b69	-0.0027539378
36	0xbba0b62f	-0.0049045305
37	0x3ab55ab2	0.0013836233
38	0xbaa9a12e	-0.0012941712
39	0x3b3e612b	0.0029049616

batch_norm1.running_mean f4 [40]
0	0x3fc04348	1.5020533
1	0x42726b0f	60.60455
2	0x40b03a55	5.5071206
3	0x401541d4	2.3321428
4	0x40108c47	2.2585618
5	0x3ff59990	1.9187489
6	0x4032ccd0	2.7937508
7	0x4004d2c6	2.0753646
8	0x4019393e	2.3941188
9	0x400a4215	2.1602833
10	0x404005a9	3.0003455
11	0x403f2573	2.9866607
12	0x40298693	2.6488388
13	0x3fa7d1ea	1.3110936
14	0x405a13c4	3.4074564
15	0x406c30c8	3.6904774
16	0x405a09fb	3.4068592
17	0x4024a059	2.5722868
18	0x3f853dce	1.0409486
19	0x3ff669d1	1.9251043
20	0x401a85d4	2.4144182
21	0x40b4192d	5.628073
22	0x3f8df28a	1.1089642
23	0x3fcaaee1	1.5834619
24	0x40125eb9	2.2870314
25	0x404716b7	3.1107614
26	0x3f9314ab	1.1490682
27	0x4043e330	3.0607414
28	0x40379d70	2.8689842
29	0x404995b2	3.1497617
30	0x4049ab9e	3.1510997
31	0x409f54e0	4.9791107
32	0x4040107d	3.0010064
33	0x3fa58599	1.2931396
34	0x4139b517	11.606711
35	0x410d9821	8.849641
36	0x4128ea9e	10.55728
37	0x40a3724f	5.1077037
38	0x43823b35	260.46255
39	0x439611af	300.13815

batch_norm1.running_var f4 [40]
0	0x3e800cf0	0.2500987
1	0x4429c632	679.0968
2	0x3f0e1fef	0.55517477
3	0x3fa9b92b	1.3259634
4	0x4047b4e6	3.1204162
5	0x402c2717	2.6898859
6	0x405c0541	3.4378207
7	0x403a58de	2.911674
8	0x405e6fd8	3.4755764
9	0x404270af	3.0381277
10	0x405a9790	3.4155006
11	0x405ce444	3.4514322
12	0x40809d25	4.0191827
13	0x3e5b7f80	0.21435356
14	0x40a932ae	5.2874365
15	0x409ec4ed	4.961539
16	0x40b042ea	5.508168
17	0x4002ae9e	2.0419078
18	0x3df9048c	0.121590704
19	0x3f765060	0.9621639
20	0x3f68f2bb	0.9099538
21	0x3f99b242	1.2007525
22	0x3f017082	0.505623
23	0x3ff11f7a	1.8837731
24	0x403576a3	2.835366
25	0x40c19ae9	6.05016
26	0x3f0ec014	0.5576184
27	0x405c9de9	3.447138
28	0x40688091	3.632847
29	0x405845f8	3.3792706
30	0x40590065	3.390649
31	0x4060b1da	3.5108552
32	0x4050c60a	3.2620873
33	0x3f0931d4	0.53591657
34	0x4408a301	546.54694
35	0x433098ca	176.59683
36	0x4412e087	587.50824
37	0x42e19a34	112.80118
38	0x470706b2	34566.695
39	0x472521f0	42273.938

dense1.weight_g f4 [1024, 1]
0	0x3efa4dc0	0.48887444
1	0x3f0d94d7	0.55305237
2	0x3f1198e3	0.5687391
3	0x3f26baa6	0.6512855
4	0x3f0ffd8d	0.5624626
5	0x3efdbe95	0.49559465
6	0x3f13da85	0.5775531
7	0x3f15b21a	0.58474886
8	0x3f166e0b	0.5876166
9	0x3f0f64cb	0.5601317
10	0x3f238a29	0.6388269
11	0x3f00b63d	0.50278074
12	0x3f32368a	0.6961447
13	0x3f14e927	0.5816826
14	0x3f0836e4	0.53208756
15	0x3f0eb2c6	0.55741537
16	0x3f0da480	0.5532913
17	0x3f201a54	0.62540174
18	0x3f0ee3ab	0.55816144
19	0x3f0cbcb3	0.5497543
20	0x3f1be013	0.60888785
21	0x3f123355	0.57109576
22	0x3f1561e0	0.5835247
23	0x3f15e761	0.5855618
24	0x3f1302bf	0.57426065
25	0x3f0b9c00	0.5453491
26	0x3f0fd2ee	0.5618123
27	0x3f1af575	0.6053079
28	0x3f1aa1bd	0.60403043
29	0x3f0e3760	0.55553246
30	0x3f1bbe44	0.608372
31	0x3f1002dc	0.56254363
32	0x3f115e1c	0.56784225
33	0x3f209ea0	0.6274204
34	0x3f17043d	0.5899084
35	0x3f1880e9	0.595717
36	0x3f0e6edd	0.55637914
37	0x3f16fc22	0.58978474
38	0x3f1deba3	0.6168768
39	0x3f15d39d	0.5852602
40	0x3f12f58f	0.5740594
41	0x3f12a046	0.5727581
42	0x3f1620a1	0.5864354
43	0x3f0acd14	0.54219174
44	0x3f19fd21	0.6015187
45	0x3f16c988	0.5890126
46	0x3f1361c1	0.57571036
47	0x3f1953c6	0.59893453
48	0x3f1b15b9	0.6058002
49	0x3f0c13f5	0.5471795
50	0x3f10a32b	0.56498975
51	0x3f2002dd	0.6250437
52	0x3f16b06e	0.5886296
53	0x3f182542	0.5943185
54	0x3f1331f8	0.5749812
55	0x3ef7c1bf	0.48390004
56	0x3f1a7462	0.60333836
57	0x3f14fef3	0.5820152
58	0x3f165c25	0.5873435
59	0x3f170b4d	0.5900162
60	0x3f02e713	0.5113384
61	0x3f0fd845	0.56189376
62	0x3f15cdbe	0.5851706
63	0x3f16b260	0.5886593
64	0x3f132b42	0.5748788
65	0x3f1495e7	0.5804123
66	0x3f1fb173	0.6238014
67	0x3f0f4d2b	0.55977124
68	0x3f10e82a	0.56604254
69	0x3f215030	0.6301298
70	0x3f082770	0.53185177
71	0x3f126bd6	0.57195795
72	0x3f04b52f	0.51838964
73	0x3f0764ff	0.5288848
74	0x3f095809	0.53649956
75	0x3f13e04d	0.5776413
76	0x3f142361	0.57866484
77	0x3f05685e	0.52112377
78	0x3f144b6e	0.57927597
79	0x3f17a73a	0.5923954
80	0x3f162a11	0.5865794
81	0x3f21bea5	0.63181525
82	0x3f13cd25	0.577349
83	0x3f008a63	0.5021116
84	0x3f13d3f2	0.5774528
85	0x3f198afc	0.599777
86	0x3f0bd465	0.54620963
87	0x3f15c5ad	0.58504754
88	0x3f1c9dec	0.6117847
89	0x3f05b5d3	0.52230567
90	0x3f055af6	0.5209192
91	0x3f21564f	0.6302232
92	0x3f19356d	0.59847146
93	0x3f239244	0.6389506
94	0x3f17f123	0.5935232
95	0x3f13d35b	0.5774438
96	0x3f25c370	0.6475134
97	0x3f107980	0.56435394
98	0x3f0c3b7c	0.54778266
99	0x3f0f85b2	0.5606338
100	0x3f0e641d	0.5562151
101	0x3ef89670	0.48552275
102	0x3f112663	0.566992
103	0x3f07ad2a	0.529986
104	0x3f1b4d8b	0.60665196
105	0x3f1931c8	0.59841585
106	0x3f233115	0.6374677
107	0x3f073c17	0.52826065
108	0x3f04ea32	0.51919854
109	0x3f1ea3b1	0.61968523
110	0x3f202b91	0.6256648
111	0x3f13481e	0.5753192
112	0x3f2da970	0.67836666
113	0x3f1761f0	0.59133816
114	0x3f06af08	0.52610826
115	0x3f1a4c27	0.6027245
116	0x3f1c0418	0.60943747
117	0x3f090882	0.53528607
118	0x3f1ec7d1	0.62023646
119	0x3f140925	0.57826453
120	0x3f01b297	0.5066313
121	0x3f1206d8	0.5704169
122	0x3f1cbd0d	0.6122597
123	0x3f0dbf48	0.5537
124	0x3f1f1762	0.62145054
125	0x3f19a615	0.60019046
126	0x3f178dfa	0.59201014
127	0x3f07bb3b	0.53020066
128	0x3f0b4e9e	0.54416835
129	0x3f07cadf	0.5304393
130	0x3f1d8db4	0.61544347
131	0x3f0e9787	0.5569996
132	0x3f160a97	0.5860991
133	0x3f140c97	0.5783171
134	0x3f0dc4e6	0.5537857
135	0x3f0f6d3d	0.5602606
136	0x3f1452e4	0.5793898
137	0x3f14a58f	0.5806512
138	0x3eff2d9c	0.49839485
139	0x3f0949cb	0.53628224
140	0x3f1c3c2f	0.6102933
141	0x3f1a3471	0.6023627
142	0x3f01c6a2	0.50693715
143	0x3f12ae94	0.57297635
144	0x3f16d99a	0.58925784
145	0x3f03edd8	0.51534796
146	0x3f178802	0.59191906
147	0x3f12ff09	0.574204
148	0x3f1b9ac0	0.60783005
149	0x3f205c8c	0.62641215
150	0x3f20e612	0.6285106
151	0x3f0a41e1	0.54006773
152	0x3f212c2c	0.62958026
153	0x3f21d62b	0.6321742
154	0x3f15eb5d	0.5856226
155	0x3f0ef489	0.5584188
156	0x3f0e22a9	0.5552164
157	0x3f173f80	0.5908127
158	0x3f0d8fdb	0.5529763
159	0x3ee87c7f	0.45407483
160	0x3f0fc193	0.56154746
161	0x3f020ed6	0.5080389
162	0x3f0da652	0.5533191
163	0x3f08cb3a	0.534351
164	0x3f11d73a	0.56969035
165	0x3f180f72	0.5939857
166	0x3f176d69	0.5915132
167	0x3f1e8a4f	0.6192979
168	0x3f09edcb	0.5387847
169	0x3f1eff99	0.6210876
170	0x3f19060f	0.5977487
171	0x3f1aac63	0.6041929
172	0x3f095537	0.5364565
173	0x3f132325	0.574755
174	0x3f128a97	0.5724272
175	0x3f0b7dba	0.5448872
176	0x3f220fd7	0.6330542
177	0x3f064856	0.52454126
178	0x3f2af845	0.6678508
179	0x3f0c6329	0.54838806
180	0x3f162096	0.5864347
181	0x3f095ab0	0.53654003
182	0x3f257eeb	0.64646786
183	0x3f15a40e	0.5845345
184	0x3f1741f7	0.5908503
185	0x3f0aab60	0.5416775
186	0x3f10dbc9	0.56585366
187	0x3f0bbba3	0.54583186
188	0x3f13a5c7	0.5767483
189	0x3f16c572	0.5889503
190	0x3f272983	0.65297717
191	0x3f143056	0.57886255
192	0x3f022838	0.5084262
193	0x3f0f61c3	0.5600855
194	0x3f149d2a	0.58052313
195	0x3f10500a	0.5637213
196	0x3f0cb91e	0.54969966
197	0x3f1cf598	0.61312246
198	0x3f11f386	0.5701221
199	0x3f0f0ad1	0.5587588
200	0x3f282779	0.6568523
201	0x3f1393e4	0.5764754
202	0x3f14c254	0.5810902
203	0x3f005808	0.50134325
204	0x3f0ffcff	0.56245416
205	0x3f1f09e0	0.62124443
206	0x3f09af84	0.5378344
207	0x3f058d33	0.5216858
208	0x3f118b74	0.56853414
209	0x3f12758b	0.57210606
210	0x3f11cd2c	0.5695369
211	0x3f13ef31	0.5778685
212	0x3f13018b	0.5742423
213	0x3f037e55	0.5136464
214	0x3f11d3c3	0.5696375
215	0x3efc294e	0.49250263
216	0x3f1ae42f	0.6050443
217	0x3f0fd7cc	0.56188655
218	0x3f171dc7	0.5902981
219	0x3f154b2b	0.5831782
220	0x3f1e9e27	0.6196007
221	0x3f0b61e4	0.54446244
222	0x3f10a51f	0.56501955
223	0x3f185f9e	0.595209
224	0x3f043087	0.51636547
225	0x3f1d9fdf	0.6157207
226	0x3f196ff3	0.59936446
227	0x3f19d6ca	0.6009337
228	0x3f247815	0.6424573
229	0x3f0c0522	0.5469533
230	0x3f09b22c	0.53787494
231	0x3f09c9db	0.5382363
232	0x3f1c1fe7	0.6098618
233	0x3f0f5697	0.559915
234	0x3f17350a	0.59065306
235	0x3f199b49	0.6000257
236	0x3f10307c	0.5632398
237	0x3f0c5807	0.5482182
238	0x3f198c29	0.5997949
239	0x3efe0c96	0.49618977
240	0x3f181752	0.59410584
241	0x3f183759	0.59459454
242	0x3f1bacbe	0.6081046
243	0x3f0ae7c3	0.5425989
244	0x3f0c74bd	0.5486563
245	0x3f15e79b	0.58556527
246	0x3f1f8e79	0.6232677
247	0x3f13d772	0.5775062
248	0x3efad9d4	0.48994315
249	0x3f022775	0.50841457
250	0x3f16b85b	0.58875054
251	0x3f1209b7	0.57046074
252	0x3f1370c9	0.5759397
253	0x3ef963e1	0.48709014
254	0x3f171acf	0.5902528
255	0x3f0cb281	0.54959875

dense1.weight_v f4 [1024, 40]
0	0x3d0ee065	0.034881968
1	0xbd27248a	-0.04080633
2	0x3d36a676	0.044592343
3	0xbc177e44	-0.009246413
4	0x3d87fc24	0.06639889
5	0x3d12c89c	0.035835847
6	0xbc9cf986	-0.01916195
7	0xbe01fef0	-0.12694907
8	0x3d1175a1	0.03551257
9	0xbe0f753d	-0.14009567
10	0x3ca064f1	0.019579383
11	0x3c1a4b2a	0.009417335
12	0xbd118f8e	-0.035537295
13	0x3e034970	0.12820983
14	0x3c2be5c9	0.010491797
15	0x3d84d2ea	0.06485541
16	0x3d891006	0.06692509
17	0xbdbf64f4	-0.09345427
18	0xbd7e638a	-0.062106647
19	0x3e19d8cb	0.15024106
20	0xbe1d87d9	-0.15383853
21	0xbc41c1b4	-0.011825968
22	0xbc439fc3	-0.011939946
23	0x3de46d7b	0.11153694
24	0xbc751748	-0.014959164
25	0x3d2bfbf4	0.041988328
26	0xbbd90172	-0.0066224867
27	0xbdb7640d	-0.0895463
28	0xbdb9c0b3	-0.090699576
29	0xbda01e10	-0.07818234
30	0xbe12bc6f	-0.14329694
31	0xbdd4e0d8	-0.10394448
32	0x3d18ac36	0.03727361
33	0x3dd5126d	0.10403905
34	0x3c1bde1e	0.009513406
35	0xbd9505b5	-0.07276479
36	0x3d939816	0.072067425
37	0xbd7b4eac	-0.061354324
38	0xbd121a5f	-0.03566968
39	0xbdb258d7	-0.08708351
40	0xbd4f662a	-0.05063454
41	0xbe18c4ed	-0.14918871
42	0x3d8c1c76	0.06841366
43	0x3d751af5	0.05984016
44	0x3ceea0c4	0.029129393
45	0x3d9b4596	0.07581632
46	0x3d87a983	0.06624129
47	0x3bd3ac8f	0.0064597796
48	0x3c813dbb	0.015776506
49	0x3c2a009a	0.01037612
50	0x3da98a44	0.08278325
51	0x3dd68a79	0.1047563
52	0x3de616fc	0.11234853
53	0x3dbb41a0	0.09143376
54	0xbd21f568	-0.03954068
55	0xbbf5bafd	-0.0074990974
56	0xbd033847	-0.032036092
57	0x3db7a449	0.08966882
58	0x3c922b6c	0.01784297
59	0x3e155645	0.1458369
60	0x3d9ef5f6	0.07761757
61	0xbe0c4ade	-0.13700435
62	0x3d3c9576	0.046040975
63	0x3e1c65ad	0.15273161
64	0x3e0f5a90	0.1399939
65	0xbb5a9ee8	-0.0033358876
66	0x3d545dc2	0.051847227
67	0xbe1a255f	-0.15053318
68	0xbd54ac10	-0.051921904
69	0x3d9a2728	0.07527
70	0xbe14878c	-0.14504832
71	0x3e0ddcec	0.13853806
72	0xbdd42425	-0.103584565
73	0x3d511ffa	0.051055886
74	0xbbcaa74a	-0.006184493
75	0x3cdf1e90	0.027236253
76	0x3c719271	0.014744387
77	0xbe16c15e	-0.14722201
78	0xbd0eb647	-0.034841802
79	0xbdcdd0ce	-0.10049592
80	0x3e0a32d9	0.1349596
81	0xbca962cb	-0.020676991
82	0xbe224e48	-0.15850174
83	0x3d1d5831	0.038414184
84	0x3d8b7318	0.06809062
85	0xbd919ee4	-0.07110384
86	0xbc70a467	-0.014687634
87	0x3d899908	0.067186415
88	0xbdca32d1	-0.09872974
89	0xbdacca85	-0.08437065
90	0xbc83e98a	-0.016102571
91	0xbde4fd1e	-0.11181091
92	0x3dc58034	0.096435934
93	0x3c6a5bb9	0.014304095
94	0x3dc24b88	0.09487063
95	0x3dadaf28	0.08480674
96	0xbdf85d3c	-0.12127158
97	0xbdc9dee0	-0.09856963
98	0xbddce2cf	-0.10785448
99	0xbd54afcb	-0.05192546
100	0xbd6f6ee4	-0.058455363
101	0xbcd2a689	-0.025714176
102	0xbe1d0eab	-0.15337627
103	0x3d8ad65f	0.06779169
104	0x3db84840	0.089981556
105	0x3d4ca90b	0.0499659
106	0x3dce70e0	0.10080123
107	0x3df1127c	0.11771104
108	0xbe1ef11e	-0.15521666
109	0x3cc2cac4	0.023778327
110	0x3e14dca1	0.14537288
111	0xbde6bc1f	-0.1126635
112	0xbd8dc712	-0.06922735
113	0xbc09851d	-0.008393553
114	0xbdc9cd99	-0.09853668
115	0xbce72863	-0.0282175
116	0xbccaae17	-0.024741216
117	0x3e11f7f2	0.1425474
118	0xbc2c9dd1	-0.010535673
119	0x3daefb1b	0.08543988
120	0x3deea1c8	0.11651951
121	0x3d95b676	0.07310192
122	0xbe0e3185	-0.13886078
123	0x3df30921	0.118669756
124	0x3dd858b1	0.105637915
125	0xbde336c2	-0.110944286
126	0xbd611918	-0.054955572
127	0x3dda99bf	0.10673856
128	0xbe1ed3a3	-0.1551042
129	0xbe0e4e0e	-0.13896963
130	0xbdda601d	-0.106628634
131	0x3d4b5230	0.049638927
132	0xbd8374c4	-0.06418756
133	0xbe0f4121	-0.13989688
134	0x3d794a30	0.060861766
135	0x3da558fd	0.08073614
136	0x3d6f83b0	0.058475196
137	0xbe08ca6b	-0.13358466
138	0x3e1fb7cc	0.15597457
139	0xbc467cb9	-0.012114697
140	0xbe1e2e7c	-0.1544742
141	0xbcb02568	-0.021502212
142	0x3dd03fb4	0.101684004
143	0x3d94c59d	0.07264254
144	0xb9f221b8	-0.0004618296
145	0x3de232a0	0.11044812
146	0xbe13b3da	-0.14424077
147	0x3ddfb55c	0.109232634
148	0x3e20afc5	0.15692051
149	0xbdc1712f	-0.09445416
150	0x3d08d84b	0.033409398
151	0xbcb95a95	-0.0226262
152	0xbe08a304	-0.13343436
153	0xb8c7955d	-9.5168805e-05
154	0xbd5be7b4	-0.053687766
155	0xbe09197f	-0.13388632
156	0xbded762f	-0.11594807
157	0x3b9cc8d1	0.0047846814
158	0x3e150a39	0.14554681
159	0x3d651327	0.05592647
160	0xbdd5e3b8	-0.104438245
161	0x3de4c100	0.11169624
162	0x3c3f7e09	0.011687764
163	0xbe1df050	-0.15423703
164	0x3c151d7d	0.009101269
165	0x3dd58d7a	0.10427375
166	0xbdbcf372	-0.09226121
167	0xbc0d1cbc	-0.008612808
168	0xbda65bf4	-0.081230074
169	0xbdfd0d7a	-0.12356086
170	0xbdb69c1d	-0.08916495
171	0x3c8e5bc9	0.017377751
172	0x3dd00131	0.10156477
173	0xbce93ad4	-0.028470434
174	0xbe10e519	-0.14149894
175	0xba042d33	-0.00050421356
176	0xbe0e9237	-0.13922964
177	0x3c265139	0.010151201
178	0x3dfc5f23	0.123228334
179	0x3d8e3580	0.06943798
180	0xbdd49a68	-0.10381013
181	0xbd0a65e1	-0.033788566
182	0x3d8200da	0.06347819
183	0x3d2fd12d	0.042924095
184	0xbe149ed9	-0.1451372
185	0xbdb7cd29	-0.08974678
186	0xbd65c533	-0.056096267
187	0x3d6aa1b9	0.057283137
188	0x3e0f4876	0.13992485
189	0x3d92faf1	0.071767695
190	0x3d6f86ad	0.058478046
191	0xbe077547	-0.13228332
192	0x3dc686f1	0.09693707
193	0x3d6b319b	0.057420354
194	0xbd4f1545	-0.050557394
195	0xbd9ab55c	-0.07554123
196	0x3d38e194	0.045137003
197	0xbdada1d4	-0.08478132
198	0x3d81b21e	0.06332801
199	0x3df50747	0.11964279
200	0xbdd7e124	-0.10540989
201	0xbdc39940	-0.095507145
202	0xbd83959d	-0.06425021
203	0xbe0bea5f	-0.13663624
204	0xbc8fd218	-0.017556235
205	0x3dd1a306	0.102361724
206	0x3d6f4f6a	0.058425345
207	0xbd55af47	-0.05216911
208	0xbcb25040	-0.021766782
209	0xbd8a55f9	-0.06754679
210	0xbe0273bc	-0.12739462
211	0xbd2e94d3	-0.0426224
212	0x3c2563a9	0.010094562
213	0xbda60124	-0.08105686
214	0xbdf49d68	-0.11944085
215	0x3d365354	0.04451306
216	0x3ca73de9	0.020415263
217	0xbd48809d	-0.04895078
218	0x3d400fc3	0.04689003
219	0x3e15311c	0.14569515
220	0xba73553c	-0.0009282415
221	0xbddf6d10	-0.10909474
222	0x3e15d3c3	0.14631562
223	0x3de8f37b	0.11374565
224	0xbc716ddc	-0.014735665
225	0xbd91837a	-0.07105155
226	0xbd89d148	-0.0672937
227	0x3e0cb30c	0.13740176
228	0x3da8a032	0.0823368
229	0xbda33c08	-0.079704344
230	0x3b971eaf	0.004611812
231	0x3d063580	0.032765865
232	0x3d1d4d4f	0.038403805
233	0xbc048d84	-0.008090381
234	0xbda9eec9	-0.08297498
235	0xbb9667ae	-0.0045899963
236	0xbd2eb4ac	-0.04265277
237	0xbd5934fe	-0.053029053
238	0xbd9f8afa	-0.077901796
239	0xbd9eed54	-0.077601105
240	0xbd9d309e	-0.076752886
241	0x3d843eb1	0.0645727
242	0xbe05dd3b	-0.13072674
243	0xbe1b2e13	-0.15154295
244	0x3e08cf27	0.13360272
245	0x3d704715	0.05866154
246	0x3db10fc0	0.08645582
247	0x3d87b117	0.06625574
248	0xbd815ed8	-0.06316918
249	0xbdc89841	-0.09794665
250	0xbddd45a1	-0.10804296
251	0xbc246ed9	-0.010036194
252	0x3d1d35c0	0.038381338
253	0xbe195c16	-0.14976534
254	0xbdf7c634	-0.12098351
255	0x3db3759b	0.08762666

batch_norm_c1.weight f4 [64]
0	0x3f800000	1.0
1	0x3f800000	1.0
2	0x3f7fffea	0.9999987
3	0x3f7ffffb	0.9999997
4	0x3f800005	1.0000006
5	0x3f800027	1.0000046
6	0x3f800000	1.0
7	0x3f800000	1.0
8	0x3f7fffc5	0.9999965
9	0x3f800000	1.0
10	0x3f7fffdc	0.99999785
11	0x3f800000	1.0
12	0x3f800000	1.0
13	0x3f800000	1.0
14	0x3f800000	1.0
15	0x3f7ffff8	0.9999995
16	0x3f800000	1.0
17	0x3f7ffffb	0.9999997
18	0x3f7fffff	0.99999994
19	0x3f800000	1.0
20	0x3f7fffee	0.9999989
21	0x3f800000	1.0
22	0x3f7fffe8	0.99999857
23	0x3f7ffffc	0.99999976
24	0x3f800000	1.0
25	0x3f800000	1.0
26	0x3f800000	1.0
27	0x3f7fffef	0.999999
28	0x3f800014	1.0000024
29	0x3f800002	1.0000002
30	0x3f7fffdd	0.9999979
31	0x3f7fffa0	0.9999943
32	0x3f800000	1.0
33	0x3f800001	1.0000001
34	0x3f7fffd0	0.99999714
35	0x3f800000	1.0
36	0x3f7fffbe	0.99999607
37	0x3f7fff6b	0.9999911
38	0x3f7ffffd	0.9999998
39	0x3f7fffff	0.99999994
40	0x3f800000	1.0
41	0x3f800000	1.0
42	0x3f800000	1.0
43	0x3f800006	1.0000007
44	0x3f7fff10	0.9999857
45	0x3f7fffff	0.99999994
46	0x3f800000	1.0
47	0x3f800000	1.0
48	0x3f7ffffc	0.99999976
49	0x3f800000	1.0
50	0x3f800000	1.0
51	0x3f7ffd53	0.9999592
52	0x3f7fffec	0.9999988
53	0x3f7fffd0	0.99999714
54	0x3f7fffd9	0.9999977
55	0x3f7ffffc	0.99999976
56	0x3f800000	1.0
57	0x3f800000	1.0
58	0x3f7ffff9	0.9999996
59	0x3f800000	1.0
60	0x3f7fffcf	0.9999971
61	0x3f800000	1.0
62	0x3f800000	1.0
63	0x3f7fffb2	0.99999535

batch_norm_c1.bias f4 [64]
0	0xb99374b9	-0.0002812499
1	0x3956f064	0.00020498183
2	0xba860e11	-0.0010227581
3	0x3ae050b8	0.00171139
4	0x3a638856	0.00086796784
5	0xba77aeca	-0.0009448348
6	0xb99ce32b	-0.00029923892
7	0xba44c643	-0.000750635
8	0xbb5e6a5b	-0.0033937905
9	0xba431f2d	-0.0007443305
10	0x3b41467e	0.002949148
11	0x3985cd5c	0.00025520741
12	0xba18ced5	-0.000582916
13	0x39eeb1bb	0.00045527317
14	0x3a02e864	0.00049937353
15	0xbadb6f7a	-0.0016741597
16	0x38957722	7.127064e-05
17	0x39f4bb88	0.00046679028
18	0xba90a267	-0.0011034728
19	0xba513073	-0.0007979937
20	0xbb098620	-0.0020984486
21	0x383eb26b	4.5465695e-05
22	0x3b3829fd	0.00281012
23	0x3a594afe	0.0008289068
24	0x398bebd6	0.00026687857
25	0xba3740eb	-0.00069905695
26	0xba0d4775	-0.0005389371
27	0x3a8475b1	0.0010105876
28	0x39f30af9	0.00046356747
29	0x3b116049	0.0022182635
30	0xbb1dce03	-0.0024079091
31	0x3b838abd	0.0040143416
32	0xb9a2c623	-0.0003104667
33	0x38a90217	8.058937e-05
34	0xbb4e8d7b	-0.0031517434
35	0x39d2b816	0.00040191476
36	0x3b58a04d	0.003305453
37	0xbb9f5324	-0.004862206
38	0x3ab5058f	0.0013810861
39	0xbab3a295	-0.001370507
40	0xb90163dd	-0.000123396
41	0xba04a453	-0.00050598866
42	0xb995e033	-0.00028586536
43	0xb993e3c9	-0.00028207738
44	0x3bc52a34	0.006016994
45	0x3a512d14	0.00079794344
46	0xb978a892	-0.0002371392
47	0xb90122df	-0.00012315389
48	0x36c735c0	5.9369195e-06
49	0x3ac672af	0.001514038
50	0xb8a61b4e	-7.920583e-05
51	0xbc2a555c	-0.010396328
52	0xbb0f5631	-0.0021871442
53	0x3b427f75	0.002967802
54	0xbb303e7d	-0.0026892715
55	0x3ad95276	0.0016580361
56	0x3a192355	0.00058417517
57	0xba9aaabc	-0.001180015
58	0xbab4b5c7	-0.0013787084
59	0x39f3dd50	0.00046513462
60	0xbb0c6d0c	-0.0021427302
61	0x39015cce	0.00012336971
62	0x3a74e3d9	0.0009341813
63	0x3b680802	0.0035405164

batch_norm_c1.running_mean f4 [64]
0	0x3dab444c	0.08362636
1	0x3dac8497	0.08423727
2	0x3db5dab2	0.088796034
3	0x3da10685	0.078625716
4	0x3da97d43	0.08275845
5	0x3db85662	0.09000851
6	0x3db4418e	0.08801566
7	0x3db44a10	0.08803189
8	0x3d9ac1ae	0.07556473
9	0x3db9f328	0.090795815
10	0x3d9fe77a	0.078078225
11	0x3dba9d32	0.09112014
12	0x3db23d67	0.08703118
13	0x3da8fee0	0.082517385
14	0x3da02eae	0.078214034
15	0x3da04ce8	0.07827169
16	0x3da09ffb	0.07843014
17	0x3da8dd1d	0.08245299
18	0x3da472e7	0.080297284
19	0x3dacd428	0.08438903
20	0x3db82525	0.0899146
21	0x3da6bc80	0.08141422
22	0x3da75c3e	0.08171891
23	0x3da5d904	0.08098033
24	0x3daa004f	0.0830084
25	0x3d92c09a	0.07165642
26	0x3d9a0b73	0.07521715
27	0x3dab176a	0.08354075
28	0x3d9955dc	0.074870795
29	0x3d9162bb	0.070989095
30	0x3db0fef5	0.08642379
31	0x3da80ff5	0.082061686
32	0x3db4912c	0.08816752
33	0x3da08393	0.07837596
34	0x3daefd82	0.085444465
35	0x3dabfb4e	0.08397542
36	0x3dac408d	0.084107496
37	0x3da8b8d2	0.08238377
38	0x3db38619	0.087658115
39	0x3dc5a02a	0.096496895
40	0x3daa6ba5	0.08321313
41	0x3dbf4031	0.093384154
42	0x3da492ff	0.0803585
43	0x3d980c0d	0.074241735
44	0x3d95773b	0.07298132
45	0x3dc0a45d	0.0940635
46	0x3dae3b8f	0.08507454
47	0x3dac5bd7	0.084159546
48	0x3db535ea	0.08848174
49	0x3da8dc97	0.08245199
50	0x3d9e96d0	0.07743609
51	0x3d9f20db	0.077699386
52	0x3da9aeac	0.08285269
53	0x3dafc6d5	0.08582846
54	0x3dae0d58	0.08498639
55	0x3da5c792	0.08094706
56	0x3daf38d8	0.08555764
57	0x3daa057d	0.08301828
58	0x3da6c14b	0.081423365
59	0x3da06201	0.07831193
60	0x3d9ed366	0.07755165
61	0x3da8af56	0.08236568
62	0x3db5bcc2	0.08873893
63	0x3daf6526	0.085642144

batch_norm_c1.running_var f4 [64]
0	0x3e9bc392	0.30422646
1	0x3ea06d6a	0.31333476
2	0x3ead93ba	0.3390177
3	0x3e9c8609	0.3057101
4	0x3ea787eb	0.32720885
5	0x3ea36e1f	0.31919953
6	0x3eaaf320	0.33388615
7	0x3eac1c5c	0.33615386
8	0x3e9000fa	0.28125745
9	0x3ea35372	0.318996
10	0x3e9dc600	0.30815125
11	0x3eafabdb	0.34310803
12	0x3ea0d16f	0.31409785
13	0x3eae9589	0.3409846
14	0x3e9ede49	0.31028965
15	0x3e9dafc3	0.30798158
16	0x3e9ab1d1	0.30213788
17	0x3eaae3a6	0.33376807
18	0x3e9c190d	0.30487862
19	0x3ea3ce64	0.319934
20	0x3ea5b7da	0.3236683
21	0x3ea31209	0.31849697
22	0x3ea2aa27	0.3177044
23	0x3ea1592d	0.31513348
24	0x3eaab804	0.33343518
25	0x3e912581	0.28348926
26	0x3e958cb9	0.29208925
27	0x3ea2bbfa	0.3178404
28	0x3e96ec89	0.29477337
29	0x3e90a7f1	0.2825313
30	0x3ea3aa64	0.31965935
31	0x3e9ea70e	0.30986828
32	0x3eab8e9a	0.33507234
33	0x3e9521e2	0.29127413
34	0x3ea2e37a	0.31814176
35	0x3e9a03f1	0.30081132
36	0x3e9d4370	0.30715513
37	0x3e9d352e	0.30704635
38	0x3ea73dfd	0.3266448
39	0x3ead0ea1	0.33800223
40	0x3ead6395	0.33865038
41	0x3eb7fd50	0.3593545
42	0x3e9325a6	0.2873966
43	0x3e8d5e7d	0.2761115
44	0x3e94d871	0.29071382
45	0x3eb63f73	0.35595283
46	0x3ea5b15e	0.32361883
47	0x3ea2215d	0.3166608
48	0x3ea4bbf5	0.3217465
49	0x3e9c2a7b	0.3050116
50	0x3e99020e	0.2988438
51	0x3e9ca4f7	0.30594608
52	0x3ea71892	0.32635933
53	0x3eab1e0a	0.33421355
54	0x3ea6b385	0.32558838
55	0x3eadfd26	0.339822
56	0x3ebd360c	0.36955297
57	0x3ea069f6	0.31330842
58	0x3ea3dad6	0.32002896
59	0x3e9bc69b	0.3042496
60	0x3ea57fa1	0.32323936
61	0x3ea4c4f7	0.32181522
62	0x3eaf9bc1	0.34298518
63	0x3ea26a92	0.31721932

conv1.weight_v f4 [128, 1, 5]
0	0x3e469b72	0.19395235
1	0x3e8eb2b1	0.27870706
2	0xbd8edee4	-0.06976107
3	0x3d89f21a	0.0673563
4	0xbea85f00	-0.3288498
5	0x3e6d3c5e	0.2316756
6	0x3e34a1b2	0.17639807
7	0x3e3ee59f	0.18642281
8	0xbea91411	-0.33023122
9	0xbe930c74	-0.28720438
10	0x3ed35ce9	0.41281822
11	0xbd8daa90	-0.06917298
12	0xbdd8a5a5	-0.10578469
13	0x3e42e6a5	0.19033296
14	0xbeb5b0df	-0.35486504
15	0x3e54bdd9	0.20775546
16	0xbe7b1251	-0.24518706
17	0xbe82e265	-0.2556335
18	0x3ee2985f	0.44256875
19	0xbe8e956a	-0.2784837
20	0xbe19ed3c	-0.15031904
21	0x3d172fca	0.03691081
22	0xbda26972	-0.07930268
23	0x3dda3669	0.10654909
24	0xbed34b2e	-0.41268295
25	0xbdcd064c	-0.10010967
26	0xbe702152	-0.2345021
27	0xbcbfb49b	-0.02340155
28	0x3e6cbd98	0.231192
29	0xbee4a0b0	-0.44653845
30	0xbde4a761	-0.111647375
31	0x3e35935c	0.17731994
32	0x3e6166ce	0.22011873
33	0x3e2bf8af	0.16794084
34	0x3e27ef69	0.16399921
35	0xbdf1a3c5	-0.11798815
36	0x3e6a2918	0.22867239
37	0xbebcaa2e	-0.36848587
38	0xbe68696d	-0.22696467
39	0xbe2d84b3	-0.16945152
40	0xbd4d22a4	-0.050081864
41	0xbe991b89	-0.2990382
42	0x3eb74ad5	0.3579928
43	0x3d0670f4	0.032822564
44	0xbe629046	-0.22125348
45	0xbd1f46c6	-0.038885854
46	0x3d341276	0.04396292
47	0x3e9c2703	0.30498514
48	0x3e1d4237	0.1535729
49	0x3e99da3a	0.30049306
50	0xbee1737f	-0.4403343
51	0xbe43a2f1	-0.19105126
52	0xbe1cd68a	-0.15316215
53	0x3e4838b8	0.19552886
54	0xbeafdc81	-0.3434792
55	0xbe4b5d52	-0.19859818
56	0x3c45d545	0.012074773
57	0xbebaf7b5	-0.3651711
58	0xbdd64850	-0.10463011
59	0xbedcdb60	-0.4313612
60	0x3e7839c0	0.2424078
61	0xbe942d88	-0.28940988
62	0xbeb27d1a	-0.3486107
63	0x3e3cf448	0.18452561
64	0x3e928854	0.28619635
65	0x3e377708	0.179165
66	0xbe83e76c	-0.25762498
67	0x3e83114a	0.25599128
68	0x3edb3bca	0.42819053
69	0xbeb9421c	-0.3618325
70	0x3e6a8a66	0.22904357
71	0xbe6c9f1d	-0.23107572
72	0xbec25462	-0.37955004
73	0x3ea0bf12	0.31395775
74	0x3ee32a0d	0.4436802
75	0x3ec8448b	0.39114794
76	0xbe504cf6	-0.20341858
77	0x3e8305ab	0.25590262
78	0x3dc3dd86	0.095637366
79	0xbed5e655	-0.41777292
80	0xbe120dba	-0.14263049
81	0xbea26c0c	-0.31723058
82	0xbe4b1a57	-0.19834267
83	0xbe3041eb	-0.17212646
84	0xbe26b122	-0.16278508
85	0xbd8e1768	-0.06938058
86	0x3e307ae7	0.17234384
87	0x3ed299d7	0.41132995
88	0x3d0dc27d	0.034609307
89	0xbe32157d	-0.1739101
90	0xbd670996	-0.056405626
91	0xbdadc00b	-0.08483895
92	0x3e82487b	0.25445923
93	0x3e8be443	0.27322587
94	0x3ea56eb0	0.3231101
95	0xbc739a97	-0.0148684
96	0xbe8ecdbd	-0.2789134
97	0x3e851844	0.25995076
98	0xbe576c54	-0.21037418
99	0x3eb633a0	0.35586262
100	0x3ee072eb	0.43837675
101	0x3e5d33ee	0.21601841
102	0x3e417a1d	0.18894239
103	0x3bd48282	0.0064852843
104	0xbe0c9565	-0.13728864
105	0x3ec7cf37	0.3902528
106	0x3e421855	0.18954594
107	0xbe26386d	-0.16232462
108	0xbecc4eb7	-0.39903805
109	0x3edb4132	0.42823178
110	0xbeb02cca	-0.3440917
111	0x3e736a9b	0.23771136
112	0xbe2e497f	-0.17020224
113	0xbd1de9f8	-0.038553208
114	0x3ea29e11	0.3176122
115	0xbd91cba8	-0.071189225
116	0x3ed3231e	0.4123773
117	0xbe16a5c6	-0.14711675
118	0xbe5a2ecb	-0.21306913
119	0x3e5c0d4c	0.21489447
120	0x3c8a2ecc	0.016868018
121	0xbeaef5a2	-0.34171778
122	0xbe109340	-0.14118671
123	0x3ebf69f9	0.37385538
124	0xbe1695db	-0.14705603
125	0x3e0ee85e	0.13955829
126	0x3e0d2022	0.13781789
127	0x3e8a56b6	0.2701928
128	0xbebc41dd	-0.36769
129	0xbe8faf10	-0.2806325
130	0x3da8aa4a	0.08235605
131	0x3ed937ce	0.42425388
132	0x3ead575b	0.3385571
133	0x3d6c3293	0.05766542
134	0xbe40bc23	-0.18821768
135	0x3ebbb7ae	0.36663574
136	0xbe82729d	-0.25478068
137	0xbe1f5660	-0.15560293
138	0x3eac8bfd	0.33700553
139	0x3e2d30b5	0.16913112
140	0xbe384657	-0.17995583
141	0x3ec29022	0.3800059
142	0x3e783f13	0.24242811
143	0x3d03a03c	0.032135233
144	0xbd10b00a	-0.035324134
145	0xbe0d21da	-0.13782445
146	0xbe9711de	-0.2950582
147	0x3e0b0549	0.13576235
148	0x3e064c2c	0.13114995
149	0xbe533521	-0.20625736
150	0xbe652f54	-0.22381335
151	0xbe83304d	-0.25622788
152	0x3eb1f0a0	0.34753895
153	0xbe8e0e48	-0.2774527
154	0xbea2e69e	-0.31816572
155	0x3e8dfbf3	0.27731284
156	0xbdf76cc8	-0.12081295
157	0x3df95aa0	0.121754885
158	0xbe8e4a1f	-0.27790925
159	0x3ea1af54	0.31579077
160	0xbe82ff6c	-0.25585496
161	0xbd6cc04c	-0.057800576
162	0xbd167d61	-0.036740664
163	0x3e976baa	0.2957433
164	0x3dfe019d	0.124026515
165	0xbd880f97	-0.066435985
166	0x3eace870	0.33771086
167	0xbe8c0bf3	-0.27352867
168	0x3e86e160	0.26343822
169	0x3d4c48c9	0.0498741
170	0x3e04585d	0.12924333
171	0xbe836d70	-0.25669432
172	0x3d79ec51	0.061016385
173	0xbe6e2327	-0.23255597
174	0xbd6d64fe	-0.05795764
175	0x3eb0cc28	0.3453076
176	0x3e8fe88e	0.28107113
177	0xbcbfd038	-0.023414716
178	0xbebdc35b	-0.37063107
179	0xbe11357f	-0.14180563
180	0x3e426bc9	0.1898643
181	0xbe98f886	-0.29877108
182	0xbeaafa5b	-0.3339413
183	0x3eb0ee3f	0.34556767
184	0xbe96bf12	-0.2944265
185	0x3eda642f	0.4265456
186	0xbed47014	-0.4149176
187	0xbe4c54c9	-0.19954218
188	0xbe51a7bb	-0.2047414
189	0xbecc50ae	-0.39905304
190	0x3e1c65bb	0.15273182
191	0xbe9dc7ce	-0.308165
192	0xbe807a32	-0.25093228
193	0x3e288816	0.16458163
194	0x3e96d282	0.2945748
195	0xbeb74b7b	-0.35799775
196	0xbe870476	-0.2637059
197	0x3da9ef7b	0.082976304
198	0x3e96578d	0.2936367
199	0x3da73e22	0.08166148
200	0xbd83430a	-0.06409271
201	0x3eca8ffd	0.3956298
202	0x3e9950df	0.29944512
203	0xbed40b8c	-0.4141506
204	0x3ebf5a7c	0.37373722
205	0x3e854249	0.26027134
206	0x3ebee0c7	0.37280867
207	0xbe2d98c7	-0.16952811
208	0x3ec2e3fa	0.38064557
209	0xbe3def21	-0.18548252
210	0x3edd5d62	0.43235308
211	0xbeb8e408	-0.36111474
212	0xbe0477ef	-0.12936376
213	0x3ee45bb7	0.44601223
214	0x3e114b1f	0.14188813
215	0xbdeebb0a	-0.116567686
216	0x3e1f0c07	0.15531932
217	0x3ecdfa48	0.40230012
218	0x3e9b5763	0.30340108
219	0xbe92052d	-0.28519574
220	0xbdcca88d	-0.09993086
221	0x3e761760	0.24032354
222	0xbe0c5876	-0.1370562
223	0x3e9da1e8	0.30787587
224	0xbed0ee29	-0.40806702
225	0xbe58077b	-0.21096604
226	0xbeddd5f6	-0.43327302
227	0xbebd3e4c	-0.3696159
228	0xbe986e88	-0.2977183
229	0x3e963025	0.29333606
230	0x3e0d6903	0.1380959
231	0x3d9bdf7c	0.07610986
232	0xbe556e7e	-0.2084293
233	0x3ed6852f	0.41898486
234	0xbeba2258	-0.36354327
235	0xbd82c6f0	-0.063856006
236	0xbddf6c36	-0.109093115
237	0x3e9c2c5a	0.30502588
238	0x3ed8ccad	0.42343655
239	0xbdfff2f3	-0.12497511
240	0xbe3c952b	-0.18416278
241	0xbeccb36f	-0.39980647
242	0xbe1a21db	-0.15051977
243	0xbe8a4318	-0.27004313
244	0x3ece71c4	0.4032117
245	0x3ed624ea	0.41825038
246	0xbeb8a3af	-0.3606238
247	0xbd13eac9	-0.03611258
248	0xbe9b3b3c	-0.3031863
249	0x3edae08a	0.42749435
250	0x3eac2673	0.33623084
251	0x3e108435	0.14112933
252	0xbe5cb2b3	-0.21552543
253	0x3e9b2017	0.3029792
254	0xbc20862f	-0.009797617
255	0xbe80bca9	-0.25143936

batch_norm_c2.weight f4 [128]
0	0x3f80286a	1.0012333
1	0x3f800fef	1.0004863
2	0x3f8025f4	1.0011582
3	0x3f7fbe62	0.99899876
4	0x3f7f46c7	0.9971737
5	0x3f7f7a7e	0.99796283
6	0x3f7fab8b	0.9987113
7	0x3f8020a3	1.000996
8	0x3f80918d	1.0044419
9	0x3f800ac6	1.0003288
10	0x3f8031cf	1.00152
11	0x3f800899	1.0002624
12	0x3f7fcfee	0.9992665
13	0x3f7f7899	0.9979339
14	0x3f801f70	1.0009594
15	0x3f8079f6	1.003722
16	0x3f7fefcd	0.9997528
17	0x3f8030ae	1.0014856
18	0x3f7fa6bf	0.9986381
19	0x3f8093d4	1.0045114
20	0x3f8042b8	1.0020361
21	0x3f7fecd3	0.9997074
22	0x3f801477	1.0006245
23	0x3f80721b	1.0034822
24	0x3f802913	1.0012535
25	0x3f802536	1.0011356
26	0x3f7f8354	0.99809766
27	0x3f80422f	1.0020198
28	0x3f7f8f6c	0.9982822
29	0x3f7fce1e	0.99923885
30	0x3f7f39d7	0.9969763
31	0x3f802fff	1.0014647
32	0x3f7fedba	0.99972117
33	0x3f802c84	1.0013585
34	0x3f7fe81f	0.99963564
35	0x3f8021fc	1.0010371
36	0x3f7f7996	0.997949
37	0x3f8022ad	1.0010582
38	0x3f8082a8	1.0039873
39	0x3f8002b6	1.0000827
40	0x3f8023dd	1.0010945
41	0x3f800917	1.0002774
42	0x3f7fd1b8	0.9992938
43	0x3f8057f3	1.002684
44	0x3f803afa	1.0017998
45	0x3f8040fd	1.0019833
46	0x3f7f76cc	0.99790645
47	0x3f801ea9	1.0009357
48	0x3f801165	1.0005308
49	0x3f7f65ae	0.99764526
50	0x3f802e21	1.0014077
51	0x3f8080ff	1.0039366
52	0x3f7faa9c	0.99869704
53	0x3f7ff75b	0.9998681
54	0x3f800170	1.0000439
55	0x3f7fe10a	0.9995276
56	0x3f801db6	1.0009067
57	0x3f804ba9	1.002309
58	0x3f808b6a	1.0042546
59	0x3f804648	1.0021448
60	0x3f7fbde3	0.9989912
61	0x3f7fdd2a	0.99946845
62	0x3f8017ad	1.0007225
63	0x3f8055cd	1.0026184
64	0x3f7f7b45	0.9979747
65	0x3f801729	1.0007068
66	0x3f805288	1.0025187
67	0x3f803a4d	1.0017792
68	0x3f8023c2	1.0010912
69	0x3f80672a	1.0031483
70	0x3f80022f	1.0000666
71	0x3f7f8e96	0.99826944
72	0x3f8018dd	1.0007588
73	0x3f80359a	1.0016358
74	0x3f7fe857	0.999639
75	0x3f802182	1.0010226
76	0x3f802751	1.0011998
77	0x3f804535	1.002112
78	0x3f7ffa2a	0.99991095
79	0x3f7fb83b	0.9989049
80	0x3f7f9940	0.99843216
81	0x3f801fc0	1.0009689
82	0x3f800353	1.0001014
83	0x3f800343	1.0000995
84	0x3f8020b1	1.0009977
85	0x3f804f22	1.002415
86	0x3f802422	1.0011027
87	0x3f805d48	1.0028467
88	0x3f7ffacb	0.99992055
89	0x3f801f83	1.0009617
90	0x3f8020ac	1.0009971
91	0x3f7f52f9	0.9973598
92	0x3f7fd4ea	0.99934256
93	0x3f7feea4	0.9997351
94	0x3f7fc5ea	0.9991137
95	0x3f7f968d	0.998391
96	0x3f801e23	1.0009197
97	0x3f7fcfcd	0.99926454
98	0x3f7ff33e	0.99980533
99	0x3f805d93	1.0028557
100	0x3f7f3f47	0.9970593
101	0x3f800342	1.0000994
102	0x3f80ba98	1.0056944
103	0x3f8009c0	1.0002975
104	0x3f8030e1	1.0014917
105	0x3f7f7575	0.997886
106	0x3f7fed60	0.9997158
107	0x3f800cdc	1.0003924
108	0x3f804ee6	1.0024078
109	0x3f8017fc	1.000732
110	0x3f7fea7a	0.9996716
111	0x3f7fc6f1	0.99912935
112	0x3f800bda	1.0003617
113	0x3f800073	1.0000137
114	0x3f800348	1.0001001
115	0x3f802395	1.0010859
116	0x3f7ed099	0.99537045
117	0x3f8001e3	1.0000576
118	0x3f7fe980	0.9996567
119	0x3f805a92	1.002764
120	0x3f7f7abf	0.9979667
121	0x3f7fca16	0.99917734
122	0x3f800a9c	1.0003238
123	0x3f800585	1.0001684
124	0x3f804602	1.0021365
125	0x3f7f72fa	0.99784815
126	0x3f802553	1.001139
127	0x3f801d6f	1.0008982

batch_norm_c2.bias f4 [128]
0	0xb92f59c9	-0.00016722748
1	0xb7a1d6e4	-1.9292762e-05
2	0xba5251b7	-0.0008023041
3	0xbb08712c	-0.0020819409
4	0xb9b5bd36	-0.00034663983
5	0x3adf5d00	0.0017041266
6	0x3a007f5f	0.0004901792
7	0xbb0df07b	-0.002165823
8	0xbb320b45	-0.0027167362
9	0x3b158939	0.0022817387
10	0xba4e4e3a	-0.0007869933
11	0x3a24f0ab	0.0006291966
12	0x3aab881e	0.0013086831
13	0xb8caa640	-9.663077e-05
14	0x380cc099	3.355797e-05
15	0xb8a7a639	-7.994142e-05
16	0x3b43cd5f	0.002987705
17	0xba277ba0	-0.0006388966
18	0xb8b6b156	-8.711468e-05
19	0xbb11160f	-0.0022138392
20	0xbaae2878	-0.0013287207
21	0xbabfd0b6	-0.0014634344
22	0x3ab3fccb	0.0013731954
23	0x3a9e8037	0.0012092654
24	0xb7e880bf	-2.7716507e-05
25	0x3a631f78	0.0008664052
26	0xba8cd0e5	-0.0010743408
27	0xbac487e4	-0.0014994112
28	0xb998fd1e	-0.00029180286
29	0x3ae1d24d	0.0017228812
30	0xb7c84474	-2.3873734e-05
31	0x3a015a0f	0.0004934379
32	0xba8abf2f	-0.0010585542
33	0xb923f1dd	-0.00015634992
34	0xba99b21a	-0.0011726052
35	0xb8c87cda	-9.5599986e-05
36	0x3966f436	0.00022025485
37	0xb785b6ea	-1.5940012e-05
38	0x3b05c87c	0.0020413687
39	0x39e93510	0.00044480758
40	0x392bc04b	0.00016379466
41	0x3a070336	0.000515032
42	0x3aa71eba	0.0012750246
43	0xba71511c	-0.00092055066
44	0x3a3ac957	0.0007125339
45	0x3af8ad2b	0.0018972507
46	0xba1b2aad	-0.000591914
47	0xba862a46	-0.0010235987
48	0x39c336bc	0.0003723408
49	0x390b6d73	0.00013296846
50	0xba8480c0	-0.0010109171
51	0xb976d73f	-0.00023540574
52	0xba4133e1	-0.0007370096
53	0x39ec70ed	0.00045097564
54	0xbab1f4a7	-0.001357694
55	0xb8f5726a	-0.00011703822
56	0xb9e6d5f1	-0.00044028417
57	0xbb009146	-0.001961784
58	0x397ee8b4	0.00024310016
59	0xb98adaf0	-0.00026484532
60	0x3a20008c	0.0006103597
61	0xb9d07c22	-0.00039765338
62	0xba459526	-0.00075371785
63	0x3acb16f2	0.0015494509
64	0x39d480b5	0.00040531685
65	0x3b0679c6	0.002051936
66	0x3a5c1341	0.0008395203
67	0xb9d59cb6	-0.00040743285
68	0xb9eade96	-0.00044797797
69	0x3a7dbbf1	0.00096791895
70	0x39b5c3c4	0.00034668867
71	0xbad557c9	-0.0016276772
72	0x367c2512	3.7572504e-06
73	0xbaa0a5d5	-0.0012256453
74	0x39b10bf9	0.0003376899
75	0x3aa38207	0.0012474664
76	0x3990705d	0.00027549537
77	0xbadd9ce4	-0.0016907719
78	0x39f47578	0.00046626828
79	0xba62dfb3	-0.00086545496
80	0xbb0c8760	-0.0021442994
81	0xbae648b7	-0.0017569278
82	0x3ab2ca65	0.001364064
83	0x3a82baa6	0.0009973838
84	0x3aaae7e3	0.0013039078
85	0xba95461a	-0.001138869
86	0x39ca24e3	0.00038555925
87	0xbaf84a4a	-0.0018943038
88	0xba84a57f	-0.0010120122
89	0xba81aa26	-0.0009892627
90	0xbb448c5e	-0.0029990892
91	0xba45970e	-0.00075374625
92	0x3a5bcecc	0.0008385002
93	0xbade5245	-0.0016961774
94	0xbaa2f4e5	-0.0012432603
95	0xb926a28b	-0.00015891546
96	0x398f4aa9	0.00027330712
97	0x390e7cea	0.0001358871
98	0xbb1ab285	-0.002360494
99	0x3a40067b	0.00073251844
100	0x38916db7	6.934575e-05
101	0xba4ec232	-0.0007887214
102	0x3b0b7de1	0.0021284746
103	0xbb1ddea8	-0.0024089012
104	0xb952643c	-0.00020064501
105	0x3a63c0a5	0.0008688069
106	0x3a979c1b	0.0011566909
107	0xb728d7cc	-1.0063824e-05
108	0x39d15eff	0.00039934364
109	0x398adcc6	0.000264859
110	0x3ac7192e	0.0015189999
111	0x3ade2a28	0.0016949819
112	0x39909dfc	0.00027583528
113	0x38736019	5.8025213e-05
114	0x39c4fb63	0.0003757133
115	0x392140eb	0.0001537834
116	0x3a903a5e	0.0011003723
117	0xb89f185e	-7.5862496e-05
118	0xbace43ca	-0.0015736755
119	0xba5ba084	-0.00083781057
120	0xba4514f0	-0.00075180735
121	0xb8488944	-4.7811554e-05
122	0xbaaee87c	-0.0013344432
123	0xbaa1e6e2	-0.0012352134
124	0xbafb569f	-0.0019175595
125	0x3a5483fa	0.0008106824
126	0x3949ab79	0.00019232732
127	0xb92305b1	-0.00015547012

batch_norm_c2.running_mean f4 [128]
0	0x3e3a3522	0.18184331
1	0x3e5f9991	0.21835925
2	0x3e62a55d	0.22133394
3	0x3e87ed7b	0.2654837
4	0x3e22fc3e	0.15916535
5	0x3e4b0c27	0.19828855
6	0x3e16e063	0.14734034
7	0x3e4baa6d	0.19889231
8	0x3e4526bf	0.19253062
9	0x3e2d8270	0.16944289
10	0x3e65b97e	0.22434041
11	0x3e643408	0.22285473
12	0x3e63e78c	0.22256297
13	0x3e7cc9e2	0.24686387
14	0x3e8b3ce2	0.27194887
15	0x3e63d84a	0.22250476
16	0x3e33fb39	0.17576303
17	0x3e3ae5b4	0.18251687
18	0x3e4269d3	0.18985681
19	0x3e554ab8	0.20829284
20	0x3e492512	0.19643047
21	0x3e8c4d4f	0.27402732
22	0x3e516fe2	0.20452836
23	0x3e48c816	0.19607577
24	0x3e53b092	0.20672825
25	0x3e5ceab2	0.21573904
26	0x3e616353	0.22010545
27	0x3e5d58a2	0.21615842
28	0x3e384c3a	0.17997828
29	0x3e1eaec5	0.15496357
30	0x3e6f0efd	0.23345561
31	0x3e495c83	0.19664197
32	0x3e1eb6b1	0.15499379
33	0x3e337b57	0.17527519
34	0x3e1154ba	0.14192477
35	0x3e5c3efd	0.21508403
36	0x3e7ac8a2	0.24490598
37	0x3e8ea100	0.27857208
38	0x3e49f424	0.19722039
39	0x3e4e62a6	0.20154819
40	0x3e8c2b89	0.27376965
41	0x3e68d42a	0.22737184
42	0x3e8d1d19	0.27561262
43	0x3e72c172	0.23706606
44	0x3e665eab	0.2249705
45	0x3e8cc946	0.2749731
46	0x3e6096d9	0.21932544
47	0x3e54d96c	0.20786065
48	0x3e81b304	0.2533189
49	0x3e7d2f92	0.24725178
50	0x3e3ee927	0.18643628
51	0x3e5bc7d3	0.21462946
52	0x3e63fc81	0.22264291
53	0x3e28f0c6	0.16498098
54	0x3e38a8d3	0.18033151
55	0x3e126374	0.14295751
56	0x3e5a682a	0.21328798
57	0x3e461a92	0.19346073
58	0x3e463276	0.19355187
59	0x3ddb8f31	0.10720671
60	0x3e6da18b	0.23206155
61	0x3e85a4ac	0.26102197
62	0x3e47595d	0.19467683
63	0x3e59cd04	0.21269614
64	0x3e573ba1	0.2101884
65	0x3e3ba84f	0.18325923
66	0x3e530346	0.20606717
67	0x3e07c0a4	0.1325708
68	0x3e940f10	0.28917742
69	0x3e6657db	0.22494452
70	0x3e21d2ff	0.15803145
71	0x3e68891f	0.22708558
72	0x3e4aa767	0.19790421
73	0x3e51189a	0.20419541
74	0x3e8b4b73	0.27206
75	0x3e555daf	0.20836519
76	0x3e4bdf0d	0.19909306
77	0x3e401219	0.18756904
78	0x3e24024c	0.16016501
79	0x3e73048b	0.23732202
80	0x3e559d3d	0.20860763
81	0x3e77b495	0.2418998
82	0x3e55f7f1	0.20895363
83	0x3e556728	0.20840132
84	0x3e3c9d75	0.1841944
85	0x3e5507cb	0.20803754
86	0x3e808e54	0.25108588
87	0x3e095ac0	0.13413525
88	0x3e4b2a0e	0.19840261
89	0x3e85873d	0.2607974
90	0x3e850c2e	0.25985855
91	0x3e6106b8	0.21975219
92	0x3e875736	0.26433724
93	0x3e8779c0	0.26460075
94	0x3e72fb2b	0.23728625
95	0x3e24429d	0.16041036
96	0x3e93fd69	0.28904274
97	0x3e502117	0.20325123
98	0x3e869c83	0.26291284
99	0x3e757624	0.23970848
100	0x3e8e1054	0.27746832
101	0x3e3f5617	0.18685184
102	0x3e44bfd1	0.19213797
103	0x3dcf61e2	0.101260915
104	0x3e80dac5	0.25166908
105	0x3e8316d1	0.25603345
106	0x3e8240a8	0.25439954
107	0x3e3e9c89	0.18614401
108	0x3e7ad30f	0.24494575
109	0x3e42a878	0.19009578
110	0x3e4e277e	0.20132253
111	0x3e6d3d78	0.2316798
112	0x3e2b234b	0.16712682
113	0x3e933703	0.28752908
114	0x3e1acc6c	0.15117043
115	0x3e5323b0	0.20619082
116	0x3e8dfa20	0.27729893
117	0x3e856300	0.26052094
118	0x3e8acb1a	0.2710808
119	0x3e10808e	0.1411154
120	0x3dfa8889	0.12233073
121	0x3e19b4ac	0.15010327
122	0x3e4875a3	0.19576125
123	0x3e598915	0.21243699
124	0x3e13309c	0.14374012
125	0x3e35f46f	0.17769025
126	0x3e293fb5	0.16528209
127	0x3e589f59	0.21154536

batch_norm_c2.running_var f4 [128]
0	0x3d40bcc7	0.047055032
1	0x3d99327a	0.07480331
2	0x3d55f735	0.052237708
3	0x3d8ca86f	0.06868064
4	0x3c8e1bf7	0.017347319
5	0x3cfbf1d8	0.030754969
6	0x3d4d2bae	0.050090484
7	0x3d12779a	0.035758592
8	0x3d0fcaba	0.035105444
9	0x3d873824	0.06602505
10	0x3d6c0b07	0.057627704
11	0x3d80b2b6	0.062840864
12	0x3d80171e	0.06254409
13	0x3d86d46e	0.065834865
14	0x3de96c4a	0.113976076
15	0x3d5cc351	0.053897206
16	0x3d5a40a7	0.053284314
17	0x3d6df5ea	0.05809585
18	0x3d8e60f3	0.06952085
19	0x3d1bf62d	0.03807657
20	0x3dacc196	0.08435361
21	0x3dbe5692	0.09293856
22	0x3d1696ea	0.036765017
23	0x3d3154d0	0.043293774
24	0x3d20ba13	0.039239954
25	0x3d71a3da	0.05899415
26	0x3de8835a	0.11353178
27	0x3d8e8919	0.06959743
28	0x3d79dedf	0.061003562
29	0x3cc6a2cb	0.024247548
30	0x3d3ee96b	0.046609323
31	0x3d15e178	0.036591977
32	0x3d1ff728	0.039054066
33	0x3d05f42a	0.032703556
34	0x3c5c5fec	0.013450604
35	0x3da51d41	0.0806222
36	0x3d529aab	0.051417034
37	0x3dbfd1e6	0.09366207
38	0x3d633dcf	0.055478867
39	0x3d73b2d3	0.059496712
40	0x3da00a0f	0.078144185
41	0x3d781c6c	0.06057398
42	0x3dd26677	0.1027345
43	0x3dcfb7d3	0.101424836
44	0x3d204bc4	0.039134756
45	0x3de5f4ea	0.11228354
46	0x3d2f7730	0.042838275
47	0x3d9ff5b3	0.07810535
48	0x3d9f5709	0.077802725
49	0x3d99ad16	0.07503717
50	0x3d4c40d6	0.04986652
51	0x3d4886dc	0.048956737
52	0x3d847210	0.06467068
53	0x3d78bf31	0.06072921
54	0x3ceec49e	0.029146489
55	0x3ca3a867	0.019977761
56	0x3d2cc922	0.042184003
57	0x3d68ba09	0.056818042
58	0x3d2a69bd	0.041604746
59	0x3ccb4d18	0.024817035
60	0x3d8e698a	0.06953724
61	0x3dc6176a	0.09672435
62	0x3db286ae	0.08717094
63	0x3dee2fbf	0.116302006
64	0x3d36f3fb	0.04466627
65	0x3d8b16b6	0.06791441
66	0x3d56889b	0.05237637
67	0x3ca7d482	0.020487074
68	0x3e123ae8	0.14280283
69	0x3d7ade5b	0.06124721
70	0x3cb7d2e3	0.022439426
71	0x3d860b56	0.06545131
72	0x3d88d1bb	0.06680628
73	0x3d215f21	0.039397363
74	0x3da465e4	0.080272466
75	0x3d614db2	0.055005737
76	0x3d650454	0.05591233
77	0x3d275a04	0.04085733
78	0x3d1aec40	0.03782296
79	0x3d84ebdc	0.06490299
80	0x3db5377b	0.08848473
81	0x3d906df1	0.0705222
82	0x3d62d1cd	0.055375863
83	0x3d17b307	0.03703597
84	0x3d0ec852	0.03485901
85	0x3d594072	0.053039975
86	0x3d6e7877	0.058220353
87	0x3c667da1	0.014068038
88	0x3d76d451	0.060261074
89	0x3e132562	0.14369729
90	0x3de914b8	0.11380905
91	0x3d2dd8d7	0.042443123
92	0x3de4757e	0.11155222
93	0x3d9221fd	0.07135389
94	0x3d29bde9	0.041440878
95	0x3d12dd22	0.03585542
96	0x3db669e4	0.08906916
97	0x3cdda766	0.02705736
98	0x3d97631a	0.07391949
99	0x3d939ddc	0.07207844
100	0x3de4aabb	0.11165377
101	0x3d0303d8	0.031986088
102	0x3ce9c4f0	0.02853629
103	0x3c00e7e4	0.007867787
104	0x3d4b8064	0.04968299
105	0x3d94d1ac	0.07266554
106	0x3d74ea6f	0.059793886
107	0x3d529431	0.051410858
108	0x3d83fd45	0.06444792
109	0x3d5b83a4	0.05359234
110	0x3d765fae	0.06014984
111	0x3d45da64	0.048303977
112	0x3d135ac4	0.035975233
113	0x3d9c7c08	0.076408446
114	0x3c9acaab	0.018895468
115	0x3d4ee4e9	0.050511274
116	0x3d8dcc3e	0.06923722
117	0x3d947f1d	0.072508074
118	0x3dcfd57c	0.10148141
119	0x3cf6a3dc	0.030107431
120	0x3c9e9f8f	0.019363193
121	0x3c98df4b	0.018661162
122	0x3d589cdb	0.052883964
123	0x3d803d52	0.06261696
124	0x3ce9c03a	0.028534044
125	0x3d4308cb	0.047615808
126	0x3d1e1494	0.038593844
127	0x3d8a5145	0.06753782
