lightning_logs/version_11/checkpoints/epoch=29-step=240.ckpt (torch, 145049 bytes, 44 tensors)

batch_norm1.weight f4 [40]
000000 d8 57 7a 3f 90 d1 8d 3f fb af 7a 3f 52 b5 7b 3f
       0.9779029 1.1079578 0.97924775 0.9832355
000010 42 4e 79 3f 4d 28 7f 3f d7 15 80 3f e6 0f 80 3f
       0.97385037 0.9967087 1.0006665 1.0004852
000020 60 e6 79 3f 90 a2 7c 3f 68 e4 79 3f bb 32 7e 3f
       0.9761715 0.9868555 0.97614145 0.9929616
000030 b4 2d 7e 3f bf 7e 7d 3f ff 55 78 3f 7a 4b 7e 3f
       0.9928849 0.99021524 0.9700622 0.9933392
000040 77 87 7e 3f 3b 11 7e 3f 4d 32 81 3f a9 9a 96 3f
       0.9942545 0.9924504 1.0093476 1.1765949
000050 f3 9f 9b 3f 9c 45 78 3f ad 5b 7d 3f 1d 1b 7b 3f
       1.2158188 0.96981215 0.9896801 0.98088247
000060 16 c1 7d 3f 92 10 7a 3f da 22 7d 3f 46 0b 74 3f
       0.9912275 0.97681534 0.98881304 0.953297
000070 6f 68 7b 3f 9e 11 7c 3f 88 7b 78 3f 51 10 7a 3f
       0.9820623 0.9846438 0.97063494 0.97681147
000080 54 ae 75 3f 59 d6 7c 3f ff b2 7a 3f b3 60 7c 3f
       0.9596913 0.9876457 0.97929376 0.9858505
000090 35 98 7e 3f 4b 7f 7d 3f 4a ea 79 3f 77 21 7e 3f
       0.99451 0.9902236 0.9762312 0.99269813

batch_norm1.bias f4 [40]
000000 c3 c8 26 3c 4b c2 97 bc fc 6e fd ba 4e 70 8b bb
       0.010179701 -0.018525263 -0.0019335444 -0.004255331
000010 56 49 12 3b 22 7a 16 3b 18 62 9d 3b e7 48 d5 3a
       0.0022321544 0.002296098 0.0048029535 0.0016272337
000020 4f 43 0d b9 cb e1 bf 3c 30 9a f9 bb 84 ad ea bb
       -0.00013471882 0.023423096 -0.0076172575 -0.007161798
000030 b9 d2 e3 3b d7 90 79 3b 6b 31 1b b9 a2 15 4a 3c
       0.0069526103 0.0038080716 -0.00014800362 0.012334259
000040 6b fb 41 3c 31 53 34 bc fd 5d c3 b9 d4 98 67 3d
       0.011839728 -0.0110061625 -0.00037263325 0.056542233
000050 8c f1 1b 3e 77 eb db bb 97 13 c9 bb 05 3c 31 3c
       0.15228862 -0.006711419 -0.0061363685 0.010817532
000060 28 0b 5e 3c 0b a0 dd bb e9 f0 30 ba d0 a6 8f 3b
       0.013552465 -0.0067634634 -0.00067497656 0.0043838993
000070 ba ae ae bb a7 b5 2d bc bd d8 47 3c 7e a8 3f 3c
       -0.0053308876 -0.010602391 0.0121976705 0.0116978865
000080 fa 8a 8b bc 6e 3c 03 3c ba 77 65 3c c3 e8 db ba
       -0.017034043 0.008010013 0.014005596 -0.0016777742
000090 b5 b5 24 3c 97 32 68 3c 13 8c ca bb ca 37 98 bb
       0.010053088 0.014172218 -0.006181249 -0.0046453224

batch_norm1.running_mean f4 [40]
000000 87 73 02 bd 90 be 24 3e 5d cb 04 3d 2c 39 02 3c
       -0.031848457 0.16088319 0.032420505 0.007948201
000010 35 8e 0a 3d 54 7c da 3c e0 f3 02 3d d5 4f 9c bd
       0.033827025 0.026670612 0.03197086 -0.07632414
000020 a0 cf 1a bd 91 6e 94 bd 2a 64 84 3c 4f 0f c1 3c
       -0.037795663 -0.07247651 0.016161043 0.02356687
000030 65 fa 77 3c 31 47 cb bd 16 3f 95 bd 71 df 72 bd
       0.015135382 -0.09925688 -0.07287423 -0.05929512
000040 38 0e c6 bd 70 7d a3 bc f5 65 85 3c 08 38 ba bd
       -0.09670681 -0.019957274 0.016283968 -0.09092718
000050 09 05 27 be 6a 56 60 bc 3a 62 0e bd bb 55 15 bd
       -0.16310515 -0.013692478 -0.034761645 -0.036458712
000060 cb fc f7 bb f3 77 8f bc 11 88 02 bd 4f 16 a7 3c
       -0.007567977 -0.017513251 -0.031868044 0.02039638
000070 3b fb f3 3b db a6 6b 3c 13 57 68 3c 67 a5 7d bd
       0.0074457205 0.014383043 0.014180916 -0.061925318
000080 dc 53 ca bc 32 d4 e8 bc 23 28 37 bc db 53 40 3d
       -0.02469819 -0.028421495 -0.011179003 0.04695497
000090 df 27 c5 bc 2f 61 1d 3d 2e 40 98 3a 40 86 1b 3d
       -0.024066864 0.03842276 0.0011615807 0.037969828

batch_norm1.running_var f4 [40]
000000 50 78 7a 3f 9d 38 54 3f 95 3a 57 3f d3 a1 81 3f
       0.9783983 0.82898885 0.84073764 1.012751
000010 f8 0d 83 3f c6 01 83 3f 81 c4 80 3f 8d 07 6c 3f
       1.0238638 1.0234916 1.0059968 0.9219902
000020 6f d1 7e 3f 75 e1 70 3f 3b 97 80 3f a6 16 80 3f
       0.9953832 0.9409402 1.0046152 1.0006912
000030 34 7a 7b 3f 76 4d 67 3f ec f4 77 3f e7 e7 79 3f
       0.9823334 0.9035257 0.96858096 0.9761948
000040 9e 45 75 3f 33 71 70 3f d0 18 89 3f c2 e1 87 3f
       0.9580935 0.9392273 1.0710697 1.0615771
000050 6d e7 8e 3f 2e ce 7b 3f a3 6b 44 3f b4 a2 67 3f
       1.1164376 0.9836148 0.7672674 0.9048264
000060 25 85 79 3f e0 20 7c 3f 6d cf 4b 3f 33 ae 80 3f
       0.9746879 0.98487663 0.7961338 1.0053161
000070 b2 d4 81 3f 23 f1 80 3f b5 11 81 3f 10 5f 88 3f
       1.0143034 1.0073589 1.0083529 1.0654011
000080 4a 73 76 3f e1 87 70 3f 11 29 57 3f 95 76 7c 3f
       0.9626967 0.93957335 0.8404704 0.9861844
000090 2d 57 4e 3f 8d 52 82 3f dc e6 84 3f 19 91 6b 3f
       0.8060177 1.0181442 1.0382953 0.92018276

dense1.weight_g f4 [16, 1]
000000 e0 f6 ee 3e 8f 43 06 3f a1 26 1c 3f f3 75 2c 3f
       0.46672726 0.52446836 0.60996443 0.67367476
000010 90 b0 06 3f b5 31 03 3f cc ed 09 3f 63 e3 0c 3f
       0.52613163 0.5124772 0.53878474 0.55034465
000020 5f c9 0b 3f 32 b8 23 3f 07 2c 2a 3f a0 78 03 3f
       0.5460414 0.63952935 0.6647343 0.51355934
000030 a1 f9 20 3f f0 78 18 3f df 89 04 3f 48 91 15 3f
       0.62880903 0.59559536 0.51772875 0.58424807

dense1.weight_v f4 [16, 40]
000000 1d 32 58 3d a0 ab be bc 8e b8 c8 3c cf 65 60 bc
       0.052782167 -0.023275197 0.024502065 -0.013696148
000010 c8 92 b2 3d 38 a8 65 3d d0 6c 9a bb 53 05 0a be
       0.087194026 0.05606863 -0.0047126785 -0.13478594
000020 96 8d 2d 3d 6e 15 08 be ec f3 1b 3d 1c 9b d7 3c
       0.042371355 -0.13289425 0.03807442 0.02631908
000030 40 70 8c bc 31 f9 10 3e 07 1e 1f 3d 6a e2 c9 3d
       -0.017143369 0.14157559 0.038846996 0.09857638
000040 70 e3 a9 3d f6 7c cf bd 5f 6e 32 bd cd 86 50 3e
       0.082953334 -0.10131256 -0.04356229 0.20363922
000050 0e 58 d7 bd bb c1 e0 3b 6f 11 b8 b9 d5 a0 fb 3d
       -0.10514842 0.006859032 -0.00035108204 0.12286536
000060 d2 64 9b bc 46 49 0d 3d 5e 93 9e bc ef 20 8a bd
       -0.018968973 0.034493707 -0.01935738 -0.06744563
000070 55 24 90 bd 3e f6 6a bd 94 93 01 be d8 94 bf bd
       -0.0703818 -0.05736374 -0.12653953 -0.093545616
000080 4d 27 30 3d d3 cc ce 3d 58 8b a1 3c c7 dd 81 bd
       0.04300623 0.10097661 0.019719765 -0.06341129
000090 f7 0b 8e 3d 90 7b 17 bd c1 6d 35 bc f9 25 90 bd
       0.06935876 -0.036983073 -0.011073531 -0.07038493
0000a0 5c 3a 63 bd 66 92 d4 bd 8b 2b b5 3d bc d0 9a 3d
       -0.055475578 -0.10379486 0.08846196 0.07559344
0000b0 65 e8 2b 3d 8c 6d b9 3d 65 12 b9 3d 6d f7 aa bb
       0.041969676 0.090540975 0.090367116 -0.0052174837
0000c0 9e a9 72 3c 12 1d 13 3c da 1a c0 3d 1b cb f5 3d
       0.014810948 0.008979099 0.093801215 0.1200163
0000d0 e9 6f 04 3e bc ce a8 3d 7f b6 3c bd d4 3f e3 bb
       0.12933315 0.082425565 -0.04607248 -0.006935099
0000e0 2b ab a7 bc 22 04 ee 3d 91 46 0e 3d fb 3c b4 3d
       -0.020467361 0.11621882 0.034735266 0.088006936
0000f0 e4 44 77 3d bc fb 1e be 84 bc 10 3d 21 a1 1c 3e
       0.060368434 -0.15525717 0.035336033 0.15295841
000100 9d 81 f8 3d dd 08 36 bd d2 23 67 3d 55 b1 1b be
       0.12134097 -0.044442046 0.056430645 -0.15204366
000110 a7 d3 31 bd 20 2e dc 3d 32 0c 0d be 15 92 18 3e
       -0.043414738 0.10750985 -0.13774183 0.14899476
000120 72 4b b9 bd 39 3e 22 3d c2 7f 9e 3a b2 76 8f 3d
       -0.09047593 0.03961012 0.0012092518 0.07005061
000130 fc fb db 3b f0 6a 02 be c0 d2 d2 bc 00 66 d2 bd
       0.0067133885 -0.12736106 -0.025735259 -0.10273361
000140 7c bf 9a 3d 0d 4f 34 3d 6b 06 c9 bd 72 33 75 3c
       0.07556054 0.0440207 -0.09815677 0.014965879
000150 41 26 87 3d af 24 ab bb 93 bf 98 3b db 95 7a 3b
       0.06599093 -0.005222879 0.0046615093 0.0038236293
000160 ac 2b b7 bd 5d 97 a7 bd e7 02 75 bb aa 19 da bd
       -0.089438766 -0.08183167 -0.0037385763 -0.10649426
000170 27 d2 a9 3d f9 6c c7 bc 61 20 4a 3d fb 49 18 3d
       0.082920365 -0.024343954 0.049347285 0.03717993
000180 7c 85 12 be d5 50 a0 bd 62 53 77 bd e1 71 56 be
       -0.14308733 -0.078279175 -0.060382254 -0.20941879
000190 52 19 98 be c2 e0 a4 bd db 1f 26 be 3e c0 56 3c
       -0.29706818 -0.08050682 -0.1622309 0.013107358
0001a0 cc 5a 88 3d 98 5d 03 3c 94 38 cc 3d b1 d3 51 3d
       0.06657943 0.00801792 0.09971729 0.051227275
0001b0 27 ca 20 be d7 cd 2f 3d c5 8a cb 3d 54 f6 a5 bd
       -0.15702115 0.042920914 0.099385776 -0.08103624
0001c0 dd da 94 bd da 6f e3 bc 17 f2 a3 bd 16 bc 01 3b
       -0.07268307 -0.027763296 -0.08005159 0.0019795946
0001d0 d2 18 76 bb 1c 0e d6 3d 4f de e1 bc 96 8c 41 3d
       -0.0037551415 0.1045191 -0.027571825 0.047253214
0001e0 12 83 83 3d 9d 93 0f 3e ca bd 8b bd 27 c9 fc 3d
       0.06421484 0.14021154 -0.06823309 0.12343054
0001f0 9e 04 e9 3d df 90 70 bd d9 88 01 bd 90 9d 1e 3d
       0.11377834 -0.05873191 -0.03162465 0.038724482
000200 2b d0 0c be 9e 76 0f be 2d 65 c6 bd 49 b5 47 3d
       -0.13751285 -0.14010093 -0.096872665 0.04875687
000210 81 bb ad bd 91 3d 25 be 08 c6 eb 3c f6 24 49 3d
       -0.08483029 -0.16136767 0.028780952 0.049107514
000220 91 0b f3 3c 6c b2 df bd fd 7a 18 3e b2 04 3f be
       0.029668601 -0.10922703 0.14890666 -0.18654135
000230 6b 67 af be b9 41 b2 bd 72 51 c8 3d f8 ed 11 3d
       -0.3425859 -0.08703942 0.097811595 0.035627335
000240 85 4a 15 bd 7c 08 57 3d de 06 fe bd f9 cc 69 3d
       -0.03644802 0.052498326 -0.124036536 0.057080243
000250 98 ce 0b 3e 05 07 92 bd 42 fa 46 bb b8 8b 10 bd
       0.13653028 -0.07130245 -0.0030361568 -0.035289496
000260 e0 f6 db bd b1 d5 c8 bb 19 f6 e8 bc 94 51 a8 bd
       -0.10740447 -0.0061289896 -0.028437661 -0.08218685
000270 25 c5 af bd c8 5e 45 3c 2c e7 ec 3d cf f6 7b 3c
       -0.08582524 0.012046523 0.1156753 0.015378668
000280 0f 6f c8 bd 67 16 24 3e 0f da 71 3d 0a fb 04 be
       -0.09786808 0.16024171 0.059045848 -0.12986389
000290 c3 bd 9c 3b 58 cb 1f 3e 42 1d a2 bd 33 42 14 bd
       0.0047833635 0.15604913 -0.07915737 -0.036195945
0002a0 26 69 b9 bd c6 f9 d4 bd 04 b3 92 bd 30 fc b7 3c
       -0.090532586 -0.10399203 -0.07163051 0.02245912
0002b0 d8 50 df 3d b1 d9 37 bc 88 02 ed bd 51 b2 a5 3b
       0.109040916 -0.011221335 -0.115727484 0.0050566574
0002c0 ad 22 07 be 1d 9a 0d 3a 9e d5 1b 3e 17 1a 07 3d
       -0.13196822 0.0005401688 0.15218207 0.032983866
0002d0 30 62 85 be 56 ce 66 bd 18 42 4a 3c 97 60 99 3c
       -0.26051474 -0.05634912 0.01234486 0.018722815
0002e0 34 58 ef bd a0 25 99 bd 84 13 6f bd 67 89 6c 3c
       -0.11686745 -0.074778795 -0.05836822 0.014437056
0002f0 06 db d1 3d 88 7f b2 3d 1b e9 dd 3c 23 60 af bd
       0.102468535 0.08715731 0.027088692 -0.085632585
000300 b5 96 84 3d de 7f 1e 3d f3 ac 58 bb 05 78 cf bc
       0.064740576 0.038696162 -0.003306207 -0.025325784
000310 aa 9b b5 3d d6 ba 5d bd da b5 4b 3d 93 48 b6 3d
       0.08867581 -0.05413326 0.049733974 0.08900561
000320 31 29 b1 bd 5b 2b 31 be d7 e4 c2 bc 10 06 d6 bd
       -0.08650435 -0.17301695 -0.02379076 -0.10450375
000330 b4 e9 98 bc 7b eb 1b 3e b8 e7 a0 3d bb ff 57 bd
       -0.018666126 0.15226547 0.07856697 -0.052734118
000340 3b 01 f9 39 c3 61 ac bc 6d f5 d0 bd 1d a2 2b bd
       0.00047493898 -0.02104271 -0.10203061 -0.04190265
000350 16 cf e8 bc b6 b0 aa bc f2 da 8c bd a7 46 89 3d
       -0.028419059 -0.020836215 -0.06877698 0.06702929
000360 1e fe 22 3d b1 93 8f bd 13 2f 8c 3d 9e 40 d9 3d
       0.039793126 -0.07010592 0.06844916 0.10608028
000370 a8 0d 0e be 3d 43 ed bd d7 0b dd 3d 10 6f a1 3d
       -0.13872397 -0.1158509 0.10793274 0.078825116
000380 39 3b b1 3c 84 62 5e bd bb 4e 65 bd 3a 40 96 3d
       0.021634685 -0.05429317 -0.055983286 0.07336469
000390 59 be 62 3d 12 a0 84 bd 2f ff e2 bc ce 6d af 3d
       0.05535731 -0.064758435 -0.027709572 0.085658655
0003a0 2c 10 89 bc 72 bc 05 bd 43 c9 53 bd 54 4c 79 bb
       -0.016731344 -0.03265042 -0.05170561 -0.003803988
0003b0 56 c3 12 3c 9a b8 ae bd 3d 75 0d be bc dd 20 be
       0.0089577045 -0.08531304 -0.13814254 -0.15709585
0003c0 c3 42 74 bd 50 14 5a 3d 83 06 f3 bd 9f 78 c6 bd
       -0.05963398 0.053242028 -0.118664764 -0.096909754
0003d0 18 7c e0 3d 66 4a 11 3d 0a af a7 3d 2e 46 f8 3d
       0.10961169 0.035471343 0.08187683 0.12122761
0003e0 df df 85 bd 4f 75 32 bd 2f 13 88 bd 8e 24 8f 3c
       -0.06536841 -0.043568905 -0.06644284 0.017473485
0003f0 4b 79 8f bc 00 be f8 bd 22 43 dd bd 75 a1 bb 3d
       -0.017513892 -0.121456146 -0.1080382 0.09161655

conv1.weight_v f4 [2, 1, 5]
000000 11 62 bb be bc db 7c 3d 3f 1e 72 be f2 04 a0 be
       -0.36598256 0.061732993 -0.2364435 -0.31253773
000010 bc cd 59 bd 2b 7d 82 be 75 d8 b5 3d 9b c4 e4 3d
       -0.05317472 -0.2548612 0.088791765 0.11170312
000020 94 b2 c7 3c 04 f2 12 3e
       0.024377145 0.14350134

batch_norm_c2.weight f4 [2]
000000 60 e9 81 3f 4b 78 80 3f
       1.0149345 1.003671

batch_norm_c2.bias f4 [2]
000000 3e 32 b0 3b da e9 8e 3c
       0.005377083 0.017445493

batch_norm_c2.running_mean f4 [2]
000000 e8 2c 61 3e be 69 e4 3d
       0.21989787 0.11152981

batch_norm_c2.running_var f4 [2]
000000 bc b3 47 3d 75 72 b9 3c
       0.048755392 0.022637585

conv2.weight_v f4 [64, 2, 3]
000000 a7 9f 81 bd 8b fe 97 3e c3 84 ad 3e 8f b3 ac 39
       -0.063292794 0.29686388 0.33890352 0.00032940178
000010 13 0e ac be 04 cd 47 3e c4 af 1c 3e 78 04 4e 3e
       -0.33604488 0.19511801 0.15301424 0.20118892
000020 0d 2c 19 be e2 99 2e 3e 99 1d 9d 3e 3e 07 89 3e
       -0.1495821 0.17050889 0.30686644 0.26763338
000030 c8 30 a1 be 3a 42 45 3d af 83 b0 be ac 9b b0 be
       -0.3148253 0.04815886 -0.34475467 -0.34493768
000040 c0 62 8b be a9 9c 35 3e 7c 6b 8f 3e ab c4 99 be
       -0.27223778 0.17735542 0.28011692 -0.30032858
000050 8b 15 bb bd de eb 0f 3e 74 04 5c 3e e1 78 33 3e
       -0.09134968 0.1405482 0.21486074 0.1752658
000060 0f 22 8f 3e f7 41 5f 3e 33 b4 90 be a4 4e 34 3e
       0.27955672 0.21802507 -0.2826248 0.17608124
000070 58 61 95 3d e1 39 ae be 64 81 8a 3e 4d 74 7e 3e
       0.072939575 -0.34028533 0.27051842 0.24849053
000080 d7 27 89 be aa b8 64 bc e8 ca 50 3e 5a ac e2 3d
       -0.26788208 -0.013960043 0.20389903 0.1106803
000090 6a db cb 3e 6a 07 a1 be c0 2e 3b bd 23 8a c9 be
       0.39815837 -0.3145097 -0.04569888 -0.39363202
0000a0 84 87 d0 3e 26 54 6f be 79 d1 51 3e 04 0d 7d 3e
       0.4072839 -0.23371944 0.20490064 0.24711996
0000b0 7e c4 ef bd ad 7c 7f be 08 e7 ac 3e 97 20 ce 3e
       -0.117074 -0.24949904 0.33770013 0.4025924
0000c0 81 8e 47 bd 59 82 51 bd 44 12 b0 3e 3a e8 1f 3d
       -0.048719887 -0.0511497 0.34388936 0.039039828
0000d0 45 ed 69 be fc f5 73 3e 2e 1e c5 be 01 cb 76 3d
       -0.22844417 0.23824304 -0.38499588 0.060252193
0000e0 ed c8 92 be 97 dd 93 bb 24 8f 0e be ba f2 38 be
       -0.2866892 -0.0045124996 -0.13921791 -0.18061343
0000f0 a9 59 25 be 26 b3 f4 3d f7 ba 00 3e 93 91 b0 be
       -0.16147484 0.11948232 0.12571321 -0.34486064
000100 f2 17 c6 3e 76 c0 7e 3e ba 08 a2 be 79 d6 c2 3e
       0.38690144 0.24878106 -0.31647283 0.38054255
000110 75 21 a9 bd fb b9 85 be 04 d7 3f 3e 94 1f af 3d
       -0.082583345 -0.26118454 0.18734366 0.08550945
000120 bd 21 35 be ac 70 05 3e e2 19 16 3e d9 79 23 3e
       -0.17688651 0.13031262 0.14658311 0.1596445
000130 c2 b8 85 be 48 75 b7 be 89 f6 78 bd fb 0c c6 be
       -0.26117522 -0.35831666 -0.06078199 -0.38681778
000140 8c 3f b0 3d bc 48 c9 be bd ab 8a bd 2a c2 a1 3e
       0.086058706 -0.39313304 -0.06771038 0.31593448
000150 e5 51 8b be ab 22 b1 bd b1 1e 31 3e ce 6d a3 be
       -0.27210918 -0.086491905 0.17296864 -0.31919712
000160 83 e0 c6 be cf ad 23 be 32 57 c8 3d 36 64 cd 3d
       -0.38843164 -0.15984271 0.09782256 0.10028879
000170 bc 85 6f be 12 12 b6 bd 40 32 d3 bd 1e 0d ca be
       -0.2339086 -0.088901654 -0.10312319 -0.39463133
000180 fb d5 92 3c 79 03 57 bd 4d e9 aa be 2b 5a 4f be
       0.0179243 -0.052493546 -0.3338112 -0.2024924
000190 f7 fa 99 3e 34 60 1e 3e 61 a3 b0 be ab 95 24 3e
       0.30074283 0.15466386 -0.34499648 0.16072719
0001a0 de 8d d0 be 33 23 74 be dc 8d 85 3d c9 a1 31 bd
       -0.40733236 -0.23841552 0.06521198 -0.04336718
0001b0 23 d2 8a be a9 8f 98 3d b5 79 c3 3d e0 7e 97 3e
       -0.27113447 0.07449276 0.09544698 0.29588985
0001c0 a3 74 ab bd 58 f4 bc 3e 81 b8 84 3e 8f 98 27 be
       -0.08371856 0.3690517 0.25922015 -0.1636679
0001d0 aa 80 98 3e 7d 23 52 be ad a1 b7 3d 89 a3 12 3e
       0.29785663 -0.2052135 0.08966384 0.14320196
0001e0 b0 36 3e 3c 8c dd f7 3d 0b 1b 3a 3e ed a4 ba be
       0.011609718 0.121028036 0.18174379 -0.36453953
0001f0 e0 1a 74 3e 56 d3 16 3e 90 bf 49 be 4e 7c a3 3e
       0.23838377 0.14729056 -0.19701982 0.31930774
000200 a3 a4 cd 3d 9d 4b 94 be 86 5c bd 3e b3 94 2c 3e
       0.100411676 -0.28963938 0.36984652 0.16853599
000210 ef f1 8c 3e 57 04 8c 3d 09 b7 f4 3d d8 69 9e 3d
       0.2752833 0.06836765 0.11948974 0.07735032
000220 b1 ac bb 3e c2 62 b6 3e f5 95 1a 3e d3 4b 04 bb
       0.3665519 0.3562222 0.15096267 -0.0020186796
000230 09 6e 92 be 79 54 71 3e ff 04 54 be bb 03 ea 3c
       -0.28599575 0.2356738 -0.20705031 0.028566232
000240 93 1f 81 3e d0 a6 14 be cb 85 04 bd e2 6b 8e be
       0.25219402 -0.14516759 -0.032354157 -0.27816683
000250 7b 97 05 be 57 26 a8 be 70 4c 95 bd 00 71 b9 3e
       -0.13046066 -0.3284175 -0.0728997 0.36219025
000260 e5 79 b0 be 0e c9 59 be c9 5e a5 be 36 1f 25 be
       -0.34467998 -0.21268103 -0.32298878 -0.16125187
000270 a5 34 81 3e d7 93 80 3e 85 84 d3 3e f4 c7 16 3e
       0.25235477 0.25112793 0.41312042 0.14724714
000280 e5 e5 b0 3e 76 d9 41 be ce 7b 39 be b5 53 bd be
       0.34550396 -0.18930611 -0.18113634 -0.36977926
000290 d8 09 d0 be c0 c5 d3 3d d9 7d 92 bd fa a2 9b be
       -0.4063251 0.10340452 -0.0715291 -0.3039778
0002a0 49 73 94 bd d2 b6 bc be 0c f5 5e 3e ab 3b 89 3e
       -0.072485514 -0.3685823 0.21773165 0.26803336
0002b0 83 19 25 bd fa f6 74 bc dc dc e1 3c 68 4c 22 3d
       -0.040307533 -0.014951462 0.027571134 0.039623648
0002c0 aa 20 04 3d 32 21 40 be 7d b8 c8 bd d0 25 25 3e
       0.032257713 -0.18762663 -0.09800813 0.16127706
0002d0 b6 a9 29 bd 24 19 38 3e 0d 72 0d be 54 c9 bf 3e
       -0.041421615 0.1797834 -0.13813038 0.3745829
0002e0 e4 80 90 3e 4b d8 8a be 39 14 b9 be 58 04 3f 3e
       0.28223336 -0.27118143 -0.3614824 0.18654001
0002f0 f7 15 ae be 7d da cb 3e 07 72 bb be c0 f9 6b 3e
       -0.34001133 0.3981513 -0.36610433 0.23044491
000300 5a 09 cb bb 6d af ba 3d 0f e1 ab 3e cf 06 b2 3e
       -0.006196183 0.09115491 0.33570144 0.3477082
000310 a0 45 d3 bd 77 27 3e be 2b 92 fe 3d 51 08 cb bc
       -0.10316014 -0.18569742 0.12430223 -0.024784239
000320 2c 9f a2 be ae 9b d1 be 46 92 91 be 35 1e 95 3e
       -0.31762064 -0.40939087 -0.2843191 0.2912461
000330 e7 bc c3 3c 4c f8 84 3d 26 cc 53 be 5d 2d 4c be
       0.023893787 0.06492671 -0.20683345 -0.1993918
000340 e0 a6 e9 3d f0 6f a4 3e d5 3b 65 be 68 d0 88 be
       0.11408782 0.32116652 -0.22386105 -0.267215
000350 49 2e ce 3d a7 a3 22 bc 92 4b 03 be 5c 94 d1 be
       0.10067422 -0.009926713 -0.12821797 -0.40933502
000360 6c b9 b9 3e 55 f6 e3 bd da c4 20 3e b8 f9 a5 be
       0.36274278 -0.111309685 0.15700093 -0.32417083
000370 69 20 ac be b4 4f 8d 3e 88 8b a0 be e3 1b 6d 3c
       -0.33618477 0.2759987 -0.31356454 0.014471981
000380 26 95 88 3d 45 ae 89 3d 05 ab a6 be 98 35 69 3e
       0.06669073 0.067226924 -0.32552353 0.2277435
000390 a3 5f 29 bd 07 58 0a 3e d8 6b 9e 3e 57 f2 9f be
       -0.041350972 0.13510142 0.30941653 -0.31239578
0003a0 c9 e2 24 3d 26 88 1e 3e 3a 00 21 be f0 02 89 3e
       0.04025534 0.15481624 -0.15722743 0.26760054
0003b0 0e 6b ae 3e 80 22 62 be 4f 91 8f bd 8c a8 0f 3e
       0.3406605 -0.22083473 -0.07010137 0.1402914
0003c0 0c 38 5b be f7 e9 cd be 3f d7 cc 3e 2a 5e 74 bd
       -0.21408099 -0.40217564 0.4000797 -0.059660114
0003d0 46 2a 90 3e 23 f3 3b 3e e4 38 0c bd 4c 11 7a be
       0.28157252 0.18354468 -0.034233943 -0.2442066
0003e0 f9 46 c4 3d 3d 35 4a be 9b 4d 0f 3e 1d 14 ae be
       0.095838495 -0.19746871 0.13994448 -0.3399972
0003f0 61 2a 82 bd a7 b4 04 be 89 9c 9a be d0 52 a8 be
       -0.063557394 -0.12959538 -0.30197552 -0.3287568

batch_norm_c3.weight f4 [64]
000000 f2 ac 7f 3f da 6a 80 3f ea 8e 7e 3f 42 5d 80 3f
       0.9987327 1.0032609 0.9943682 1.002846
000010 af 5a 80 3f 24 c6 7e 3f 3a ca 7f 3f 9a 1a 80 3f
       1.0027674 0.9952109 0.9991795 1.0008118
000020 13 e2 7f 3f ad 11 80 3f b4 64 80 3f 9f 90 7f 3f
       0.99954337 1.0005394 1.0030732 0.9983005
000030 e4 1e 80 3f 3a 93 7f 3f 7f 8f 7e 3f 92 de 7f 3f
       1.0009427 0.99834025 0.9943771 0.9994899
000040 67 31 80 3f 64 1e 80 3f 3c 1f 80 3f f1 45 7f 3f
       1.0015076 1.0009274 1.0009532 0.997161
000050 70 0f 7e 3f de cd 7e 3f 06 24 80 3f 6b 18 80 3f
       0.99242306 0.9953288 1.0010993 1.0007452
000060 a2 78 7f 3f 98 eb 7f 3f 4b f7 7f 3f 1e d8 80 3f
       0.99793446 0.9996886 0.99986714 1.0065954
000070 5b ce 7f 3f bc 38 80 3f e7 3b 80 3f 36 72 7f 3f
       0.9992425 1.0017314 1.0018281 0.9978365
000080 3a 1c 80 3f b0 0d 80 3f e4 14 80 3f ca 34 80 3f
       1.0008614 1.0004177 1.0006375 1.001611
000090 1b 28 80 3f 34 e6 7f 3f cd a2 80 3f 70 8f 80 3f
       1.0012239 0.9996064 1.0049683 1.0043774
0000a0 a5 f1 7f 3f c5 86 7f 3f ce a6 7f 3f 33 5e 80 3f
       0.99978095 0.99815017 0.998639 1.0028747
0000b0 9f 2e 80 3f 13 d6 7f 3f 4f 0f 80 3f 25 4a 80 3f
       1.0014228 0.99936026 1.0004672 1.0022627
0000c0 fd e1 80 3f 60 30 80 3f 49 57 80 3f 7f 11 80 3f
       1.0068966 1.0014763 1.0026637 1.0005339
0000d0 ef 03 7f 3f 5e 92 7e 3f d8 b0 7f 3f 79 b4 7e 3f
       0.9961538 0.9944209 0.9987922 0.9949413
0000e0 d0 09 80 3f 8c e4 7f 3f e8 c6 7e 3f d5 5b 80 3f
       1.0002995 0.9995811 0.99522257 1.0028025
0000f0 c2 82 80 3f 79 f7 7f 3f 3a dd 7f 3f 58 d3 7f 3f
       1.0039904 0.9998699 0.9994694 0.9993186

batch_norm_c3.bias f4 [64]
000000 95 9d d2 ba 76 ad 34 bb e3 f4 69 38 f8 43 7a bb
       -0.0016068692 -0.002756921 5.5779597e-05 -0.0038187485
000010 c4 44 ad 39 b1 d6 28 bb 8e 60 6c bb fc 79 ee ba
       0.00033048366 -0.0025762732 -0.0036068293 -0.0018194313
000020 f7 b3 9f ba ec ea d2 ba 4b af e4 b9 66 a4 6b bb
       -0.0012184371 -0.0016091741 -0.00043618152 -0.0035956143
000030 a3 2c ed ba 42 24 b3 3a 44 2f bd 3a f2 c0 0e b9
       -0.0018094968 0.0013667422 0.0014433642 -0.00013614053
000040 e8 62 c4 b9 ee 60 9f ba 60 44 a8 b9 6d 7d 1b bb
       -0.00037457724 -0.0012159625 -0.000320944 -0.0023725883
000050 4b c7 a4 b9 57 e1 0b b9 0a ce 2f 3b cc 7c 24 bb
       -0.00031429002 -0.00013340019 0.002682569 -0.0025098799
000060 22 dd 69 ba 2a 4a 23 3a 1a 49 0a 39 56 0a 86 39
       -0.0008921196 0.0006229008 0.00013187938 0.00025566173
000070 99 e7 59 bb 19 08 68 b9 ed d0 9b b9 0b 59 89 3a
       -0.0033249615 -0.00022128261 -0.00029719566 0.0010478807
000080 06 de f1 b8 a8 c7 21 3a 5c c1 97 b8 ed 22 d7 3a
       -0.000115331306 0.00061714137 -7.236257e-05 0.0016413607
000090 87 16 3e ba ee 4f c7 3a 1b fc 0e 39 bc dd 10 3b
       -0.00072512816 0.0015206316 0.00013636092 0.002210482
0000a0 c1 a3 5f bb 21 06 9b 3a 16 8b da ba 0d 5d 81 ba
       -0.0034124705 0.0011827388 -0.0016673531 -0.000986965
0000b0 79 e2 00 bb cb 3e 73 ba e2 bd df 3a d6 c1 a9 ba
       -0.0019666238 -0.0009279071 0.0017070139 -0.0012951444
0000c0 95 ec f3 b8 97 8f c9 3a f4 6d 99 3a 72 89 ae b9
       -0.0001163121 0.0015377876 0.0011705742 -0.0003329027
0000d0 00 20 c0 3a da 68 85 ba 53 44 bb 3a 34 ae 84 39
       0.0014657974 -0.0010178343 0.001428733 0.00025306793
0000e0 3b a4 12 3b 03 85 94 3a f7 da 70 3a 52 a8 00 bb
       0.002237572 0.0011331144 0.0009187902 -0.0019631577
0000f0 6d 01 b1 b9 1c ec fa ba 16 0b 89 3a e0 fa 5b ba
       -0.00033761133 -0.0019143852 0.0010455574 -0.00083915703

batch_norm_c3.running_mean f4 [64]
000000 c2 fe 9b 3e 39 8a 84 3e 65 f9 7a 3e 8f 3a 81 3e
       0.30467802 0.25886706 0.24509199 0.2523999
000010 18 7d 5f 3e 88 58 82 3e e5 c8 96 3e ac 71 b1 3e
       0.21825063 0.2545817 0.29450145 0.34657037
000020 74 b8 59 3e 4f a4 52 3e ff f9 7e 3e 5f 16 6b 3e
       0.2126177 0.20570491 0.24900053 0.22957753
000030 52 f8 72 3e 9f 3c 76 3e a2 fc 90 3e 57 72 1c 3e
       0.23727539 0.24046563 0.28317744 0.15277992
000040 d6 b4 76 3e 0d 76 5f 3e 2d 06 5a 3e 56 71 51 3e
       0.24092421 0.21822377 0.21291418 0.2045339
000050 3c fe 69 3e 50 d5 87 3e 7f ec 90 3e 83 31 2c 3e
       0.22850889 0.26529932 0.28305432 0.16815762
000060 a4 d9 30 3e 7d c6 6c 3e f9 86 96 3e 5c 3c a9 3e
       0.17270523 0.23122592 0.2939985 0.33053863
000070 3b 06 71 3e fa 71 01 3e 7e c9 66 3e 48 1a 95 3e
       0.23537533 0.12641135 0.225378 0.29121614
000080 ca d1 6a 3e d3 04 86 3e fb 64 50 3e 70 62 83 3e
       0.2293159 0.26175556 0.20351021 0.2566104
000090 51 66 96 3e c1 ac 5b 3e 8c 7f 75 3e 67 a7 8d 3e
       0.29374936 0.21452619 0.23974437 0.2766678
0000a0 25 8e 88 3e 17 20 37 3e 96 00 38 3e 6a 02 77 3e
       0.26670948 0.17883335 0.17968974 0.24122015
0000b0 e6 75 65 3e 0e 75 c4 3e 4f bd 5f 3e 9b 48 2c 3e
       0.22408256 0.38370556 0.21849559 0.16824572
0000c0 25 59 a0 3e 91 44 8e 3e 8f c7 9f 3e 14 b0 5a 3e
       0.31318012 0.27786687 0.3120694 0.21356231
0000d0 af da 8f 3e c5 2e 5f 3e dc 17 02 3e 5a d6 57 3e
       0.2809653 0.21795185 0.12704414 0.21077862
0000e0 67 38 60 3e 33 ca 91 3e 63 69 3b 3e 52 49 60 3e
       0.21896516 0.28474578 0.1830192 0.2190297
0000f0 01 0c 8f 3e f3 4e 73 3e 85 9a 35 3e 3c 44 40 3e
       0.27938846 0.23760585 0.17734726 0.1877603

batch_norm_c3.running_var f4 [64]
000000 16 3f 87 3e d9 b7 94 3e 17 fe dd 3d c9 1a 5a 3e
       0.26415318 0.29046515 0.108394794 0.2129928
000010 b0 a1 04 3e 88 c5 5d 3e 7b d6 8a 3e 0c 99 ea 3e
       0.12952304 0.21657383 0.2711676 0.4581989
000020 5c a4 01 3e f7 30 98 3d 6a 35 50 3e 21 a9 15 3e
       0.12660354 0.07431214 0.20332876 0.14615299
000030 f7 b8 df 3d 84 3b 04 3e 8e 07 09 3e c9 ce 2d 3d
       0.10923951 0.12913328 0.13381788 0.042433534
000040 b6 9a 3f 3e 39 03 b3 3d 07 66 2e 3e f3 3d f0 3d
       0.18711361 0.08740849 0.17031108 0.11730566
000050 e4 fd ff 3d 27 d7 59 3e 21 de c0 3e 12 e2 96 3d
       0.12499598 0.2127348 0.3766947 0.07367338
000060 ba 5a 54 3d c9 d6 f0 3d 9c 77 8f 3e 8e fd 42 3e
       0.051844336 0.11759717 0.28020942 0.19042036
000070 59 43 15 3e f9 10 1b 3d 6d a0 7b 3e 4a ac 7c 3e
       0.14576472 0.037857983 0.24572916 0.24675098
000080 d2 89 36 3e 31 ee 22 3e e4 9f 2b 3e 1e d8 cc 3d
       0.17826012 0.15911175 0.16760212 0.100021586
000090 c4 03 52 3e 79 15 a5 3d 87 e2 1d 3e 60 4c 6b 3e
       0.20509249 0.08060736 0.15418445 0.22978354
0000a0 65 ab 3e 3e de ed 67 3d 3d 2b 55 3d 9e 5c 31 3e
       0.1862007 0.056623332 0.05204319 0.17320487
0000b0 7a e3 cd 3d b1 68 d7 3e 26 46 f2 3d 9d 14 b6 3d
       0.10053153 0.4207206 0.11829786 0.088906504
0000c0 91 74 85 3e 20 3f 8e 3e 1e 25 92 3e 40 15 12 3e
       0.26065496 0.27782536 0.28543943 0.14265919
0000d0 69 16 2e 3e e1 6b 2e 3e 58 db cc 3c af 96 4c 3e
       0.17000736 0.1703334 0.025006935 0.19979356
0000e0 74 cc 1c 3e 42 c9 27 3e 9e 99 51 3d 59 88 64 3e
       0.15312368 0.16385368 0.05117189 0.22317638
0000f0 80 5f 67 3e 72 8d 6e 3e c5 e7 a6 3d c8 2e 2f 3e
       0.22595024 0.23296145 0.08149675 0.1710769

conv3.weight_v f4 [64, 64, 3]
000000 08 b2 8a bd de 0f d4 3c 0d 57 8e bc 1a 2c 6e bd
       -0.06772238 0.025886472 -0.017375493 -0.058147527
000010 1b 8f 5b 3c 75 ef 0a 3d 21 81 13 bd 03 71 ec bc
       0.013400818 0.03391977 -0.03601182 -0.028862482
000020 49 3e 15 3d 0e 66 04 3d 6a 69 61 bd c5 96 ad 3b
       0.036436353 0.03232389 -0.05503217 0.005297514
000030 22 a7 b1 bb 5b 9d 37 3d 61 a9 42 3d 8e 11 2b bd
       -0.005421535 0.0448278 0.047524814 -0.04176479
000040 f9 5c aa bc 04 54 9f bb 0d 97 97 bd db 3d de 39
       -0.020796286 -0.0048623104 -0.074018575 0.00042389226
000050 3c f1 6b 3d 2b 9e 7c 3d 6e 9e 64 3c 12 c7 fd 3c
       0.057603106 0.06167428 0.013953788 0.030978713
000060 15 cc 22 3c 79 a1 c4 3c 1b 87 b5 3c e8 0f 44 3d
       0.009936352 0.024002777 0.02215915 0.047866732
000070 21 92 4d 3d 3f 2b fd 3c 39 1b 9a bd 66 56 87 bd
       0.050188188 0.03090441 -0.075247236 -0.06608276
000080 8c 5e a9 3c ae 27 44 bd 73 c5 e5 bc 2b 94 05 bd
       0.020674966 -0.047889404 -0.028048253 -0.032612007
000090 1e d1 2a bc 3f 25 8a 3d f5 2e 5c bc 64 30 d6 3b
       -0.010425834 0.067453854 -0.01343893 0.0065365303
0000a0 2a 71 26 bd 0e 26 5e bd e0 0b 39 bd 91 0a 4e bd
       -0.040635265 -0.05423551 -0.04517734 -0.050303046
0000b0 d6 74 26 bd 6d 7b 0a bc 02 b1 fd 3c 03 24 8a 3c
       -0.040638767 -0.008452279 0.030968193 0.016862875
0000c0 b9 0f 78 3d 06 e7 81 3d d9 81 2e 3d 82 dc ca 3c
       0.06056187 0.06342892 0.0426043 0.02476335
0000d0 31 15 12 bd e7 ac 5c 3d 0a a4 dd 3c f3 45 91 bd
       -0.03566474 0.05387583 0.027055759 -0.0709342
0000e0 04 1f 69 3d 17 63 73 bd f9 f3 1f 3d a1 f0 81 3d
       0.056914344 -0.05942067 0.03905103 0.063447244
0000f0 0e 25 ab 3c a9 05 80 bd a0 2a d1 3c f3 db 97 3b
       0.020891692 -0.062510796 0.02553302 0.0046343743
000100 68 25 91 3c 99 18 c8 3a da 80 88 bd ad 72 13 bd
       0.017718032 0.001526612 -0.066652015 -0.035998035
000110 ec ba 0d bc 9a 4b 84 3c 17 02 80 3d 7a e8 a1 bc
       -0.008650523 0.01614933 0.062503986 -0.019764174
000120 e7 e8 cf bc 6b c7 81 3c 77 77 84 bd 7c 78 15 3d
       -0.025379611 0.01584216 -0.064680986 0.036491856
000130 d4 eb 0e bd db 7e 3c bd ef 85 8c bd c4 3f 70 3d
       -0.034892872 -0.046019416 -0.06861483 0.05865456
000140 9c 5c 93 3d 91 1e 30 3d 2a 10 1f bc f8 9d 68 3d
       0.07195398 0.0429979 -0.009708444 0.056791276
000150 04 3b 65 bc 36 e6 b4 bc 05 e1 88 bc 30 05 79 3d
       -0.013991121 -0.02208243 -0.01670886 0.060795963
000160 02 55 5b bd 64 63 7a bd 27 68 db 3c de 31 5e 3d
       -0.053547867 -0.061129943 0.026783062 0.054246776
000170 14 3f 73 bd 66 47 3b bd ad c4 80 bc 8c e2 c9 3c
       -0.059386328 -0.045722388 -0.015718782 0.024644159
000180 29 98 44 3d 48 e1 1e bd 80 18 13 bd e5 7d 68 3c
       0.047996674 -0.038789064 -0.035912037 0.014190172
000190 53 66 6a 3d 1e cb 2a 3b e9 18 25 bc ce cf 65 bc
       0.05722649 0.0026061009 -0.01007674 -0.014026595
0001a0 e8 fc 91 3d d6 e6 3d bd fa 6c 34 bd 21 fd 8c 3d
       0.07128316 -0.04636272 -0.04404924 0.06884218
0001b0 41 24 22 3c c9 eb 09 bd 81 da 7f bd b6 7e 45 bc
       0.009896339 -0.033672128 -0.06246424 -0.012054136
0001c0 00 79 93 3b d5 59 72 3b da 45 ca 3b 57 c3 50 3d
       0.0045005083 0.0036979814 0.0061728777 0.05096754
0001d0 db 49 a0 3d 21 ae 14 3c 4e 2b f3 bc d4 30 67 bc
       0.07826587 0.009074719 -0.029683735 -0.014110763
0001e0 50 c6 68 bd 22 06 59 bb 5e 09 69 3d 95 b2 22 3d
       -0.05682975 -0.0033115228 0.0568937 0.03972109
0001f0 6e 42 4d bd 90 72 60 3d 22 76 02 bc 64 2c 74 bc
       -0.05011218 0.054796755 -0.007962735 -0.014903162
000200 27 00 53 3d 59 20 a2 3c cd 05 2c bd 8e a1 8b bd
       0.051513817 0.019790815 -0.04199772 -0.068179235
000210 3b 2e 64 bd b6 f5 66 3d f6 a2 19 bd 26 ea 10 3d
       -0.05570815 0.056386672 -0.037508927 0.03537955
000220 61 46 c4 bc 46 3d 7b 3d 46 84 4f 3d 82 61 0f 3d
       -0.02395934 0.06133773 0.050663255 0.0350051
000230 20 5e b9 bc 1c cd ef 3c c8 aa 37 3d e9 0e fb bc
       -0.02262789 0.029272608 0.044840604 -0.030646758
000240 52 ec a6 bc 45 91 46 3d 7d 3b 9b 3d 51 4e 27 bd
       -0.020376358 0.048478384 0.07579706 -0.040846173
000250 21 c3 b4 3c 93 8d 43 3d 48 4a 60 3d 7a 7b 33 3c
       0.022065701 0.047742438 0.05475834 0.010954732
000260 55 02 83 3d 8f a0 81 bd 6a c7 86 bd 00 12 65 3c
       0.06396929 -0.06329452 -0.06581004 0.013981342
000270 d5 c2 d1 bb 37 da 3d 3d 87 35 c4 3c b3 35 84 3b
       -0.0064013996 0.046350684 0.023951305 0.0040347218
000280 a1 37 2b bd a6 4f ed bb 1f 69 0b 3c 5d e7 98 3c
       -0.0418011 -0.007242161 0.00850895 0.01866501
000290 d8 ae fe bc d3 65 1f 3d 25 86 ab bc 3c d2 99 3d
       -0.031089231 0.038915467 -0.020937989 0.07510802
0002a0 69 b2 d5 3b ff ad 81 3d a2 eb 03 3c 68 1d 5f bd
       0.0065215123 0.06332015 0.008051785 -0.054471403
0002b0 c7 cc 0f 3c a4 0b 64 3d 19 11 22 3d 08 9b 69 3d
       0.00877685 0.055675164 0.039567087 0.057032615
0002c0 ac f3 3a bc fe 28 87 3c 16 d8 a9 3a 66 ff bb bc
       -0.011410635 0.016499039 0.0012958075 -0.022948932
0002d0 61 88 99 bc ae 14 92 3d a2 b8 19 bd 0f 9f 4e bc
       -0.018741788 0.071328506 -0.037529595 -0.012611165
0002e0 42 e5 82 3d 9e 69 20 bd 75 41 64 bd 8f 02 73 bd
       0.06391384 -0.039163224 -0.055726487 -0.059328612
0002f0 01 c2 95 3d 51 87 0a bd c6 3b 3c 3d 1d 03 74 bc
       0.07312394 -0.033820454 0.045955442 -0.01489332
000300 0f a9 3d 3c 08 4f 06 bc fa ae 7b bd 6f d3 79 bd
       0.011575951 -0.008197553 -0.061446168 -0.060992654
000310 67 c8 58 bd 99 d0 da 3c 69 28 72 bd dd ef 73 3d
       -0.052925494 0.026710795 -0.05912057 0.059554923
000320 21 2c 4b bd 0b 56 ea 3c 65 6d 84 ba ba 01 66 3d
       -0.04960263 0.028605482 -0.0010103403 0.05615399
000330 15 ff 3d bd 8b f0 14 3d 2e fc 8f 3c a3 40 1a bd
       -0.046385843 0.036362212 0.017576303 -0.0376593
000340 f7 17 52 3c 50 7a 12 3d a4 c1 64 3c f3 84 53 bd
       0.0128230965 0.035761178 0.013962183 -0.051640462
000350 f2 c4 80 3d 3b c2 68 bb 51 31 e2 bc a9 cb 84 3d
       0.06287564 -0.003551616 -0.027611407 0.064841576
000360 df 11 f2 3c 4f a0 eb bc 54 aa 54 bd 86 f8 7f 3d
       0.029549537 -0.028762965 -0.05192025 0.06249287
000370 cb e8 19 3d 72 33 09 bd e1 41 86 3c a4 e4 42 3d
       0.037575524 -0.033496328 0.016388835 0.04758133
000380 c2 fa 21 3c a4 fd 02 3c 7c 5d 57 bd 7c 20 8e bd
       0.0098864455 0.007995043 -0.052579388 -0.0693979
000390 e5 d0 d0 bb 25 e1 4f bd 6f 97 89 bd 80 bf b2 ba
       -0.0063725584 -0.050751824 -0.06718337 -0.0013637394
0003a0 83 e9 0d bd 16 cf 32 3d 45 6e 72 bd 64 d8 09 bd
       -0.034646522 0.043654524 -0.059187192 -0.03365363
0003b0 2f 14 53 bd 80 97 1a 3b 1a 84 21 3d e1 a0 2d 3d
       -0.05153292 0.0023588836 0.039432622 0.042389754
0003c0 5e 5b bb 3c c3 07 8c bd 6b ea 27 bd 55 74 d7 bc
       0.022870716 -0.06837418 -0.040995043 -0.026300589
0003d0 ca 1a e0 3b 81 b7 a5 bc 6a ef 5b 3d 6b ae 62 3d
       0.006839131 -0.020229103 0.05369512 0.05534212
0003e0 15 6f c5 bc 4f 5f f3 bc 2b e7 42 3d e4 94 27 bd
       -0.02410082 -0.029708533 0.04758374 -0.040913478
0003f0 88 83 af bb 8d 3d 72 bd c3 a4 79 3d 84 7f b7 3c
       -0.005356256 -0.05914073 0.060948145 0.022399671

batch_norm_c4.weight f4 [64]
000000 51 72 7f 3f bd 16 80 3f 23 34 80 3f bc 1e 7f 3f
       0.9978381 1.0006939 1.0015911 0.9965627
000010 4c 98 7f 3f 48 88 7f 3f f3 46 7f 3f 27 08 80 3f
       0.9984176 0.99817324 0.99717635 1.0002488
000020 a5 39 80 3f 27 64 80 3f 9b e9 7f 3f de 2c 80 3f
       1.0017592 1.0030564 0.9996583 1.0013692
000030 12 50 7f 3f 74 07 80 3f f6 f1 7e 3f e9 e5 7f 3f
       0.9973155 1.0002275 0.99587953 0.9996019
000040 7c a1 7f 3f 30 49 7f 3f ae 5d 80 3f 63 67 80 3f
       0.9985578 0.9972105 1.0028589 1.0031551
000050 23 25 80 3f ce 1b 80 3f 8a 07 80 3f 71 97 7e 3f
       1.0011333 1.0008485 1.0002301 0.9944983
000060 1c b1 7f 3f 3e 26 80 3f ad a8 7f 3f ce fb 7f 3f
       0.9987962 1.001167 0.99866754 0.999936
000070 ad ed 7f 3f f7 90 7f 3f c2 cd 7f 3f 67 26 80 3f
       0.9997204 0.99830574 0.99923337 1.001172
000080 2e 0d 80 3f 5a e0 7f 3f 64 d3 7f 3f 9f f2 7e 3f
       1.0004022 0.9995171 0.9993193 0.9958896
000090 0b 15 80 3f 35 d6 7f 3f f5 17 7f 3f 2b 60 7f 3f
       1.0006422 0.9993623 0.9964593 0.99756116
0000a0 04 14 80 3f 99 35 80 3f 8c f2 7f 3f 6e 15 80 3f
       1.0006108 1.0016357 0.9997947 1.000654
0000b0 10 02 80 3f 63 01 80 3f 50 97 7f 3f 9f c8 7f 3f
       1.000063 1.0000423 0.9984026 0.999155
0000c0 a6 51 7f 3f 08 ac 7f 3f 30 6c 80 3f ba 5c 80 3f
       0.9973396 0.99871874 1.0033016 1.0028298
0000d0 17 e3 7f 3f 80 10 80 3f 65 28 80 3f ce 8e 7f 3f
       0.99955887 1.0005035 1.0012327 0.9982728
0000e0 4b e0 7f 3f a8 53 80 3f f3 1c 80 3f f1 99 7f 3f
       0.9995162 1.002553 1.0008835 0.9984427
0000f0 fe 74 7f 3f 4f 18 80 3f ae 39 80 3f ab 60 80 3f
       0.9978789 1.0007418 1.0017602 1.0029501

batch_norm_c4.bias f4 [64]
000000 50 42 81 bb 60 87 16 b9 4b c8 9a b6 f3 a0 04 bb
       -0.0039446726 -0.00014355546 -4.612875e-06 -0.0020237535
000010 e4 bd dd b8 3c 00 40 3a 0b 8f 9e ba 3b d2 1d ba
       -0.00010573471 0.00073242537 -0.0012097073 -0.00060204015
000020 46 7a 3b bb 24 bc 05 bb 7d 17 d7 39 e3 be fc 38
       -0.0028606816 -0.002040633 0.00041025496 0.00012051852
000030 8c f0 36 3a 71 66 af b8 11 1d af 3b 0e a3 8e b9
       0.00069785933 -8.3637315e-05 0.005344041 -0.00027205836
000040 e3 11 b6 35 03 39 eb 3a 57 93 40 b9 b3 67 d2 b9
       1.3565262e-06 0.0017946068 -0.00018365435 -0.00040131583
000050 2d 62 6f ba cb 9e d3 ba ba d1 53 b9 ab 0b 77 bb
       -0.0009131756 -0.0016145346 -0.00020200657 -0.0037696164
000060 0a 8d d5 b9 d2 f5 df 39 33 10 da b9 6a 6a 3b ba
       -0.00040731608 0.00042717025 -0.0004159227 -0.0007149341
000070 ca ae 2b b9 01 a8 84 3a cb 97 a5 b9 02 b1 d6 b8
       -0.00016372945 0.001012087 -0.00031584347 -0.000102372855
000080 0e ed 25 b8 72 77 40 bb a9 0d 94 3a 13 e5 50 3a
       -3.955984e-05 -0.002936807 0.0011295575 0.0007968705
000090 b3 29 6c 3a 7c 62 6e 3b da 32 24 3b 39 f4 72 ba
       0.0009008899 0.003637462 0.0025054724 -0.00092679594
0000a0 d9 0f a3 ba fe 5e c8 ba 59 cf 8a 3a af 76 1f 3a
       -0.0012440636 -0.0015287099 0.0010590359 0.0006083054
0000b0 f0 51 83 3a 46 2e 30 bb 0f 6f ab 3a 08 cb 8e 3a
       0.0010018926 -0.002688305 0.0013079363 0.0010894248
0000c0 4d 10 0c ba b3 f4 05 38 e1 ba ca b9 a8 5e 84 39
       -0.0005343005 3.1937565e-05 -0.00038667678 0.00025247526
0000d0 8e 7c 06 ba 3f 9e 2a ba d0 c6 43 3a 62 51 cb b5
       -0.00051302544 -0.0006508566 0.0007468285 -1.5148364e-06
0000e0 2b c4 2d 3b 63 92 08 39 30 41 ef ba 43 d6 80 ba
       0.002651463 0.00013024504 -0.001825368 -0.000982948
0000f0 b7 46 02 3a 54 ca 6a ba c9 e8 74 ba d0 50 76 bb
       0.0004969644 -0.0008956541 -0.0009342549 -0.003758479

batch_norm_c4.running_mean f4 [64]
000000 d9 58 7f 3e e2 38 9c 3e 73 21 65 3e 9f 58 98 3e
       0.24936236 0.30512148 0.22376041 0.29755113
000010 94 77 78 3e e5 bb 6f 3e 83 b7 80 3e 97 44 72 3e
       0.24264365 0.2341152 0.25140008 0.23658977
000020 a4 00 97 3e a7 4b 97 3e e6 ac 7b 3e 44 61 85 3e
       0.29492676 0.29549906 0.24577674 0.2605077
000030 ee bf 58 3e 63 b3 70 3e 0c 96 96 3e 60 a7 4f 3e
       0.21166965 0.2350593 0.29411352 0.20278692
000040 e8 ff 6d 3e 96 7d 8e 3e 14 43 8d 3e 32 64 93 3e
       0.23242152 0.2783019 0.2759024 0.2878738
000050 30 19 7a 3e 26 24 57 3e 79 6c 83 3e ec a3 96 3e
       0.24423671 0.21009883 0.25668696 0.29421937
000060 0c 1f 49 3e c6 26 a1 3e 63 38 8a 3e 76 4e 4b 3e
       0.1964075 0.31474894 0.26996145 0.19854149
000070 a5 b8 84 3e 44 a4 71 3e 9f b9 7f 3e 61 68 75 3e
       0.25922123 0.23597819 0.24973153 0.23965599
000080 e0 6d a3 3e 05 55 88 3e f2 e2 71 3e fd fd 6b 3e
       0.31919765 0.26627365 0.23621729 0.23046108
000090 bc 7f 69 3e 2d 77 5f 3e 39 d2 8c 3e e4 17 99 3e
       0.22802633 0.21822806 0.27504137 0.2990104
0000a0 5f 82 91 3e 00 c4 9c 3e d0 3e 77 3e 5b 39 7b 3e
       0.28419778 0.30618286 0.24145055 0.24533598
0000b0 21 de 8d 3e 63 74 72 3e 76 1f 69 3e 56 25 8d 3e
       0.27708533 0.2367721 0.22765908 0.27567548
0000c0 a0 6b 83 3e 61 1f 90 3e 9f c4 99 3e a9 f6 7c 3e
       0.2566805 0.2814894 0.30032822 0.24703468
0000d0 1c 7d b1 3e 89 02 95 3e 2f 73 7b 3e 6a 0a 6f 3e
       0.34665763 0.29103497 0.24555658 0.23343816
0000e0 2a 89 77 3e bb b8 6f 3e ee e1 88 3e 2e f9 96 3e
       0.24173418 0.23410313 0.2673487 0.29486984
0000f0 82 83 72 3e b8 aa 8b 3e f5 08 59 3e 82 95 a9 3e
       0.23682979 0.27278686 0.21194823 0.33121878

batch_norm_c4.running_var f4 [64]
000000 92 14 45 3e c2 a5 a5 3e df 93 06 3e 35 f8 8d 3e
       0.19246128 0.32353026 0.13142346 0.2772843
000010 0b 33 26 3e af 57 26 3e 8f e1 0f 3e fd e7 16 3e
       0.16230409 0.16244386 0.14050888 0.14736934
000020 34 2b 13 3e 26 60 8b 3e 0f 25 2c 3e 5c 38 76 3e
       0.1437195 0.27221793 0.16811012 0.24044937
000030 e8 1f b8 3d d8 4d 28 3e 1b 5b a3 3e 0e da b1 3d
       0.08990461 0.16435945 0.31905445 0.08684169
000040 a9 60 e7 3d d0 5a 80 3e a9 71 25 3e f8 72 a8 3e
       0.11297733 0.25069284 0.16156639 0.32900214
000050 31 51 30 3e 68 80 aa 3d 05 05 60 3e a8 d1 c6 3e
       0.17218472 0.08325273 0.21876915 0.3883183
000060 9f 49 05 3e 71 ec 2d 3e 0d 4e ea 3d 94 0c d1 3d
       0.13016365 0.16984726 0.11440668 0.10207477
000070 fd 8c 03 3e 81 5f e5 3d 50 9c 35 3e cc d5 30 3e
       0.12846752 0.111998565 0.1773541 0.17269057
000080 ce 6c a5 3e a0 59 00 3e ea 4c bd 3d f7 37 10 3e
       0.32309574 0.12534189 0.09243186 0.14083849
000090 c2 57 cd 3d 80 ac f0 3d 72 d9 6a 3e a4 62 69 3e
       0.10026504 0.11751652 0.22934511 0.22791535
0000a0 dc 9b 36 3e a9 f7 43 3e 5b 3f 0f 3e bf 9a 2b 3e
       0.17832893 0.19137444 0.13989012 0.1675825
0000b0 b6 73 aa 3e 67 ca 0d 3e 7e a4 5f 3e 40 2e 0e 3e
       0.33291405 0.13846742 0.21840093 0.1388483
0000c0 2f 3a 7c 3e 8e 91 88 3e de 65 41 3e af 6a 88 3e
       0.2463157 0.2667355 0.18886515 0.26643893
0000d0 72 cc 8f 3e 4f 42 99 3e f2 42 0b 3e a6 ab 01 3e
       0.28085667 0.29933402 0.13599756 0.12663135
0000e0 34 69 75 3e 1b 86 20 3e 3a 74 76 3e e4 9f b8 3e
       0.23965913 0.15676157 0.24067774 0.36059487
0000f0 36 b5 e8 3d 2f 96 2e 3e 99 7f 07 3e e9 e0 75 3e
       0.11362688 0.17049478 0.13232268 0.24011578

conv4.weight_v f4 [64, 1, 5]
000000 d4 cc 92 3e 2f c9 bc 3e 8d d1 c8 be 59 89 c6 3e
       0.28671896 0.3687224 -0.39222375 0.38776663
000010 46 45 cc 3e 56 2d d2 3e c3 26 cf be 8d e7 92 3e
       0.398966 0.41050214 -0.4045926 0.28692284
000020 4d d9 c3 3d 20 3c f8 3c c5 de 7e 3e 0a e4 33 be
       0.09562931 0.030302107 0.24889667 -0.17567459
000030 ba ed c8 bd dc b8 99 bc 1d 4b e6 be c2 60 bc be
       -0.09810968 -0.018764906 -0.44979182 -0.3679257
000040 71 b2 ca be e1 c2 af be e7 ee 33 be c9 8b 96 3e
       -0.39589265 -0.34328368 -0.17571603 0.29403523
000050 f4 04 e5 be f0 88 c3 3e 4f 22 23 bc b2 48 b7 be
       -0.4473034 0.38190413 -0.00995691 -0.3579765
000060 ec a8 8c 3e 92 64 a1 3e 9d a3 bc be b9 48 c6 3e
       0.27472627 0.31522042 -0.36843577 0.38727358
000070 a4 08 66 be 60 e3 00 3e d9 73 ed 3d 79 38 b0 bc
       -0.22464234 0.12586737 0.11594362 -0.021511303
000080 40 b7 c1 be 8f b3 8d 3e 2d 8a c6 be 13 eb 82 be
       -0.3783512 0.27676055 -0.38777295 -0.25569972
000090 e8 b8 e7 bc f5 e3 01 3e 66 f0 c7 3e a1 29 83 bc
       -0.028286412 0.12684615 0.39050597 -0.016011061
0000a0 27 f1 a8 bd eb a8 97 be 38 94 d2 3e d8 8f dc be
       -0.08249121 -0.29621062 0.41128707 -0.43078494
0000b0 be 84 40 be 28 54 5d be d9 28 ce be 6d 5e 2a 3e
       -0.18800637 -0.21614134 -0.4026554 0.16637583
0000c0 e6 68 82 3e c0 8a ae 3e 4f 58 13 bd b3 80 e1 be
       0.25470656 0.34090233 -0.03597289 -0.44043502
0000d0 76 06 84 3e a5 b9 da be 24 b2 87 be 71 95 25 3e
       0.2578618 -0.4271976 -0.26503098 0.16170289
0000e0 8a f8 4c 3e 16 dc e3 3d 43 07 8d be a9 1f 72 be
       0.20016685 0.111259624 -0.27544603 -0.2364489
0000f0 32 a1 21 3d 70 55 4e 3e b3 8f b9 bc bd 91 79 be
       0.03946037 0.2014978 -0.022651529 -0.24372001
000100 46 00 1b 3e 5f 25 12 3e 63 0f 1f be 85 1f 49 bc
       0.15136823 0.14272068 -0.15533213 -0.012275581
000110 c3 fd 80 3d 74 ea 61 be 10 1e ed bd 30 2e 25 be
       0.06298401 -0.22062093 -0.115779996 -0.161309
000120 c7 f2 8d bc d1 27 83 be e9 a7 94 be d7 9f 8f be
       -0.01732768 -0.25616315 -0.29034355 -0.28051636
000130 db 36 c0 3d c8 ed a6 3c ba 6f 0d be a5 39 a1 ba
       0.09385463 0.020377055 -0.13812152 -0.0012300505
000140 fe 14 df 3d b8 74 07 3e ce f1 14 3d a5 38 e1 bd
       0.10892676 0.13228118 0.036363415 -0.10997132
000150 ad 07 83 be 55 09 50 be bd 6a 69 bd 58 be a8 be
       -0.25591794 -0.2031606 -0.05698656 -0.3295772
000160 97 b6 58 bd cf 65 94 be 33 f6 d8 be 16 7f 42 3e
       -0.052908506 -0.28983924 -0.42375335 0.18993792
000170 98 7c 88 bd b3 5c db bd d4 95 57 3e 6b 5f 96 bd
       -0.06664389 -0.1071104 0.21053249 -0.07342418
000180 29 a8 bc bd ee 6c e6 3e a4 62 4b 3e ae 01 ba be
       -0.092117615 0.45004982 0.19861847 -0.36329406
000190 20 58 a8 3e 64 a6 6e be 27 0b ca bd ac bf 57 3e
       0.32879734 -0.2330566 -0.098654084 0.21069211
0001a0 07 2a da 3e b4 18 b8 be cb bd 8c be 15 0b c8 be
       0.4261019 -0.35956347 -0.2748855 -0.39070955
0001b0 2a b0 d7 be ec ec d1 be 1f c6 b1 be 71 d0 c9 3d
       -0.4212659 -0.4100107 -0.34721467 0.0985421
0001c0 52 ed 2f 3e 82 df b4 3e 93 26 95 3e 96 90 bc be
       0.17180374 0.35326773 0.29130992 -0.3682906
0001d0 9c 43 92 3b b8 65 cb be b9 9f c9 3e 2e cf 97 bd
       0.004463626 -0.39726043 0.3937967 -0.07412563
0001e0 5f ac 27 3e 9a ba 92 be 5a 4c be 3e b5 9e a8 be
       0.16374348 -0.2865799 0.37167627 -0.32933584
0001f0 ba c4 1a 3e c5 e0 ce bd 17 7e 75 bd 91 54 cb bd
       0.15114108 -0.10101465 -0.0599347 -0.09928239
000200 c6 42 88 3e 52 c9 d9 3d 5c 35 74 3e 15 aa 1a be
       0.26613444 0.10634102 0.2384848 -0.15103944
000210 7e df 80 be 34 03 94 3e a5 2e aa be 39 38 76 be
       -0.2517051 0.28908694 -0.33238712 -0.24044885
000220 8b 4e d3 bd 7a 85 ad be 08 20 9b 3e 17 27 c7 3e
       -0.10317715 -0.33890897 0.30297875 0.3889701
000230 e4 d8 5e be 3f ac a0 be 54 2e 40 3d 94 75 7d 3e
       -0.21762425 -0.31381413 0.046919182 0.24751884
000240 d5 cf a2 3e bf bd 29 be b4 cf 45 bc 87 9b 53 be
       0.31799188 -0.16576289 -0.012073446 -0.20664798
000250 3f af dd be 14 3c 8c bd 5c 2b 0a be f5 a6 8d 3e
       -0.43297765 -0.068473965 -0.13493103 0.2766644
000260 a8 dc 99 3e d8 8d a9 be bd e5 15 3e 71 44 a3 be
       0.3005116 -0.3311603 0.1463842 -0.31888154
000270 d1 79 7b be c2 68 bb 3e 8c 93 04 be 2c 73 83 3e
       -0.24558188 0.3660336 -0.1294691 0.25673807
000280 7c be df be 0d 2d cd be c3 9e 86 3d 2a 24 d1 be
       -0.43700016 -0.40073434 0.0657325 -0.40847903
000290 4b ca 9f 3e 7a 14 b0 3e 4d 7c 97 be fb 05 76 3e
       0.31209025 0.34390622 -0.2958702 0.24025719
0002a0 f3 49 2f be 43 b9 d7 be 1c e1 67 3e 2f 95 31 3e
       -0.17118053 -0.4213353 0.22644466 0.17342065
0002b0 69 50 a6 3e e0 27 aa 3c 97 7c 0b 3e 5c e7 b6 3e
       0.32483223 0.020770967 0.13621746 0.35723388
0002c0 aa 47 b4 be 46 f1 33 3e c0 3b 96 bd 1f ba 26 3e
       -0.35210925 0.17572507 -0.07335615 0.16281937
0002d0 fe 0c b2 3d f9 03 f2 bd c3 7b dc be 2d 6c 9f 3d
       0.08693884 -0.11817164 -0.43063173 0.07784305
0002e0 7d 98 b6 be e8 7c 7b 3e c2 c7 1d 3e 52 92 88 be
       -0.35663214 0.24559367 0.15408233 -0.26674134
0002f0 34 40 43 3e 19 9f cc 3e e4 36 d5 bd fe 5d 79 3e
       0.1906746 0.39965132 -0.1041086 0.24352261
000300 cc 0b df be 74 04 b6 be 73 20 4d be 98 7b 5a 3d
       -0.43563688 -0.35550272 -0.2003191 0.053340524
000310 aa aa 0e 3d 73 03 ae 3e d6 f2 c9 3e e2 ee 81 be
       0.034830727 0.33987007 0.39443082 -0.25377566
000320 d9 73 d0 be d6 8b 93 bc a5 86 6a 3e 6e 27 1e 3e
       -0.40713385 -0.018011015 0.22902925 0.15444729
000330 a5 db a3 be e3 99 3e 3e 48 9a b6 be 36 fb b9 3e
       -0.32003513 0.1861339 -0.35664582 0.3632447
000340 f1 68 fc 3d c5 38 a2 be 74 de fb 3c fa b1 97 3e
       0.123247035 -0.31683937 0.030745722 0.29627973
000350 1b b6 e1 3e 44 c9 12 be 14 47 71 bd c5 8b d5 3b
       0.44084248 -0.14334589 -0.058905676 0.006516906
000360 c4 3a 07 be 80 12 9f 3e 5b 8e bd be 6d 90 d2 3e
       -0.13206011 0.31068802 -0.3702267 0.41125813
000370 80 7f 83 3e cd 51 e5 be 9a c5 cc 3e bb d2 ba 3e
       0.25683212 -0.44788972 0.39994508 0.364889
000380 92 26 be 3d 21 c0 35 be a5 de 4c 3e 51 cf 88 3e
       0.092847005 -0.17749073 0.20006807 0.2672067
000390 68 c5 e4 3e 74 48 8e 3e 70 95 8f bd 45 ac 1c be
       0.4468186 0.27789652 -0.07010925 -0.1530009
0003a0 a6 c2 57 3e 8b 8f 55 be 8e 9a d0 be 00 18 c0 3e
       0.21070346 -0.20855539 -0.40742916 0.3751831
0003b0 78 1d 6f be 14 f8 a0 3d 61 58 fa 3c a6 cc 93 be
       -0.23351085 0.07859817 0.03055972 -0.28867072
0003c0 5b 6b da be 48 65 ca 3d ca b8 0c be e2 49 08 3e
       -0.4266003 0.09882599 -0.13742366 0.13309434
0003d0 9c cb 49 bc 77 0c 06 3e b7 cd 01 be 12 f0 95 be
       -0.012316611 0.13090692 -0.1267613 -0.29284722
0003e0 97 25 73 3c b5 63 da 3d db 86 df be a7 5e c5 be
       0.014840505 0.10663549 -0.43657574 -0.38548777
0003f0 94 f2 d5 3e 8c 61 a8 3e 6b 74 db be 91 e9 53 be
       0.41786635 0.32886922 -0.42862257 -0.20694567
