lightning_logs/version_7/checkpoints/epoch=8-step=54.ckpt (torch, 145049 bytes, 44 tensors)

batch_norm1.weight f4 [40]
000000 fb 62 7f 3f 9d 29 82 3f b3 5c 7e 3f 2e ed 7f 3f
       0.9976041 1.0168949 0.993602 0.9997128
000010 0f eb 7f 3f 89 1f 7f 3f 4e 1b 80 3f d2 10 80 3f
       0.99968046 0.99657494 1.0008333 1.0005133
000020 37 51 80 3f ea 46 80 3f 53 bf 7f 3f ef 4f 7f 3f
       1.0024785 1.0021641 0.9990131 0.99731344
000030 5f 1f 80 3f b4 85 80 3f 65 39 7f 3f 68 9e 7e 3f
       1.0009574 1.0040803 0.9969695 0.9946046
000040 aa d2 80 3f ef 56 80 3f 8f 37 80 3f 3d 97 80 3f
       1.006429 1.002653 1.0016955 1.0046154
000050 6d 3d 83 3f 59 03 80 3f 1b ed 7f 3f 0a 33 7f 3f
       1.0253121 1.0001022 0.9997117 0.99687254
000060 3a 9f 7f 3f 39 14 7f 3f 69 03 80 3f 0e 11 7e 3f
       0.99852335 0.9964023 1.0001041 0.99244773
000070 36 32 7f 3f 16 c2 7f 3f 72 f9 7e 3f e5 a5 7f 3f
       0.9968599 0.99905527 0.99599373 0.9986251
000080 76 87 7d 3f 37 79 7f 3f e1 0d 7f 3f 87 f2 7e 3f
       0.9903482 0.99794334 0.9963055 0.9958882
000090 05 17 80 3f d3 08 80 3f 60 6d 7f 3f 5d 01 80 3f
       1.0007025 1.0002693 0.9977627 1.0000416

batch_norm1.bias f4 [40]
000000 a8 eb a2 3a d7 af aa bb f2 44 5f bb 48 ea 49 39
       0.001242985 -0.00520895 -0.0034068194 0.0001925613
000010 34 b3 43 3a c6 57 fe ba bd 6c 7e 3b e3 d6 2e 3b
       0.0007465363 -0.0019404821 0.0038822137 0.0026678375
000020 d5 81 5c b9 f1 27 82 3b df 4d 57 3a 6a bc 48 3a
       -0.00021029201 0.0039720465 0.0008213203 0.00076574704
000030 d1 b9 cd ba 86 4b 90 39 ec 86 92 39 1c 22 21 3a
       -0.0015695636 0.0002752209 0.00027947815 0.0006146745
000040 91 9e 0e 3b c2 03 1f bb ed 72 05 3a 41 ba ca ba
       0.0021761993 -0.0024263714 0.00050906726 -0.0015466885
000050 03 ef 1f 3b b0 70 dc ba 10 fb 86 3a 28 8a 40 3b
       0.0024403937 -0.0016818251 0.0010298211 0.0029379223
000060 53 d3 4a 3b 90 88 e8 3a fb ad b5 ba d8 0a b5 3a
       0.0030948713 0.0017740894 -0.0013861054 0.0013812436
000070 10 28 f2 ba b2 9e 82 bb 06 a6 ed 3a 71 d6 ae 3a
       -0.0018475074 -0.003986203 0.0018131144 0.0013339055
000080 3c 4c 21 bb 42 ad 4a ba 8b 8f 1c 38 98 46 e9 ba
       -0.002461209 -0.0007731506 3.7326983e-05 -0.0017797528
000090 7c f7 10 ba b7 6e 83 3b 5d 84 cf b9 1d 29 4d bb
       -0.0005530042 0.004011001 -0.00039580735 -0.0031305023

batch_norm1.running_mean f4 [40]
000000 7f 55 bf 3f f8 35 72 42 cd fa af 40 9d 5a 15 40
       1.4947966 60.552704 5.4993653 2.3336556
000010 4f 75 0f 40 d6 63 f3 3f df 8a 32 40 3a 1e 04 40
       2.241535 1.9014843 2.789726 2.064345
000020 ac b3 18 40 09 62 09 40 5b 98 3e 40 3e c9 3e 40
       2.3859663 2.1466086 2.978049 2.9810328
000030 86 18 29 40 08 fd a7 3f ab f0 5b 40 9f 20 6c 40
       2.6421218 1.3124094 3.4365642 3.689491
000040 9e fc 59 40 14 06 24 40 86 c9 84 3f eb 6e f4 3f
       3.4060435 2.562871 1.0374 1.909635
000050 7a 4a 1a 40 2f 4e b3 40 72 db 8d 3f 18 3a cb 3f
       2.4107957 5.603294 1.1082594 1.5877104
000060 56 12 13 40 5e b4 48 40 6d cf 91 3f 13 69 43 40
       2.2979941 3.1360087 1.1391426 3.0532882
000070 4f 34 37 40 59 5f 48 40 1a b8 48 40 48 6e 9f 40
       2.8625677 3.1308196 3.1362367 4.982212
000080 44 fd 3d 40 d0 8e a5 3f 30 8b 36 41 f5 44 0d 41
       2.968583 1.2934208 11.408981 8.829335
000090 68 27 24 41 a9 01 a4 40 e7 d7 81 43 35 8b 95 43
       10.259621 5.1252027 259.68674 299.08755

batch_norm1.running_var f4 [40]
000000 ff 53 81 3e f6 81 26 44 16 3a 09 3f 3e 69 ad 3f
       0.25259396 666.03064 0.5360426 1.3547742
000010 27 9e 45 40 52 5e 29 40 11 e7 5c 40 ad 70 37 40
       3.0877779 2.6463819 3.4516032 2.8662522
000020 fc 24 5d 40 31 15 3f 40 ee 13 5a 40 ed 0f 5c 40
       3.4553823 2.9856684 3.4074664 3.438472
000030 ac b2 7f 40 a9 5d 60 3e 11 5a a8 40 a9 99 9d 40
       3.9952803 0.21910729 5.2609944 4.9250073
000040 47 80 b0 40 16 8a 02 40 6f 2c f9 3d 12 77 6b 3f
       5.515659 2.039678 0.12166678 0.9197856
000050 51 90 67 3f 49 85 9c 3f 0a b3 06 3f 90 9b f5 3f
       0.90454584 1.2228175 0.5261694 1.9188099
000060 44 fc 34 40 09 d3 c1 40 af 21 07 3f 7a b8 5b 40
       2.827897 6.057011 0.5278577 3.4331346
000070 8f 75 67 40 bf 57 57 40 6e 16 58 40 e7 0b 5c 40
       3.6165502 3.3647306 3.376369 3.4382265
000080 a2 7b 51 40 a6 6b 0a 3f ac 32 07 44 b2 e0 3d 43
       3.273171 0.5407051 540.79175 189.87772
000090 72 d1 0b 44 ad 58 ff 42 0a 0b 09 47 7c 54 26 47
       559.2726 127.673195 35083.04 42580.484

dense1.weight_g f4 [16, 1]
000000 6d af f9 3e dd a0 0c 3f 89 b6 12 3f b0 26 27 3f
       0.48766652 0.5493296 0.57309777 0.6529341
000010 b5 e0 10 3f 2c 07 00 3f 21 b7 12 3f f8 ca 14 3f
       0.56592876 0.50010943 0.5731068 0.58122206
000020 1c 1c 17 3f 41 59 10 3f 92 0a 24 3f a7 ca fc 3e
       0.59027267 0.5638619 0.6407863 0.4937336
000030 33 5b 31 3f df a7 15 3f bf aa 06 3f df 45 0f 3f
       0.69279784 0.58459276 0.5260429 0.5596599

dense1.weight_v f4 [16, 40]
000000 fc d7 2d 3d e0 19 35 bd 96 d6 f8 3c 49 43 00 bc
       0.042442307 -0.04421413 0.03037576 -0.007828542
000010 12 3c 8c 3d ad 27 09 3d d5 c8 92 bc 4d b6 f7 bd
       0.06847395 0.033485103 -0.01791803 -0.12095318
000020 db 93 1c 3d c8 3e 08 be c0 de c2 3c 34 06 42 3c
       0.038226943 -0.13305199 0.023787856 0.011842299
000030 c6 8e 09 bd 56 40 09 3e 43 4a 82 3c ff 63 98 3d
       -0.033583425 0.13403448 0.015904551 0.07440948
000040 21 68 8f 3d 09 cf c6 bd 4d 45 81 bd 44 88 31 3e
       0.07002283 -0.097074576 -0.06312046 0.17337137
000050 46 7d 02 be a4 93 71 bb 0b 36 a1 bb 09 f3 e6 3d
       -0.127431 -0.0036861682 -0.0049197725 0.11276824
000060 39 ea 9a bc 3b 74 3a 3d dd e6 41 bc f9 f7 ab bd
       -0.018910514 0.045521002 -0.011834827 -0.083969064
000070 7f d1 b0 bd 2e 7d 99 bd 4c 86 0e be 66 17 c7 bd
       -0.08633708 -0.07494579 -0.13918418 -0.0972126
000080 04 35 38 3d 8d f4 e1 3d 91 06 24 3c 8c 42 a0 bd
       0.044972435 0.110329725 0.010011331 -0.07825193
000090 e8 5b 98 3d 24 69 83 bd e7 d7 18 bd 9a 35 b8 bd
       0.07439405 -0.06416538 -0.037315276 -0.08994599
0000a0 d8 06 61 bd d9 b1 0c be 99 9a 9a 3d 8a e2 84 3d
       -0.054938167 -0.13739718 0.075490184 0.064885214
0000b0 79 73 0f 3d 2d ba a3 3d 5c dd 8d 3d 04 3e bc 3b
       0.035022233 0.079944946 0.069269866 0.0057446975
0000c0 ae cf 91 3c a1 a7 33 3c 9e 77 b1 3d a1 cd e4 3d
       0.017799225 0.010965259 0.08665393 0.11172033
0000d0 3b d7 ea 3d ca bb b4 3d 5f 13 37 bd f7 fc 26 bc
       0.11466833 0.088248804 -0.044696208 -0.010192147
0000e0 30 75 19 bd a6 ee ca 3d ac 61 95 3c ac 68 10 3e
       -0.037465274 0.099088 0.01823505 0.14102429
0000f0 e3 e3 90 3d 8c 46 14 be 81 b6 35 3d 15 e5 19 3e
       0.07074716 -0.14480036 0.044363502 0.15028794
000100 6e 61 0e 3e 6f f9 03 bb 17 65 5d 3d b7 64 19 be
       0.13904354 -0.0020137688 0.054051485 -0.14979826
000110 35 8b 40 bd fb 27 9d 3d 90 3d 11 be 15 4a 08 3e
       -0.04700776 0.07673641 -0.1418364 0.1330951
000120 dc c9 d1 bd 39 68 3e 3d 9d 5a 03 b9 17 37 0d 3d
       -0.1024358 0.046486113 -0.0001252689 0.034476366
000130 47 2c a6 3c ff 39 16 be 5e ba 05 bd 85 04 cd bd
       0.020284785 -0.14670561 -0.032648437 -0.10010628
000140 8a b6 e0 3d c3 62 10 3c dc 25 08 be cc 3e 16 3d
       0.109723166 0.008812609 -0.13295692 0.03668098
000150 63 26 8d 3d 88 63 4d bd 46 9c 3e bc d6 db 0a 3d
       0.06892087 -0.05014375 -0.011633938 0.03390106
000160 05 c2 d6 bd 0f 74 cc bd 90 15 75 bc ff 7f de bd
       -0.10486225 -0.09983074 -0.014958754 -0.10864257
000170 06 83 c7 3d 33 d9 1a bc f8 8d 95 3d b5 3b 68 3d
       0.097417876 -0.009451198 0.07302469 0.056697566
000180 cb 30 15 be 0b a5 c8 bd 4c 9d d4 bd 55 e9 a5 bd
       -0.14569394 -0.097971044 -0.103815645 -0.08101145
000190 8a 67 06 be 93 87 21 bd d6 bc 26 be 42 47 76 3d
       -0.13125435 -0.039435934 -0.16282973 0.06012655
0001a0 f6 11 c8 3d d4 80 4a 3d 57 bc c5 3d de d9 d8 3d
       0.09769051 0.049439266 0.096550636 0.1058843
0001b0 9f 1a 21 be 23 34 b1 3c 01 e5 0d 3e 71 16 01 be
       -0.15732811 0.021631306 0.1385689 -0.12606217
0001c0 0b c9 c0 bd 84 29 48 bc ac 2b b1 bd 68 96 38 bc
       -0.09413346 -0.012216929 -0.08650908 -0.011266328
0001d0 2b a4 ac bc 21 5e 1a 3e 84 3f 37 bc 49 2d ab 3d
       -0.021074375 0.1507497 -0.011184577 0.08358247
0001e0 26 6c d0 3d e6 b4 c2 3d 04 32 e5 bd 02 d3 e3 3d
       0.10176878 0.0950716 -0.1119118 0.11124231
0001f0 74 cf e0 3d 74 f6 ca bd fd 6f 54 bd d8 71 ac 3d
       0.109770685 -0.099102885 -0.051864613 0.084201515
000200 bd e2 25 be 4c d4 21 be 45 53 da bd 7d 08 22 3d
       -0.16199775 -0.15803641 -0.10660414 0.039558876
000210 94 a2 84 bd b1 af 22 be e8 0b 30 3d 7e fa 81 3d
       -0.06476322 -0.15887333 0.042980105 0.06346606
000220 9b 10 19 3d d2 ba 0f be 5a 28 1f 3e 53 17 1b bd
       0.03736935 -0.1403611 0.15542737 -0.03786404
000230 b4 68 4d be 45 0d 18 bd 42 1f dd 3d 75 b1 8e 3d
       -0.20059472 -0.03712203 0.107969776 0.06967441
000240 ef 8a c5 ba 92 a9 d7 3d 10 58 18 be 9a 91 d0 3d
       -0.0015071313 0.1053039 -0.14877343 0.10184021
000250 11 bb 19 3e fe ed c8 bd b0 c9 c9 3c bd 66 21 bd
       0.15012766 -0.098110184 0.024632305 -0.03940462
000260 8f 0b 08 be c3 36 91 3b ec 32 39 bd 75 de ea bd
       -0.13285659 0.004431577 -0.04521458 -0.114682116
000270 87 e2 e4 bd cc 34 c0 3c b7 5c 12 3e e9 d3 3b 3d
       -0.11176019 0.023462676 0.1429318 0.04585639
000280 3a 16 df bd c3 a9 0a 3e ae 46 dc 3c 07 4d 15 be
       -0.10892911 0.13541321 0.026889171 -0.14580165
000290 bd f5 22 3c 40 1b e4 3d ed 4c b8 bd bd 63 91 bc
       0.009946284 0.1113801 -0.089990474 -0.017747754
0002a0 83 c6 b5 bd 9a d1 0c be 36 92 b9 bd 01 b5 39 3c
       -0.08875754 -0.13751832 -0.09061091 0.011334659
0002b0 f8 0e cc 3d 2e 5c 17 bd 9a 79 12 be 32 13 09 bc
       0.099637926 -0.036953144 -0.143042 -0.008366393
0002c0 c1 23 13 be aa 7a 72 3c 62 dc 00 3e 88 70 6a 3d
       -0.14369108 0.014799753 0.1258407 0.057236224
0002d0 c6 9a 03 be 94 4c 30 bd b5 88 67 3d f4 44 26 3d
       -0.1285201 -0.04304178 0.05652686 0.040593103
0002e0 45 f2 11 be 48 0f a0 bd 41 85 4e bd a2 36 3c 3d
       -0.14252575 -0.07815415 -0.05042005 0.04595054
0002f0 35 7b 05 3e 1a c0 87 3d 64 41 5c 3d 88 1f 01 be
       0.13035281 0.06628437 0.0537733 -0.12609684
000300 a1 31 a9 3d ce e7 59 3d 57 e9 2d bd 0a 1c 7e bd
       0.08261419 0.05319958 -0.04245886 -0.06203846
000310 ae 7c 46 3d bd 16 94 bd ff 4c 8a 3d a0 63 fc 3d
       0.048458748 -0.072308995 0.06752967 0.123236895
000320 65 41 ec bd b1 23 bf bd ef 50 3d bd 5b c1 0a be
       -0.115359105 -0.093329795 -0.046219762 -0.13550322
000330 f3 a0 1e bc 1f a1 f0 3d 47 ee 7b 3d 54 fe 98 bd
       -0.009681928 0.117494814 0.061506536 -0.07470384
000340 e1 98 22 bd c4 3a a4 bd 2f f4 06 be 8f ed 49 bd
       -0.039696578 -0.08019021 -0.13179086 -0.04929882
000350 19 01 12 3c f1 d6 b0 bd 0f a3 f3 bd 1d cd 15 3d
       0.0089113945 -0.08634747 -0.11896335 0.036572564
000360 a9 9d c0 3b 5c eb 5d bd 7f 61 3f 3d e1 b6 e4 3d
       0.0058781696 -0.054179534 0.04672384 0.11167694
000370 48 e9 71 bd d2 c0 00 be 45 5f 09 3e 93 3a df 3d
       -0.059060365 -0.12573555 0.13415249 0.10899844
000380 c4 f1 24 bc f7 8a 86 bd 2e ae 94 bd d6 2c 03 3e
       -0.010067407 -0.06569474 -0.07259785 0.12810072
000390 1c ec a1 3d 8a f6 a4 bd e7 86 60 3b a0 b0 b8 3c
       0.079063624 -0.08054836 0.0034260096 0.022545159
0003a0 a7 b2 23 3c 9e 7d cd ba 2c f6 9c bd 3d 72 da 3b
       0.0099913245 -0.0015677696 -0.07664141 0.0066664503
0003b0 8a 87 30 bd 13 b2 50 bd d8 4a be bd c4 3a ba bd
       -0.04309801 -0.050951075 -0.09291619 -0.0909324
0003c0 71 1b 8d bd 32 52 6e 3d 58 b3 0e be 1d fe 21 be
       -0.0689 0.058183856 -0.13935602 -0.15819593
0003d0 0a 19 06 3e 1d 81 41 3d c0 ca ba 3d 5e 61 b5 3d
       0.13095489 0.047242273 0.09120703 0.08856462
0003e0 5c 88 40 bd d4 98 a7 bd 34 02 d0 bd 8f 61 a7 3b
       -0.047005042 -0.081834465 -0.1015667 0.0051080654
0003f0 e8 09 32 3d b7 20 15 be 5c c5 01 be af 82 bb 3d
       0.04346648 -0.14563261 -0.12672943 0.09155785

conv1.weight_v f4 [2, 1, 5]
000000 ff b6 bb be f1 bb 58 3e 12 3b 01 be 37 8a 96 be
       -0.36663052 0.21165444 -0.1262019 -0.29402325
000010 95 f6 8a bd a0 27 81 be db 36 c6 3d af ab 22 3e
       -0.06785313 -0.25225544 0.096784316 0.15885805
000020 ad a3 26 3d 4e 12 1a 3d
       0.040683437 0.037615113

batch_norm_c2.weight f4 [2]
000000 3e f0 81 3f 70 78 80 3f
       1.0151441 1.0036755

batch_norm_c2.bias f4 [2]
000000 a9 e1 2a bb 6d d2 aa ba
       -0.0026074445 -0.0013032682

batch_norm_c2.running_mean f4 [2]
000000 4b ca 3f 3e 81 ca ed 3d
       0.18729512 0.1161089

batch_norm_c2.running_var f4 [2]
000000 18 91 10 3d 53 e3 bc 3c
       0.035294622 0.023057615

conv2.weight_v f4 [64, 2, 3]
000000 8c 2b 83 bd 66 0f 97 3e 1d 64 ac 3e 9a 8c 1a 3b
       -0.0640479 0.29503936 0.3367013 0.002358234
000010 49 1a ad be ab 6b 44 3e 12 3c 23 3e 23 a7 43 3e
       -0.33809116 0.19181697 0.15940884 0.19106726
000020 93 06 1a be 20 2e 32 3e dd ce 9d 3e 67 0f 8a 3e
       -0.1504157 0.17400408 0.30821887 0.26964876
000030 2e 31 a4 be 3b ff 2f 3d 22 43 b1 be 2b c1 b0 be
       -0.3206877 0.042968016 -0.3462153 -0.34522375
000040 4e 61 8c be 41 36 2a 3e bf 93 8c 3e a1 c4 99 be
       -0.27417988 0.16622259 0.2745647 -0.30032828
000050 8b 74 ae bd 7a 86 04 3e f7 1f 5a 3e cf b8 3a 3e
       -0.085183226 0.12941924 0.21301256 0.18234561
000060 a3 19 90 3e 4f e0 6a 3e 82 d0 8f be 1c 3a 27 3e
       0.2814456 0.2293713 -0.28088766 0.1633076
000070 c9 d6 86 3d 66 18 ac be a8 92 88 3e 0a 8f 80 3e
       0.06583936 -0.33612365 0.2667439 0.2510913
000080 18 40 8a be 74 b0 82 bc 3c bd 4a 3e af bb da 3d
       -0.27002025 -0.01595328 0.1979875 0.10680329
000090 36 a5 c7 3e 48 a3 a1 be 74 88 37 bd af d9 cc be
       0.38993233 -0.31569886 -0.044807866 -0.4000983
0000a0 df 45 d1 3e b3 fd 62 be 0b 32 53 3e 8a de 7c 3e
       0.4087362 -0.22167091 0.20624559 0.24694267
0000b0 f7 8b ee bd d5 f6 7e be ff 17 ac 3e a4 07 cf 3e
       -0.1164779 -0.24898846 0.33612058 0.40435517
0000c0 09 de 49 bd 47 f2 45 bd ae 64 b3 3e 19 e7 25 3d
       -0.049284015 -0.048326757 0.3503775 0.040503595
0000d0 6e 32 6e be ae f7 6b 3e 10 70 c6 be 5a 66 96 3d
       -0.23261425 0.23043701 -0.38757372 0.07343741
0000e0 a9 56 95 be a0 61 66 bc 44 13 10 be 4f ea 34 be
       -0.2916768 -0.014061362 -0.14069849 -0.17667507
0000f0 60 4f 28 be 64 37 dd 3d d7 20 e1 3d 8d af ac be
       -0.16436529 0.108015805 0.10992592 -0.33727685
000100 14 3d c9 3e 1c af 84 3e a5 58 a3 be c2 cf c6 3e
       0.3930441 0.25914848 -0.31903568 0.38830382
000110 41 dd 8f bd 13 5d 85 be 30 47 36 3e aa 46 b3 3d
       -0.07024623 -0.26047572 0.17800593 0.087537125
000120 57 4b 2d be 2c 53 10 3e 80 58 13 3e 6d 33 2d 3e
       -0.16923271 0.14094228 0.14389229 0.16914149
000130 d1 2e 81 be c1 85 b5 be 94 c8 77 bd bf 3f c5 be
       -0.2523103 -0.3545361 -0.06049402 -0.38525197
000140 dd d3 a5 3d 8e 66 c9 be 49 4e 96 bd 9e 4c a3 3e
       0.0809705 -0.39336056 -0.073391505 0.31894392
000150 c4 b8 8d be 3b 01 ca bd cc 6c 29 3e 53 d7 9e be
       -0.27680027 -0.09863516 0.16545409 -0.31023654
000160 93 65 c6 be 4d b0 24 be 16 80 c2 3d 99 d8 de 3d
       -0.3874937 -0.16082878 0.09497087 0.108811565
000170 a5 67 74 be 09 53 c3 bd 07 ef b6 bd 1a 74 c8 be
       -0.23867662 -0.09537322 -0.089323096 -0.39151078
000180 c9 a3 92 3c 86 a8 49 bd 8b 65 a8 be fe fd 52 be
       0.017900364 -0.049232982 -0.3288997 -0.20604703
000190 08 4f 9b 3e 9f c1 1f 3e 06 21 b0 be 5a f1 21 3e
       0.30333734 0.15601204 -0.34400195 0.15814725
0001a0 13 3c d0 be d0 05 76 be a5 e2 7f 3d 59 cc 2b bd
       -0.40670833 -0.24025655 0.062472004 -0.041942928
0001b0 7e 69 88 be b1 e7 87 3d 11 48 b2 3d 52 87 9a 3e
       -0.26642984 0.066359885 0.08705152 0.30181366
0001c0 df af a8 bd d3 3e c0 3e 33 63 83 3e 83 27 28 be
       -0.0823667 0.3754793 0.2566162 -0.16421323
0001d0 8f 16 9c 3e bf 5a 56 be f1 8d b3 3d 64 27 15 3e
       0.3048596 -0.20933054 0.087673075 0.14565808
0001e0 5a a7 88 3c 7e bb 0a 3e 42 4a 3e 3e c9 e9 ba be
       0.016681362 0.13548085 0.18583015 -0.3650649
0001f0 42 c5 6d 3e 86 c3 16 3e d1 08 4d be be 7a a4 3e
       0.23219779 0.14723024 -0.20022894 0.32124895
000200 15 67 ba 3d c6 d9 92 be 9f d8 be 3e ac 77 2b 3e
       0.091016926 -0.28681773 0.37274644 0.1674487
000210 bf de 8c 3e c0 63 89 3d d0 fa e9 3d 73 8f 99 3d
       0.27513692 0.06708479 0.11424792 0.07498064
000220 84 1c bd 3e a6 5c b6 3e 2a bb 11 3e cb 76 8f 3b
       0.36935818 0.3561756 0.14231554 0.004378175
000230 ea 5c 90 be c6 6a 66 3e 73 85 57 be cd f8 ff 3c
       -0.28195888 0.22501668 -0.21047 0.031246567
000240 ac 51 7f 3e e2 36 20 be b2 9a 1c bd 2b f6 8b be
       0.24933499 -0.15645936 -0.038233466 -0.2733625
000250 7c 9a fb bd 18 a8 a7 be 8b 87 a7 bd 6b 7d bb 3e
       -0.12285325 -0.32745433 -0.0818015 0.36619124
000260 51 d8 ab be 3b d2 5c be 44 70 a6 be 6e 8b 2e be
       -0.33563474 -0.21564572 -0.32507527 -0.17045376
000270 05 4d 82 3e 64 20 81 3e 79 d1 ce 3e 51 dd 16 3e
       0.25449386 0.25220025 0.4039419 0.14732863
000280 7f 2e b3 3e ec 90 43 be 53 83 3a be 6a 13 bf be
       0.3499641 -0.19098252 -0.18214159 -0.373195
000290 8f c3 cf be bf de c0 3d 58 1b 9d bd c8 4c 9a be
       -0.40578887 0.094174854 -0.07671231 -0.30136704
0002a0 f4 3e 84 bd 39 29 bc be 5e 6d 60 3e 6d 7b 89 3e
       -0.0645732 -0.367502 0.2191672 0.2685198
0002b0 91 7d 33 bd 56 ce 89 bc f6 40 07 3d 9b 6f 12 3d
       -0.04382092 -0.016822021 0.033020936 0.035750967
0002c0 18 ca 9c 3c 31 5a 39 be 35 f2 b3 bd 3c cf 2c 3e
       0.019139335 -0.18100812 -0.08786432 0.16875929
0002d0 df 7f 51 bd e7 b2 46 3e 24 c2 07 be b7 d7 be 3e
       -0.051147338 0.19404183 -0.13257653 0.37273952
0002e0 f3 8c 8f 3e 97 0d 88 be 7d 00 b6 be f9 d4 42 3e
       0.28037223 -0.26572868 -0.35547248 0.19026555
0002f0 11 52 af be c3 bb cb 3e 5a 33 bb be d9 d5 73 3e
       -0.342423 0.39791688 -0.36562616 0.23812045
000300 da f0 8c bc 06 3b cd 3d 7e 89 ae 3e 49 c6 b0 3e
       -0.01720469 0.100210235 0.34089273 0.3452628
000310 43 4a c9 bd f0 c2 3f be fb fe e9 3d 48 ee f4 bc
       -0.098286174 -0.18726707 0.11425587 -0.029898778
000320 cb 4b a5 be 8b 47 cf be d1 18 94 be 18 56 94 3e
       -0.32284388 -0.4048427 -0.28925183 0.28971934
000330 cb 2c 62 3c ca 7e 48 3d dd 67 5c be 8d 33 46 be
       0.013804625 0.04894904 -0.21523996 -0.19355603
000340 67 50 e9 3d b8 aa a3 3e b5 2a 61 be 60 5b 89 be
       0.11392289 0.31966186 -0.21988948 -0.26827526
000350 e9 b5 ca 3d 62 02 b5 39 5e 53 fc bd 25 0c cf be
       0.09897978 0.00034524786 -0.123205885 -0.40438953
000360 2d 96 b8 3e 23 29 e4 bd 48 4d 20 3e 9f 5e a8 be
       0.36052075 -0.11140659 0.1565448 -0.3288469
000370 63 38 ab be cf 79 8d 3e 88 bf a1 be f6 7f 36 3c
       -0.33441457 0.27631995 -0.3159144 0.011138907
000380 7c d0 82 3d 07 1b 85 3d 8b 95 a5 be 0a 07 68 3e
       0.063874215 0.06499296 -0.32340655 0.22658935
000390 95 65 08 bd 9c 24 0d 3e 9c 98 9b 3e 5f b0 9b be
       -0.0333 0.13783497 0.3038987 -0.30407998
0003a0 0d 3b 41 3d 20 24 25 3e 30 40 20 be a7 6d 88 3e
       0.047175456 0.16127062 -0.15649486 0.26646158
0003b0 94 47 ab 3e f6 29 64 be 3f 3c 8f bd 17 58 19 3e
       0.33453047 -0.22281632 -0.06993913 0.1497501
0003c0 f8 70 56 be 13 9b d0 be d3 9d ca 3e 81 84 56 bd
       -0.20941532 -0.40743312 0.39573535 -0.05237246
0003d0 eb 35 93 3e 5c 03 3c 3e 28 3b 09 bd f2 64 75 be
       0.28752074 0.18360656 -0.03350368 -0.23964289
0003e0 71 fe da 3d 64 21 56 be fd f7 0b 3e 2a 9f ad be
       0.10693062 -0.20911175 0.13668819 -0.33910495
0003f0 2c 45 7b bd 58 6b 06 be b9 f1 9a be 87 b9 a9 be
       -0.061345264 -0.13126886 -0.30262545 -0.3314936

batch_norm_c3.weight f4 [64]
000000 9d 03 80 3f c0 ec 7f 3f 15 bc 7f 3f 90 c8 7f 3f
       1.0001103 0.99970627 0.99896365 0.9991541
000010 a2 52 80 3f bd f7 7f 3f 22 ed 7f 3f 08 f2 7f 3f
       1.0025218 0.99987394 0.9997121 0.99978685
000020 bd ca 7f 3f d6 13 80 3f 93 18 80 3f 7a 27 80 3f
       0.9991873 1.0006053 1.00075 1.0012047
000030 6a fb 7f 3f d4 ac 7f 3f de 88 7f 3f 37 0a 80 3f
       0.99993 0.9987309 0.9981822 1.0003117
000040 00 21 80 3f 1e ec 7f 3f 4b 16 80 3f a2 cc 7f 3f
       1.0010071 0.9996966 1.0006803 0.9992162
000050 bb a8 7f 3f fd 6a 7f 3f c2 99 7f 3f 97 e0 7f 3f
       0.9986684 0.99772626 0.9984399 0.9995207
000060 ca b7 7f 3f ed f6 7f 3f 3c b4 7f 3f 27 4f 80 3f
       0.99889815 0.99986154 0.9988439 1.0024155
000070 c3 db 7f 3f 26 1a 80 3f a6 1f 80 3f 6c f0 7f 3f
       0.99944705 1.000798 1.0009658 0.9997623
000080 dd 0d 80 3f 63 f6 7f 3f bf a8 7f 3f 65 0e 80 3f
       1.0004231 0.9998533 0.9986686 1.0004393
000090 cf db 7f 3f e3 23 80 3f 92 00 80 3f 37 d4 7f 3f
       0.99944776 1.0010952 1.0000174 0.9993319
0000a0 b1 eb 7f 3f c3 14 80 3f 84 97 7f 3f 79 20 80 3f
       0.9996901 1.0006336 0.9984057 1.000991
0000b0 b8 2a 80 3f de 18 80 3f e4 23 80 3f b0 23 80 3f
       1.0013037 1.0007589 1.0010953 1.0010891
0000c0 9d 23 80 3f 59 2b 80 3f f1 19 80 3f 9c 0d 80 3f
       1.0010868 1.0013229 1.0007917 1.0004153
0000d0 66 ab 7f 3f 55 d6 7f 3f e7 d3 7f 3f 5c e2 7f 3f
       0.9987091 0.9993642 0.9993271 0.9995477
0000e0 4e 8c 7f 3f d0 c4 7f 3f 5d f8 7f 3f f1 33 80 3f
       0.9982346 0.9990969 0.9998835 1.0015851
0000f0 c5 41 80 3f 37 12 80 3f d9 13 80 3f af e1 7f 3f
       1.0020071 1.0005559 1.0006057 0.9995374

batch_norm_c3.bias f4 [64]
000000 8c 2e dc 38 ab e3 72 b9 ad f6 db 39 e7 29 4f 39
       0.000104990875 -0.00023163731 0.00041954723 0.00019756668
000010 b9 12 cf 3a f1 0e 8a ba 9e b9 ef b9 a1 2f 4e 3a
       0.0015798426 -0.0010533017 -0.00045723928 0.00078653736
000020 47 57 32 ba 0a 48 a3 36 56 e6 7d b8 5b ad 95 ba
       -0.00068031665 4.866165e-06 -6.0534418e-05 -0.0011419462
000030 7f d9 c2 ba 02 7d dd b8 07 0b 31 ba 91 93 0b 3a
       -0.0014865844 -0.00010561386 -0.00067536574 0.00053244183
000040 7f e9 b3 38 c3 53 5a b9 3a 41 82 39 47 fb 22 b9
       8.578877e-05 -0.00020821304 0.0002484413 -0.00015543132
000050 c9 48 02 3a 8b b6 12 b9 79 ee 0c 3a b5 26 04 b9
       0.0004969952 -0.00013991648 0.00053761114 -0.0001260292
000060 6d fa ca b9 20 03 22 3a 5f 9e e3 b9 37 90 bb 39
       -0.00038715024 0.0006180275 -0.0004341481 0.00035774868
000070 7b 81 cc b9 b8 21 b3 39 72 5f d4 39 98 6e 47 ba
       -0.00039006383 0.00034166663 0.00040506903 -0.00076077273
000080 c4 df 86 3a b8 dc 7f ba 93 e8 24 3a b2 97 34 3a
       0.0010290076 -0.00097603677 0.000629076 0.00068890594
000090 01 05 a6 b9 92 fe 43 b7 23 23 57 ba a4 e5 cf 39
       -0.00031665716 -1.16821775e-05 -0.0008206835 0.00039653212
0000a0 fe 6d 4d ba c8 c9 4b 3a 19 59 0c bb ea 7b 96 3a
       -0.00078365195 0.0007773903 -0.002141541 0.0011481021
0000b0 0a 4f 01 ba ef 3e 87 ba 5a d1 36 3a ed b8 54 b9
       -0.0004932737 -0.0010318438 0.0006973945 -0.00020286786
0000c0 48 c5 dd 37 ff cc eb b9 4c d0 6c 39 e8 bd cc b8
       2.643712e-05 -0.00044975427 0.0002258431 -9.762851e-05
0000d0 96 57 93 ba 58 ab f8 39 5f 42 37 3a 21 d3 b9 b9
       -0.0011241313 0.00047429907 0.0006990786 -0.00035443253
0000e0 de ce 2e 3a e5 cc be 39 48 93 45 ba 55 e6 30 ba
       0.0006668399 0.00036392282 -0.00075369 -0.00067481893
0000f0 b7 84 a5 3a 5c 11 ff 39 5e fc 32 39 de ac 06 3a
       0.0012628053 0.00048650324 0.00017069417 0.00051374536

batch_norm_c3.running_mean f4 [64]
000000 82 69 8e 3e d4 bc 63 3e 1c fe 90 3e cc c1 67 3e
       0.2781487 0.22240001 0.2831887 0.22632521
000010 ac c8 75 3e e5 bb 5e 3e a2 00 a3 3e 21 c7 9d 3e
       0.24002331 0.21751364 0.3183642 0.30815986
000020 58 b0 6a 3e b8 a4 73 3e e9 fe 8e 3e 32 a5 8e 3e
       0.22918832 0.23793304 0.27928856 0.2786041
000030 95 ae 63 3e 1c 86 93 3e 64 53 81 3e 7a 21 3b 3e
       0.22234567 0.28813255 0.25258934 0.18274489
000040 be 01 6c 3e 51 6b 90 3e 31 13 65 3e ea 9c 73 3e
       0.2304754 0.28206876 0.22370602 0.23790327
000050 1b af 73 3e c3 42 97 3e 57 62 86 3e 73 ff 3c 3e
       0.23797266 0.29543123 0.26246902 0.18456821
000060 9d bd 3f 3e a4 82 8a 3e 1e a8 9f 3e 04 4c 9d 3e
       0.18724675 0.27052796 0.3118295 0.30722058
000070 69 b1 6f 3e 52 b5 f4 3d e1 24 84 3e f7 63 ab 3e
       0.2340752 0.119486466 0.25809386 0.33474705
000080 35 5c 6d 3e fa 72 8c 3e 18 29 42 3e 34 56 69 3e
       0.23179705 0.2743147 0.18960989 0.2278679
000090 b1 7a a7 3e 7d 88 5f 3e 32 71 65 3e 0a 99 7b 3e
       0.32710794 0.2182941 0.22406462 0.24570099
0000a0 18 1c 97 3e be 1a 4b 3e 41 61 4e 3e 16 88 8d 3e
       0.2951362 0.1983442 0.20154287 0.27642888
0000b0 24 88 94 3e 81 0f b1 3e 9d 6d 5e 3e 4a 17 32 3e
       0.29010117 0.3458214 0.21721502 0.17391697
0000c0 93 e5 91 3e f0 0a 83 3e 74 09 9e 3e 48 9a 84 3e
       0.28495464 0.25594282 0.30866587 0.25898957
0000d0 26 52 85 3e 88 9f 7a 3e d8 8a 0b 3e f1 7b 68 3e
       0.26039237 0.24474919 0.13627183 0.2270353
0000e0 57 c4 67 3e 68 f1 a1 3e 89 25 53 3e 1a 51 6d 3e
       0.22633491 0.3162949 0.20619787 0.23175469
0000f0 93 e8 8e 3e df 49 62 3e d2 41 39 3e 2e 2c 54 3e
       0.27911815 0.22098492 0.18091515 0.20719978

batch_norm_c3.running_var f4 [64]
000000 8f 47 52 3e 09 2e 2e 3e 07 14 0d 3e 40 ca 11 3e
       0.2053511 0.17009749 0.13777171 0.14237309
000010 44 b8 13 3e 9e 47 12 3e 09 a7 92 3e e8 a0 94 3e
       0.1442576 0.14285132 0.28643063 0.29029012
000020 30 be 1f 3e 2e bb cc 3d e2 df 5b 3e 5e b9 51 3e
       0.15599895 0.09996639 0.21472123 0.20480868
000030 e8 16 ce 3d f1 18 3a 3e e9 7b df 3d 68 56 82 3d
       0.10062963 0.18173577 0.10912306 0.06364137
000040 96 e3 15 3e 2d ec 13 3e 56 d6 37 3e 04 b3 2f 3e
       0.14637598 0.14445563 0.17952856 0.17158133
000050 05 92 04 3e 6b 86 7e 3e 50 7e 80 3e 39 29 be 3d
       0.12946327 0.24855964 0.2509637 0.09285206
000060 97 58 89 3d ff f6 22 3e cb f9 9c 3e 3d 99 2c 3e
       0.0670635 0.15914534 0.30659327 0.16855331
000070 65 5b 12 3e 75 f4 26 3d 43 41 59 3e 1e 5e 8c 3e
       0.14292677 0.040760476 0.21216302 0.27415556
000080 79 3f 39 3e a7 1b 2b 3e fe 4b e7 3d 06 32 b3 3d
       0.18090619 0.16709767 0.11293791 0.087497756
000090 1e 81 86 3e 95 11 bb 3d c7 63 07 3e 7d e9 2f 3e
       0.26270384 0.09134213 0.13221656 0.17178912
0000a0 23 06 63 3e 88 32 96 3d bf ee 8e 3d 0f b4 6b 3e
       0.2217031 0.07333857 0.06979131 0.23017906
0000b0 9b 4d 34 3e f3 89 af 3e 50 b4 eb 3d 51 0c b5 3d
       0.17607729 0.34284934 0.11509001 0.0884024
0000c0 4f 55 58 3e a2 3b 3e 3e 85 c0 82 3e bd b6 45 3e
       0.21126293 0.18577436 0.25537506 0.1930799
0000d0 cc 32 19 3e 0a 4c 45 3e 5c a2 05 3d 98 b2 39 3e
       0.14960784 0.19267288 0.03262554 0.18134534
0000e0 94 ba 11 3e be 1e 47 3e c9 ea 90 3d 97 f0 4e 3e
       0.1423133 0.19445321 0.07076032 0.20208965
0000f0 48 64 5e 3e 95 2c 2c 3e 4d 9f 90 3d 4a c7 3f 3e
       0.21717942 0.16813882 0.07061634 0.18728366

conv3.weight_v f4 [64, 64, 3]
000000 07 2c 88 bd 23 12 df 3c 86 0f c7 bc 3d 5f 66 bd
       -0.066490225 0.027230328 -0.024299394 -0.05624317
000010 c5 4e 7b 3c 67 da 09 3d 7e f7 21 bd 68 3f 00 bd
       0.015338604 0.03365555 -0.039542668 -0.03131047
000020 b3 03 09 3d 1a 14 09 3d da 30 59 bd 38 60 b3 3b
       0.033450793 0.033466436 -0.053025104 0.0054741167
000030 8c 3c f4 bb 79 65 68 3d 79 87 42 3d ae 3e 1c bd
       -0.007453507 0.056737397 0.047492478 -0.038145714
000040 f0 af 87 bc 6e 50 c6 bb 20 bc 90 bd a3 de cd 3a
       -0.016563386 -0.0060520684 -0.07067132 0.001570661
000050 d9 c3 5f 3d eb 7f 89 3d 88 13 65 3c 11 04 e3 3c
       0.054630134 0.067138515 0.013981707 0.0277119
000060 47 4b 26 3c 49 e0 b2 3c d7 a5 8a 3c 2f e8 23 3d
       0.010149783 0.021835463 0.016924782 0.04001635
000070 49 99 54 3d e7 25 ec 3c 09 91 91 bd b4 2f 84 bd
       0.051903997 0.028826667 -0.071077414 -0.06454411
000080 78 e0 8d 3c 36 74 36 bd 53 58 d6 bc 69 03 17 bd
       0.01731895 -0.04454442 -0.026165163 -0.036868487
000090 b2 e7 5f bc 8e 62 82 3d bb 40 a3 bc 67 f3 13 3c
       -0.01366608 0.06366454 -0.019928327 0.0090302
0000a0 65 ac 32 bd b5 f8 75 bd 78 bb 44 bd 77 82 6c bd
       -0.04362144 -0.06005164 -0.048030347 -0.05774161
0000b0 4a f1 4c bd 8d b7 37 bc 02 d5 12 3d eb 82 78 3c
       -0.0500348 -0.0112131955 0.03584767 0.015167932
0000c0 cb 95 77 3d b4 01 84 3d 5e e8 27 3d d6 1d a9 3c
       0.060445588 0.06445637 0.040993087 0.02064411
0000d0 a6 04 07 bd fd 7e 4e 3d 27 8d fe 3c 22 15 8d bd
       -0.032963417 0.050414074 0.031073166 -0.068887964
0000e0 60 5e 65 3d fa 3c 67 bd 00 e4 15 3d 93 ba 7a 3d
       0.055998206 -0.056454636 0.03659439 0.061213087
0000f0 e2 df f2 3c ba cc 80 bd 7d 4c a6 3c c6 12 4f 3c
       0.029647771 -0.062890485 0.020300144 0.012638753
000100 3a 0d 9b 3c 03 42 66 bb f1 58 79 bd ae 28 05 bd
       0.018927205 -0.003513456 -0.060875837 -0.0325095
000110 08 5d 3c bc 0a cb 4f 3c 66 de 8e 3d 60 6e 88 bc
       -0.01149679 0.012682686 0.06976013 -0.016654193
000120 3d b6 c0 bc c8 e3 59 3c 86 0d 85 bd 12 61 0a 3d
       -0.023524398 0.013298936 -0.0649672 0.03378398
000130 bb b0 0d bd 86 cf 4b bd f7 92 80 bd 2c 19 76 3d
       -0.03459237 -0.049758457 -0.06278031 0.0600826
000140 47 bf 88 3d 34 1b 0a 3d a9 ac 6b bc 55 29 79 3d
       0.06677108 0.03371735 -0.014384427 0.060830433
000150 67 9a 21 bc c5 be dd bc 96 d5 8f bc 0e df 8a 3d
       -0.009863473 -0.027068505 -0.0175579 0.067808256
000160 d3 6c 6b bd cc 0b 88 bd 1f 39 02 3d 75 9f 7b 3d
       -0.05747683 -0.06642875 0.031792756 0.061431367
000170 7e 7b 7a bd bc 4a 4c bd 66 b4 1e bc 72 bd c7 3c
       -0.061152928 -0.04987596 -0.009686565 0.024382327
000180 ad 3d 49 3d 5a 49 15 bd e1 6b 11 bd fa 4b 77 3c
       0.049131084 -0.036446907 -0.035503272 0.015093798
000190 93 9a 57 3d 6a c3 a0 ba 0c 6d 04 bc 26 25 87 bc
       0.052637648 -0.0012265269 -0.008082639 -0.016497206
0001a0 3b 7f 8d 3d 83 b0 4e bd 33 1c 5d bd a2 f5 82 3d
       0.06909033 -0.050461303 -0.05398197 0.06394507
0001b0 5b 31 25 3c 15 b6 17 bd 1d 28 88 bd 5f ab 49 bc
       0.010082568 -0.03703888 -0.06648276 -0.012308924
0001c0 61 cb 86 3b 3a a2 71 bb 41 00 30 3c 62 0f 44 3d
       0.0041136 -0.0036870376 0.010742248 0.047866233
0001d0 73 e7 93 3d 7a 48 43 3c 65 cb fc bc 54 03 8e bc
       0.0722188 0.011919135 -0.030858705 -0.017335571
0001e0 6b 03 67 bd 81 61 db bb 8c 47 56 3d 22 b2 1f 3d
       -0.056399744 -0.006694973 0.052314326 0.03898824
0001f0 9b 5d 58 bd 0f 0f 5a 3d 2e 8f 5a bc 0c b0 9d bc
       -0.052823644 0.053237017 -0.013339801 -0.019248985
000200 88 79 4c 3d 28 93 b4 3c 78 5a 07 bd e5 13 8e bd
       0.04992059 0.022042826 -0.033045262 -0.06937388
000210 72 2f 5e bd 97 2f 81 3d db dc 1e bd e7 1c 21 3d
       -0.054244466 0.06307905 -0.038784843 0.039334204
000220 db 5d bf bc f0 6c 69 3d a0 bd 4e 3d 3b 7d 0f 3d
       -0.023360183 0.056988657 0.05047381 0.03503154
000230 8a 15 e9 bc dd c9 03 3d 02 44 35 3d 28 c1 04 bd
       -0.028452653 0.032174934 0.04425431 -0.03241077
000240 92 ac b8 bc d2 13 36 3d 6b 6b 8a 3d b6 e1 1f bd
       -0.022543225 0.044452496 0.067587696 -0.039033614
000250 1c 8c b7 3c 0b a9 37 3d ca 7f 6a 3d 34 de 32 3c
       0.022405677 0.044838946 0.057250775 0.010917235
000260 56 03 86 3d 6f a7 78 bd 40 27 8d bd 3b 1f 43 3c
       0.06543605 -0.060706552 -0.06892252 0.011909301
000270 4e b1 ee bb d2 20 1e 3d d4 44 91 3c ea f5 97 3b
       -0.00728432 0.03860552 0.017733015 0.0046374695
000280 1e 6a 26 bd ab 07 3b bc 2d d3 fc 3b 3c 96 69 3c
       -0.040628545 -0.011415402 0.007715604 0.01425701
000290 25 f4 e2 bc 1e 31 39 3d 0f b4 b0 bc 1e 23 97 3d
       -0.027704308 0.045212857 -0.021570234 0.07379745
0002a0 fc 65 b2 3b 2f c6 84 3d e8 66 ff 3b ca a0 68 bd
       0.0054442864 0.06483113 0.00779425 -0.056793965
0002b0 a9 a3 c3 3b 48 1e 3a 3d 55 5e 19 3d 7d 60 46 3d
       0.0059704375 0.045439035 0.037443478 0.048431862
0002c0 9f 5a 2f bc 4a 0f 95 3c 85 96 24 b9 2b 0a cb bc
       -0.010702758 0.018195767 -0.00015696332 -0.024785122
0002d0 4c ed bf bc eb c5 92 3d 00 a9 20 bd ae a5 25 bc
       -0.023428582 0.07166656 -0.03922367 -0.010110302
0002e0 37 2a 89 3d 5e 28 21 bd fd bd 7a bd db 10 77 bd
       0.06697505 -0.039345138 -0.061216343 -0.06031881
0002f0 28 70 88 3d 87 82 fb bc aa 22 4b 3d 41 03 66 bc
       0.06662017 -0.030701889 0.049593605 -0.014038862
000300 e5 d9 48 3c d1 b0 03 bc 0b b2 7b bd 60 a8 78 bd
       0.012258981 -0.008037762 -0.061449092 -0.06070745
000310 88 b2 5c bd 16 35 db 3c b8 c7 71 bd 57 40 71 3d
       -0.0538812 0.026758712 -0.059028357 0.05889925
000320 1a 2c 46 bd 2b 7a dd 3c 7a 49 8c b8 6a e5 64 3d
       -0.048381902 0.027035793 -6.689406e-05 0.05588285
000330 c4 24 3c bd ab e3 19 3d f8 a8 93 3c a5 63 19 bd
       -0.0459335 0.037570637 0.018024907 -0.037448544
000340 e8 59 57 3c 97 76 15 3d ce 55 57 3c 4e f3 50 bd
       0.013143994 0.03649005 0.013143016 -0.051013283
000350 a3 15 7e 3d 76 98 32 bb f3 66 e7 bc a7 c3 88 3d
       0.062032353 -0.0027251518 -0.028247332 0.06677943
000360 fc c7 ef 3c 3b 0c e8 bc c3 ba 54 bd 8e 1b 84 3d
       0.029270165 -0.028326144 -0.051935922 0.06450568
000370 76 c7 16 3d a8 c3 04 bd 74 5f 8f 3c 37 28 3d 3d
       0.036811315 -0.032413155 0.01750157 0.04618093
000380 b2 ba 29 3c 24 fa 31 3c 72 46 63 bd e5 cd 8d bd
       0.010359453 0.010862861 -0.055487104 -0.06924037
000390 b9 93 86 bb 82 42 4a bd c2 61 87 bd 4e 63 c0 ba
       -0.0041069654 -0.049379833 -0.06610443 -0.0014678033
0003a0 97 64 0e bd de 8a 33 3d 25 91 71 bd 6d 1f 06 bd
       -0.0347639 0.043833606 -0.05897631 -0.032744814
0003b0 07 4d 54 bd c6 fc 5b 3b 1c 44 23 3d 32 fb 32 3d
       -0.05183127 0.0033567413 0.039859876 0.04369659
0003c0 9d 4f c0 3c da 61 8d bd 01 52 27 bd f5 b2 c9 bc
       0.023475463 -0.06903429 -0.04084969 -0.024621466
0003d0 38 c6 9a 3b 59 54 a4 bc bb 7a 58 3d f2 5c 5e 3d
       0.0047233365 -0.020059751 0.05285142 0.05428786
0003e0 7e e9 be bc 77 2f 01 bd fe ac 4a 3d 21 5c 2d bd
       -0.023304697 -0.031539407 0.049481384 -0.04232419
0003f0 45 ed 87 bb 55 4a 72 bd e0 33 7b 3d 03 96 ca 3c
       -0.004148158 -0.05915292 0.06132877 0.024729734

batch_norm_c4.weight f4 [64]
000000 ff bf 7f 3f b3 fe 7f 3f f2 17 80 3f 65 cf 7f 3f
       0.9990234 0.99998015 1.0007308 0.99925834
000010 aa f7 7f 3f 28 e2 7f 3f c2 e8 7f 3f ed 00 80 3f
       0.9998728 0.9995446 0.99964535 1.0000283
000020 a7 0d 80 3f 7b 03 80 3f b5 f7 7f 3f bb 06 80 3f
       1.0004166 1.0001062 0.99987346 1.0002054
000030 b6 e6 7f 3f 3e f4 7f 3f 6b 6c 7f 3f 78 f0 7f 3f
       0.9996141 0.9998206 0.9977481 0.999763
000040 e2 a5 7f 3f 53 7d 7f 3f 8c 2d 80 3f cc 12 80 3f
       0.9986249 0.99800605 1.00139 1.0005736
000050 c6 ec 7f 3f ed 0c 80 3f 1b 04 80 3f 37 a0 7f 3f
       0.9997066 1.0003945 1.0001253 0.99853843
000060 c2 05 80 3f 2d cd 7f 3f 82 ed 7f 3f 36 00 80 3f
       1.0001757 0.9992245 0.99971783 1.0000064
000070 ff 00 80 3f e2 e1 7f 3f e5 e0 7f 3f a2 08 80 3f
       1.0000304 0.99954045 0.99952537 1.0002635
000080 92 a9 7f 3f 9d f0 7f 3f 04 08 80 3f 9f d3 7f 3f
       0.9986812 0.9997652 1.0002446 0.99932283
000090 7a 0f 80 3f 83 fb 7f 3f ea d1 7f 3f f3 8b 7f 3f
       1.0004723 0.9999315 0.9992968 0.9982292
0000a0 3c f8 7f 3f 25 00 80 3f ef 04 80 3f 2c f9 7f 3f
       0.9998815 1.0000044 1.0001506 0.9998958
0000b0 0f fb 7f 3f c3 e6 7f 3f 38 ed 7f 3f a5 de 7f 3f
       0.9999246 0.9996149 0.9997134 0.99949104
0000c0 66 e2 7f 3f c8 dc 7f 3f 7e e4 7f 3f 42 1d 80 3f
       0.9995483 0.9994626 0.99958026 1.0008929
0000d0 23 0c 80 3f f9 7b 7f 3f 03 08 80 3f df ce 7f 3f
       1.0003704 0.9979854 1.0002445 0.99925035
0000e0 89 d3 7f 3f f3 0a 80 3f 75 fa 7f 3f f8 bd 7f 3f
       0.9993215 1.0003341 0.9999154 0.99899244
0000f0 96 fc 7f 3f a0 d5 7f 3f cc 0c 80 3f 08 d9 7f 3f
       0.9999479 0.9993534 1.0003905 0.9994054

batch_norm_c4.bias f4 [64]
000000 da 0d 36 ba 01 c1 5f b8 d8 f9 b4 b8 27 d2 15 b9
       -0.0006944813 -5.3347092e-05 -8.629606e-05 -0.00014288035
000010 be 39 80 38 88 1c 0b 38 9d 51 61 39 37 82 3f b9
       6.114271e-05 3.3166754e-05 0.00021488075 -0.00018263688
000020 9f 99 23 39 54 8b 7f ba 93 bf 48 3a 43 ee c1 b8
       0.0001560212 -0.00097482395 0.00076579413 -9.247337e-05
000030 bc e6 3f 39 f7 eb fa b7 bf f5 d8 3a 3a ca b8 38
       0.00018301135 -2.9912202e-05 0.001655273 8.811471e-05
000040 99 53 3d b8 49 19 bb 3a 3e ba 90 b8 e6 a7 17 ba
       -4.5138968e-05 0.0014274503 -6.9011454e-05 -0.00057852117
000050 73 70 21 b9 b6 09 46 ba d7 55 07 38 b8 27 f3 37
       -0.00015396047 -0.00075545476 3.2266453e-05 2.8986353e-05
000060 01 7e 35 b9 3b 56 82 39 b3 f5 44 b9 5b fe c5 b8
       -0.00017308445 0.0002485978 -0.00018783547 -9.4410694e-05
000070 98 71 7b b9 8e bd a4 3a 54 0b ae b9 5d 12 00 b9
       -0.00023979542 0.0012568699 -0.00033196306 -0.00012213872
000080 c4 e6 2b ba e0 94 65 b9 b0 2d cd 38 57 13 cb b8
       -0.0006557519 -0.00021894602 9.783672e-05 -9.683397e-05
000090 99 12 96 39 d5 16 b3 3a a3 9a 93 39 0f 10 83 b9
       0.00028624086 0.0013663421 0.00028153238 -0.00024998232
0000a0 ba 9a e5 38 a1 db c8 b9 dc 64 08 39 21 bd a8 39
       0.00010948391 -0.0003831061 0.00013007544 0.0003218437
0000b0 83 e1 85 39 ae f3 b1 b9 df 11 8c 39 6d 4d 22 39
       0.00025535756 -0.00033941626 0.00026716196 0.00015478367
0000c0 81 de 97 38 4c 21 a9 38 01 fb 0c 39 a4 55 66 b9
       7.241686e-05 8.06475e-05 0.00013444947 -0.00021966413
0000d0 c5 f6 5e 36 9e eb 52 3a 78 5c 81 39 87 84 23 38
       3.3224217e-06 0.0008045974 0.00024673692 3.8985654e-05
0000e0 2a 1d d5 3a c6 c2 2a 38 9c 62 fb 38 c8 df d3 b9
       0.0016259302 4.0712555e-05 0.0001198698 -0.00040411786
0000f0 b1 22 d1 38 d2 3a c1 38 ec 45 c8 38 9a 40 9f ba
       9.9723584e-05 9.213913e-05 9.549767e-05 -0.001214999

batch_norm_c4.running_mean f4 [64]
000000 d2 d3 68 3e 9e 98 a1 3e 76 79 61 3e 54 ab 99 3e
       0.22737053 0.3156175 0.2201899 0.30013525
000010 3d 2f 6f 3e 2d 8e 7c 3e 40 28 80 3e 84 19 81 3e
       0.23357864 0.24663611 0.25030708 0.2521478
000020 ac 65 8a 3e bb fd 78 3e 79 af 82 3e 18 b6 8a 3e
       0.27030694 0.2431554 0.255245 0.27092052
000030 b8 d6 4c 3e ee 49 68 3e 82 d0 91 3e b4 4b 48 3e
       0.20003784 0.22684452 0.2847939 0.19560128
000040 26 65 77 3e 6a f5 82 3e 51 1e 88 3e a4 90 8b 3e
       0.24159679 0.2557786 0.2658563 0.2725879
000050 3d 62 73 3e 23 80 58 3e 9a 85 86 3e 0e f1 58 3e
       0.23767944 0.2114263 0.26273805 0.21185705
000060 32 c3 4d 3e 43 58 86 3e ae 33 88 3e 28 4d 3a 3e
       0.20093992 0.26239213 0.26601928 0.18193495
000070 ba 3f 83 3e 1f a0 65 3e b9 dd 6d 3e a5 38 61 3e
       0.25634557 0.22424363 0.23229112 0.21994264
000080 9c 64 92 3e ca 17 5f 3e 29 62 61 3e 9a 0a 66 3e
       0.28592384 0.21786419 0.22010101 0.22464982
000090 fe 38 6b 3e 41 90 69 3e 36 08 8b 3e 1c e1 87 3e
       0.2297096 0.22808935 0.27154702 0.26538932
0000a0 b7 6e 7b 3e 30 fb 8f 3e 77 ce 68 3e 7f 5f 70 3e
       0.24553953 0.28121328 0.2273501 0.23473929
0000b0 0d 45 91 3e 00 28 82 3e 83 60 63 3e 7f 0f 52 3e
       0.28372994 0.25421143 0.22204785 0.20513724
0000c0 9b 69 69 3e cf ee 8c 3e 67 e8 9b 3e 3d 25 70 3e
       0.22794192 0.27525946 0.30450746 0.23451705
0000d0 9a e3 a0 3e 2a d2 81 3e 18 60 6a 3e 24 aa 5e 3e
       0.31423646 0.25355655 0.2288822 0.21744591
0000e0 33 ba 78 3e aa 54 79 3e e7 52 76 3e ec b3 8e 3e
       0.2428978 0.24348703 0.24055062 0.27871644
0000f0 6a 4a 78 3e 3b 6d 6d 3e 86 c7 4a 3e f5 60 86 3e
       0.24247137 0.231862 0.19802675 0.26245847

batch_norm_c4.running_var f4 [64]
000000 6e 96 1f 3e 7d 67 a4 3e 85 f1 0b 3e f4 90 5a 3e
       0.15584728 0.32110205 0.13666351 0.21344358
000010 a3 a9 13 3e e1 61 35 3e 34 43 19 3e 5b 19 37 3e
       0.1442018 0.17713119 0.14967042 0.17880766
000020 32 19 01 3e 48 9c 37 3e f8 e5 24 3e 16 a7 80 3e
       0.12607267 0.1793071 0.16103351 0.25127476
000030 93 ca c0 3d 14 83 10 3e cf 41 9c 3e 51 13 ab 3d
       0.09413638 0.14112502 0.30518958 0.08353294
000040 f8 0d fb 3d 94 ca 44 3e b4 aa 1c 3e bb 20 88 3e
       0.12258524 0.19217902 0.15299493 0.2658747
000050 de 23 16 3e 55 86 ad 3d 0f 06 60 3e 0e 57 f8 3d
       0.1466212 0.084728874 0.21877311 0.12125979
000060 9b 2c 0b 3e 7c aa 14 3e 17 08 03 3e 23 21 c4 3d
       0.13591234 0.1451816 0.12796055 0.09576633
000070 3a 31 fb 3d 0f 23 cd 3d 86 ec 19 3e ca 10 12 3e
       0.122652486 0.100164525 0.15031633 0.14264217
000080 b4 40 77 3e 58 8c ce 3d 19 16 c6 3d 3d 6b 0a 3e
       0.24145776 0.10085362 0.096721835 0.1351747
000090 b3 c0 d8 3d f6 25 1c 3e 6b 91 3f 3e b7 a5 19 3e
       0.105836295 0.15248856 0.18707816 0.15004621
0000a0 88 66 12 3e e0 24 26 3e 5f 90 07 3e fd f3 19 3e
       0.14296925 0.16225004 0.13238667 0.1503448
0000b0 96 f8 a1 3e 28 43 2f 3e 2d ab 33 3e c9 8b b4 3d
       0.3163497 0.17115462 0.17545767 0.088157244
0000c0 31 3c 2f 3e c0 9a 79 3e 02 04 48 3e 42 a8 2b 3e
       0.17112805 0.24375439 0.19532779 0.16763404
0000d0 9d 93 50 3e 29 09 5e 3e 3d 25 00 3e b1 b0 fd 3d
       0.2036881 0.21683182 0.12514205 0.12387217
0000e0 77 2c 57 3e 44 82 26 3e e1 51 27 3e 55 9a 95 3e
       0.21013056 0.1626063 0.16339828 0.29219308
0000f0 42 4e 03 3e 1d f7 05 3e c0 65 b2 3d 2a f5 23 3e
       0.12822822 0.13082547 0.087108135 0.16011491

conv4.weight_v f4 [64, 1, 5]
000000 41 61 91 3e 98 b6 bd 3e 5e 14 c8 be 40 1c c9 3e
       0.2839451 0.3705337 -0.3907804 0.39279366
000010 08 24 cc 3e 43 ab d2 3e 5b 96 cd be 7f f8 92 3e
       0.3987124 0.41146287 -0.40153775 0.28705212
000020 d3 8e c5 3d 40 a9 f9 3c 25 0d 79 3e 61 8c 39 be
       0.09646382 0.030476213 0.2432142 -0.18119957
000030 f3 14 cb bd 41 0b 3d bc 61 c5 e5 be 34 73 be be
       -0.09916105 -0.011538328 -0.4487715 -0.37197268
000040 63 69 cc be b8 8e b0 be a7 d5 35 be f6 c8 94 3e
       -0.39924154 -0.34483886 -0.17757283 0.2905957
000050 4d 5b e4 be fc 9c c5 3e e3 ec 94 bb 73 a2 b7 be
       -0.44600907 0.38596332 -0.0045448407 -0.35866126
000060 c8 25 8d 3e 9e e5 a1 3e 9f 1d bd be 07 a8 c7 3e
       0.27567887 0.31620497 -0.36936662 0.38995382
000070 62 ea 63 be 88 00 02 3e f3 47 f2 3d 9d 4c b9 bc
       -0.22257379 0.12695515 0.118301295 -0.02261954
000080 b8 91 c0 be 67 c5 92 3e 50 d2 c6 be 37 b5 82 be
       -0.37611175 0.2866623 -0.3883233 -0.2552888
000090 dc 81 e5 bc 6b 95 00 3e 51 02 c8 3e 8f 42 83 bc
       -0.028016023 0.12556998 0.39064267 -0.016022949
0000a0 ae 7b a7 bd 99 8b 99 be 24 64 d3 3e b2 21 db be
       -0.08177887 -0.29989317 0.4128734 -0.42799145
0000b0 81 28 36 be 62 74 58 be b4 41 cc be 49 fe 2b 3e
       -0.17788889 -0.21138147 -0.39893878 0.16796221
0000c0 8c d7 80 3e bd 9f ae 3e 84 6e 15 bd 67 22 e3 be
       0.2516445 0.34106246 -0.03648235 -0.44362184
0000d0 d0 a7 81 3e 86 62 db be 80 8f 86 be 13 a5 23 3e
       0.25323343 -0.42848605 -0.26281357 0.1598094
0000e0 f7 e6 4a 3e 4d 0f e8 3d 4c 03 8c be 86 7f 71 be
       0.19814669 0.113310434 -0.27346265 -0.23583803
0000f0 ec 82 33 3d ad 8f 51 3e 7b 05 b0 bc 71 86 77 be
       0.04382603 0.20464964 -0.021486988 -0.24172379
000100 83 c4 27 3e 9b 3d 13 3e 72 1b 20 be 9d 29 40 bc
       0.16383557 0.1437897 -0.1563547 -0.011728671
000110 00 8f 7b 3d 87 05 5f be 75 9e df bd 05 66 24 be
       0.061415672 -0.21779452 -0.10918895 -0.16054542
000120 71 01 be bc c3 2a 87 be 9a 97 95 be 72 26 91 be
       -0.023194047 -0.26399812 -0.29217225 -0.28349644
000130 fc 74 b0 3d 92 5a 4d 3c d2 49 0e be 2b fc 15 bb
       0.08616063 0.012533801 -0.13895348 -0.00228859
000140 3f 94 e3 3d 3a ba 05 3e 50 ce 05 3d a1 06 e5 bd
       0.1111226 0.13059321 0.032667458 -0.11182905
000150 ed f2 82 be 6e 19 51 be 30 97 6d bd 91 6b a9 be
       -0.25575963 -0.20419857 -0.05800551 -0.3308988
000160 2e 18 57 bd 5a 96 94 be 35 84 d7 be 9b 8f 41 3e
       -0.052513294 -0.2902096 -0.42093053 0.18902437
000170 db 5e 92 bd 42 7c e4 bd fa 01 53 3e 18 e8 91 bd
       -0.071469985 -0.11156513 0.20606223 -0.071243465
000180 b8 0f c4 bd 6e 76 e3 3e a0 06 49 3e 43 63 ba be
       -0.095733106 0.44426292 0.19631433 -0.36403856
000190 dc 4b a7 3e 16 98 70 be 40 a5 cf bd 4a 1a 55 3e
       0.32675064 -0.23495516 -0.10138941 0.2081081
0001a0 7e 0a d9 3e 63 57 b8 be 82 9b 8b be 9d 7b c7 be
       0.42390817 -0.3600417 -0.2726708 -0.38961497
0001b0 b2 4c d7 be 59 d5 d2 be 10 db b1 be 69 4a ca 3d
       -0.420507 -0.41178396 -0.34737444 0.09877474
0001c0 24 06 31 3e cd 9b b4 3e 95 d3 94 3e 41 54 bb be
       0.17287499 0.35275117 0.29067674 -0.36587718
0001d0 65 78 f8 3b df 6f d0 be 47 0f ca 3e 0c f3 a6 bd
       0.0075827115 -0.4071035 0.3946478 -0.08151826
0001e0 00 ba 27 3e bc 14 93 be 1d 8c bf 3e 79 08 a9 be
       0.16379547 -0.28726757 0.37411585 -0.33014277
0001f0 39 c1 1a 3e 22 ae af bd 2a 3c 67 bd 63 07 ce bd
       0.15112771 -0.08578135 -0.05645386 -0.10060003
000200 46 8d 87 3e 5d bf d7 3d d6 fb 75 3e ad e6 1b be
       0.2647497 0.105345465 0.24021849 -0.15224715
000210 12 32 7f be 98 fe 95 3e 64 1a aa be d2 f2 75 be
       -0.24921444 0.29295802 -0.3322326 -0.2401841
000220 e2 51 d0 bd 78 2a ad be e6 bd 9c 3e d1 91 c6 3e
       -0.10171868 -0.33821464 0.3061363 0.38783124
000230 ee 23 5d be a5 86 9f be 22 c5 54 3d 99 d6 80 3e
       -0.21595737 -0.31157413 0.051945813 0.25163725
000240 bf f5 a2 3e dd 14 2f be 79 9f 80 bc d3 ec 54 be
       0.31828114 -0.17097802 -0.015701042 -0.20793466
000250 39 ad dd be 57 78 8d bd bd 6a 0a be cd ba 8c 3e
       -0.4329622 -0.06907719 -0.1351728 0.27486268
000260 54 27 9b 3e b2 2c a9 be a2 90 17 3e 68 ed a1 be
       0.30303442 -0.33041912 0.14801267 -0.3162644
000270 68 d9 7a be fa 0b bb 3e bc 02 05 be 1f ff 83 3e
       -0.24496996 0.36532575 -0.12989324 0.2578058
000280 bb 2f e0 be 3e 06 cc be 9b 48 6e 3d 68 d2 d2 be
       -0.43786415 -0.39848512 0.05817471 -0.41176152
000290 98 55 9c 3e 02 8a b0 3e 94 78 96 be 0c f4 81 3e
       0.30534053 0.34480292 -0.2938887 0.25381505
0002a0 d1 95 26 be 6f fc d5 be 77 1b 66 3e 3f 11 31 3e
       -0.16268088 -0.41794154 0.22471415 0.17291735
0002b0 b3 7a a7 3e fa c4 b4 3c f0 28 10 3e 71 47 bb 3e
       0.327108 0.022066582 0.14078116 0.36577943
0002c0 36 81 b4 be 0f 5b 34 3e c4 45 a3 bd 85 36 24 3e
       -0.3525483 0.17612861 -0.07972291 0.16036423
0002d0 82 3f b6 3d d4 c4 eb bd 69 a7 dc be bb 34 9a 3d
       0.08898832 -0.11512151 -0.43096474 0.07529589
0002e0 8f ac b6 be a1 16 7f 3e f8 33 24 3e e7 dd 87 be
       -0.35678527 0.24910976 0.1603545 -0.26536486
0002f0 4f 8c 44 3e 2d 1d cb 3e 0c 2d ce bd 21 e0 7e 3e
       0.19194148 0.39670697 -0.10067186 0.24890186
000300 fa eb df be d3 11 b8 be 9b 6f 4b be 45 97 69 3d
       -0.43734723 -0.359511 -0.19866793 0.057029027
000310 ec a1 0b 3d 36 04 af 3e 47 d6 c9 3e 01 bd 81 be
       0.034089968 0.341829 0.39421293 -0.2533951
000320 55 8f cf be 27 f3 62 bc 85 0f 6c 3e 60 a3 1b 3e
       -0.4053904 -0.013851917 0.23052795 0.15199041
000330 03 f8 a3 be fa f7 44 3e 2b 3d b4 be 66 ac ba 3e
       -0.32025155 0.1923522 -0.35202917 0.36459655
000340 07 53 f2 3d c2 77 a0 be ed cb 04 3d 3d c3 97 3e
       0.118322425 -0.31341368 0.03242104 0.29641142
000350 05 cf e1 3e c5 df 13 be 70 0b 73 bd ab 7e c2 3b
       0.44103256 -0.1444083 -0.05933708 0.00593551
000360 97 cd 07 be a2 61 9e 3e 04 66 be be 25 4a d1 3e
       -0.1326202 0.30933863 -0.37187207 0.4087688
000370 dc 1c 87 3e 50 71 e3 be 26 1a cf 3e ab a9 b7 3e
       0.26389205 -0.44422388 0.40449637 0.35871634
000380 e9 58 bf 3d 0d d5 37 be 35 c6 4c 3e a4 9a 88 3e
       0.0934313 -0.17952366 0.19997485 0.2668048
000390 a3 5e e4 3e 2c b3 8d 3e c7 70 87 bd 85 f4 1c be
       0.44603452 0.2767576 -0.066133074 -0.15327652
0003a0 c5 79 60 3e f7 93 56 be fe f2 cf be 9e 10 c1 3e
       0.21921451 -0.20954882 -0.40615076 0.3770799
0003b0 0d ef 72 be 17 6f a9 3d 9d 1f 0c 3d 80 b9 90 be
       -0.23724003 0.08273142 0.034209836 -0.28266525
0003c0 e0 65 dd be 48 a9 c0 3d e1 fe 08 be 6d 93 0d 3e
       -0.43241787 0.09407288 -0.13378479 0.1382577
0003d0 f9 3d c9 bb 50 5f 08 3e ca 15 02 be a1 76 96 be
       -0.006141421 0.13317609 -0.12703624 -0.29387382
0003e0 33 33 64 3c bf aa dc 3d b6 1e de be 82 4f c4 be
       0.0139282225 0.10774755 -0.43382806 -0.3834191
0003f0 5f 43 d5 3e be dd a8 3e 16 ab d9 be 6d 99 4f be
       0.41652963 0.32981676 -0.4251334 -0.20273371
