lightning_logs/version_7/checkpoints/epoch=78-step=632.ckpt (torch, 685201 bytes, 50 tensors)

batch_norm1.weight f4 [40]
0.8741644 1.0357953 0.9287786 0.9424158 0.90649647 0.9830314 0.966145 0.97145635
1.0008353 1.0135992 0.8692941 0.92571825 1.0312347 0.9515088 0.9724243 0.9061883
0.98527205 0.9541894 1.0171552 1.1073519 1.1152352 0.9724624 0.9957112 1.0002706
0.95024043 0.9736909 0.96949446 0.8997712 0.92202526 0.8958887 0.90737283 1.016974
0.93513346 0.94371724 1.0174025 1.0777872 1.0800928 0.9980398 0.945753 0.9909654
00000000: 3dc9 5f3f f194 843f 6fc4 6d3f 2942 713f
00000010: 2710 683f f2a7 7b3f 4755 773f 5db1 783f
00000020: 5f1b 803f 9ebd 813f 0f8a 5e3f dffb 6c3f
00000030: 80ff 833f 1596 733f cdf0 783f f5fb 673f
00000040: ca3a 7c3f c245 743f 2432 823f b5bd 8d3f
00000050: 07c0 8e3f 4cf3 783f eee6 7e3f de08 803f
00000060: f542 733f cf43 793f ca30 783f 6857 663f
00000070: d909 6c3f f658 653f 9649 683f 342c 823f
00000080: e864 6f3f 7497 713f 3f3a 823f eef4 893f
00000090: 7b40 8a3f 897f 7f3f de1c 723f e9af 7d3f

batch_norm1.bias f4 [40]
-0.008338302 -0.11854646 -0.017529346 0.0007187153 -0.011178507 0.09338733 0.06565509 0.13039473
0.17320554 0.13728766 0.014116409 0.0016240892 0.026573233 0.044315234 0.030906279 0.05615958
-0.03455851 -0.021709263 0.033397518 0.1378718 0.22004974 0.017454784 0.013201715 0.039754655
0.0038632755 -0.0018089341 -0.012989568 0.026842685 0.016176963 0.0066428403 0.0101555055 -0.01581596
0.0136069 0.009253292 0.017015915 0.027163891 0.05035069 0.058702696 -0.03168909 -0.015153542
00000000: 609d 08bc 7dc8 f2bd b499 8fbc 2b68 3c3a
00000010: 0e26 37bc db41 bf3d 2d76 863d 3286 053e
00000020: cb5c 313e 2395 0c3e 8348 673c 64df d43a
00000030: 1cb0 d93c e483 353d 2a2f fd3c 9607 663d
00000040: 398d 0dbd a0d7 b1bc d6cb 083d 442e 0d3e
00000050: b854 613e 56fd 8e3c 024c 583c c7d5 223d
00000060: 022f 7d3b c219 edba 32d2 54bc 31e5 db3c
00000070: 8d85 843c 2fac d93b 4763 263c 7990 81bc
00000080: 7aef 5e3c 1f9b 173c f664 8b3c cf86 de3c
00000090: 863c 4e3d 3d72 703d 6bcc 01bd 9046 78bc

batch_norm1.running_mean f4 [40]
-0.0071725375 0.010607065 0.0051685353 -0.0005431791 -0.004588573 -0.011312508 -0.0027056327 -7.126504e-05
-0.0023248165 -0.008524264 -0.005892036 -0.0022804562 -0.0010243743 -0.00985873 -0.0085821645 -0.007994378
-0.0067811254 0.00010607491 0.0003430344 -0.005507654 0.004508206 0.0017893718 -0.002085612 -0.0009938931
0.002426807 0.002359302 -0.00436194 -0.0010066761 -0.004153271 -0.0035973508 -0.0017645435 0.00340966
-0.0073175817 -0.000564252 -0.0077534756 0.0027225614 -0.009350082 0.006240399 0.0032345904 0.0030793722
00000000: 9b07 ebbb 41c9 2d3c d15c a93b 2264 0eba
00000010: bd5b 96bb 1958 39bc fc50 31bb 2174 95b8
00000020: f35b 18bb 5ba9 0bbc fb11 c1bb b573 15bb
00000030: 4c44 86ba 8386 21bc 359c 0cbc dafa 02bc
00000040: 3434 debb 8974 de38 4cd9 b339 8d79 b4bb
00000050: 93b9 933b 5b89 ea3a c3ae 08bb 8545 82ba
00000060: 110b 1f3b 859e 1a3b 9bee 8ebb 72f2 83ba
00000070: 2a18 88bb 88c1 6bbb 4148 e7ba 9a74 5f3b
00000080: 53c8 efbb 50ea 13ba de10 febb 006d 323b
00000090: 1631 19bc 437c cc3b 6cfb 533b 4bcf 493b

batch_norm1.running_var f4 [40]
0.9996396 0.9878273 0.9916562 0.9962472 0.991925 0.9775032 1.0018572 0.9988687
0.99427795 0.9805851 0.9894845 0.9936002 1.002283 0.98734415 0.993563 0.99511045
0.9961925 0.9997921 1.0253842 0.9795837 1.0036143 0.9923053 0.984473 0.9971083
0.99951494 1.0006031 0.9830085 0.9975345 0.9991547 0.99496347 0.99631757 0.9950827
0.9978584 1.0077558 0.8876571 0.9148995 0.8861334 1.0261517 1.4883623 1.4493685
00000000: 61e8 7f3f 40e2 7c3f 2edd 7d3f 0e0a 7f3f
00000010: ccee 7d3f a63d 7a3f db3c 803f dcb5 7f3f
00000020: 0089 7e3f a007 7b3f db4e 7d3f 955c 7e3f
00000030: cf4a 803f 96c2 7c3f 255a 7e3f 8fbf 7e3f
00000040: 7906 7f3f 60f2 7f3f ca3f 833f ffc5 7a3f
00000050: 6f76 803f b807 7e3f 6c06 7c3f 7d42 7f3f
00000060: 36e0 7f3f c313 803f 72a6 7b3f 6c5e 7f3f
00000070: 9ac8 7f3f edb5 7e3f ab0e 7f3f bdbd 7e3f
00000080: a673 7f3f 24fe 803f 7f3d 633f db36 6a3f
00000090: a3d9 623f f058 833f a882 be3f e884 b93f

dense1.weight_g f4 [1024, 1]
0.47490636 0.5596154 0.5448275 0.6438362 0.56403464 0.4665568 0.6354231 0.5668922
0.6257728 0.54032916 0.63567346 0.52911836 0.67 0.56949234 0.56257284 0.5600262
0.56141114 0.6433416 0.62413687 0.48326996 0.52281594 0.54641396 0.57840914 0.59969765
0.56961316 0.6032272 0.5998615 0.5628348 0.5516324 0.6209988 0.57988304 0.58606285
0.574821 0.63316846 0.5885081 0.59971106 0.50472873 0.5537898 0.62840235 0.52153164
0.5668769 0.5717443 0.56435853 0.5583763 0.6481555 0.5998619 0.59706503 0.5827371
0.5621187 0.579088 0.55447257 0.6112514 0.6262005 0.6145248 0.5583204 0.44327116
0.6122442 0.5790585 0.6373382 0.58388454 0.49457577 0.55295813 0.5930946 0.5798188
0.60526294 0.56631464 0.65176415 0.5604563 0.5851331 0.6444803 0.5491161 0.546463
0.5338829 0.5310186 0.52889454 0.5417938 0.53765565 0.5149044 0.59042144 0.6233932
0.6083862 0.6542175 0.6392753 0.48840436 0.5657989 0.6363656 0.5538401 0.5928569
0.5969475 0.52464837 0.48204198 0.6126862 0.63325495 0.64349693 0.61243707 0.57932913
0.62355065 0.5280241 0.53735423 0.5398986 0.5921783 0.48904112 0.53119785 0.5176885
0.6082226 0.5779286 0.63647985 0.5268619 0.49410492 0.65162784 0.6793484 0.6035991
0.661647 0.57334524 0.5232927 0.64024305 0.5917966 0.56342703 0.5821051 0.5850711
0.55960643 0.5237903 0.5979484 0.53147197 0.6518754 0.5991202 0.6980342 0.56477624
0.55163956 0.59114707 0.56377167 0.53894126 0.59993064 0.5888731 0.54122156 0.56343955
0.54475164 0.5924835 0.47835612 0.5406958 0.6326031 0.5949854 0.48691523 0.55586785
0.5752214 0.5663188 0.6225997 0.62804556 0.590713 0.6507377 0.6175389 0.5336568
0.62039775 0.6220584 0.60831267 0.5497765 0.5486901 0.5759197 0.471025 0.45403853
0.5723151 0.4845789 0.55327624 0.54597044 0.60800344 0.60402423 0.58497226 0.59696263
0.52783453 0.59504884 0.58716893 0.5841362 0.5664141 0.61448026 0.6095533 0.46837392
0.62566715 0.5623197 0.7103205 0.51414585 0.58942014 0.4807726 0.599574 0.59262115
0.5890189 0.47102785 0.659175 0.50551814 0.53187203 0.57765526 0.6590676 0.60759544
0.5256287 0.55111426 0.601002 0.5650819 0.56407917 0.6150626 0.5602631 0.55200154
0.6499477 0.6613238 0.56531775 0.5372292 0.4527236 0.63609904 0.56508327 0.49713686
0.5165007 0.5755065 0.560004 0.564423 0.5560409 0.50162566 0.59237516 0.5101546
0.6508174 0.5356444 0.53574806 0.6226629 0.59149224 0.54967934 0.57287705 0.6310629
0.5475657 0.552864 0.63472456 0.5941018 0.6243597 0.54186887 0.5758735 0.52957875
0.62008023 0.5188246 0.6066926 0.6234775 0.60785794 0.5730409 0.600115 0.4980453
0.655171 0.60998106 0.6448108 0.54070246 0.53053606 0.6276654 0.6172319 0.62375104
0.4858885 0.52762824 0.5840493 0.513682 0.539378 0.46686053 0.5807948 0.54104805
00000000: ed26 f33e f442 0f3f d179 0b3f 73d2 243f
00000010: 9364 103f 88e0 ee3e 17ab 223f d91f 113f
00000020: a532 203f 0353 0a3f 7fbb 223f 4d74 073f
00000030: 1f85 2b3f 40ca 113f c604 103f e15d 0f3f
00000040: a4b8 0f3f 09b2 243f 6fc7 1f3f 296f f73e
00000050: 44d7 053f c9e1 0b3f 9f12 143f c985 193f
00000060: 2bd2 113f 196d 1a3f 8690 193f f115 103f
00000070: c837 0d3f c7f9 1e3f 3773 143f 3708 163f
00000080: 7827 133f 5417 223f 78a8 163f aa86 193f
00000090: e735 013f 2bc5 0d3f fade 203f 1983 053f
000000a0: d81e 113f d65d 123f cd79 103f c0f1 0e3f
000000b0: 85ed 253f 8d90 193f 41d9 183f 422e 153f
000000c0: 03e7 0f3f 1c3f 143f eaf1 0d3f f97a 1c3f
000000d0: ad4e 203f 7f51 1d3f 16ee 0e3f 70f4 e23e
000000e0: 09bc 1c3f 2e3d 143f 9928 233f 7579 153f
000000f0: 0939 fd3e aa8e 0d3f 0cd5 173f 016f 143f
00000100: 83f2 1a3f fff9 103f 04da 263f 107a 0f3f
00000110: 48cb 153f a9fc 243f df92 0c3f 00e5 0b3f
00000120: 8dac 083f d6f0 073f a265 073f 00b3 0a3f
00000130: cda3 093f c6d0 033f dc25 173f b296 1f3f
00000140: 33bf 1b3f cc7a 273f 8ca7 233f 2310 fa3e
00000150: 32d8 103f dbe8 223f 77c8 0d3f 78c5 173f
00000160: 8dd1 183f 5b4f 063f 35ce f63e 01d9 1c3f
00000170: ff1c 223f 37bc 243f adc8 1c3f ea4e 143f
00000180: 04a1 1f3f 962c 073f 0c90 093f cb36 0a3f
00000190: ff98 173f 9963 fa3e 95fc 073f 3c87 043f
000001a0: 7ab4 1b3f 21f3 133f 58f0 223f 6ce0 063f
000001b0: 52fb fc3e 15d1 263f c7e9 2d3f 7885 1a3f
000001c0: b361 293f c1c6 123f 83f6 053f f8e6 233f
000001d0: fb7f 173f c13c 103f d704 153f 38c7 153f
000001e0: 5e42 0f3f 1f17 063f 2513 193f 8c0e 083f
000001f0: 4ee1 263f f15f 193f 5fb2 323f 2d95 103f
00000200: 4038 0d3f 6a55 173f 5753 103f 0ef8 093f
00000210: 0e95 193f 63c0 163f 7f8d 0a3f 933d 103f
00000220: d874 0b3f 00ad 173f 18eb f43e 0a6b 0a3f
00000230: 47f2 213f f750 183f f44c f93e 5b4d 0e3f
00000240: b641 133f 45fa 103f b262 1f3f 98c7 203f
00000250: f838 173f bf96 263f 0817 1e3f bb9d 083f
00000260: 63d2 1e3f 383f 1f3f 61ba 1b3f 27be 0c3f
00000270: f476 0c3f 796f 133f 302a f13e bd77 e83e
00000280: 3e83 123f ba1a f83e 83a3 0d3f b8c4 0b3f
00000290: 1da6 1b3f 55a1 1a3f bec0 153f 8bd2 183f
000002a0: 2a20 073f 1f55 183f b450 163f f389 153f
000002b0: 8400 113f 944e 1d3f af0b 1c3f b5ce ef3e
000002c0: b92b 203f 2ff4 0f3f 90d7 353f 109f 033f
000002d0: 3de4 163f d427 f63e af7d 193f 05b6 173f
000002e0: f1c9 163f 902a f13e b1bf 283f a369 013f
000002f0: c428 083f 37e1 133f a7b8 283f 608b 1b3f
00000300: 9a8f 063f d315 0d3f 44db 193f 35a9 103f
00000310: 7e67 103f be74 1d3f 676d 0f3f f94f 0d3f
00000320: f962 263f 844c 293f aab8 103f da87 093f
00000330: 63cb e73e 63d7 223f 4ca9 103f b988 fe3e
00000340: 6439 043f 6554 133f 6c5c 0f3f 077e 103f
00000350: b258 0e3f 8a6a 003f e6a5 173f 7e99 023f
00000360: f89b 263f fe1f 093f c926 093f d666 1f3f
00000370: 096c 173f c9b7 0c3f 12a8 123f 578d 213f
00000380: 442d 0c3f 7f88 0d3f 4f7d 223f 0e17 183f
00000390: 0ad6 1f3f ebb7 0a3f 726c 133f 7992 073f
000003a0: 94bd 1e3f b0d1 043f 3550 1b3f 399c 1f3f
000003b0: 949c 1b3f cfb2 123f 23a1 193f cbff fe3e
000003c0: 49b9 273f b827 1c3f 5212 253f 7a6b 0a3f
000003d0: 36d1 073f aeae 203f e902 1e3f 26ae 1f3f
000003e0: 61c6 f83e a512 073f 4184 153f aa80 033f
000003f0: ad14 0a3f 5808 ef3e f8ae 143f 2082 0a3f

dense1.weight_v f4 [1024, 40]
0.031047288 -0.07780597 0.054098234 -0.029155271 0.089754574 0.0155959 -0.030863905 -0.047578063
0.03663326 -0.08453421 -0.0009396058 0.016033843 -0.068832554 0.1024469 0.005426675 0.05193313
0.060379438 -0.09748818 -0.13339463 0.15583652 -0.12699988 0.013946227 0.007756967 0.11902513
-0.022043576 0.059575308 -0.022225747 -0.09277779 -0.080532916 -0.112531245 -0.15051769 -0.13620497
0.014695617 0.100143045 0.050565615 -0.08238176 0.11746476 -0.105356716 -0.06795401 -0.12121394
-0.030951831 -0.20435505 0.062182102 0.0138138905 0.020437075 0.08538384 0.054406915 0.010535431
0.028983194 0.046565805 0.085519396 0.088954955 0.09448162 0.07022297 -0.032570466 -0.011353702
-0.03464815 0.08737264 0.0152437305 0.18089183 0.051760394 -0.13714729 0.021380723 0.10642804
0.13004074 0.006855936 0.043384045 -0.15084761 -0.023451367 0.06192924 -0.12360397 0.1951031
-0.11114917 0.057345975 -0.009704787 0.06140349 0.014613485 -0.17395689 -0.06597692 -0.11156478
0.15608352 -0.019162262 -0.1773805 0.042190067 0.041368842 -0.085610084 0.003998352 0.064087905
-0.09108713 -0.056568567 -0.0013788898 -0.14317557 0.13926749 0.01702976 0.11574446 0.08368418
-0.13329232 -0.033748396 -0.048290785 0.01398022 -0.07297044 -0.02909612 -0.14930134 0.06400141
0.10691113 0.059895065 0.09951305 0.09525783 -0.15458694 0.045946524 0.16736391 -0.061797135
-0.0783236 0.016106395 -0.13909662 -0.041422132 -0.057635594 0.13325047 -0.041532483 0.10275955
0.07033508 0.123467326 -0.110395096 0.13901846 0.07992136 -0.13841337 -0.0149835255 0.11045143
-0.16153094 -0.11384425 -0.12015232 0.04994918 -0.04353551 -0.07804808 0.12510759 0.12748438
0.132873 -0.102704614 0.16997097 0.0046780137 -0.19342639 -0.0036355476 0.05031403 0.08155441
0.016474718 0.109980606 -0.07989279 0.10033015 0.1457356 -0.0703244 0.04419513 0.022005793
-0.13007551 -0.011457506 -0.064769305 -0.12417241 -0.12532735 0.016267896 0.17730053 0.095531404
-0.09098335 0.15226483 0.06138125 -0.14971752 -0.008852868 0.1264415 -0.08337347 -0.019741777
-0.1517084 -0.11863963 -0.110356934 0.009254748 0.09384212 -0.02872893 -0.13936815 -0.019784337
-0.13067834 -0.010486337 0.17179632 0.111651614 -0.13911398 -0.07763823 0.07521855 0.032902673
-0.11999247 -0.06341861 -0.027859705 0.020917095 0.095336996 0.08245846 0.026224542 -0.078266956
0.0780987 0.031272907 -0.042433936 -0.12780583 0.030773073 -0.08385103 0.07249565 0.12486534
-0.07578941 -0.03705906 -0.045208324 -0.18208122 -0.0037370718 0.088808835 0.043635294 -0.060566172
-0.06379842 -0.061089482 -0.13796286 -0.05090924 -0.017813949 -0.045432895 -0.12798238 0.04434009
0.030525107 -0.04622801 0.05487571 0.15279403 -0.08200939 -0.13068137 0.1609606 0.098418
0.020747013 -0.052066028 -0.04976805 0.12537575 0.052089505 -0.08806342 -0.026012497 0.0409573
0.03756533 -0.031033793 -0.13346554 -0.055611733 0.026678832 -0.04997473 -0.07138997 -0.11546265
0.010880358 0.09485172 -0.13132851 -0.20267451 0.092524566 0.10954056 0.07302503 0.052951556
-0.106451266 -0.078781374 -0.085433945 -0.029187085 -0.010294226 -0.13821484 -0.13694908 0.07561628
00000000: e256 fe3c bd58 9fbd 1c96 5d3d 09d7 eebc
00000010: 3fd1 b73d f285 7f3c 4dd6 fcbc 37e1 42bd
00000020: c20c 163d 4620 adbd e14f 76ba 6859 833c
00000030: 15f8 8cbd aecf d13d 40d2 b13b d5b7 543d
00000040: 6e50 773d e2a7 c7bd 9a98 08be 9c93 1f3e
00000050: 420c 02be b77e 643c 282e fe3b 73c3 f33d
00000060: bb94 b4bc 3d05 743d c512 b6bc 4802 bebd
00000070: 71ee a4bd c876 e6bd 4f21 1abe 5179 0bbe
00000080: e3c5 703c cc17 cd3d e41d 4f3d c5b7 a8bd
00000090: 5d91 f03d 43c5 d7bd 792b 8bbd 043f f8bd
000000a0: b28e fdbc 7342 51be a9b2 7e3d a853 623c
000000b0: a76b a73c b9dd ae3d c9d9 5e3d cd9c 2c3c
000000c0: 2a6e ed3c c9bb 3e3d cb24 af3d 042e b63d
000000d0: 947f c13d 0fd1 8f3d 9c68 05bd e104 3abc
000000e0: 38eb 0dbd 6df0 b23d d7c0 793c b53b 393e
000000f0: b502 543d 5770 0cbe a026 af3c f2f6 d93d
00000100: 6629 053e c2a7 e03b 78b3 313d cc77 1abe
00000110: 151d c0bc 84a9 7d3d 1424 fdbd 1bc9 473e
00000120: 2da2 e3bd 9de3 6a3d d400 1fbc 3a82 7b3d
00000130: 666d 6f3c c121 32be e81e 87bd 137c e4bd
00000140: 5cd4 1f3e 2dfa 9cbc 3ca3 35be 7ecf 2c3d
00000150: 6072 293d 5754 afbd 9c04 833b 8540 833d
00000160: e48b babd 71b4 67bd ddbb b4ba 9e9c 12be
00000170: 239c 0e3e ff81 8b3c 6e0b ed3d 9d62 ab3d
00000180: c87d 08be c23b 0abd 8fcc 45bd 4b0d 653c
00000190: 8771 95bd fc5a eebc 73e2 18be 2c13 833d
000001a0: 39f4 da3d 8754 753d 7fcd cb3d 8a16 c33d
000001b0: 0a4c 1ebe 6c32 3c3d 7261 2b3e fe1e 7dbd
000001c0: 2068 a0bd 8ff1 833c 586f 0ebe 41aa 29bd
000001d0: 4d13 6cbd d072 083e f71d 2abd 9973 d23d
000001e0: d70b 903d 70dc fc3d d316 e2bd db5a 0e3e
000001f0: cfad a33d 3cbc 0dbe 767d 75bc 5c34 e23d
00000200: 5e68 25be 2d27 e9bd 6b12 f6bd 8397 4c3d
00000210: 4a52 32bd acd7 9fbd 341c 003e 448b 023e
00000220: dc0f 083e cc56 d2bd df0c 2e3e 064a 993b
00000230: 9111 46be 5e42 6ebb 1616 4e3d 0006 a73d
00000240: fdf5 863c 833d e13d d59e a3bd e579 cd3d
00000250: b73b 153e 3d06 90bd f405 353d 7e45 b43c
00000260: 8432 05be 43b8 3bbc c5a5 84bd 1b4e febd
00000270: d055 00be 4044 853c 458e 353e f8a5 c33d
00000280: 7b55 babd 50eb 1b3e e86a 7b3d 8d4f 19be
00000290: 9f0b 11bc e179 013e b6bf aabd 82b9 a1bc
000002a0: 7259 1bbe 56f9 f2bd d102 e2bd 3aa1 173c
000002b0: 4c30 c03d ef58 ebbc 86b6 0ebe c312 a2bc
000002c0: 8bd0 05be e3ce 2bbc 60eb 2f3e 9aa9 e43d
000002d0: e573 0ebe cb00 9fbd 2f0c 9a3d f4c4 063d
000002e0: 9dbe f5bd 9ee1 81bd 093a e4bc 545a ab3c
000002f0: 0b40 c33d fbdf a83d dad4 d63c 6d4a a0bd
00000300: 36f2 9f3d 0518 003d 35cf 2dbd 88df 02be
00000310: d017 fc3c 17ba abbd 9978 943d 66b9 ff3d
00000320: 7a37 9bbd 3ecb 17bd 5d2c 39bd 8073 3abe
00000330: a9e9 74bb 68e1 b53d ecba 323d 3c14 78bd
00000340: bfa8 82bd f738 7abd 2346 0dbe 3586 50bd
00000350: 8fee 91bc d817 3abd d00d 03be f49d 353d
00000360: ca0f fa3c 9559 3dbd 5ac5 603d 0a76 1c3e
00000370: 8af4 a7bd 56d1 05be dbd2 243e 608f c93d
00000380: a4f5 a93c 3043 55bd 95d9 4bbd 8062 003e
00000390: ce5b 553d 985a b4bd 2918 d5bc d8c2 273d
000003a0: 1ade 193d 953a febc 31ab 08be 21c9 63bd
000003b0: 918d da3c 4db2 4cbd e834 92bd af77 ecbd
000003c0: 8743 323c 9e41 c23d fb7a 06be e889 4fbe
000003d0: 857d bd3d cd56 e03d 268e 953d bbe3 583d
000003e0: 1f03 dabd 2158 a1bd fef7 aebd c119 efbc
000003f0: 1da9 28bc 3188 0dbe 613c 0cbe b5dc 9a3d

batch_norm_c1.weight f4 [64]
0.97093403 0.9815197 0.9293327 1.0291033 1.0432942 0.97619075 0.8987356 1.0151205
0.92223215 0.9458923 1.0077437 0.9839232 0.9657242 1.0190177 0.9968108 1.0000142
1.0337815 1.0074778 0.9770146 1.0513428 0.997538 0.906707 1.0279096 0.9760916
1.006024 0.98463684 0.88661355 0.9622367 0.9750758 0.8965853 0.9763183 0.98569304
1.0047078 0.9622952 0.9492997 0.95723903 1.0130578 0.95502347 0.9816255 1.0545509
0.9913396 0.9515713 1.0060872 1.0021101 0.97981894 1.0001152 1.0189792 1.007978
1.0174426 0.89366895 0.9711438 0.9493557 0.94725484 0.98738813 0.91019106 0.9834501
0.9986213 0.9455719 0.97902703 1.002194 0.9864189 1.003777 0.97277886 0.87448907
00000000: 228f 783f e044 7b3f bfe8 6d3f a8b9 833f
00000010: aa8a 853f a3e7 793f 8913 663f 78ef 813f
00000020: 6817 6c3f ff25 723f bffd 803f 64e2 7b3f
00000030: b339 773f 2c6f 823f fe2e 7f3f 7700 803f
00000040: f452 843f 08f5 803f a11d 7a3f 6792 863f
00000050: a65e 7f3f f31d 683f 8b92 833f 24e1 793f
00000060: 65c5 803f 2911 7c3f 1bf9 623f 2555 763f
00000070: 919e 793f 9d86 653f ffef 793f 6156 7c3f
00000080: 449a 803f fa58 763f 4e05 733f 9e0d 753f
00000090: e1ab 813f 6b7c 743f cf4b 7b3f 86fb 863f
000000a0: 6fc8 7d3f 2d9a 733f 77c7 803f 2545 803f
000000b0: 6ad5 7a3f c603 803f e96d 823f 6c05 813f
000000c0: 8f3b 823f 7dc7 643f e19c 783f fa08 733f
000000d0: 4b7f 723f 78c5 7c3f 4802 693f 63c3 7b3f
000000e0: a5a5 7f3f 0011 723f 84a1 7a3f e547 803f
000000f0: f385 7c3f c47b 803f 0908 793f 84de 5f3f

batch_norm_c1.bias f4 [64]
-0.029000292 0.013267126 0.071259074 -0.002601533 -0.0060227457 -0.006783351 -0.08078571 -0.018668607
0.072371915 -0.050098293 0.017566409 -0.024716739 -0.025536483 -0.007769628 -0.011618103 -0.017652614
0.004222921 0.02034881 -0.020712487 -0.0018506047 -0.021212175 -0.07652874 0.009394423 0.017730081
-0.0043666204 -0.02284381 -0.10346696 -0.038815785 -0.025040057 0.06833343 0.0062694917 0.03522978
-0.018175397 0.057056256 0.033926394 0.0339805 0.020492626 0.04479548 0.026508493 -0.00027816248
0.026901392 0.054108057 0.020804334 0.032991793 -0.02060873 0.029282497 -0.008146005 -0.009416991
0.01715181 -0.08043746 0.032562356 -0.048049845 -0.038395718 0.021157725 0.07568066 0.021574628
-0.024962943 -0.03323561 0.026938222 0.024215315 -0.018801881 -0.012852747 -0.018018935 -0.10150954
00000000: 0592 edbc 5c5e 593c 47f0 913d 7b7e 2abb
00000010: 745a c5bb df46 debb fa72 a5bd e8ee 98bc
00000020: ba37 943d de33 4dbd 6ee7 8f3c c27a cabc
00000030: e331 d1bc 5d98 febb db59 3ebc 379c 90bc
00000040: 6e60 8a3b 8cb2 a63c 3cad a9bc fd8f f2ba
00000050: 28c5 adbc 1abb 9cbd 11eb 193c ad3e 913c
00000060: de15 8fbb f122 bbbc 7ce6 d3bd 4dfd 1ebd
00000070: ce20 cdbc 66f2 8b3d 4f70 cd3b 1a4d 103d
00000080: 92e4 94bc d2b3 693d 67f6 0a3d 232f 0b3d
00000090: 27e0 a73c 777b 373d 5728 d93c 56d6 91b9
000000a0: 4f60 dc3c 69a0 5d3d da6d aa3c 6722 073d
000000b0: a4d3 a8bc d9e1 ef3c d276 05bc b949 1abc
000000c0: f481 8c3c 65bc a4bd 1b60 053d eacf 44bd
000000d0: d444 1dbd f752 ad3c 76fe 9a3d 46bd b03c
000000e0: 167f ccbc 1022 08bd 8cad dc3c 325f c63c
000000f0: 6706 9abc 5494 52bc 729c 93bc 3ce4 cfbd

batch_norm_c1.running_mean f4 [64]
0.07392168 0.0820007 0.08448204 0.08570498 0.092431195 0.10428183 0.066345446 0.08778437
0.06050155 0.08545177 0.06895808 0.07962978 0.09089257 0.0819989 0.08613235 0.096578605
0.057858847 0.0745629 0.08825568 0.086235285 0.0756768 0.07412734 0.08044105 0.084516175
0.0855084 0.06781453 0.08321418 0.09046489 0.08759901 0.066887625 0.07722755 0.0808078
0.08223211 0.06508814 0.08476809 0.08598147 0.0911425 0.07758331 0.09457267 0.07878012
0.0922488 0.097147696 0.07189891 0.07406618 0.08934985 0.100085594 0.088036 0.071512304
0.08689496 0.08880011 0.06964556 0.078552 0.0840683 0.07445068 0.06267173 0.07885217
0.09999288 0.08774156 0.09089707 0.07490257 0.07542541 0.08011424 0.07934419 0.06035873
00000000: 4064 973d fcef a73d eb04 ad3d 1886 af3d
00000010: 914c bd3d b691 d53d 1fe0 873d 4bc8 b33d
00000020: 79d0 773d 5601 af3d e539 8d3d f014 a33d
00000030: e225 ba3d 0aef a73d 2866 b03d 01cb c53d
00000040: 66fd 6c3d 6fb4 983d 65bf b43d 209c b03d
00000050: 70fc 9a3d 13d0 973d 47be a43d d116 ad3d
00000060: 071f af3d 58e2 8a3d 326c aa3d a845 b93d
00000070: 1c67 b33d 61fc 883d 7a29 9e3d 8f7e a53d
00000080: 4f69 a83d ee4c 853d e49a ad3d 0e17 b03d
00000090: eba8 ba3d 00e4 9e3d 51af c13d 7957 a13d
000000a0: f0ec bc3d 5ff5 c63d bc3f 933d 02b0 973d
000000b0: 0efd b63d adf9 cc3d 384c b43d 0b75 923d
000000c0: fcf5 b13d d5dc b53d 55a2 8e3d dfdf a03d
000000d0: 002c ac3d 9979 983d 095a 803d 3f7d a13d
000000e0: 11c9 cc3d d9b1 b33d 3e28 ba3d 8566 993d
000000f0: a378 9a3d ef12 a43d 357f a23d b73a 773d

batch_norm_c1.running_var f4 [64]
0.2914737 0.29160216 0.32007268 0.3108414 0.32614344 0.34785485 0.31052908 0.3135508
0.2565097 0.28961182 0.27686054 0.31135017 0.32443386 0.31479725 0.31521076 0.3275456
0.2790582 0.33090982 0.3250342 0.33203083 0.31195492 0.31133288 0.3279195 0.30756068
0.31517687 0.283755 0.31230876 0.3157016 0.30689797 0.28923342 0.31608778 0.30243537
0.3232953 0.27776834 0.31954136 0.30479953 0.3101264 0.31450155 0.3304875 0.30969244
0.32389522 0.3780712 0.27708942 0.28439292 0.28727788 0.35201815 0.31057504 0.29336235
0.3312511 0.2962704 0.29264277 0.32120124 0.33025792 0.30947804 0.3076956 0.32548267
0.36858988 0.2946061 0.3303711 0.29941896 0.29775098 0.30996123 0.30501187 0.27907625
00000000: 0a3c 953e e14c 953e 91e0 a33e 9b26 9f3e
00000010: 46fc a63e 081a b23e abfd 9e3e bb89 a03e
00000020: 3d55 833e 0048 943e aac0 8d3e 4a69 9f3e
00000030: 321c a63e 1b2d a13e 4e63 a13e 0fb4 a73e
00000040: b7e0 8e3e 036d a93e e26a a63e f2ff a93e
00000050: 8eb8 9f3e 0667 9f3e 11e5 a73e 9878 9d3e
00000060: dd5e a13e 5648 913e efe6 9f3e a4a3 a13e
00000070: bb21 9d3e 6716 943e 42d6 a13e cfd8 9a3e
00000080: f686 a53e a737 8e3e ed9a a33e af0e 9c3e
00000090: e3c8 9e3e 5906 a13e a835 a93e 0290 9e3e
000000a0: 98d5 a53e 8c92 c13e aade 8d3e f39b 913e
000000b0: 1616 933e b93b b43e b103 9f3e 9733 963e
000000c0: bf99 a93e c1b0 973e 46d5 953e 7d74 a43e
000000d0: 9117 a93e e873 9e3e 478a 9d3e aaa5 a63e
000000e0: d0b7 bc3e 9cd6 963e 6726 a93e 714d 993e
000000f0: d172 983e 3db3 9e3e 842a 9c3e 15e3 8e3e

conv1.weight_v f4 [128, 1, 5]
0.18536101 0.2697996 -0.05997158 0.04004642 -0.34169948 0.22242835 0.16293897 0.19246344
-0.33130246 -0.3002324 0.35829768 -0.13125308 -0.08851348 0.20848791 -0.39370638 0.16972339
-0.23927413 -0.27542576 0.42966887 -0.3074104 -0.11229589 0.12702829 -0.082579225 0.13992393
-0.38790748 -0.08291681 -0.22677864 -0.057538148 0.23422715 -0.4641567 -0.11938884 0.18258904
0.24271482 0.13074365 0.16005166 -0.0998654 0.23235261 -0.40291873 -0.20655483 -0.13530733
-0.081455305 -0.3071213 0.32944655 0.0041274736 -0.2298938 -0.04203248 0.033010982 0.29160294
0.17356372 0.29893598 -0.43467215 -0.20716073 -0.12173292 0.16165473 -0.38212323 -0.18440212
-0.012166367 -0.3940677 -0.098657645 -0.43151036 0.26073718 -0.28717962 -0.3245925 0.21584049
0.26516092 0.22396581 -0.23362511 0.31237513 0.4186753 -0.33513325 0.2498142 -0.20929761
-0.3547524 0.31218636 0.48812932 0.39031285 -0.22966273 0.24801901 0.09935137 -0.41293573
-0.15593551 -0.33251396 -0.20016938 -0.15177366 -0.1376843 -0.056162704 0.17233892 0.41568756
0.08727943 -0.16911009 -0.03829467 -0.16150188 0.2985822 0.20628919 0.31444204 0.058872193
-0.2613165 0.31424806 -0.24691258 0.29025212 0.4182342 0.21854818 0.21457715 0.03934884
-0.13968456 0.36845696 0.21848255 -0.16004388 -0.40818247 0.42986575 -0.3312257 0.27756503
-0.16739468 -0.03102898 0.29247755 -0.095859505 0.4135404 -0.1426228 -0.17442296 0.22949705
0.021542441 -0.3301975 -0.18217185 0.35854763 -0.15380447 0.19578937 0.107890755 0.22725138
-0.37482154 -0.31203008 0.07839904 0.41971424 0.32241642 0.042685665 -0.21273643 0.3352625
-0.27980265 -0.21739517 0.33500186 0.1758183 -0.18063638 0.36682084 0.25770593 0.037980057
-0.043223865 -0.1286752 -0.31852943 0.10143417 0.120271824 -0.21653596 -0.24239594 -0.27259082
0.3379055 -0.29215607 -0.2656288 0.28206727 -0.14010368 0.11337659 -0.2878088 0.3061292
-0.24071899 -0.015210227 -0.067175545 0.31379226 0.118046656 -0.07245755 0.30926108 -0.2867532
0.28640366 0.06575669 0.15221064 -0.26734224 0.06064178 -0.22394438 -0.022585982 0.32678926
0.3098031 -0.032890875 -0.36465254 -0.153748 0.18989538 -0.32670632 -0.3183606 0.35162407
-0.289521 0.4167506 -0.4218984 -0.20560913 -0.19392917 -0.4021279 0.15678158 -0.2999329
-0.27416787 0.14067118 0.29320145 -0.3770806 -0.29793587 0.07017514 0.2735359 0.031118834
-0.03402395 0.4117136 0.29533723 -0.4027588 0.3668345 0.2391209 0.36493927 -0.15461755
0.4164314 -0.19618589 0.4162507 -0.33455288 -0.083123274 0.5087891 0.15697804 -0.071714334
0.20565492 0.38905036 0.34690318 -0.27398494 -0.093987435 0.23366252 -0.17808412 0.27643433
-0.40516594 -0.25311035 -0.38099542 -0.35773602 -0.27267936 0.31062108 0.15504271 0.084111854
-0.21294582 0.4303687 -0.3308211 -0.10895855 -0.13184437 0.29425818 0.39135322 -0.14285278
-0.19715951 -0.43292484 -0.12665771 -0.27612066 0.38376442 0.36239704 -0.3961129 -0.03339399
-0.3251833 0.43712297 0.35558388 0.14235565 -0.21446164 0.2828814 0.01834262 -0.28349632
00000000: 47cf 3d3e 2c23 8a3e c2a4 75bd b707 243d
00000010: 3cf3 aebe 42c4 633e 79d9 263e 2315 453e
00000020: 7aa0 a9be 10b8 99be cb72 b73e 3567 06be
00000030: 8e46 b5bd db7d 553e e293 c9be f8cb 2d3e
00000040: 4704 75be 9b04 8dbe 8ffd db3e e564 9dbe
00000050: 63fb e5bd b413 023e 4c1f a9bd 3848 0f3e
00000060: cf9b c6be 4ad0 a9bd a938 68be 1fad 6bbd
00000070: 3ed9 6f3e f2a5 edbe 2382 f4bd 9ff8 3a3e
00000080: 3c8a 783e aae1 053e 95e4 233e 3b86 ccbd
00000090: d8ed 6d3e 5d4b cebe 1c83 53be 018e 0abe
000000a0: 0ad2 a6bd 013f 9dbe 38ad a83e c23f 873b
000000b0: 4869 6bbe 402a 2cbd 8636 073d fb4c 953e
000000c0: b0ba 313e 230e 993e 598d debe f121 54be
000000d0: 1c4f f9bd d188 253e a8a5 c3be e9d3 3cbe
000000e0: 7155 47bc 3ec3 c9be 050d cabd edee dcbe
000000f0: 587f 853e 3509 93be fd30 a6be 4a05 5d3e
00000100: 2cc3 873e 4b57 653e 6c3b 6fbe a2ef 9f3e
00000110: 9c5c d63e 9696 abbe 4bcf 7f3e 1d52 56be
00000120: 1ba2 b5be e4d6 9f3e 16ec f93e 16d7 c73e
00000130: b52c 6bbe b2f8 7d3e bb78 cb3d 506c d3be
00000140: 8fad 1fbe 453f aabe 34f9 4cbe 8e6a 1bbe
00000150: 1dfd 0cbe dd0a 66bd 9d79 303e 00d5 d43e
00000160: 8fbf b23d 322b 2dbe dfda 1cbd c060 25be
00000170: c4df 983e 793d 533e 8cfe a03e f823 713d
00000180: 47cb 85be 1fe5 a03e a7d6 7cbe ed9b 943e
00000190: cb22 d63e 18cb 5f3e 1dba 5b3e 402c 213d
000001a0: 7809 0fbe 64a6 bc3e e4b9 5f3e 8be2 23be
000001b0: 4bfd d0be 5d17 dc3e 6a96 a9be 011d 8e3e
000001c0: 8369 2bbe 7d30 febc 9ebf 953e fd51 c4bd
000001d0: 91bb d33e b60b 12be ef9b 32be 4601 6b3e
000001e0: c679 b03c a60f a9be 428b 3abe 8e93 b73e
000001f0: eb7e 1dbe 027d 483e d4f5 dc3d 96b4 683e
00000200: 9ce8 bfbe 68c2 9fbe ad8f a03d c9e4 d63e
00000210: c413 a53e 2ad7 2e3d 94d7 59be 87a7 ab3e
00000220: 4b42 8fbe d79c 5ebe 5d85 ab3e b609 343e
00000230: bef8 38be f1cf bb3e 08f2 833e fa90 1b3d
00000240: 820b 31bd 6ec3 03be 4a16 a3be b8bc cf3d
00000250: 1351 f63d 9abb 5dbe a436 78be 0691 8bbe
00000260: f301 ad3e 7b95 95be 8000 88be 1f6b 903e
00000270: 5777 0fbe fc31 e83d ad5b 93be f7bc 9c3e
00000280: 0a7f 76be 5134 79bc 5593 89bd 61a9 a03e
00000290: 72c2 f13d a064 94bd 7857 9e3e 51d1 92be
000002a0: 80a3 923e 72ab 863d 1bdd 1b3e 15e1 88be
000002b0: 8463 783d ad51 65be 3d06 b9bc ec50 a73e
000002c0: 839e 9e3e 95b8 06bd bdb3 babe 1e70 1dbe
000002d0: ef73 423e 0d46 a7be 2900 a3be 1208 b43e
000002e0: 193c 94be 5660 d53e 1103 d8be 338b 52be
000002f0: 5e95 46be b5e3 cdbe 5a8b 203e ce90 99be
00000300: bb5f 8cbe 1b0c 103e 801e 963e b510 c1be
00000310: 0d8b 98be fcb7 8f3d e60c 8c3e edec fe3c
00000320: b35c 0bbd 20cc d23e 7136 973e 6736 cebe
00000330: bbd1 bb3e 1cdc 743e 52d9 ba3e 1054 1ebe
00000340: 7f36 d53e f4e4 48be d01e d53e 844a abbe
00000350: 893c aabd 0140 023f dabe 203e f7de 92bd
00000360: 3497 523e 9c31 c73e 4b9d b13e c147 8cbe
00000370: 7c7c c0bd 3a45 6f3e af5b 36be cd88 8d3e
00000380: e971 cfbe ae97 81be d511 c3be 2d29 b7be
00000390: a19c 8bbe ba09 9f3e 84c3 1e3e d642 ac3d
000003a0: 780e 5abe 4959 dc3e 6261 a9be a925 dfbd
000003b0: 3602 07be 02a9 963e 735f c83e 0048 12be
000003c0: 2fe4 49be 53a8 ddbe 8fb2 01be b05f 8dbe
000003d0: c57c c43e 1b8c b93e 4fcf cabe 23c8 08bd
000003e0: 6d7e a6be 95ce df3e 170f b63e aec5 113e
000003f0: d59b 5bbe d5d5 903e 4343 963c 6e26 91be

batch_norm_c2.weight f4 [128]
0.98116606 1.009086 1.0168483 1.0512328 1.004853 0.9925884 0.9833178 1.0042582
1.0378102 1.0087615 0.98980546 0.9315644 1.0020216 1.0450215 1.0088245 1.0165805
0.9960329 0.9956912 0.9823788 1.0425532 1.0225854 0.98741543 1.0585656 1.0308169
1.0181432 0.99692684 1.008969 0.98328876 0.98588175 1.0048317 0.9874824 0.9993317
0.9727374 1.0118142 1.0185766 0.9884007 1.0008941 0.9956444 0.99674314 1.0280931
0.9676003 0.98672575 0.97374356 1.0263538 1.0013013 1.0105851 0.98088217 1.029061
0.9981703 0.9886058 0.9509549 1.0161744 1.0160512 1.0361005 1.0169005 0.9856455
1.0208442 0.986749 1.0242903 0.9842916 0.9937499 0.9984003 1.0156689 1.0079076
0.980978 1.0123487 1.0041854 1.0064119 1.0210557 0.9888512 0.9827272 1.0058101
0.9941719 1.0105783 1.0154335 1.0225149 1.0149324 1.0139978 0.9956289 1.0064838
0.9785152 1.0300281 1.0270671 1.0474262 1.03472 1.0503552 1.0402305 1.0488524
0.9646831 0.9701848 1.0353476 1.0256844 1.0473356 1.034332 0.98913074 0.9727635
1.0237155 1.0136892 0.9861225 1.0334167 1.0408299 0.9873725 1.0112283 1.0134885
0.9968624 1.0223098 1.0617521 1.0294014 0.9901932 1.0082256 0.9978243 1.0062988
0.9710614 0.9801718 1.0091006 1.000516 0.9767312 0.9931286 1.003592 1.0243319
0.97875345 0.9978625 1.0014269 0.9915598 0.9905766 0.98733604 1.0017834 1.0003284
00000000: b32d 7b3f bb29 813f 1628 823f cc8e 863f
00000010: 069f 803f 461a 7e3f b7ba 7b3f 888b 803f
00000020: f7d6 843f 191f 813f e463 7d3f 017b 6e3f
00000030: 3e42 803f 44c3 853f 2921 813f 4f1f 823f
00000040: 03fc 7e3f 9ee5 7e3f 2d7d 7b3f 6272 853f
00000050: 14e4 823f 42c7 7c3f 147f 873f cff1 833f
00000060: 8452 823f 9936 7f3f e525 813f d0b8 7b3f
00000070: bf62 7c3f 539e 803f a6cb 7c3f 34d4 7f3f
00000080: 5105 793f 2183 813f b860 823f d407 7d3f
00000090: 4c1d 803f 8de2 7e3f 8f2a 7f3f 8e98 833f
000000a0: a7b4 773f 0f9a 7c3f 4247 793f 905f 833f
000000b0: a42a 803f da5a 813f 181b 7b3f 45b8 833f
000000c0: 1788 7f3f 4515 7d3f c871 733f 0112 823f
000000d0: f70d 823f f19e 843f cc29 823f 4353 7c3f
000000e0: 06ab 823f 959b 7c3f f21b 833f 89fa 7b3f
000000f0: 6566 7e3f 2997 7f3f 7001 823f 1e03 813f
00000100: 6021 7b3f a494 813f 2689 803f 1bd2 803f
00000110: f4b1 823f 5a25 7d3f 0394 7b3f 63be 803f
00000120: 0d82 7e3f a15a 813f baf9 813f c5e1 823f
00000130: 4ee9 813f aeca 813f 89e1 7e3f 76d4 803f
00000140: f97f 7a3f f6d7 833f ef76 833f 1012 863f
00000150: b471 843f 0a72 863f 4626 853f cc40 863f
00000160: 79f5 763f 085e 783f 4586 843f a049 833f
00000170: 180f 863f fe64 843f ac37 7d3f 0707 793f
00000180: 1c09 833f 91c0 813f 8672 7c3f 0047 843f
00000190: ea39 853f 72c4 7c3f ee6f 813f feb9 813f
000001a0: 6032 7f3f 0cdb 823f 7ee7 873f 6dc3 833f
000001b0: 4d7d 7d3f 890d 813f 6a71 7f3f 66ce 803f
000001c0: 7b97 783f 8aec 7a3f 352a 813f e910 803f
000001d0: 0e0b 7a3f ad3d 7e3f b475 803f 4f1d 833f
000001e0: 968f 7a3f eb73 7f3f c22e 803f ddd6 7d3f
000001f0: 6e96 7d3f 0ec2 7c3f 703a 803f c30a 803f

batch_norm_c2.bias f4 [128]
-0.019313008 -0.004993431 0.0386161 0.036900736 0.017793879 -0.024550134 -0.008565305 0.03329612
-0.037432678 0.014968275 0.069330156 0.036380496 0.07780299 0.006340854 -0.019131247 0.005411864
-0.010792228 0.022121983 0.013796592 -0.029050121 -0.037019074 0.0080716405 0.019447254 0.0010224261
0.025317997 -0.024501111 -0.015347537 0.0031584427 -0.01726792 -0.031074641 -0.026209641 0.027991297
-0.01630712 0.038242828 -0.005213201 0.032033287 0.020944798 -0.008361122 0.022080567 0.0584435
-0.04043696 -0.021367576 0.003979371 0.02197055 -0.02093518 -0.029318178 0.004871876 0.015208925
0.0017355403 0.007793531 -0.01874588 0.057470378 0.045575906 -0.031272966 0.008619758 0.029845225
-0.04342438 0.007912387 -0.0049741208 -0.017827451 -0.005894552 -0.019683044 0.013785386 0.05409093
0.018464616 -0.020921912 -0.05618918 -0.015748879 -0.011645644 -0.056075398 -0.034617927 0.0487697
0.035687026 -0.059942137 -0.042086493 0.01802196 0.0391653 -0.0086677 -0.016112033 -0.04094133
0.07445781 -0.015682304 0.00039539585 -0.0015126823 -0.005731627 -0.006619373 0.021592954 -0.05282819
0.043173436 -0.014924454 0.025892587 0.018054422 -0.013316742 0.015571555 0.016735043 -0.00036394602
0.042749193 -0.039577942 0.0023565162 -0.004167486 0.026506785 -0.022415238 0.010268902 -0.05325255
-0.024495086 -0.057923857 0.036135387 0.025042444 0.0029449717 -0.038519837 0.006252535 -0.0044020526
-0.019879995 -0.04509973 -0.033137146 0.048005246 -0.03517805 -0.06139323 -0.030989327 -0.04088712
0.00064253714 -0.025961151 -0.010488755 0.035135865 -0.008274549 -0.017917015 -0.016509581 -0.0099950405
00000000: 5036 9ebc ef9f a3bb ea2b 1e3d 3a25 173d
00000010: 78c4 913c 5d1d c9bc 7e55 0cbc 8361 083d
00000020: 0253 19bd 7f3d 753c f8fc 8d3d b703 153d
00000030: 2d57 9f3d f0c6 cf3b 22b9 9cbc 0156 b13b
00000040: e3d1 30bc 2939 b53c 1a0b 623c 85fa edbc
00000050: 50a1 17bd ea3e 043c d94f 9f3c ed02 863a
00000060: b067 cf3c 8eb6 c8bc 3c74 7bbc e0fd 4e3b
00000070: 7475 8dbc 3f90 febc 9ab5 d6bc 014e e53c
00000080: 8296 85bc 83a4 1c3d 80d3 aabb 5635 033d
00000090: 6d94 ab3c 16fd 08bc 4ee2 b43c 7462 6f3d
000000a0: 3aa1 25bd 0e0b afbc 6265 823b 95fb b33c
000000b0: 4180 abbc ad2c f0bc 42a4 9f3b db2e 793c
000000c0: 127b e33a e060 ff3b f690 99bc 0f66 6b3d
000000d0: cdad 3a3d 1518 00bd e339 0d3c f97d f43c
000000e0: c3dd 31bd f5a2 013c f3fd a2bb e00a 92bc
000000f0: 1627 c1bb 563e a1bc 1adc 613c 738e 5d3d
00000100: 1b43 973c 6e64 abbc a026 66bd cb03 81bc
00000110: 5fcd 3ebc 51af 65bd 87cb 0dbd bdc2 473d
00000120: 8f2c 123d e385 75bd e362 2cbd caa2 933c
00000130: cb6b 203d f802 0ebc 62fd 83bc 19b2 27bd
00000140: 567d 983d 2d78 80bc 224d cf39 3245 c6ba
00000150: 5fd0 bbbb 53e7 d8bb b5e3 b03c 5f62 58bd
00000160: a1d6 303d b285 74bc b11c d43c dee6 933c
00000170: 772e 5abc d61f 7f3c ee17 893c 02d0 beb9
00000180: c719 2f3d 7b1c 22bd c86f 1a3b 688f 88bb
00000190: c224 d93c 29a0 b7bc e63e 283c 591f 5abd
000001a0: eba9 c8bc 9141 6dbd b302 143d d025 cd3c
000001b0: 6d00 413b fac6 1dbd 11e2 cc3b 183f 90bb
000001c0: 5fdb a2bc 7fba 38bd d1ba 07bd 26a1 443d
000001d0: dc16 10bd 7877 7bbd 54dd fdbc 4179 27bd
000001e0: f06f 283a 7bac d4bc 07d9 2bbc a0ea 0f3d
000001f0: f991 07bc b4c6 92bc 1a3f 87bc 3dc2 23bc

batch_norm_c2.running_mean f4 [128]
0.16808102 0.20642765 0.20667018 0.24320173 0.1391568 0.16445641 0.15213989 0.20459373
0.18905249 0.17692155 0.23082156 0.23806027 0.18651183 0.2079173 0.27477258 0.22510833
0.1348018 0.1867868 0.16413386 0.20751166 0.19855095 0.27200466 0.20129369 0.19408962
0.19728336 0.20101388 0.21232729 0.227555 0.17477761 0.154654 0.23534022 0.18636706
0.15092413 0.18683258 0.14022134 0.20875609 0.24127263 0.2791925 0.20951775 0.21027218
0.254008 0.22413304 0.22943869 0.19760673 0.22690727 0.25931436 0.21040978 0.19783846
0.25533777 0.2541368 0.175838 0.21672411 0.18104838 0.1198105 0.1685826 0.13802348
0.21307644 0.20369864 0.14963743 0.094146214 0.23045619 0.24744068 0.21400875 0.23821989
0.20814699 0.17244796 0.17880674 0.12294789 0.24367695 0.21602738 0.1465418 0.199998
0.20392035 0.20236638 0.23289517 0.18049163 0.19842401 0.17630234 0.15690994 0.2522573
0.21354854 0.24660997 0.182214 0.17762466 0.18345438 0.20564538 0.23400944 0.14544985
0.19173643 0.24378097 0.25606823 0.21201362 0.26664132 0.25799718 0.2356062 0.1562375
0.2940224 0.20880152 0.24515249 0.20204042 0.25446463 0.17677213 0.19529304 0.09587108
0.2403018 0.23137745 0.24351428 0.2016192 0.20559707 0.14105253 0.20233427 0.23440623
0.16161525 0.2838678 0.1426774 0.19619372 0.26040646 0.21400572 0.24936485 0.13763364
0.111027345 0.15237732 0.20235482 0.21272531 0.13743486 0.17200446 0.1530968 0.15902416
00000000: 6e1d 2c3e c561 533e 59a1 533e e009 793e
00000010: 1f7f 0e3e 4367 283e 8fca 1b3e 0581 513e
00000020: fa96 413e ec2a 353e 7d5c 6c3e 12c6 733e
00000030: f5fc 3e3e 46e8 543e feae 8c3e cc82 663e
00000040: 7c09 0a3e 0a45 3f3e b512 283e f07d 543e
00000050: f150 4b3e 3244 8b3e ef1f 4e3e 6ebf 463e
00000060: a604 4a3e 95d6 4d3e 536c 593e 2e04 693e
00000070: e7f8 323e 9e5d 1e3e 07fd 703e 02d7 3e3e
00000080: db8b 1a3e 0a51 3f3e 2f96 0f3e 28c4 553e
00000090: 2c10 773e 52f2 8e3e d28b 563e 9751 573e
000000a0: 560d 823e 2283 653e faf1 6a3e 6b59 4a3e
000000b0: 615a 683e dac4 843e a975 573e 2a96 4a3e
000000c0: a2bb 823e 381e 823e e00e 343e edec 5d3e
000000d0: bf64 393e 355f f53d eba0 2c3e 0756 0d3e
000000e0: b630 5a3e 6096 503e 8e3a 193e bbcf c03d
000000f0: b5fc 6b3e 1761 7d3e 1c25 5b3e eaef 733e
00000100: 7c24 553e 3396 303e 1d19 373e 1acc fb3d
00000110: 7386 793e 4836 5d3e 0e0f 163e 47cc 4c3e
00000120: 7fd0 503e 2239 4f3e 127c 6e3e ccd2 383e
00000130: aa2f 4b3e 9a88 343e 00ad 203e de27 813e
00000140: 78ac 5a3e 5387 7c3e 4f96 3a3e 3de3 353e
00000150: 77db 3b3e b494 523e 2ca0 6f3e cef0 143e
00000160: 8e56 443e b8a1 793e 601b 833e 191a 593e
00000170: 3685 883e 3518 843e c042 713e b9fc 1f3e
00000180: 1b8a 963e 11d0 553e 4109 7b3e afe3 4e3e
00000190: 3049 823e c103 353e e6fa 473e 0f58 c43d
000001a0: ad11 763e 36ee 6c3e cf5b 793e 4375 4e3e
000001b0: 0a88 523e 1370 103e b730 4f3e 3008 703e
000001c0: 787e 253e 1f57 913e 061a 123e 02e7 483e
000001d0: ff53 853e 5124 5b3e 8059 7f3e d5ef 0c3e
000001e0: 4e62 e33d cd08 1c3e 1a36 4f3e aad4 593e
000001f0: b9bb 0c3e f021 303e 68c5 1c3e 3bd7 223e

batch_norm_c2.running_var f4 [128]
0.047376826 0.073133014 0.04603634 0.060254466 0.01457897 0.024684394 0.063375995 0.035666693
0.034686055 0.09163855 0.05619027 0.0645705 0.049216744 0.058632806 0.12873897 0.056848083
0.043531116 0.056776587 0.04808329 0.038101654 0.08384549 0.090821564 0.03663721 0.04340349
0.03360427 0.051074393 0.10576669 0.077604264 0.0729082 0.01992198 0.040879235 0.041210774
0.037979897 0.03707674 0.013718177 0.09098835 0.047523126 0.08563199 0.06749052 0.056538533
0.09321315 0.0738959 0.08925204 0.09567418 0.04164 0.09967684 0.044284742 0.06253049
0.08320338 0.07560218 0.05407043 0.046815015 0.056224138 0.051747885 0.030292718 0.020986317
0.044388186 0.05919367 0.025340736 0.020653391 0.06864748 0.082630135 0.096394904 0.13467525
0.041879386 0.07789283 0.04103493 0.022637807 0.1289052 0.057130676 0.022413502 0.055244904
0.08147251 0.040419776 0.06648343 0.044326484 0.057751145 0.040851746 0.033857338 0.07305609
0.08268381 0.08498874 0.042315584 0.02945962 0.041044462 0.06368472 0.053061802 0.014848646
0.067277126 0.15799938 0.121406734 0.0433135 0.12360256 0.071061805 0.043299474 0.034988925
0.094618775 0.031411137 0.061726008 0.051982615 0.10011576 0.031560294 0.028873937 0.006649688
0.045745693 0.06159663 0.058187842 0.06186568 0.051984623 0.041124944 0.05509525 0.046620905
0.044184804 0.07433554 0.01868835 0.051012564 0.06131838 0.042370908 0.085018374 0.03133032
0.01371076 0.021696566 0.067324266 0.07502663 0.025323192 0.04827935 0.030764917 0.044840056
00000000: 340e 423d c3c6 953d 9a90 3c3d 63cd 763d
00000010: a2dc 6e3c ed36 ca3c 46cb 813d 3d17 123d
00000020: f712 0e3d feac bb3d c527 663d 8a3d 843d
00000030: 7f97 493d f428 703d 26d4 033e 89d9 683d
00000040: af4d 323d 918e 683d fcf2 443d 7b10 1c3d
00000050: 2fb7 ab3d a800 ba3d e610 163d dcc7 313d
00000060: a2a4 093d 6233 513d 359c d83d fcee 9e3d
00000070: e550 953d 6c33 a33c fc70 273d a1cc 283d
00000080: cf90 1b3d c8dd 173d 34c2 603c 1a58 ba3d
00000090: 9ca7 423d d35f af3d 7838 8a3d f394 673d
000000a0: 89e6 be3d bc56 973d c6c9 b63d d3f0 c33d
000000b0: b48e 2a3d 5f23 cc3d eb63 353d fc0f 803d
000000c0: 8966 aa3d 51d5 9a3d f578 5d3d 1ac1 3f3d
000000d0: 484b 663d 97f5 533d 6f28 f83c 7feb ab3c
000000e0: 63d0 353d 1075 723d 6097 cf3c 4d31 a93c
000000f0: 0d97 8c3d fd39 a93d b16a c53d 4fe8 093e
00000100: b889 2b3d 4786 9f3d 3e14 283d ec72 b93c
00000110: baff 033e db01 6a3d 859c b73c 7b48 623d
00000120: 0fdb a63d 358f 253d 7728 883d b08f 353d
00000130: 778c 6c3d 2954 273d fead 0a3d 6e9e 953d
00000140: 2156 a93d 940e ae3d 1b53 2d3d 4d55 f13c
00000150: 3d1e 283d 226d 823d 5557 593d bc47 733c
00000160: 97c8 893d 97ca 213e 18a4 f83d 7f69 313d
00000170: 5723 fd3d da88 913d ca5a 313d 8c50 0f3d
00000180: 7dc7 c13d f7a8 003d 69d4 7c3d b9eb 543d
00000190: 7e09 cd3d 5e45 013d 0989 ec3c a0e5 d93b
000001a0: d65f 3b3d bf4c 7c3d 6056 6e3d de66 7d3d
000001b0: d4ed 543d a172 283d 8fab 613d 90f5 3e3d
000001c0: 20fb 343d 3b3d 983d 5018 993c 8df2 503d
000001d0: fb28 7b3d 1e8d 2d3d 1d1e ae3d 3954 003d
000001e0: 18a3 603c ffbc b13c 4ee1 893d 90a7 993d
000001f0: 9572 cf3c 91c0 453d b506 fc3c 35aa 373d

conv2.weight_v f4 [64, 128, 3]
0.0072826366 0.0059822355 -0.027993722 -0.0035650514 -0.015653782 0.00995958 0.004305726 -0.0043174676
-0.024176726 0.0214239 -0.008132062 0.009386684 -0.0049485993 -0.02787212 0.02282272 -0.0041339374
-0.030339802 -0.0036504637 0.007026767 -0.04063509 0.052489925 -0.015227404 0.0034809336 0.018019093
0.0026383896 -0.050871715 0.010563913 -0.03721724 0.030499756 -0.047108453 -0.03194513 -0.04431684
-0.009856527 -0.041662812 -0.04982773 0.059683062 0.028526478 0.009907542 -0.0011397908 -0.026072128
0.05661342 -0.06895984 0.04479176 0.012524695 0.056844346 0.06547341 0.056933817 0.0060704774
0.00051813404 0.019900339 0.041504562 0.02304634 -0.03625328 -0.014914842 -0.048226565 -0.041705497
-0.027113028 -0.095018856 -0.061858874 -0.050941803 -0.008978406 0.023193015 0.0063808737 0.005748292
0.027191052 -0.007069563 0.041356422 -0.0682259 0.018000672 -0.029578483 -0.01151622 0.01565612
-0.045737468 0.0043363855 0.013594886 -0.019927671 -0.0055726767 -0.035685275 -0.00068508065 -0.037087437
0.043576185 0.010695553 -0.015074756 0.020805566 0.021968434 -0.034566186 0.021903964 0.08590306
-0.018825406 0.032183442 -0.07071695 -0.06162819 -0.051426932 -0.053456586 -0.022035277 0.04364348
0.05474623 -0.058465503 0.010409177 0.026831763 0.03941355 -0.007746386 -0.052076057 -0.017723452
0.03930051 -0.02549264 0.012422774 0.03883117 -0.011025428 0.051139213 -0.030960968 0.020192608
0.027271045 -0.006930919 -0.0016025114 0.02568562 0.028869437 0.03704726 -0.031931527 -0.042793386
-0.053396877 0.0018087884 0.019488122 -0.059339967 0.046423078 0.049309842 0.027749725 -0.027618703
-0.021004675 -0.030131914 -0.0020962916 0.039439 0.013480218 -0.042454604 -0.0020481255 -0.012433503
0.035232015 0.012367137 -0.060562514 0.014147531 0.013763943 0.011739583 -0.033671446 -0.02472649
-0.055105634 0.009107969 0.031862907 0.02269653 -0.016263418 0.024065372 -0.018707177 0.04619838
-0.015991058 0.023890032 0.0071019623 -0.013467258 -0.027068613 -0.03868802 0.007041525 0.029053904
0.0032497353 -0.0193868 -0.009962887 -0.030095158 0.04697947 -0.024947552 0.015660038 -0.026793124
0.037763074 0.013560584 -0.025164686 -0.026246384 -0.030455867 0.021881292 -0.029799426 -0.0315865
-0.060294878 0.020754196 -0.0034387053 0.02186984 -0.0380447 -0.04287643 0.043681152 -0.029131588
-0.018351013 0.005261902 0.010250048 -0.03484178 -0.0346815 -0.008769697 0.02171832 -0.012899865
-0.054895077 0.05187198 -0.0032029063 -0.013271322 0.03213944 -0.022219589 -0.05578115 0.042525053
0.013273129 -0.021527959 -0.013247266 0.0034577814 0.049231004 0.00089591416 0.056208678 -0.04150538
0.046349604 -0.024513507 -0.023863228 0.055298325 0.0020820084 0.002002836 0.010880479 -0.06944996
0.044044636 -0.044030037 0.029929966 0.037387453 -0.0020289354 0.018351573 0.0032642302 0.04514987
-0.026790205 0.011217956 0.05153072 0.031384632 0.055669036 -0.021626491 0.010157997 -0.011163131
0.038783025 0.055689078 0.015177715 0.017502457 -0.018879307 0.005268576 -0.023793148 0.015029527
0.014934436 -0.027893838 0.019516725 -0.011850658 0.0059941164 -0.021465022 -0.06992165 -0.08341993
-0.010676511 -0.048246577 -0.07278197 -0.018306768 0.049890023 0.039684355 0.020055352 -0.020338796
00000000: 2fa3 ee3b a106 c43b 1753 e5bc a3a3 69bb
00000010: 5c3c 80bc 822d 233c 0c17 8d3b 8b79 8dbb
00000020: 450e c6bc 2d81 af3c 573c 05bc 9bca 193c
00000030: dc27 a2bb 1254 e4bc b7f6 ba3c fb75 87bb
00000040: 2d8b f8bc 9e3c 6fbb cb40 e63b fb70 26bd
00000050: adff 563d 5d7c 79bc 6020 643b c79c 933c
00000060: d5e8 2c3b dc5e 50bd 4314 2d3c 1b71 18bd
00000070: a0da f93c cbf4 40bd e6d8 02bd 9385 35bd
00000080: 457d 21bc a0a6 2abd 2918 4cbd 3a76 743d
00000090: 5cb0 e93c 3e53 223c 0865 95ba 3795 d5bc
000000a0: 79e3 673d d13a 8dbd 9177 373d 6134 4d3c
000000b0: 9ed5 683d ec16 863d 6f33 693d dbea c63b
000000c0: 63d3 073a 0906 a33c b000 2a3d aecb bc3c
000000d0: 527e 14bd 625d 74bc 3889 45bd 62d3 2abd
000000e0: 241c debc 3f99 c2bd bb5f 7dbd 5aa8 50bd
000000f0: 2a1a 13bc 47ff bd3c a616 d13b 2b5c bc3b
00000100: c5bf de3c cba7 e7bb 5a65 293d 05ba 8bbd
00000110: 2576 933c 934e f2bc 87ae 3cbc 4341 803c
00000120: 3657 3bbd 3d18 8e3b 16bd 5e3c 5b3f a3bc
00000130: 009b b6bb b92a 12bd fc96 33ba ffe8 17bd
00000140: f17c 323d 673c 2f3c 1cfc 76bc 6f70 aa3c
00000150: 25f7 b33c 4695 0dbd f16f b33c f2ed af3d
00000160: bd37 9abc c9d2 033d 0cd4 90bd d76d 7cbd
00000170: 0ca5 52bd 4bf5 5abd 5383 b4bc 81c3 323d
00000180: 953d 603d 8679 6fbd 418b 2a3c 49ce db3c
00000190: 1a70 213d 65d5 fdbb b44d 55bd c630 91bc
000001a0: 92f9 203d f1d5 d0bc e488 4b3c 6f0d 1f3d
000001b0: ffa3 34bc 5a77 513d dba1 fdbc f86a a53c
000001c0: 8767 df3c c31c e3bb 5c0b d2ba a66a d23c
000001d0: 997f ec3c debe 173d a2ca 02bd 1e48 2fbd
000001e0: afb6 5abd de14 ed3a 8ea5 9f3c 770e 73bd
000001f0: 2026 3e3d 1ef9 493d 6453 e33c 9e40 e2bc
00000200: ff11 acbc 34d7 f6bc f061 09bb ca8a 213d
00000210: 22dc 5c3c e1e4 2dbd d839 06bb e4b5 4bbc
00000220: 724f 103d 889f 4a3c 6610 78bd 0ccb 673c
00000230: 2982 613c 6157 403c 12eb 09bd 358f cabc
00000240: 72b6 61bd 9739 153c ae82 023d 13ee b93c
00000250: dc3a 85bc be24 c53c cb3f 99bc 833a 3d3d
00000260: aeff 82bc 07b5 c33c 94b7 e83b c6a5 5cbc
00000270: ffbe ddbc 5477 1ebd 98bc e63b 7402 ee3c
00000280: 83f9 543b 11d1 9ebc 603b 23bc 1f8a f6bc
00000290: 8b6d 403d cf5e ccbc 7b49 803c 417d dbbc
000002a0: 74ad 1a3d 362d 5e3c 2c26 cebc a802 d7bc
000002b0: 957e f9bc 6540 b33c ed1d f4bc d960 01bd
000002c0: c3f7 76bd b404 aa3c e75b 61bb 6128 b33c
000002d0: c2d4 1bbd 329f 2fbd 02eb 323d 5ea5 eebc
000002e0: dd54 96bc 096c ac3b d1ef 273c 41b6 0ebd
000002f0: 300e 0ebd c6ae 0fbc 9eea b13c f559 53bc
00000300: a9d9 60bd b777 543d dae7 51bb f56f 59bc
00000310: a5a4 033d db05 b6bc c67a 64bd c02e 2e3d
00000320: 8a77 593c 675b b0bc 100b 59bc f29b 623b
00000330: 73a6 493d c8db 6a3a 123b 663d 8c01 2abd
00000340: 15d9 3d3d 8dd0 c8bc d17c c3bc 7f80 623d
00000350: 4e72 083b 0342 033b 0944 323c c83b 8ebd
00000360: 2668 343d d758 34bd b02f f53c 9623 193d
00000370: e3f7 04bb 0a56 963c b2ec 553b 12ef 383d
00000380: 2277 dbbc 85cb 373c e011 533d 2c8d 003d
00000390: 3705 643d 0a2a b1bc ba6d 263c 91e5 36bc
000003a0: f3da 1e3d 3b1a 643d f3ab 783c 5061 8f3c
000003b0: c7a8 9abc 05a4 ac3b d9e9 c2bc 683e 763c
000003c0: 91af 743c 9e81 e4bc 8ae1 9f3c 4329 42bc
000003d0: 4b6a c43b 6ad7 afbc 1533 8fbd 11d8 aabd
000003e0: 88ec 2ebc 349e 45bd b70e 95bd 13f8 95bc
000003f0: 7b59 4c3d 108c 223d 1f4b a43c 8c9d a6bc

batch_norm_c3.weight f4 [64]
1.0031368 0.9617569 1.0200655 1.0362967 0.9827206 0.9879395 0.9954267 0.99416983
1.0218123 0.9622127 0.987513 0.9965357 0.9886252 0.9956234 1.0223597 1.0307119
0.9899519 1.0019672 0.99844474 0.9884179 0.9755319 0.9799233 1.010372 1.0193145
0.9974733 1.0329732 0.9852139 0.98051775 1.0170443 1.0069759 0.9805367 1.0004194
1.0023953 1.0142939 0.97990805 0.9980126 0.9923305 1.0300783 0.99317414 1.0093299
1.0096829 1.0194229 1.000944 0.9195538 0.99670416 1.0030206 1.0050142 1.0009537
1.0031357 1.0377791 1.0085765 1.0011381 1.0257269 1.0015106 1.0014017 0.9970064
1.0116358 1.0035995 1.0620031 1.0120604 1.0167658 0.99531007 1.0390302 0.97887367
00000000: c966 803f b335 763f 8291 823f 5fa5 843f
00000010: 9493 7b3f 9ae9 7c3f 49d4 7e3f ea81 7e3f
00000020: bfca 823f 9253 763f a7cd 7c3f f71c 7f3f
00000030: 8b16 7d3f 2de1 7e3f afdc 823f 5eee 833f
00000040: 7d6d 7d3f 7640 803f 139a 7f3f f508 7d3f
00000050: 75bc 793f 41dc 7a3f df53 813f e678 823f
00000060: 695a 7f3f 7738 843f fa36 7c3f 3603 7b3f
00000070: 822e 823f 96e4 803f 7404 7b3f be0d 803f
00000080: 7d4e 803f 62d4 813f 41db 7a3f c17d 7f3f
00000090: 5f09 7e3f 9bd9 833f a940 7e3f b931 813f
000000a0: 4a3d 813f 737c 823f ef1e 803f e167 6b3f
000000b0: 0128 7f3f fb62 803f 4ea4 803f 401f 803f
000000c0: c066 803f f2d5 843f 0919 813f 4b25 803f
000000d0: 054b 833f 8031 803f ee2d 803f d03b 7f3f
000000e0: 487d 813f f375 803f b8ef 873f 328b 813f
000000f0: 6225 823f a4cc 7e3f f1fe 843f 7797 7a3f

batch_norm_c3.bias f4 [64]
-0.03244808 0.023086231 -0.01087667 -0.06830561 0.020742247 0.020848716 0.058895472 -0.0057644136
0.018134465 0.020948945 -0.008993408 0.03289989 0.013444099 0.022209156 -0.006586895 0.014886928
-0.005846211 -0.023166265 -0.0039746407 -0.025737263 -0.009123412 0.009913972 -0.041099135 -0.011851078
0.0033597092 0.02498079 0.00065431267 0.048236072 -0.015459361 0.019523906 -0.007626025 0.006632927
-0.013784931 0.0069314498 0.018528864 0.01895079 0.034460243 0.008941588 0.024538841 -0.01362989
0.011590339 -0.023909293 0.041390732 0.018914921 -0.0497518 0.021821966 -0.011266596 0.034112312
-0.0029439349 0.0011820747 -0.0026828889 0.0054499772 0.033871513 0.0060341447 0.030847572 0.01574007
0.011364865 0.028542038 -0.02499604 0.025172586 0.006226497 0.0052603176 0.0007624736 0.03603901
00000000: 47e8 04bd 561f bd3c 0f34 32bc d0e3 8bbd
00000010: a5eb a93c edca aa3c 613c 713d 68e3 bcbb
00000020: bb8e 943c 1f9d ab3c 1659 13bc 09c2 063d
00000030: a344 5c3c faef b53c e1d6 d7bb 4de8 733c
00000040: 9391 bfbb 2ec7 bdbc b43d 82bb f4d6 d2bc
00000050: 5d7a 15bc 366e 223c 9157 28bd 062b 42bc
00000060: 912e 5c3b 84a4 cc3c 2e86 2b3a 3093 453d
00000070: 4249 7dbc 99f0 9f3c bce3 f9bb 0659 d93b
00000080: 31da 61bc 3721 e33b d8c9 973c b03e 9b3c
00000090: 2f26 0d3d bd7f 123c ae05 c93c e74f 5fbc
000000a0: 68e5 3d3c 6cdd c3bc 5489 293d 77f3 9a3c
000000b0: 8bc8 4bbd fbc3 b23c 8797 38bc 5ab9 0b3d
000000c0: 08ef 40bb d8ef 9a3a 68d3 2fbb b995 b23b
000000d0: dbbc 0a3d 13ba c53b 0cb4 fc3c 52f1 803c
000000e0: b333 3a3c fed0 e93c 7fc4 ccbc bd36 ce3c
000000f0: a407 cc3b be5e ac3b bde0 473a a49d 133d
