lightning_logs/version_6/checkpoints/epoch=67-step=544.ckpt (torch, 678937 bytes, 50 tensors)

batch_norm1.weight f4 [40]
0.7038343 1.3469244 0.86937153 0.938613 0.82165694 1.0552373 0.8459462 1.1562091
1.0887685 1.1561501 0.676507 0.58218944 1.048719 0.8035027 0.86976093 0.7465158
0.96122086 1.0625051 1.1636435 1.386029 1.5766026 1.0365838 1.1610805 1.0825058
0.9028631 0.8731857 0.97180134 0.6451006 0.74213666 0.6079398 0.5283387 1.1305801
0.879156 0.9424755 1.2610261 1.6567868 1.2437224 1.0929099 0.8162615 0.84582424
00000000: 7c2e 343f 0568 ac3f 228f 5e3f f148 703f
00000010: 1c58 523f 0412 873f ee8f 583f a9fe 933f
00000020: c45c 8b3f bafc 933f 902f 2d3f 5e0a 153f
00000030: 6d3c 863f 5ab2 4d3f a7a8 5e3f a91b 3f3f
00000040: 9212 763f 2b00 883f 45f2 943f 6669 b13f
00000050: 1dce c93f c7ae 843f 499e 943f 8d8f 8a3f
00000060: 0922 673f 1989 5f3f f9c7 783f 5025 253f
00000070: abfc 3d3f f1a1 1b3f 3441 073f d9b6 903f
00000080: 5e10 613f 1346 713f 4e69 a13f 9711 d43f
00000090: 4c32 9f3f 79e4 8b3f 83f6 503f f087 583f

batch_norm1.bias f4 [40]
0.005444668 -0.32379124 0.03462714 0.03620614 0.026328642 0.29489735 0.3313801 0.2507101
0.36921653 0.34363228 -0.01633296 -0.049537145 0.092370935 0.1185899 0.19388244 0.0679788
-0.11755054 0.02579931 0.07332877 0.29782087 0.4751427 0.022137815 -0.132794 0.14378315
-0.07967132 -0.03522331 0.0023596357 0.009294291 0.12696946 0.027189227 0.0049564554 -0.26492167
0.0408537 0.006115126 0.20169008 0.30637687 0.15877412 0.19027965 -0.033379856 -0.07981762
00000000: 2f69 b23b f7c7 a5be 30d5 0d3d e44c 143d
00000010: 2aaf d73c c9fc 963e a7aa a93e 135d 803e
00000020: f309 bd3e 92f0 af3e b3cc 85bc 76e7 4abd
00000030: f92c bd3d 43df f23d 1e89 463e 7838 8b3d
00000040: 56be f0bd 1359 d33c 652d 963d fa7b 983e
00000050: e745 f33e 5d5a b53c 26fb 07be e43b 133e
00000060: b82a a3bd 5146 10bd 1ea4 1a3b 1547 183c
00000070: 4804 023e f1bb de3c c369 a23b d0a3 87be
00000080: 3656 273d 6561 c83b d887 4e3e 6edd 9c3e
00000090: af95 223e abd8 423e 51b9 08bd 6c77 a3bd

batch_norm1.running_mean f4 [40]
0.00025677538 0.0033429533 -0.0015280821 -0.0051614083 -0.00036683958 -0.007852764 -0.0027490766 -0.0033951695
-0.0009816983 -0.008082236 -0.0047136457 0.0021631808 8.524134e-05 -0.0030106239 -0.0022259795 -0.0057094917
-0.0011137602 -0.0010175457 -0.0022281294 -0.0042365636 -0.0016728389 -0.002572011 0.0009262173 0.0046051946
0.006644702 0.0068313153 0.0032249016 0.0032870492 -0.0014224529 -0.00013782877 6.236565e-05 0.0030825736
-0.0069988943 -0.0030826814 -0.0072239693 0.0006302562 -0.0086898105 0.003497985 0.0026266098 0.0050680754
00000000: cf9f 8639 7315 5b3b ed49 c8ba 0821 a9bb
00000010: 6054 c0b9 e1a8 00bc da29 34bb 7e81 5ebb
00000020: 54ac 80ba 5b6b 04bc ed74 9abb 27c4 0d3b
00000030: 99c3 b238 e34d 45bb bde1 11bb b016 bbbb
00000040: 97fb 91ba 2b5f 85ba cf05 12bb dfd2 8abb
00000050: 2943 dbba 2f8f 28bb 64cd 723a 2ce7 963b
00000060: cdbb d93b 3ad9 df3b df58 533b 896b 573b
00000070: 9971 baba 2186 10b9 4eca 8238 0105 4a3b
00000080: fb56 e5bb d006 4abb 0cb7 ecbb c737 253a
00000090: b55f 0ebc 733e 653b 3323 2c3b 1912 a63b

batch_norm1.running_var f4 [40]
1.0002497 0.9929158 1.0055903 0.9828201 0.9985809 0.9837522 1.0058987 0.9930376
0.99485797 0.98337644 0.99533343 0.99940073 0.99950254 0.995867 0.99630785 0.9956447
1.0015459 0.99868894 1.0138698 0.98029375 1.0014111 1.0038139 1.00688 1.0118338
1.0035645 1.0019048 1.0311432 1.0048288 1.0042459 0.99947935 0.99996054 0.9959446
1.0021849 0.9943778 0.8879403 0.8891652 0.90638894 0.9881592 1.4143609 1.8077289
00000000: 2f08 803f bb2f 7e3f 2fb7 803f 199a 7b3f
00000010: ffa2 7f3f 2fd7 7b3f 4ac1 803f b637 7e3f
00000020: 03af 7e3f 8fbe 7b3f 2cce 7e3f bad8 7f3f
00000030: 66df 7f3f 24f1 7e3f 080e 7f3f 92e2 7e3f
00000040: a832 803f 14aa 7f3f 7cc6 813f 88f4 7a3f
00000050: 3d2e 803f f97c 803f 72e1 803f c583 813f
00000060: cd74 803f 6b3e 803f 80fc 833f 3b9e 803f
00000070: 218b 803f e1dd 7f3f 6afd 7f3f 3af6 7e3f
00000080: 9847 803f 8b8f 7e3f 0e50 633f 55a0 633f
00000090: 1b09 683f 00f8 7c3f c709 b53f a963 e73f

dense1.weight_g f4 [1024, 1]
0.43182534 0.4475325 0.40046048 0.604196 0.5259995 0.7657679 0.79547936 0.55484426
0.63941807 0.7119134 0.88389426 0.4158373 0.86041045 0.6642277 0.6100723 0.7591843
0.4678824 0.5005954 1.4624012 0.39040864 0.4201519 0.7667469 0.764375 0.3278363
0.6992642 0.76061493 0.91057575 0.73371136 0.7151011 0.6546209 0.5364248 0.45920435
0.36814913 0.67664105 0.6402694 0.42151347 0.26716834 0.540057 1.236967 0.75278544
0.46564353 0.5530128 0.31572556 0.83596945 0.9475474 0.26920226 0.33637056 0.93451446
0.6781848 0.57567906 0.43107674 0.42502236 0.39997873 0.55376345 0.5492649 0.773348
0.55065215 0.48695853 0.9083687 0.6998196 1.0120306 0.52264535 0.66969806 0.9452716
1.2099742 0.20741218 1.0581688 0.68093795 0.37907153 0.67167217 0.7304836 0.46440867
1.091386 0.2826353 0.5008951 0.94077545 1.0308235 0.22301741 0.5767152 0.5822358
0.74432266 0.96740246 1.609866 0.12016208 0.19376597 0.7752491 0.122107975 0.73726565
1.0030799 0.40810364 0.13751799 1.1336029 0.50703335 0.80270386 0.90182304 1.0006307
0.39081967 0.41997853 0.47553477 0.1896976 1.437223 0.49680996 0.28434336 0.32087272
0.65496963 0.6107271 0.9758618 0.5378384 0.46550623 0.73319066 0.43530214 0.6038413
0.43911147 0.6619571 0.9114696 0.47256407 0.44119298 0.4916604 0.74857336 0.49148354
0.8964758 0.9953643 0.3349494 0.44093502 0.6844408 0.32870108 0.80017555 0.83374035
0.8095067 1.1414527 0.5247897 0.67204684 1.0676801 0.7578961 0.9839208 0.381945
0.49431774 0.48392147 0.43875062 0.27122992 0.6932454 0.6564725 0.3080639 0.3514732
1.2410855 0.62083423 0.6960291 0.5545519 0.3364758 0.7723982 0.46134096 0.7114169
0.8562641 0.78300303 0.93624353 0.26182988 1.0169208 0.184439 0.7384352 0.2847185
0.5190592 0.5418382 0.70663685 0.30496964 0.9090102 0.6412273 0.3663453 0.7258128
0.4775941 0.51166755 0.6963806 0.7034446 0.51497567 0.7515128 0.45969388 0.5940193
0.28039825 0.25880364 1.6870877 0.55626535 0.5719725 0.24659167 0.8464688 0.4782221
0.86769724 0.31928903 0.32936442 0.86234075 0.5836026 0.7193461 0.8963965 0.5926656
0.38465902 0.49008542 0.16324486 0.39462772 0.6719221 0.48351613 0.50572306 0.6987445
1.0687294 0.18116881 0.97985935 0.46947283 0.8103513 0.38873145 0.9072583 0.6206806
0.43934056 0.5189522 0.429088 0.31101277 0.7125391 0.2891273 0.5143757 0.7198897
0.6168163 0.8291925 0.6349079 0.5191924 0.85225135 0.45507112 0.57645917 0.69511825
0.7114501 0.3236752 0.68882316 0.79826134 0.56675565 0.6167449 0.72888076 0.42853588
0.7472386 0.8681516 0.7391447 0.73717713 0.6051155 0.6385509 0.9889626 0.722542
0.88936967 0.6118164 0.77835053 0.8956467 0.3639393 0.8999312 0.8328762 0.74062234
0.895946 0.33516514 0.35904664 0.6821764 0.77705526 0.5217615 0.7254808 0.5324081
00000000: 3618 dd3e fb22 e53e 2809 cd3e 97ac 1a3f
00000010: e7a7 063f 5d09 443f 89a4 4b3f 460a 0e3f
00000020: e7b0 233f f53f 363f e546 623f a0e8 d43e
00000030: dc43 5c3f d40a 2a3f b32d 1c3f e759 423f
00000040: 488e ef3e 0527 003f f62f bb3f a4e3 c73e
00000050: 261e d73e 8649 443f 14ae 433f 29da a73e
00000060: fb02 333f a9b7 423f 7e1b 693f 82d4 3b3f
00000070: de10 373f 3c95 273f 2353 093f d51c eb3e
00000080: 0b7e bc3e 5938 2d3f b2e8 233f 9dd0 d73e
00000090: 4aca 883e 2d41 0a3f ef54 9e3f 8cb6 403f
000000a0: d468 ee3e 3f92 0d3f c8a6 a13e 1802 563f
000000b0: 7792 723f e1d4 893e c338 ac3e 573c 6f3f
000000c0: 859d 2d3f b45f 133f 17b6 dc3e 889c d93e
000000d0: 03ca cc3e 71c3 0d3f a09c 0c3f 22fa 453f
000000e0: 8af7 0c3f a152 f93e da8a 683f 6127 333f
000000f0: 388a 813f 16cc 053f 5571 2b3f 52fd 713f
00000100: 6fe0 9a3f dc63 543e 1372 873f f351 2e3f
00000110: aa15 c23e b5f2 2b3f f900 3b3f f9c6 ed3e
00000120: 89b2 8b3f 93b5 903e a93a 003f a9d6 703f
00000130: 06f2 833f ad5e 643e 9ba3 133f 680d 153f
00000140: ee8b 3e3f b0a7 773f 1710 ce3f 8917 f63d
00000150: 966a 463e ba76 463f bf13 fa3d 71bd 3c3f
00000160: ec64 803f f6f2 d03e 84d1 0c3e e619 913f
00000170: f0cc 013f 007e 4d3f e0dd 663f ab14 803f
00000180: 8419 c83e 6d07 d73e 4b79 f33e 1640 423e
00000190: ecf6 b73f e05d fe3e 7495 913e 6e49 a43e
000001a0: 17ac 273f 9c58 1c3f 14d2 793f c7af 093f
000001b0: d556 ee3e 62b2 3b3f ecdf de3e 5895 1a3f
000001c0: 38d3 e03e 0576 293f 1256 693f ebf3 f13e
000001d0: 0ce4 e13e e9ba fb3e 81a2 3f3f bba3 fb3e
000001e0: 707f 653f 32d0 7e3f 7d7e ab3e 3cc2 e13e
000001f0: 8337 2f3f 824b a83e 4ed8 4c3f 0270 553f
00000200: d53b 4f3f 1f1b 923f 9e58 063f 430b 2c3f
00000210: bea9 883f 7b05 423f 3ce2 7b3f 4c8e c33e
00000220: 3717 fd3e 8ec4 f73e eca3 e03e a6de 8a3e
00000230: 8878 313f 950e 283f 8dba 9d3e 4cf4 b33e
00000240: e4db 9e3f feee 1e3f f72e 323f 1df7 0d3f
00000250: 8e46 ac3e e3bb 453f e234 ec3e 6b1f 363f
00000260: 2034 5b3f e372 483f a8ad 6f3f 910e 863e
00000270: 762a 823f 94dd 3c3e 170a 3d3f a0c6 913e
00000280: 10e1 043f e9b5 0a3f 27e6 343f fb24 9c3e
00000290: e4b4 683f 7927 243f 9c91 bb3e dece 393f
000002a0: 3787 f43e a5fc 023f 0046 323f f214 343f
000002b0: 72d5 033f 2563 403f ff5c eb3e a611 183f
000002c0: 5c90 8f3e e981 843e 7df2 d73f 6867 0e3f
000002d0: ca6c 123f 8782 7c3e 2eb2 583f 87d9 f43e
000002e0: 6821 5e3f da79 a33e 74a2 a83e 5dc2 5c3f
000002f0: fb66 153f 1127 383f 3e7a 653f efb8 173f
00000300: 07f2 c43e 7aec fa3e a929 273e a50c ca3e
00000310: 1603 2c3f 6d8f f73e 1177 013f ebe0 323f
00000320: 20cc 883f 5184 393e 10d8 7a3f be5e f03e
00000330: 2f73 4f3f cf07 c73e 1442 683f ece4 1e3f
00000340: 3ff1 e03e 0dda 043f 6cb1 db3e 113d 9f3e
00000350: f668 363f 7e08 943e 20ae 033f b14a 383f
00000360: ace7 1d3f f645 543f 5389 223f cbe9 043f
00000370: 252d 5a3f 15ff e83e d492 133f 45f3 313f
00000380: 9821 363f c1b8 a53e b756 303f db5a 4c3f
00000390: e616 113f fee2 1d3f ee97 3a3f 0e69 db3e
000003a0: 074b 3f3f 2f3f 5e3f 9638 3d3f a4b7 3c3f
000003b0: d9e8 1a3f 1278 233f a72c 7d3f 83f8 383f
000003c0: bbad 633f 00a0 1c3f fb41 473f 1a49 653f
000003d0: 4056 ba3e e461 663f 6037 553f 6d99 3d3f
000003e0: b85c 653f c49a ab3e f6d4 b73e 1da3 2e3f
000003f0: 18ed 463f 2992 053f 1cb9 393f e64b 083f

dense1.weight_v f4 [1024, 40]
-0.059765223 -0.0237224 0.10970231 0.21033946 0.13620935 -0.03716971 -0.10059831 -0.24570027
-0.23045076 -0.3801888 -0.15605362 0.033452004 -0.1522425 0.042494487 -0.02379097 0.003625735
0.046454016 -0.15456767 -0.234611 0.010675865 -0.19893508 0.18258579 -0.11319233 0.30988967
-0.14982188 -0.06617454 -0.10994451 -0.4763141 -0.029297788 -0.21702936 -0.36637172 0.009115567
0.14251414 0.16002725 -0.11029216 -0.18483707 0.14779973 -0.36329916 -0.22729713 -0.07927143
-0.17775603 -0.24495913 0.18541233 0.19122827 -0.16655867 0.15380313 0.11185997 -0.041645616
-0.054136 -0.13664667 -0.0058004637 0.16417274 0.21518275 0.014772748 -0.13435228 -0.03759587
0.012123171 0.3513952 0.08554157 0.2319894 -0.158176 -0.17468864 -0.05441757 0.21489121
0.099729285 -0.051721115 -0.046487853 -0.29777306 -0.17973503 -0.07043362 -0.24308307 0.47098035
0.0065583033 -0.01886472 -0.16763134 0.15675746 -0.24924152 -0.3098434 -0.04908495 -0.03114931
0.22275718 -0.124206275 -0.16269757 -0.034257013 0.017556416 -0.36623994 0.025533862 0.1971091
-0.0016218547 0.035557076 0.08422581 -0.01275113 0.22739545 0.17047913 0.16917537 0.2555936
0.05956386 0.051863234 -0.009886649 0.15724425 -0.00765059 0.020091033 -0.3324476 0.08434878
0.044854403 0.006438396 0.5395606 0.21690817 -0.17178528 0.13058852 0.24902236 0.0075871986
0.024184348 0.12461028 -0.36623797 -0.14745912 -0.15135631 0.26871026 -0.13090383 0.14333272
0.083581045 0.047901638 -0.14477074 0.041246608 0.11960119 -0.55548507 -0.054044563 0.17237276
-0.12210209 -0.01815311 -0.025419256 0.19505818 -0.055590585 -0.031705104 0.025142284 0.3437009
0.27249843 0.030701213 0.18435669 0.078465044 0.08599754 -0.0722206 0.05103087 0.17404719
0.20793198 0.32490212 0.05034436 0.2606196 0.2101283 0.009056445 0.12143853 0.08336011
-0.30823454 -0.10062322 -0.31823045 -0.18923303 -0.22074273 0.20484024 0.13893293 0.095647074
0.11464515 0.3322575 0.045973066 -0.13555448 -0.10863183 0.08513382 -0.15783376 -0.27313033
-0.18571866 -0.037760302 -0.030535465 -0.024633221 0.47449824 -0.16920415 -0.373667 -0.10996694
-0.28646147 0.1387713 0.047790956 0.054872178 -0.047805276 0.06564511 0.19388853 0.30835378
-0.01054116 0.05038668 -0.19850516 0.06794036 0.006931953 0.19631337 -0.04152154 -0.38593337
-0.082096435 0.016089773 0.043366976 0.028959394 0.11520114 0.18889366 0.016011778 0.21210444
0.13273358 0.33486116 0.062000975 -0.1089066 -0.0048430627 0.03548459 -0.06029252 -0.21219906
-0.28811824 -0.1004563 -0.2039342 -0.22911188 0.0111966245 -0.16368239 -0.31809145 -0.120911576
-0.14434455 0.13644022 -0.08480741 0.19035631 -0.05545959 -0.1536351 0.21676978 0.10600178
0.11616993 0.14125128 -0.29199624 -0.05189917 -0.05654866 -0.23545027 -0.15226026 -0.093301795
-0.11258256 -0.052270148 -0.14937212 -0.29328412 0.026590835 -0.065897666 -0.11442671 -0.03930194
0.101903915 0.19043106 -0.021125725 -0.19941437 0.07992833 0.41645217 -0.002098012 0.01544536
-0.20311487 -0.18285279 -0.011961153 -0.07759135 0.0739878 -0.24973409 -0.2111103 -0.023504825
00000000: 61cc 74bd 7b55 c2bc 9bab e03d 3a63 573e
00000010: 777a 0b3e 443f 18bd 7d06 cebd da98 7bbe
00000020: 49fb 6bbe 1ba8 c2be 85cc 1fbe f804 093d
00000030: 75e5 1bbe b30e 2e3d 48e5 c2bc bd9d 6d3b
00000040: 9146 3e3d fd46 1ebe de3d 70be d3e9 2e3c
00000050: a3b5 4bbe c5f7 3a3e 61d1 e7bd dca9 9e3e
00000060: e86a 19be 8486 87bd 962a e1bd 71df f3be
00000070: ea01 f0bc f23c 5ebe 1395 bbbe 7659 153c
00000080: 3aef 113e 2fde 233e dbe0 e1bd ee45 3dbe
00000090: d058 173e 5902 babe 94c0 68be 0f59 a2bd
000000a0: ad05 36be 91d6 7abe bbdc 3d3e 58d1 433e
000000b0: 5b8e 2abe 917e 1d3e d716 e53d 9894 2abd
000000c0: b6bd 5dbd 1bed 0bbe d111 bebb e61c 283e
000000d0: de58 5c3e 6509 723c a593 09be 21fe 19bd
000000e0: 44a0 463c 12ea b33e 6b30 af3d a18e 6d3e
000000f0: e4f8 21be 94e1 32be f5e4 5ebd 710c 5c3e
00000100: de3e cc3d 85d9 53bd 0c6a 3ebd b675 98be
00000110: 760c 38be 803f 90bd c5ea 78be 5624 f13e
00000120: 09e7 d63b 2f8a 9abc 8da7 2bbe 0785 203e
00000130: 2b39 7fbe cba3 9ebe 4d0d 49bd d62c ffbc
00000140: 751a 643e dc5f febd 319a 26be 1551 0cbd
00000150: 79d2 8f3c cd83 bbbe 642c d13c f8d6 493e
00000160: 6a94 d4ba 4ca4 113d 957e ac3d 1eea 50bc
00000170: 5ada 683e 1592 2e3e 4f3c 2d3e 2add 823e
00000180: 3cf9 733d 8b6e 543d 9dfb 21bc a304 213e
00000190: cdb1 fabb f395 a43c 9236 aabe 0ebf ac3d
000001a0: 40b9 373d 2ef9 d23b a520 0a3f 2d1d 5e3e
000001b0: 7be8 2fbe ffb8 053e b8ff 7e3e 099e f83b
000001c0: 411e c63c ad33 ff3d 8b83 bbbe 86ff 16be
000001d0: 26fd 1abe 6494 893e a70b 06be d0c5 123e
000001e0: 8a2c ab3d 8234 443d c83e 14be 34f2 283d
000001f0: 78f1 f43d 4534 0ebf d55d 5dbd 7c82 303e
00000200: a910 fabd d5b5 94bc 0b3c d0bc 55bd 473e
00000210: f4b2 63bd 36dd 01bd 31f7 cd3c 90f9 af3e
00000220: ea84 8b3e 1c81 fb3c 00c8 3c3e 48b2 a03d
00000230: 7a1f b03d 65e8 93bd bf05 513d 6d39 323e
00000240: 1fec 543e 9259 a63e e335 4e3d ef6f 853e
00000250: e02b 573e 7c61 143c c4b4 f83d b5b8 aa3d
00000260: ebd0 9dbe 8c13 cebd 1aef a2be 4ec6 41be
00000270: 620a 62be a4c1 513e 6f44 0e3e 9de2 c33d
00000280: 14cb ea3d a81d aa3e 414e 3c3d cbce 0abe
00000290: 5d7a debd a45a ae3d 2c9f 21be bdd7 8bbe
000002a0: 082d 3ebe 8caa 1abd 8325 fabc 9ccb c9bc
000002b0: 6ff1 f23e da43 2dbe 4851 bfbe 5936 e1bd
000002c0: 14ab 92be 101a 0e3e 73c0 433d a6c1 603d
000002d0: 77cf 43bd f270 863d b78a 463e 8ce0 9d3e
000002e0: d4b4 2cbc 4362 4e3d f044 4bbe 5124 8b3d
000002f0: 7025 e33b 5f06 493e 7e12 2abd 0f99 c5be
00000300: 2d22 a8bd b3ce 833c 92a1 313d 403c ed3c
00000310: 93ee eb3d 576d 413e 222b 833c e831 593e
00000320: 50eb 073e ec72 ab3e bcf4 7d3d 6c0a dfbd
00000330: 8eb2 9ebb 4a58 113d 4af5 76bd b64a 59be
00000340: 3c84 93be 08bc cdbd 20d4 50be 4e9c 6abe
00000350: 0c72 373c 5b9c 27be e2dc a2be 7da0 f7bd
00000360: 0fcf 13be fcb6 0b3e 82af adbd c4ec 423e
00000370: 9829 63bd 8552 1dbe e6f8 5d3e 7617 d93d
00000380: 80ea ed3d 2da4 103e 8880 95be 3994 54bd
00000390: 919f 67bd e019 71be 1dea 1bbe 0315 bfbd
000003a0: af91 e6bd 3919 56bd 01f5 18be 5629 96be
000003b0: 06d5 d93c 5bf5 86bd 8d58 eabd 12fb 20bd
000003c0: 00b3 d03d 5c00 433e db0f adbc 4833 4cbe
000003d0: 77b1 a33d 3839 d53e cd7e 09bb 890e 7d3c
000003e0: 58fd 4fbe c33d 3bbe b6f8 43bc 37e8 9ebd
000003f0: ea86 973d 4bba 7fbe 4c2d 58be 318d c0bc

batch_norm_c1.weight f4 [64]
0.70158106 1.11084 0.7408491 1.2220163 1.4656487 1.0110748 0.4188423 0.71974045
0.69681096 1.2051073 1.3264014 0.8070451 0.83418304 1.1945162 0.8725811 1.0660481
0.7192403 1.3595014 1.0126435 1.2341697 0.79951143 1.0938485 0.7556111 1.2045625
1.401404 1.2031873 0.4853314 0.90159273 0.7678428 0.6278015 0.4818843 1.3520433
0.87744105 1.3660065 0.63257813 0.99348634 1.1873825 1.1764339 0.8314043 1.0646818
1.1194196 1.2468911 1.0975001 1.2614094 0.5144822 0.98216707 1.4129105 1.1410799
1.4212768 0.79088503 1.3062993 0.91784745 1.099929 0.92410314 1.2739849 0.9233678
1.4468256 0.8548949 1.0764515 1.5244387 0.8367771 0.28406945 0.6614563 0.786837
00000000: d19a 333f 0130 8e3f 49a8 3d3f 086b 9c3f
00000010: 609a bb3f e66a 813f 7f72 d63e e940 383f
00000020: 3462 323f f540 9a3f 85c7 a93f 829a 4e3f
00000030: 058d 553f e8e5 983f 7a61 5f3f 4474 883f
00000040: 2220 383f 2404 ae3f 4d9e 813f 46f9 9d3f
00000050: c8ac 4c3f 3a03 8c3f bb6f 413f 1b2f 9a3f
00000060: 3561 b33f 0b02 9a3f 5b7d f83e c8ce 663f
00000070: 5991 443f 99b7 203f 8ab9 f63e c10f ad3f
00000080: fa9f 603f 4dd9 ae3f a4f0 213f 1f55 7e3f
00000090: 26fc 973f 6395 963f ead6 543f 7e47 883f
000000a0: 2449 8f3f 219a 9f3f e27a 8c3f dd75 a13f
000000b0: 1bb5 033f 4d6f 7b3f 40da b43f e80e 923f
000000c0: 66ec b53f 7177 4a3f d134 a73f 0df8 6a3f
000000d0: 79ca 8c3f 0692 6c3f f011 a33f d561 6c3f
000000e0: 9531 b93f 64da 5a3f 2ac9 893f cf20 c33f
000000f0: 0637 563f 8d71 913e 3355 293f 266e 493f

batch_norm_c1.bias f4 [64]
0.32391885 0.016092319 0.2788328 -0.024383485 0.020215923 -0.041679822 -0.6123151 -0.42068133
0.4535015 -0.06658124 -0.04115457 0.40535587 -0.2614763 0.018586004 0.20596455 -0.07202099
0.38976502 0.016576588 0.024035623 0.09819184 -0.40027875 0.021286363 0.4021662 -0.09238498
-0.010279181 0.04552231 -0.47691014 0.24828956 0.2721209 -0.289601 -0.3525872 -0.11261939
-0.30942193 -0.003837654 0.33819762 0.102545306 -0.10471673 -0.06841643 0.2438574 0.16941507
0.06494153 0.05350473 0.038123764 -0.041743238 -0.3706799 0.14847317 0.045801908 -0.13370794
0.06478427 -0.29581746 -0.009408431 -0.11162102 0.009671552 -0.16442077 0.13118383 0.1985819
-0.08114826 -0.18054801 0.23001808 -0.038372204 -0.33092725 -0.5902427 0.36749175 -0.30158937
00000000: b1d8 a53e 0ad4 833c 2cc3 8e3e e0bf c7bc
00000010: dd9b a53c 76b8 2abd afc0 1cbf 8b63 d7be
00000020: 5931 e83e bf5b 88bd b291 28bd ce8a cf3e
00000030: 39e0 85be ad41 983c 5fe8 523e be7f 93bd
00000040: 488f c73e a0cb 873c 5be6 c43c ce18 c93d
00000050: 56f1 ccbe bd60 ae3c bae8 cd3e 5634 bdbd
00000060: 036a 28bc 9a75 3a3d 912d f4be 9e3f 7e3e
00000070: 6e53 8b3e 9546 94be 4f86 b4be ffa4 e6bd
00000080: 8d6c 9ebe 2681 7bbb 3d28 ad3e 4603 d23d
00000090: ba75 d6bd ea1d 8cbd c1b5 793e 257b 2d3e
000000a0: 1100 853d c727 5b3d aa27 1c3d f5fa 2abd
000000b0: c1c9 bdbe 5a09 183e c89a 3b3d bcea 08be
000000c0: 9ead 843d 6375 97be d225 1abc 9099 e4bd
000000d0: 6e75 1e3c eb5d 28be 0e55 063e 0e59 4b3e
000000e0: 0f31 a6bd 94e1 38be dc89 6b3e 2c2c 1dbd
000000f0: 4c6f a9be 251a 17bf e127 bc3e ec69 9abe

batch_norm_c1.running_mean f4 [64]
0.11576776 0.17609173 0.118043594 0.157286 0.21736586 0.31441855 0.007342499 0.056470368
0.0591304 0.010762128 0.09934763 0.08344834 0.20239042 0.010246834 0.18668956 0.20374188
0.029776111 0.12581299 0.18895102 0.088995494 0.08363773 0.078611374 -0.014065561 0.10217019
0.15757188 0.12059852 0.082418784 0.16381133 0.067115925 0.25107843 0.17504703 0.07704312
0.11049601 0.20292106 0.12307483 0.072993 0.20348239 0.3393759 0.14422768 0.040770315
0.1586422 0.121999845 0.10382895 0.21600547 0.16510445 0.15178752 0.13919576 0.12213836
0.18369281 0.2186116 0.064613216 0.09862096 0.14795622 0.0402591 0.027924385 0.13795663
0.19598608 0.09318556 0.15624309 0.26058233 0.13937491 0.10769344 0.017862316 0.04226772
00000000: a617 ed3d 6451 343e d7c0 f13d 950f 213e
00000010: 2895 5e3e 78fb a03e 5999 f03b 794d 673d
00000020: b832 723d a353 303c c576 cb3d f7e6 aa3d
00000030: 6f3f 4f3e 56e2 273c 8c2b 3f3e b6a1 503e
00000040: 08ed f33c 1fd5 003e 607c 413e 4543 b63d
00000050: 424a ab3d 00ff a03d 3d73 66bc 9b3e d13d
00000060: 865a 213e 5bfc f63d 2ecb a83d 28be 273e
00000070: 1374 893d 5a8d 803e 873f 333e c9c8 9d3d
00000080: bb4b e23d 8aca 4f3e a80e fc3d 5b7d 953d
00000090: b05d 503e aec2 ad3e 6cb0 133e c6fe 263d
000000a0: 1a73 223e 0edb f93d 46a4 d43d 8a30 5d3e
000000b0: 2411 293e 306e 1b3e 5589 0e3e ad23 fa3d
000000c0: f819 3c3e b8db 5f3e ef53 843d c9f9 c93d
000000d0: d681 173e bae6 243d aec1 e43c 8144 0d3e
000000e0: 93b0 483e 12d8 be3d 30fe 1f3e 0c6b 853e
000000f0: 4cb8 0e3e 618e dc3d fe53 923c eb20 2d3d

batch_norm_c1.running_var f4 [64]
0.6121189 0.6667047 0.42032918 0.8426757 0.7324013 1.1714989 0.31474346 0.4098008
0.54669905 0.41153577 0.4670491 0.40600783 0.70145905 0.348834 0.74747384 0.7581346
0.39568388 0.54744935 0.6800179 0.41712108 0.3656754 0.45297003 0.31355116 0.4427529
0.7440683 0.58453596 0.45008707 0.5437814 0.4340543 0.7686405 0.5766445 0.52660835
0.4478086 0.6782022 0.6174337 0.40301034 0.67100686 1.1176494 0.5523833 0.3838495
0.5601116 0.58523977 0.43384734 0.66587573 0.7936742 0.5081513 0.6054991 0.57263863
0.66315305 0.70429 0.4276305 0.4986031 0.56670564 0.42506185 0.34197763 0.54989654
0.7736786 0.41089892 0.49349016 0.79907125 0.56082326 0.39443424 0.40321186 0.3394175
00000000: d3b3 1c3f 29ad 2a3f 6335 d73e 98b9 573f
00000010: a77e 3b3f adf3 953f 0e26 a13e 69d1 d13e
00000020: 78f4 0b3f d1b4 d23e 0f21 ef3e 42e0 cf3e
00000030: d292 333f 5f9a b23e 725a 3f3f 1c15 423f
00000040: 1497 ca3e a425 0c3f a715 2e3f e590 d53e
00000050: ce39 bb3e b0eb e73e c789 a03e 82b0 e23e
00000060: 437b 3e3f 26a4 153f d071 e63e 4235 0b3f
00000070: 5d3c de3e a0c5 443f f99e 133f cecf 063f
00000080: 2b47 e53e a99e 2d3f 2310 1e3f 5f57 ce3e
00000090: 1bc7 2b3f 230f 8f3f fe68 0d3f ec87 c43e
000000a0: 7963 0f3f 46d2 153f 3d21 de3e d576 2a3f
000000b0: 3b2e 4b3f 3416 023f fd01 1b3f 7298 123f
000000c0: 66c4 293f 594c 343f 63f2 da3e e848 ff3e
000000d0: 9f13 113f b5a1 d93e b117 af3e 05c6 0c3f
000000e0: cd0f 463f 5861 d23e beaa fc3e ef8f 4c3f
000000f0: 1d92 0f3f 49f3 c93e c971 ce3e 21c8 ad3e

conv1.weight_v f4 [128, 1, 5]
0.3304216 0.19235621 -0.12913673 -0.07457328 -0.26495907 0.18527456 0.13554558 0.06288264
-0.4662664 -0.38289535 0.08218714 0.034873098 -0.43023902 0.23155743 -0.66654915 -0.1127804
0.033512298 -0.45911902 0.25080553 -0.54845774 -0.235898 0.31470734 -0.2817088 0.23846257
-0.38954657 0.006183994 -0.33514884 0.0560374 0.36610967 -0.57761514 0.074388005 0.23194371
0.17984411 0.17683564 0.41982973 0.15751916 0.3216736 -0.50188446 -0.21507785 0.11460219
-0.23562336 -0.38900617 0.20129581 0.07237968 -0.41950005 -0.29558492 -0.1577105 0.2549397
0.060826954 0.3503412 -0.28510693 -0.1820465 0.113314666 0.5047768 -0.07910443 -0.37980455
0.14773406 -0.4611993 0.18848588 -0.34955665 0.38175455 -0.26034084 -0.13107859 0.1394865
0.5522334 0.1692024 -0.16415134 0.4767359 0.83370686 -0.118333444 0.3024701 -0.23502836
-0.3206658 0.2859654 0.67662007 0.7243917 -0.1509394 0.2519612 0.23654205 -0.26804948
-0.29219761 -0.28132257 -0.25876537 -0.22671345 -0.29262826 -0.05362315 0.39958453 0.27784735
0.029142085 -0.35468724 0.2761551 -0.4379166 0.46722326 0.078897096 -0.03445573 0.21641484
-0.39750844 0.42948624 -0.30733818 0.2507757 0.13070615 0.29684716 0.0696183 -0.23571596
-0.40899566 0.46316978 0.2776591 -0.2384434 -0.636554 0.18476802 -0.37015846 0.26862043
-0.35821277 -0.26334518 0.19510482 -0.30609873 0.267366 -0.39863077 -0.24731785 0.18742083
-0.01820769 -0.54181546 -0.3954865 0.18094032 -0.10158969 0.19746384 0.053241707 0.13310811
-0.5487237 -0.48457453 -0.16111214 0.67582834 0.31824648 0.007630791 -0.24460799 0.3061849
-0.37319136 -0.26176098 0.4827863 0.18390706 -0.39800423 0.41003326 0.21596844 -0.2589879
-0.10597563 -0.11473847 -0.4140761 -0.1383492 -0.10072153 -0.27218023 -0.38302287 -0.2622871
0.057014793 -0.49564475 -0.25421533 0.3727293 -0.3699649 0.026655527 -0.4272721 0.24422535
-0.4085163 -0.26459154 -0.13116738 0.2811812 0.1745203 0.21232288 0.52511054 -0.1985223
0.26910767 0.05533306 0.2885224 -0.3247144 0.0050428803 -0.25135863 -0.19646722 0.47769502
0.24945699 -0.062017847 -0.4922868 0.010931636 0.28997537 -0.28885064 -0.38722432 0.37755725
-0.40225494 0.23814902 -0.7244752 -0.15796348 -0.02238031 -0.5348455 0.20857888 -0.38470402
-0.37852442 0.23731351 0.24083823 -0.4854182 -0.47431108 0.12898235 0.29890054 -0.0028086274
-0.10744675 0.38552046 0.40824112 -0.21985888 0.57332695 0.04433247 0.30529103 -0.41018665
0.4441371 -0.45495614 0.40382937 -0.5783117 -0.2506019 0.5717008 -0.15009028 -0.38942587
-0.0390569 0.521149 0.20761518 -0.43453792 0.10049366 0.31358612 0.023457248 0.6411516
0.02437828 -0.32876506 -0.34013858 -0.19991171 0.058387358 0.49184537 0.20269181 0.20720214
-0.44451058 0.27760175 -0.43719497 -0.22173662 -0.09628433 0.45801643 0.35931534 -0.12509947
-0.07624785 -0.60590595 0.19173336 -0.588457 0.24591869 0.14047061 -0.59587646 -0.056566846
-0.5506715 0.21305119 0.23310651 0.051935583 -0.6753633 0.25236252 -0.16768362 -0.26358497
00000000: 052d a93e 07f9 443e 6b3c 04be e0b9 98bd
00000010: b7a8 87be 9db8 3d3e 76cc 0a3e 9dc8 803d
00000020: 78ba eebe dc0a c4be bb51 a83d 18d7 0e3d
00000030: 4a48 dcbe 641d 6d3e f7a2 2abf 69f9 e6bd
00000040: 3144 093d a611 ebbe 9569 803e ba67 0cbf
00000050: 3f8f 71be 5221 a13e 233c 90be 882f 743e
00000060: a672 c7be 1aa3 ca3b a198 abbe 7987 653d
00000070: ba72 bb3e 96de 13bf bd58 983d a782 6d3e
00000080: 0e29 383e 6714 353e ecf3 d63e b44c 213e
00000090: 67b2 a43e 807b 00bf 5e3d 5cbe 8eb4 ea3d
000000a0: 4047 71be d12b c7be 7d20 4e3e cc3b 943d
000000b0: b6c8 d6be e856 97be dc7e 21be 7587 823e
000000c0: af25 793d ec5f b33e 89f9 91be 666a 3abe
000000d0: 8511 e83d 0d39 013f 8101 a2bd be75 c2be
000000e0: 9947 173e 5122 ecbe 7102 413e 17f9 b2be
000000f0: 5575 c33e 654b 85be 7739 06be 8dd5 0e3e
00000100: 2b5f 0d3f 6543 2d3e 4a17 28be ba16 f43e
00000110: d06d 553f ce58 f2bd 5cdd 9a3e 46ab 70be
00000120: 4f2e a4be 0f6a 923e f936 2d3f bc71 393f
00000130: dc8f 1abe 0f01 813e 1438 723e c83d 89be
00000140: ed9a 95be 8309 90be e57c 84be 9227 68be
00000150: 5fd3 95be f3a3 5bbd 5896 cc3e 0242 8e3e
00000160: 62bb ee3c 9199 b5be 3464 8d3e 9b36 e0be
00000170: e337 ef3e cd94 a13d 7421 0dbd da9b 5d3e
00000180: 3a86 cbbe 9fe5 db3e 6e5b 9dbe ac65 803e
00000190: d5d7 053e 5afc 973e 0a94 8e3d 865f 71be
000001a0: e167 d1be 9724 ed3e 5529 8e3e 822a 74be
000001b0: 34f5 22bf d433 3d3e 6985 bdbe 9e88 893e
000001c0: aa67 b7be 2ed5 86be 8fc9 473e f9b8 9cbe
000001d0: 32e4 883e 5519 ccbe e440 7dbe 3feb 3f3e
000001e0: 4b28 95bc 6bb4 0abf 357d cabe 6b48 393e
000001f0: 410e d0bd f633 4a3e fa13 5a3d 7e4d 083e
00000200: 2879 0cbf 271a f8be 95fa 24be 1603 2d3f
00000210: 34f1 a23e b70b fa3b 847a 7abe 44c4 9c3e
00000220: f012 bfbe 8905 86be c42f f73e 2252 3c3e
00000230: 36c7 cbbe e1ef d13e d526 5d3e 109a 84be
00000240: c009 d9bd 01fc eabd c801 d4be 6aab 0dbe
00000250: 1747 cebd 355b 8bbe 931b c4be 7f4a 86be
00000260: 5888 693d 26c5 fdbe 8328 82be 60d6 be3e
00000270: 0a6c bdbe b15c da3c 69c3 dabe 3616 7a3e
00000280: 0c29 d1be 8b78 87be be50 06be fbf6 8f3e
00000290: 73b5 323e 2b6b 593e a56d 063f 6e49 4bbe
000002a0: 7bc8 893e eba4 623d 35b9 933e f740 a6be
000002b0: bf3e a53b 14b2 80be b42e 49be 7194 f43e
000002c0: a771 7f3e 6d06 7ebd 040d fcbe 9b1a 333c
000002d0: a777 943e 3be4 93be 4442 c6be 2f4f c13e
000002e0: 5cf4 cdbe 56dd 733e 3577 39bf 2ec1 21be
000002f0: e956 b7bc a2eb 08bf b495 553e edf7 c4be
00000300: f4cd c1be 5002 733e 4c9e 763e bc88 f8be
00000310: e7d8 f2be f313 043e 7e09 993e f310 38bb
00000320: 0b0d dcbd f062 c53e fb04 d13e b022 61be
00000330: 8ec5 123f f795 353d 1b4f 9c3e fc03 d2be
00000340: f065 e33e 03f0 e8be b9c2 ce3e 3c0c 14bf
00000350: e44e 80be fc5a 123f 44b1 19be d462 c7be
00000360: 21fa 1fbd 056a 053f 1399 543e c17b debe
00000370: 9fcf cd3d 5c8e a03e 6a29 c03c 8322 243f
00000380: f5b4 c73c e553 a8be a526 aebe a8b5 4cbe
00000390: 9527 6f3d 28d3 fb3e 718e 4f3e cc2c 543e
000003a0: e496 e3be d121 8e3e 05d8 dfbe ed0e 63be
000003b0: b830 c5bd 2181 ea3e 2ef8 b73e 131a 00be
000003c0: d527 9cbd a71c 1bbf c055 443e 1ea5 16bf
000003d0: 1cd2 7b3e 87d7 0f3e 5c8b 18bf a3b2 67bd
000003e0: cff8 0cbf 172a 5a3e 79b3 6e3e 68ba 543d
000003f0: 9ce4 2cbf a935 813e 41b5 2bbe 9cf4 86be

batch_norm_c2.weight f4 [128]
0.69114196 0.90584457 1.0797886 1.3257234 1.2381411 1.0197917 0.94881046 1.060939
1.3253547 0.94722384 0.65921307 1.0458606 1.4484509 1.4775254 1.0813162 0.9766932
1.0463066 0.63277054 1.3169262 1.0921729 1.018964 1.048212 1.3920345 1.1335855
0.8396704 0.9607384 0.77517337 0.90156233 0.86342543 1.0323682 0.9640757 0.9681525
0.99778813 1.1671935 1.1525176 0.7673487 0.8763021 0.9566512 1.2409976 1.2407408
1.3726488 1.2949054 1.0406106 0.87663114 0.99435365 1.1212528 0.9771527 1.1727467
1.2421958 0.8785372 0.84464467 1.0425785 1.0472275 1.056061 1.0582117 1.06719
1.1135783 1.0548824 0.9797736 0.8022364 1.2783712 0.8951463 0.73177373 0.9566426
0.8802402 1.0198227 1.0938276 1.1707392 1.1932857 1.038063 1.0729328 1.2531874
0.8583011 1.2351719 1.0177513 1.2097799 1.095938 1.0889407 0.95843524 1.0113891
0.910584 1.222662 1.0988941 0.83172363 1.2341312 1.1569644 1.1926992 1.1074027
0.8010005 0.7586419 1.1024168 1.2385362 1.0545107 1.0679202 1.2750429 1.0059259
1.1469653 1.205823 0.8687139 1.0723745 1.2562858 0.90419763 1.1028451 0.71397775
1.0851092 1.0965829 0.8671053 0.97484094 1.0277624 1.1112628 1.1124818 1.1148279
0.9091501 1.0967149 0.8502509 0.85615844 1.1946687 1.141397 0.6944465 0.9988813
0.79754835 0.9242289 1.1223792 1.3066465 0.871524 1.0654061 1.0036656 0.91855127
00000000: aeee 303f 6ee5 673f 8336 8a3f 4eb1 a93f
00000010: 687b 9e3f 8988 823f 3ee5 723f d9cc 873f
00000020: 39a5 a93f 437d 723f 30c2 283f c3de 853f
00000030: d766 b93f 8d1f bd3f 9268 8a3f 9108 7a3f
00000040: 60ed 853f 40fd 213f 0a91 a83f 52cc 8b3f
00000050: 6a6d 823f d02b 863f 302e b23f 5419 913f
00000060: a4f4 563f f4f2 753f c371 463f cacc 663f
00000070: 7309 5d3f a424 843f aacd 763f d8d8 773f
00000080: 0b6f 7f3f 9966 953f b285 933f f770 443f
00000090: 5655 603f 18e7 743f 02d9 9e3f 98d0 9e3f
000000a0: f5b2 af3f 76bf a53f ba32 853f e66a 603f
000000b0: f68d 7e3f 3685 8f3f ae26 7a3f 901c 963f
000000c0: 4600 9f3f d0e7 603f a23a 583f 3673 853f
000000d0: 8d0b 863f 022d 873f 7b73 873f af99 883f
000000e0: bc89 8e3f 6306 873f 71d2 7a3f 5d5f 4d3f
000000f0: aba1 a33f 4f28 653f 8655 3b3f 88e6 743f
00000100: 6c57 613f 8d89 823f 8b02 8c3f c8da 953f
00000110: 96bd 983f 40df 843f dd55 893f 7268 a03f
00000120: 9fb9 5b3f 1d1a 9e3f ad45 823f 11da 9a3f
00000130: b247 8c3f 6962 8b3f 035c 753f 3375 813f
00000140: 081c 693f 3080 9c3f 90a8 8c3f d7eb 543f
00000150: 03f8 9d3f 6917 943f 5eaa 983f 5fbf 8d3f
00000160: 5e0e 4d3f 5b36 423f fe1b 8d3f 5b88 9e3f
00000170: 35fa 863f 9cb1 883f 9b34 a33f 2ec2 803f
00000180: c2cf 923f 6858 9a3f 0964 5e3f 9143 893f
00000190: f9cd a03f 7f79 673f 072a 8d3f 3fc7 363f
000001a0: dce4 8a3f d45c 8c3f 9dfa 5d3f 2d8f 793f
000001b0: b88d 833f dc3d 8e3f ce65 8e3f aeb2 8e3f
000001c0: 10be 683f 2761 8c3f 0baa 593f 332d 5b3f
000001d0: e7ea 983f 4c19 923f 3fc7 313f afb6 7f3f
000001e0: 212c 4c3f 449a 6c3f 1faa 8f3f 3140 a73f
000001f0: 321c 5f3f 3a5f 883f 1d78 803f 2d26 6b3f

batch_norm_c2.bias f4 [128]
0.11129586 -0.03770499 -0.0057544787 0.16557734 0.11482668 -0.05399544 0.09789921 -0.034662794
-0.13932021 0.16182865 0.11696405 0.06306616 0.10061365 -0.021090044 0.056672458 -0.008711045
0.048479956 0.10090937 0.20437153 -0.17232047 0.022167008 -0.0315044 0.06950162 0.11737688
0.019774819 0.07458306 -0.035727613 -0.102262534 0.100416735 -0.12177556 0.10336776 0.047993444
-0.08821238 -0.093337506 0.11535389 0.12169526 0.08136118 0.12527974 0.15158354 0.06675112
0.14642373 0.057984803 0.0026644578 0.06744331 -0.15106218 0.06134667 0.21613632 0.103439815
0.04626291 0.051065452 0.014472406 0.040982258 -0.06408566 -0.1298096 0.005201276 0.049929824
-0.06457269 0.11796406 0.061929263 0.07964464 -0.10465549 -0.19370385 0.03536458 0.1413461
-0.20193435 -0.0404082 0.01837315 -0.1710079 -0.09425669 0.016807145 -0.028602397 0.0252784
0.10092815 -0.19520387 0.12096789 0.16095339 0.07711366 -0.07629369 0.1422174 -0.21079093
0.102076136 0.0597433 -0.05913183 -0.039306402 0.08643172 -0.033177417 0.17251794 -0.021659568
0.17830528 0.013235605 -0.09964181 0.11061729 -0.040876582 -0.11443797 0.061510198 0.1310394
-0.023552725 0.047179524 0.009689077 -0.063061155 0.0024568785 -0.095091306 0.10519698 -0.028947385
0.14385034 -0.13091466 -0.08192756 0.12648012 -0.059582263 -0.07579896 0.01167102 0.062255383
-0.078245096 -0.05811053 -0.13153107 0.13181402 0.03759441 -0.13097237 -0.06338729 -0.102181904
-0.009696413 0.06179453 -0.06364329 0.010740745 -0.013666819 -0.029605146 0.05563453 -0.06450861
00000000: 15ef e33d 8c70 1abd 1190 bcbb 1b8d 293e
00000010: 402a eb3d 532a 5dbd 627f c83d 93fa 0dbd
00000020: f5a9 0ebe 69b6 253e d98a ef3d d528 813d
00000030: 880e ce3d 07c5 acbc 6121 683d c5b8 0ebc
00000040: eb92 463d 92a9 ce3d c546 513e c774 30be
00000050: 9697 b53c c20a 01bd de56 8e3d 4a63 f03d
00000060: cdfe a13c 01bf 983d 1e57 12bd 056f d1bd
00000070: 4aa7 cd3d 7765 f9bd 7ab2 d33d c694 443d
00000080: b1a8 b4bd bc27 bfbd a93e ec3d 5d3b f93d
00000090: b1a0 a63d 5549 003e b738 1b3e d0b4 883d
000000a0: 1af0 153e 7981 6d3d 2f9e 2e3b b81f 8a3d
000000b0: 0bb0 1abe a546 7b3d d752 5d3e 41d8 d33d
000000c0: 2d7e 3d3d 022a 513d ac1d 6d3c 03dd 273d
000000d0: 583f 83bd cfec 04be 776f aa3b 3783 4c3d
000000e0: b03e 84bd 2497 f13d 8aa9 7d3d bb1c a33d
000000f0: 9e55 d6bd 4d5a 46be 73da 103d 08bd 103e
00000100: e1c7 4ebe 1283 25bd 4a83 963c b21c 2fbe
00000110: a709 c1bd 23af 893c 934f eabc a614 cf3c
00000120: 6bb3 ce3d 86e3 47be 03be f73d f7d0 243e
00000130: c4ed 9d3d de3f 9cbd 70a1 113e 94d9 57be
00000140: 4b0d d13d 64b5 743d 3834 72bd c0ff 20bd
00000150: 1d03 b13d 0be5 07bd 8ba8 303e 686f b1bc
00000160: a995 363e 27da 583c 0111 ccbd 518b e23d
00000170: 346e 27bd 745e eabd 1ef2 7b3d 312f 063e
00000180: a5f1 c0bc 513f 413d efbe 1e3c 3526 81bd
00000190: 9503 213b 3bbf c2bd 8471 d73d 1123 edbc
000001a0: 814d 133e 7e0e 06be a3c9 a7bd 0184 013e
000001b0: 880c 74bd 7c3c 9bbd ce37 3f3c 80ff 7e3d
000001c0: f73e a0bd 4f05 6ebd 15b0 06be 41fa 063e
000001d0: 99fc 193d 9f1d 06be 32d1 81bd bf44 d1bd
000001e0: b4dd 1ebc 431c 7d3d 6a57 82bd f3f9 2f3c
000001f0: cbea 5fbc 7e86 f2bc 08e1 633d 171d 84bd

batch_norm_c2.running_mean f4 [128]
0.12382547 0.110327914 0.29136875 0.2742727 0.13022944 0.113838844 0.25152883 0.16503574
0.29209533 0.21816374 0.15032259 0.24724746 0.024541093 0.014528853 0.11896731 0.09211347
0.030909184 0.18438154 0.2781032 0.311039 0.2599939 0.38788202 0.11751231 0.11491438
0.32086545 0.28330535 0.3019152 0.2655249 0.14859898 0.08656284 0.32355133 0.20148139
0.088807896 0.30918616 0.21125062 0.29148984 0.2575373 0.29821524 0.29325604 0.30368495
0.10318485 0.23479578 0.33150706 0.30108806 0.42958444 0.12168501 0.2782465 0.22728781
0.3811419 0.37016037 0.29351923 0.28868017 0.25390318 0.01481596 0.13167803 0.16953345
0.14723599 0.081802055 0.38107994 0.078981005 0.085059315 0.34086522 0.28280956 0.37651053
0.21734248 0.11585317 0.2424997 0.29589105 0.048508044 0.12575243 0.16909799 0.23825134
0.25522283 0.297273 0.4561636 0.35692427 0.14367265 0.15504992 0.17806533 0.24072342
0.21690977 0.2319731 0.26121867 0.22279127 0.25219315 0.33648115 0.32960662 0.26349732
0.06226267 0.07009162 0.19372691 0.19947007 0.36273044 0.39918864 0.23632944 0.20415202
0.40365183 0.32367158 0.40721187 0.15544039 0.350237 0.29469234 0.19907258 0.08266823
0.24850476 0.29143122 0.20760779 0.15266562 0.3329932 0.26477343 0.22520293 0.20179886
0.23894091 0.46811837 0.14122722 0.21959063 0.29626223 0.22827616 0.5866234 0.20067817
0.095808625 0.35792917 0.012142039 0.0041221688 0.15063103 0.24471924 0.069650784 0.12819661
00000000: 3598 fd3d 9af3 e13d 492e 953e 796d 8c3e
00000010: de5a 053e 5724 e93d 63c8 803e 21ff 283e
00000020: 858d 953e 5166 5f3e 2aee 193e 702e 7d3e
00000030: 670a c93c 6d0a 6e3c 22a5 f33d fda5 bc3d
00000040: 4235 fd3c 84ce 3c3e 8b63 8e3e 8140 9f3e
00000050: ec1d 853e 7998 c63e 4baa f03d 3b58 eb3d
00000060: 7a48 a43e 660d 913e a194 9a3e e1f2 873e
00000070: 552a 183e dc47 b13d 85a8 a53e 2351 4e3e
00000080: eae0 b53d a64d 9e3e 1552 583e 283e 953e
00000090: eedb 833e abaf 983e a825 963e 987c 9b3e
000000a0: 9452 d33d 4e6e 703e 4bbb a93e 3728 9a3e
000000b0: 7ef2 db3e fe35 f93d 5376 8e3e 23be 683e
000000c0: 0825 c33e a985 bd3e 2748 963e e3cd 933e
000000d0: 99ff 813e a4be 723c 9bd6 063e 2d9a 2d3e
000000e0: 08c5 163e d687 a73d e91c c33e cbc0 a13d
000000f0: 9433 ae3d e385 ae3e 6acc 903e fdc5 c03e
00000100: 078f 5e3e 6d44 ed3d d751 783e 087f 973e
00000110: 5fb0 463d 3fc5 003e 0628 2d3e 29f8 733e
00000120: 91ac 823e 2b34 983e 468e e93e c7be b63e
00000130: ec1e 133e 68c5 1e3e c256 363e 3380 763e
00000140: 981d 5e3e 5b8a 6d3e 74be 853e 6523 643e
00000150: 761f 813e 4247 ac3e 33c2 a83e 1fe9 863e
00000160: 2407 7f3d 328c 8f3d 5960 463e e241 4c3e
00000170: ceb7 b93e 7462 cc3e 5800 723e 3a0d 513e
00000180: 74ab ce3e 48b8 a53e 137e d03e c42b 1f3e
00000190: 4452 b33e eae1 963e afd9 4b3e f64d a93d
000001a0: 0878 7e3e 7936 953e 2397 543e 6054 1c3e
000001b0: 167e aa3e 6290 873e 999b 663e 5ca4 4e3e
000001c0: edac 743e 36ad ef3e de9d 103e 5edc 603e
000001d0: afaf 973e 3ac1 693e f32c 163f 947e 4d3e
000001e0: 5037 c43d 7e42 b73e 67ef 463c 4213 873b
000001f0: 053f 1a3e ae97 7a3e 12a5 8e3d f945 033e

batch_norm_c2.running_var f4 [128]
0.030941693 0.03023054 0.053312413 0.047389366 0.02220089 0.0187114 0.46477127 0.02555575
0.058645926 0.08744784 0.07592108 0.029879471 0.005407958 0.0039011932 0.048284966 0.03699587
0.00745893 0.05094299 0.08070938 0.08828537 0.10133774 0.29634187 0.022729479 0.021476565
0.07051085 0.06905244 0.20337757 0.11593316 0.04503738 0.017479178 0.11526073 0.03750816
0.019436235 0.08545733 0.054437906 0.20327066 0.062114853 0.062418014 0.07815229 0.13991301
0.04620978 0.0411446 0.11631266 0.15574235 0.17089261 0.03952529 0.066821456 0.09611827
0.09363659 0.099797025 0.07632114 0.07381679 0.03736177 0.00735177 0.019236732 0.030891353
0.021582158 0.024805715 0.08074008 0.017377568 0.023056839 0.052679554 0.31472182 0.5659185
0.024975339 0.043431535 0.08842912 0.08246304 0.015828926 0.02070674 0.020503074 0.0937442
0.2135143 0.062859915 0.21032058 0.14181592 0.040509254 0.0474134 0.09667006 0.058234278
0.045609847 0.07970381 0.09203554 0.090020515 0.066600464 0.108858794 0.064360835 0.05228551
0.046764284 0.079215124 0.04685819 0.036891587 0.25914237 0.13935107 0.043959748 0.0485748
0.13165563 0.095529914 0.09621419 0.17111371 0.24265961 0.13781956 0.03018192 0.016885903
0.048370752 0.08773924 0.044794008 0.07362946 0.11315011 0.16914752 0.051734973 0.038214363
0.22258288 0.18125415 0.023807457 0.0784604 0.09385875 0.055923074 0.34594566 0.09129239
0.018616047 0.088691816 0.0024403073 0.00078893075 0.024311809 0.06496555 0.021769656 0.045808636
00000000: 6f79 fd3c 0aa6 f73c 1e5e 5a3d 5a1b 423d
00000010: a4de b53c a648 993c 80f6 ed3e 4b5a d13c
00000020: b636 703d da17 b33d 837c 9b3d cbc5 f43c
00000030: 3d35 b13b 29ab 7f3b 75c6 453d fb88 173d
00000040: 0a6a f43b 99a9 503d f64a a53d f6ce b43d
00000050: 298a cf3d 1fba 973e 2c33 ba3c 9fef af3c
00000060: fe67 903d 5e6b 8d3d 3642 503e 5d6e ed3d
00000070: 1e79 383d 7e30 8f3c d10d ec3d 28a2 193d
00000080: bd38 9f3c 4104 af3d 48fa 5e3d 2f26 503e
00000090: 256c 7e3d 08aa 7f3d 4f0e a03d 5b45 0f3e
000000a0: 7746 3d3d 3d87 283d 5535 ee3d ec7a 1f3e
000000b0: 79fe 2e3e 45e5 213d b0d9 883d a8d9 c43d
000000c0: 8ac4 bf3d 6262 cc3d 424e 9c3d 422d 973d
000000d0: a808 193d 1ee7 f03b 5a96 9d3c dd0f fd3c
000000e0: 11cd b03c 5b35 cb3c 0e5b a53d 675b 8e3c
000000f0: b2e1 bc3c 84c6 573d 3823 a13e 09e0 103f
00000100: 1599 cc3c 44e5 313d 541a b53d 62e2 a83d
00000110: aaab 813c 2ea1 a93c 10f6 a73c f6fc bf3d
00000120: 7ea3 5a3e b3bc 803d 475e 573e 3138 113e
00000130: 08ed 253d 8e34 423d f4fa c53d 1187 6e3d
00000140: 64d1 3a3d c03b a33d 217d bc3d ad5c b83d
00000150: d365 883d 5cf1 de3d 9dcf 833d 5529 563d
00000160: e88b 3f3d 8a3b a23d 60ee 3f3d a21b 173d
00000170: 4fae 843e 0cb2 0e3e 230f 343d 5ff6 463d
00000180: bcd0 063e 30a5 c33d f20b c53d 6f38 2f3e
00000190: c37b 783e 9220 0d3e 1340 f73c 4e54 8a3c
000001a0: 6920 463d a1b0 b33d ec79 373d 0bcb 963d
000001b0: 3fbb e73d 0235 2d3e 0de8 533d aa86 1c3d
000001c0: c4ec 633e b09a 393e db07 c33c d9af a03d
000001d0: 0439 c03d 980f 653d ca1f b13e 81f7 ba3d
000001e0: ae80 983c 0ea4 b53d 90ed 1f3b 3fd0 4e3a
000001f0: 8f29 c73c a90c 853d 4756 b23c d6a1 3b3d

conv2.weight_v f4 [64, 128, 3]
0.083992876 0.0932467 0.05065827 0.07786666 0.07994508 0.14012326 0.11678754 0.09946108
0.07013105 0.13825904 0.09451352 0.10436624 0.06757005 0.060107324 0.11613313 0.08121469
0.077986486 0.11676981 0.09637351 0.05291484 0.15159301 -0.1267311 -0.07928143 -0.07240143
0.026844172 0.04397326 -0.2733221 0.07150904 0.13868415 0.048212882 0.06255788 0.08677699
0.08580671 -0.07144613 0.0071230014 0.13156919 0.0154347615 -0.036401186 0.044728536 -0.00479638
0.06767791 -0.33803177 0.109941766 0.10124237 0.1330217 0.16264358 0.1430383 0.09899153
0.115907334 0.14056624 0.15479575 -0.075433925 -0.01716636 -0.13140784 -0.16466483 -0.0053349873
-0.05167954 -0.010609953 0.044893138 0.077538595 0.22916389 0.13255534 0.29991773 0.19095238
0.13251874 0.11566207 0.12739022 -0.00556836 0.12668788 0.05372257 0.09633383 0.14910854
0.06148359 0.10793341 0.097959705 0.07336243 0.083374806 -0.14632103 0.06457437 0.036033817
0.10692234 0.08498599 0.052153777 0.095291324 0.09598683 0.05252787 0.10506942 0.21051353
0.108675756 0.30124122 -0.25193837 0.04174408 -0.14641999 0.05849056 0.0798041 0.13573445
0.1432962 0.054174345 -0.08354533 0.09620056 0.12380139 -0.14777678 -0.11860999 -0.07624236
0.17702997 0.06310787 0.14175405 0.12718031 0.066199645 0.13432226 0.037682455 0.09454832
0.066270806 0.06711165 0.118968375 0.11888028 0.13849545 0.143429 0.07880411 0.0438139
0.124827944 0.14789048 0.15499105 0.07313171 0.18154359 0.21992671 0.1173097 0.08886809
0.066584066 0.07297564 0.08496029 0.12595336 0.041736845 0.018849375 0.028908178 0.07710767
0.033796813 0.11150311 0.056090105 0.10642375 0.12129515 0.10378106 0.042191103 -0.24110386
-0.104940735 0.096357316 0.12311554 0.124386735 0.058626078 0.09997751 0.050028466 0.11994752
0.03889798 0.113951676 -0.15336119 0.07982093 -0.10990825 0.06136624 0.13135315 0.13259749
0.10956438 0.08150444 0.08672341 0.05668895 0.12871252 0.07002977 0.11155366 0.049667947
0.121034056 0.09064149 0.060241174 -0.1221014 -0.12500295 -0.061834913 -0.04109893 -0.1480759
-0.11296661 0.112668514 0.08647982 0.10559007 0.06983116 0.16068666 0.16750392 0.063779205
0.07058736 0.09666236 0.10686991 -0.124692164 0.061193667 0.110280484 0.13110097 0.093143605
0.078034215 0.17071821 0.10212924 0.09256568 0.13178867 0.075589545 0.007458219 -0.060209043
0.10233076 -0.15799892 -0.09423437 0.10384354 0.18991855 0.1429877 0.15781641 -0.0025386238
0.1209096 -0.14616433 0.051432673 0.12049574 0.07871425 -0.1066021 0.10171159 -0.21638386
0.11833187 0.030222971 0.12804654 0.10905305 0.09292125 0.12247353 0.08044449 0.13874379
0.0546654 0.1366511 0.13441245 0.11517319 0.090270355 0.05399598 0.054916386 0.047855552
0.13765754 0.12627405 0.10946831 0.10032502 0.077071555 0.08700059 -0.44281876 0.09612742
0.13087858 0.08469174 0.10655048 0.09869683 0.10606355 -0.033413615 0.019373277 -0.13810684
0.09764571 0.057506043 -0.12944898 0.057714216 0.13299137 0.16169515 0.10447904 0.14415157
00000000: 7504 ac3d 20f8 be3d 0c7f 4f3d 8e78 9f3d
00000010: 3fba a33d 797c 0f3e 4e2e ef3d 40b2 cb3d
00000020: dea0 8f3d c793 0d3e 4e90 c13d f8bd d53d
00000030: 2b62 8a3d 1933 763d 35d7 ed3d e353 a63d
00000040: 61b7 9f3d 0325 ef3d 7a5f c53d 3bbd 583d
00000050: 333b 1b3e ccc5 01be 4d5e a2bd 3347 94bd
00000060: 4fe8 db3c 4e1d 343d e0f0 8bbe 5573 923d
00000070: 3803 0e3e df7a 453d 591e 803d 22b8 b13d
00000080: 6ebb af3d 5952 92bd 1168 e93b 13ba 063e
00000090: 15e2 7c3c 6919 15bd 4535 373d f42a 9dbb
000000a0: b79a 8a3d 8012 adbe 2629 e13d 2958 cf3d
000000b0: d736 083e 0a8c 263e a278 123e 12bc ca3d
000000c0: d360 ed3d 99f0 0f3e c782 1e3e 1a7d 9abd
000000d0: 77a0 8cbc c78f 06be e69d 28be 1ed1 aebb
000000e0: edad 53bd 5ed5 2dbc dee1 373d 8ecc 9e3d
000000f0: f0a9 6a3e 96bc 073e d18e 993e 0589 433e
00000100: feb2 073e 3ce0 ec3d 9572 023e ca76 b6bb
00000110: 78ba 013e 330c 5c3d ac4a c53d e9af 183e
00000120: 38d6 7b3d 310c dd3d 199f c83d 0b3f 963d
00000130: 69c0 aa3d 2ed5 15be 913f 843d 3298 133d
00000140: 1afa da3d 220d ae3d 339f 553d 1928 c33d
00000150: be94 c43d 7727 573d a32e d73d dc90 573e
00000160: 6591 de3d 4a3c 9a3e 11fe 80be d7fb 2a3d
00000170: 1fef 15be cc93 6f3d 5570 a33d f9fd 0a3e
00000180: 3dbc 123e ebe5 5d3d d019 abbd cd04 c53d
00000190: 958b fd3d cc52 17be cbe9 f2bd f424 9cbd
000001a0: 5847 353e b33e 813d f927 113e 8e3b 023e
000001b0: ae93 873d c68b 093e eb58 1a3d 8da2 c13d
000001c0: fdb8 873d d571 893d b1a5 f33d 8177 f33d
000001d0: c0d1 0d3e 0ddf 123e 0d64 a13d 3476 333d
000001e0: cba5 ff3d 9a70 173e f9b5 1e3e 14c6 953d
000001f0: 90e6 393e 7834 613e 1140 f03d 7900 b63d
00000200: 3a5d 883d 4174 953d a9ff ad3d ebf9 003e
00000210: 41f4 2a3d 016a 9a3c d8d0 ec3c a0ea 9d3d
00000220: 876e 0a3d be5b e43d bdbe 653d b2f4 d93d
00000230: 9769 f83d 2a8b d43d 94d0 2c3d eee3 76be
00000240: 2beb d6bd fc56 c53d 0024 fc3d 79be fe3d
00000250: e621 703d 02c1 cc3d a6ea 4c3d 0ca7 f53d
00000260: 7d53 1f3d 7f5f e93d b70a 1dbe 2879 a33d
00000270: 9417 e1bd 2b5b 7b3d 7181 063e a3c7 073e
00000280: 4a63 e03d cdeb a63d 0b9c b13d ac32 683d
00000290: 37cd 033e c56b 8f3d 3f76 e43d 9e70 4b3d
000002a0: b4e0 f73d 3fa2 b93d 73bf 763d 4c10 fabd
000002b0: c600 00be 9b46 7dbd 5a57 28bd 35a1 17be
000002c0: 0a5b e7bd c0be e63d 551c b13d 9b3f d83d
000002d0: a403 8f3d 0b8b 243e 2686 2b3e ac9e 823d
000002e0: 1b90 903d eaf6 c53d 9dde da3d 9b5e ffbd
000002f0: 36a6 7a3d bcda e13d 553f 063e 13c2 be3d
00000300: 67d0 9f3d c1d0 2e3e 2329 d13d 1393 bd3d
00000310: 9cf3 063e b1ce 9a3d 1364 f43b c29d 76bd
00000320: ca92 d13d 78ca 21be f3fd c0bd ecab d43d
00000330: 027a 423e 5e6b 123e a09a 213e 0a5f 26bb
00000340: 749f f73d 1aac 15be 11ab 523d 78c6 f63d
00000350: f034 a13d 3452 dabd 2b4e d03d bb93 5dbe
00000360: fb57 f23d 2a96 f73c a21e 033e 3557 df3d
00000370: 7f4d be3d 67d3 fa3d 15c0 a43d da12 0e3e
00000380: d4e8 5f3d 44ee 0b3e 6ba3 093e ecdf eb3d
00000390: aadf b83d e42a 5d3d 01f0 603d 2f04 443d
000003a0: 19f6 0c3e fc4d 013e ec30 e03d 3477 cd3d
000003b0: b1d7 9d3d 5e2d b23d 24b9 e2be 74de c43d
000003c0: 0905 063e dd72 ad3d 2337 da3d 9021 ca3d
000003d0: d937 d93d b7dc 08bd b5b4 9e3c e16b 0dbe
000003e0: 79fa c73d 758b 6b3d 468e 04be be65 6c3d
000003f0: e42e 083e 6a93 253e 1bf9 d53d 789c 133e

batch_norm_c3.weight f4 [64]
0.95072126 0.9061952 0.99188167 0.9226249 0.6198987 0.82418805 0.9527134 1.1063308
1.1574869 0.7057465 0.88022166 0.8133564 0.7028116 1.0290688 1.070347 1.0352368
1.0765531 1.0129141 0.9305862 0.72338164 0.77792984 0.86225003 1.0964681 1.0472752
1.3132862 1.1113977 0.90548927 0.82912755 1.2525738 0.7414284 0.98027796 1.2689663
1.0068682 0.9320748 1.2789822 0.93087673 0.71112454 1.0904571 0.7424994 1.2087765
1.0285157 0.94508916 0.77692795 0.9466062 1.1111294 0.90627146 0.92447305 0.81990284
1.0316533 0.87487364 0.82049906 1.0359079 1.1342314 1.2487265 1.1112806 0.8398625
1.3301508 1.0138868 1.3497815 0.99826455 1.2608258 0.929673 1.1815752 0.86723816
00000000: 7862 733f 69fc 673f f5eb 7d3f 2531 6c3f
00000010: aeb1 1e3f fdfd 523f 06e5 733f 3f9c 8d3f
00000020: 8828 943f cdab 343f 3556 613f 2038 503f
00000030: 76eb 333f 87b8 833f 2101 893f a482 843f
00000040: 7ecc 893f 2ba7 813f e63a 6e3f 8a2f 393f
00000050: 6926 473f 6bbc 5c3f 1159 8c3f 1d0d 863f
00000060: c319 a83f 4842 8e3f 25ce 673f b441 543f
00000070: 5754 a03f 40ce 3d3f 7ff3 7a3f 7d6d a23f
00000080: 0fe1 803f 749c 6e3f b0b5 a33f f04d 6e3f
00000090: 420c 363f 1994 8b3f 7114 3e3f 30b9 9a3f
000000a0: 67a6 833f 5df1 713f c0e4 463f c954 723f
000000b0: 7d39 8e3f 6801 683f 44aa 6c3f 27e5 513f
000000c0: 370d 843f b8f7 5f3f 3a0c 523f a198 843f
000000d0: 7f2e 913f 45d6 9f3f 713e 8e3f 3b01 573f
000000e0: 6242 aa3f 0bc7 813f a4c5 ac3f 448e 7f3f
000000f0: bd62 a13f 0dff 6d3f db3d 973f 5203 5e3f

batch_norm_c3.bias f4 [64]
-0.02439385 0.13540065 -0.0539085 -0.200495 -0.0042287433 -0.18591693 -0.11063018 0.07174309
-0.13206421 0.13389015 -0.2641471 0.09347869 -0.028307917 -0.1052002 0.012045756 -0.060811047
-0.14492479 0.050652277 0.09410277 0.08659612 0.30547398 -0.22912018 -0.044119667 -0.1546351
0.25914073 -0.14846483 0.016198412 0.18399397 -0.10291973 0.03156845 -0.0969588 0.04626114
0.032886088 0.116681375 0.11122802 0.017194072 0.10148353 -0.19674626 0.23002848 0.2874382
0.009376747 0.17814541 0.15013245 0.19180542 0.15298301 0.09086438 -0.10375631 0.06800982
0.13071905 0.0893704 -0.04785394 0.024431773 0.09486846 0.028056255 0.1216464 0.08108915
0.0104678925 0.21468024 -0.11491838 -0.015429432 0.11714945 0.051212445 0.2761498 0.041374262
00000000: 9cd5 c7bc 78a6 0a3e 29cf 5cbd 904e 4dbe
00000010: 4591 8abb 0261 3ebe 1392 e2bd 0bee 923d
00000020: d73b 07be 801a 093e 4a3e 87be c171 bf3d
00000030: 01e6 e7bc 3473 d7bd 905b 453c 0115 79bd
00000040: 2a67 14be c378 4f3d f4b8 c03d 4e59 b13d
00000050: 1667 9c3e 7b9e 6abe d3b6 34bd aa58 1ebe
00000060: 18ae 843e 2a07 18be 88b2 843c ea68 3c3e
00000070: 94c7 d2bd eb4d 013d 5692 c6bd 527c 3d3d
00000080: 90b3 063d a5f6 ee3d 84cb e33d 95da 8c3c
00000090: 99d6 cf3d da77 49be 968c 6b3e 1a2b 933e
000000a0: eda0 193c c06b 363e 52bc 193e a468 443e
000000b0: 94a7 1c3e 1b17 ba3d 307e d4bd bc48 8b3d
000000c0: 37db 053e d407 b73d 7e02 44bd 2425 c83c
000000d0: 654a c23d 3bd6 e53c bf21 f93d 1112 a63d
000000e0: 8681 2b3c 23d5 5b3e 545a ebbd bacb 7cbc
000000f0: 0dec ef3d 24c4 513d 8263 8d3e 0f78 293d
