lightning_logs/version_1/checkpoints/epoch=95-step=768.ckpt (torch, 678745 bytes, 50 tensors)

batch_norm1.weight f4 [40]
0.9367357 1.1339269 1.0066713 0.9396693 0.96718603 0.9777436 0.9666396 0.9636633
0.96649647 0.9658128 0.94992894 0.92754126 0.97788036 0.97840583 0.97729856 0.9433169
0.99709815 0.963647 1.0730747 1.3205117 1.3763218 0.94834137 0.9702058 0.9570378
0.9440189 0.9726319 0.9850566 0.9522299 0.9561003 0.95775104 0.93869585 0.95999855
0.96544975 0.94146293 0.97413474 1.0317454 0.99709576 1.0182227 0.97475535 0.97776586
00000000: e9cd 6f3f 8424 913f 9bda 803f 2b8e 703f
00000010: 8199 773f 684d 7a3f b175 773f a3b2 763f
00000020: 506c 773f 823f 773f 8b2e 733f 5873 6d3f
00000030: 5e56 7a3f ce78 7a3f 3d30 7a3f 377d 713f
00000040: d341 7f3f 92b1 763f 835a 893f 8706 a93f
00000050: 502b b03f 80c6 723f 685f 783f 6e00 753f
00000060: 39ab 713f 67fe 783f ab2c 7c3f 57c5 733f
00000070: fdc2 743f 2c2f 753f 5f4e 703f 77c2 753f
00000080: b727 773f b703 713f e560 793f 3c10 843f
00000090: ab41 7f3f 1f55 823f 9189 793f dd4e 7a3f

batch_norm1.bias f4 [40]
-0.0069043287 -0.038817484 -0.012045261 -0.033002418 -0.013269093 0.009337561 0.00071056397 0.03910423
0.049901843 0.038525485 -0.029099511 0.00050291535 0.0029124196 -0.0032582607 -0.0028994025 0.008151941
-0.027751207 -0.009826396 -0.0042674122 0.18690112 0.38627735 -0.0010201104 0.001385434 -0.009202489
0.0006286525 0.005427728 -0.007281715 -0.013654476 -0.018121662 -0.014872309 -0.0117305275 0.016597789
0.006288199 -0.0063709584 0.025365446 0.026509607 -0.026985588 0.0030880342 -0.017539274 -8.87031e-06
00000000: b53d e2bb 15ff 1ebd 7d59 45bc 8b2d 07bd
00000010: 9c66 59bc 92fc 183c 2445 3a3a c22b 203d
00000020: e065 4c3d e6cc 1d3d 1962 eebc 14d6 033a
00000030: 4bde 3e3b 8b88 55bb e703 3ebb b88f 053c
00000040: 8056 e3bc e4fe 20bc a6d5 8bbb 0263 3f3e
00000050: 25c6 c53e 3ab5 85ba 7397 b53a 09c6 16bc
00000060: 28cc 243a 15db b13b 749b eebb 06b7 5fbc
00000070: e173 94bc fcaa 73bc 6631 40bc 16f8 873c
00000080: 3d0d ce3b 79c3 d0bb 32cb cf3c ad2a d93c
00000090: e110 ddbc 9e60 4a3b 86ae 8fbc b1d1 14b7

batch_norm1.running_mean f4 [40]
-0.034158505 0.1562404 0.040795162 0.013567544 0.02326027 0.035702445 0.02576611 -0.07306212
-0.04702159 -0.07283696 0.009710139 0.021772532 0.01433326 -0.10146056 -0.071228996 -0.062351678
-0.10419528 -0.016390668 0.015182326 -0.086922765 -0.15754765 -0.014937446 -0.03637304 -0.028965563
0.0023919106 -0.010666599 -0.032967392 0.01579287 0.006608147 0.011726582 0.0113226315 -0.05424419
-0.024762882 -0.027778445 -0.0018936854 0.05079542 -0.021104796 0.044300362 0.0018733437 0.041049436
00000000: cae9 0bbd 7cfd 1f3e d418 273d 674a 5e3c
00000010: 528c be3c ba3c 123d 7313 d33c 98a1 95bd
00000020: b699 40bd 8b2b 95bd 4617 1f3c 4f5c b23c
00000030: 0dd6 6a3c 8eca cfbd 82e0 91bd 7964 7fbd
00000040: 5664 d5bd b945 86bc 4abf 783c 9004 b2bd
00000050: 2c54 21be 31bc 74bc e6fb 14bd 3049 edbc
00000060: 9ac1 1c3b f5c2 2ebc d108 07bd 0d60 813c
00000070: 2889 d83b da20 403c 8f82 393c 282f 5ebd
00000080: 87db cabc 9f8f e3bc 8a35 f8ba dc0e 503d
00000090: f7e3 acbc 4c74 353d fc8a f53a 7423 283d

batch_norm1.running_var f4 [40]
0.9782667 0.83567 0.8446045 1.028372 1.0059373 1.0402355 0.99873745 0.92037576
0.97743076 0.930249 0.9997645 0.9997496 0.98176 0.8996246 0.9666708 0.973786
0.9520908 0.94663674 1.000638 1.1070149 1.1501833 0.9871013 0.7534546 0.9234391
0.9820071 0.9869948 0.7778133 0.9989599 1.0085607 1.0040958 1.0036099 1.0608264
0.9636347 0.95628333 0.8563844 0.93796 0.8260515 1.053353 1.12403 0.9189473
00000000: b06f 7a3f 78ee 553f 0038 583f b2a1 833f
00000010: 8ec2 803f 7026 853f 42ad 7f3f bf9d 6b3f
00000020: e738 7a3f cc24 6e3f 91f0 7f3f 97ef 7f3f
00000030: a054 7b3f cc4d 663f bd77 773f 0a4a 793f
00000040: 39bc 733f c956 723f e814 803f aab2 8d3f
00000050: 3539 933f acb2 7c3f 67e2 403f 8166 6c3f
00000060: d164 7b3f b1ab 7c3f c61e 473f d6bb 7f3f
00000070: 8418 813f 3686 803f 4a76 803f 29c9 873f
00000080: c4b0 763f fcce 743f 023c 5b3f 261e 703f
00000090: 1c78 533f 45d4 863f 37e0 8f3f 2140 6b3f

dense1.weight_g f4 [1024, 1]
0.48497817 0.55049884 0.56713367 0.64997137 0.5635756 0.4931974 0.5778542 0.58223915
0.5878641 0.561945 0.63788503 0.5051657 0.6980431 0.5802027 0.531826 0.55902725
0.5565049 0.6247775 0.5605842 0.55294675 0.60732454 0.5709835 0.57844526 0.5856311
0.5722024 0.54285246 0.5637032 0.60796434 0.60176015 0.5577334 0.6063688 0.56168014
0.5676342 0.62552726 0.5899436 0.5968303 0.5575904 0.5919034 0.616616 0.5822549
0.5740881 0.5720744 0.5814967 0.5408654 0.60447884 0.5921532 0.5764526 0.5964486
0.60558665 0.55030006 0.5660053 0.6244176 0.5870601 0.59275454 0.57340443 0.47919372
0.60247815 0.5817149 0.59414434 0.5918037 0.50864404 0.56519514 0.5876001 0.58750004
0.5771645 0.579855 0.62538487 0.57025486 0.5687866 0.63092494 0.5283645 0.56943303
0.5095316 0.5240079 0.54836625 0.57022244 0.5673572 0.5349085 0.58271766 0.58490235
0.5898924 0.63157225 0.5863806 0.4975244 0.57247066 0.60938984 0.54128146 0.58668923
0.6142009 0.5295365 0.51747924 0.6246802 0.5996419 0.6356561 0.59476954 0.578348
0.6475169 0.5634296 0.54188526 0.5603367 0.55534375 0.48699388 0.5634212 0.5324617
0.6058545 0.598074 0.6365059 0.53039825 0.5192644 0.6192664 0.6269478 0.57900256
0.67915744 0.5918886 0.53122354 0.6032565 0.60648537 0.53644407 0.6140204 0.5826915
0.51606715 0.56331676 0.60688853 0.5495979 0.6240377 0.6012558 0.5919822 0.52825606
0.5454219 0.5301756 0.6147809 0.5570349 0.5823404 0.5770078 0.55255914 0.5610611
0.57409066 0.5806447 0.5095844 0.54289776 0.6092888 0.6064969 0.5053932 0.5732088
0.58938736 0.5158733 0.5907875 0.5725086 0.60967505 0.62565035 0.6270663 0.5400009
0.62632096 0.63623077 0.5823634 0.5607533 0.5543054 0.5913679 0.55254763 0.45719585
0.5560944 0.50957566 0.55123 0.53462636 0.5690925 0.59754854 0.59004587 0.6189266
0.5442156 0.62569684 0.6006957 0.59769547 0.53395015 0.57497436 0.5735212 0.54389924
0.6335062 0.5253497 0.6846737 0.5478661 0.58473593 0.5329952 0.6439692 0.5848118
0.5939319 0.53126943 0.57147133 0.5435888 0.57294124 0.58281136 0.6569969 0.5756351
0.50791633 0.5604492 0.5838325 0.5664586 0.54931337 0.6123136 0.56174356 0.55773515
0.6566744 0.5792735 0.5858741 0.5016647 0.56013554 0.6215971 0.53637856 0.5203516
0.56792235 0.5702856 0.57072544 0.5735835 0.575763 0.5126121 0.5753371 0.4895142
0.6101592 0.55954826 0.5859639 0.5853685 0.6183743 0.5468248 0.56530094 0.59322804
0.5200615 0.6112899 0.6012273 0.5956868 0.6437395 0.54566896 0.53621453 0.5451991
0.6060357 0.5589772 0.5930733 0.59626013 0.5683897 0.5474951 0.59893614 0.4988402
0.59419215 0.59016895 0.6176607 0.5355488 0.5496295 0.58535355 0.6267276 0.5795998
0.48908314 0.51330364 0.58756495 0.56331307 0.56853163 0.4914667 0.5909913 0.5503231
00000000: 0f4f f83e 7eed 0c3f ac2f 113f 8664 263f
00000010: 7e46 103f 5f84 fc3e 41ee 133f a00d 153f
00000020: 437e 163f a1db 0f3f 6f4c 233f 8a52 013f
00000030: f4b2 323f 2a88 143f c025 083f 691c 0f3f
00000040: 1b77 0e3f 6bf1 1f3f 7282 0f3f eb8d 0d3f
00000050: 9f79 1b3f fa2b 123f fd14 143f ebeb 153f
00000060: db7b 123f 61f8 0a3f da4e 103f 8da3 1b3f
00000070: f40c 1a3f 9ec7 0e3f fc3a 1b3f 45ca 0f3f
00000080: 7a50 113f 8e22 203f 8b06 173f dfc9 183f
00000090: 3fbe 0e3f fb86 173f 8cda 1d3f a80e 153f
000000a0: 70f7 123f 7873 123f f8dc 143f 2876 0a3f
000000b0: 20bf 1a3f 5a97 173f 6692 133f dbb0 183f
000000c0: ba07 1b3f 77e0 0c3f b9e5 103f d5d9 1f3f
000000d0: 9249 163f c3be 173f a2ca 123f e158 f53e
000000e0: 023c 1a3f 45eb 143f d819 183f 7380 173f
000000f0: 7f36 023f a1b0 103f f66c 163f 6766 163f
00000100: 0dc1 133f 6171 143f 3919 203f 39fc 113f
00000110: 009c 113f 4c84 213f e542 073f 5dc6 113f
00000120: aa70 023f 6225 063f bb61 0c3f 19fa 113f
00000130: 523e 113f c3ef 083f fc2c 153f 29bc 153f
00000140: 3003 173f b8ae 213f 0a1d 163f 85bb fe3e
00000150: 708d 123f f900 1c3f 6c91 0a3f 4431 163f
00000160: 453c 1d3f b48f 073f 8579 043f 0beb 1f3f
00000170: 2282 193f 5cba 223f d142 183f 9d0e 143f
00000180: abc3 253f ec3c 103f feb8 0a3f 3a72 0f3f
00000190: 022b 0e3f 4357 f93e 5f3c 103f 694f 083f
000001a0: 4819 1b3f 611b 193f 0df2 223f 2ec8 073f
000001b0: 83ee 043f 3e88 1e3f a77f 203f 8339 143f
000001c0: 43dd 2d3f 0386 173f 44fe 073f 056f 1a3f
000001d0: a042 1b3f 6654 093f 7130 1d3f 452b 153f
000001e0: fa1c 043f 8735 103f 0c5d 1b3f 73b2 0c3f
000001f0: efc0 1f3f e6eb 193f 258c 173f ca3b 073f
00000200: c5a0 0b3f 97b9 073f 4862 1d3f d799 0e3f
00000210: 4314 153f c8b6 133f 8474 0d3f b3a1 0f3f
00000220: 9bf7 123f 22a5 143f 2074 023f 59fb 0a3f
00000230: 5afa 1b3f 6143 1b3f 7361 013f d0bd 123f
00000240: 17e2 163f 4610 043f d93d 173f ec8f 123f
00000250: aa13 1c3f 9f2a 203f 6b87 203f 803d 0a3f
00000260: 9256 203f 05e0 223f c515 153f 878d 0f3f
00000270: f5e6 0d3f e363 173f c373 0d3f 9315 ea3e
00000280: 345c 0e3f 8d73 023f 691d 0d3f 46dd 083f
00000290: 0cb0 113f f1f8 183f 3f0d 173f f971 1e3f
000002a0: b751 0b3f ab2d 203f 32c7 193f 9202 193f
000002b0: f5b0 083f 8531 133f 49d2 123f fb3c 0b3f
000002c0: 762d 223f 517d 063f c746 2f3f f440 0c3f
000002d0: 41b1 153f 6072 083f 2adb 243f 3ab6 153f
000002e0: ec0b 183f 4601 083f f24b 123f a328 0b3f
000002f0: 47ac 123f 2033 153f f330 283f d25c 133f
00000300: ce06 023f 9979 0f3f 0c76 153f 6e03 113f
00000310: cd9f 0c3f 96c0 1c3f 6dce 0f3f bbc7 0e3f
00000320: d01b 283f 454b 143f d8fb 153f 196d 003f
00000330: 0b65 0f3f fd20 1f3f 1b50 093f c335 053f
00000340: 5c63 113f 3dfe 113f 101b 123f 5ed6 123f
00000350: 3465 133f 8c3a 033f 4b49 133f 9ba1 fa3e
00000360: 6533 1c3f 8e3e 0f3f bb01 163f b6da 153f
00000370: c74d 1e3f b6fc 0b3f 90b7 103f cbdd 173f
00000380: c022 053f 7f7d 1c3f 08ea 193f ee7e 183f
00000390: 1dcc 243f f6b0 0b3f 5b45 093f 2b92 0b3f
000003a0: 2825 1b3f 2119 0f3f a7d3 173f 81a4 183f
000003b0: fd81 113f a428 0c3f e153 193f fc67 ff3e
000003c0: fa1c 183f 5015 173f 031f 1e3f ba19 093f
000003d0: 85b4 0c3f bbd9 153f 3871 203f a760 143f
000003e0: 1b69 fa3e de67 033f a86a 163f 4935 103f
000003f0: 4a8b 113f 86a1 fb3e 354b 173f fae1 0c3f

dense1.weight_v f4 [1024, 40]
0.037047405 -0.04479572 0.04643998 -0.010447602 0.067818694 0.034713216 -0.018409017 -0.12536986
0.036608998 -0.14080107 0.019338094 0.00967991 -0.03902309 0.12861861 0.0068472777 0.06348664
0.069509774 -0.09576038 -0.064300165 0.14544287 -0.15127857 -0.008808687 -0.010252683 0.11096391
-0.01847304 0.04188103 -0.00643091 -0.08954094 -0.09033717 -0.0802357 -0.1446069 -0.10640149
0.04023907 0.096712835 0.012355511 -0.07181576 0.07341482 -0.06341297 -0.036166757 -0.08812629
-0.049056746 -0.1532988 0.067567766 0.05873794 0.029564565 0.0757161 0.07098584 0.008336323
0.020002412 0.01120646 0.08705275 0.107127436 0.11146414 0.092793174 -0.041826878 -0.0077120215
-0.030146407 0.089744344 0.019150782 0.1365709 0.07063169 -0.1378644 0.04686477 0.14923926
0.13705596 -0.0040713493 0.050322033 -0.14838849 -0.047356702 0.07981604 -0.14237799 0.14312974
-0.10386995 0.05339346 -0.003538868 0.031711917 0.015530539 -0.14783143 -0.03931464 -0.10569539
0.13213146 -0.018832674 -0.16044636 0.04251344 0.0661212 -0.0696556 -0.011200261 0.06672494
-0.09581406 -0.08440627 -0.012650921 -0.10928923 0.09735396 0.01502926 0.09349971 0.086882494
-0.12044398 -0.09396895 -0.10835758 -0.062060878 -0.07032118 -0.02805251 -0.15344809 0.06707985
0.0847675 0.044710577 0.100518696 0.11976274 -0.1529487 0.029360676 0.14946517 -0.11095454
-0.06758895 -0.000879491 -0.10160631 -0.025333205 -0.02864844 0.14391676 -0.014514599 0.08188354
0.10754068 0.07040077 -0.13599437 0.11895067 0.09895124 -0.11182506 -0.058186468 0.10197583
-0.1621186 -0.14089611 -0.113441154 0.045488883 -0.063287765 -0.1389098 0.063604735 0.081540085
0.05529387 -0.1288627 0.15862595 -0.015168555 -0.17012528 -0.028352644 0.100905456 0.07412263
-0.0021904549 0.108702146 -0.14244883 0.10643936 0.15148935 -0.09662731 0.028619826 -0.025497586
-0.13129464 0.013796412 -0.05850186 -0.13719754 -0.117701516 0.0050186566 0.13951407 0.050330907
-0.106527925 0.113197885 0.01373333 -0.15176734 0.01184239 0.10727164 -0.092478625 -0.010517428
-0.08683528 -0.12236102 -0.092025846 0.014568493 0.101974495 -0.02844452 -0.13460174 0.00094783393
-0.14013176 0.011392349 0.12453158 0.076001234 -0.109628014 -0.040842842 0.06424434 0.047048923
-0.14010994 -0.088999055 -0.056715094 0.056591447 0.13815825 0.0721745 0.055273287 -0.12645723
0.093613744 0.06082253 -0.054993633 -0.079199046 0.044825755 -0.08328492 0.062323067 0.11818096
-0.10537169 -0.09317172 -0.06330069 -0.13822244 -0.014231215 0.09877616 0.055621635 -0.054950643
-0.026077162 -0.06976986 -0.12818685 -0.0460154 0.009863216 -0.082240365 -0.11908475 0.043131825
0.018288057 -0.05065551 0.04233688 0.13922307 -0.008973907 -0.112037644 0.14938901 0.118613735
-0.00909057 -0.07219827 -0.06948603 0.13701671 0.07852158 -0.081060626 0.0032745271 0.034675337
0.03920468 -0.008832278 -0.08422175 -0.011766406 -0.04056263 -0.053527128 -0.075573504 -0.07461923
-0.07035985 0.0679978 -0.1326688 -0.15305573 0.1367557 0.056722317 0.09030168 0.06849963
-0.059659943 -0.10114477 -0.10358469 -0.010595117 0.03487236 -0.14918903 -0.119917475 0.08700834
00000000: 05bf 173d b87b 37bd d937 3e3d 6b2c 2bbc
00000010: 87e4 8a3d 722f 0e3d 82ce 96bc f560 00be
00000020: 51f3 153d 282e 10be ec6a 9e3c 7c98 1e3c
00000030: add6 1fbd 99b4 033e 215f e03b 4905 823d
00000040: 245b 8e3d 051e c4bd ceaf 83bd faee 143e
00000050: c5e8 1abe 5052 10bc dffa 27bc 0c41 e33d
00000060: c654 97bc 718b 2b3d 62ba d2bb 3e61 b7bd
00000070: b202 b9bd 9d52 a4bd d513 14be 06e9 d9bd
00000080: b9d1 243d 6111 c63d c56e 4a3c 2414 93bd
00000090: 825a 963d a9de 81bd 9823 14bd 8e7b b4bd
000000a0: baef 48bd 5cfa 1cbe f860 8a3d 3297 703d
000000b0: 6331 f23c 0b11 9b3d 0661 913d 1395 083c
000000c0: 19dc a33c 4d9b 373c b648 b23d a165 db3d
000000d0: 5047 e43d 590a be3d a952 2bbd 20b5 fcbb
000000e0: 99f5 f6bc e2cb b73d 1ae2 9c3c 3ed9 0b3e
000000f0: 59a7 903d 532c 0dbe 46f5 3f3d 2dd2 183e
00000100: 6658 0c3e f468 85bb 7a1e 4e3d 27f3 17be
00000110: 1af9 41bd 9876 a33d 89cb 11be 9a90 123e
00000120: c5b9 d4bd 1ab3 5a3d 5aec 67bb 5be4 013d
00000130: cd73 7e3c 1f61 17be 6308 21bd d376 d8bd
00000140: 784d 073e fb46 9abc 0d4c 24be 9322 2e3d
00000150: 8d6a 873d 98a7 8ebd 4d81 37bc 16a7 883d
00000160: 293a c4bd 32dd acbd cf45 4fbc 08d3 dfbd
00000170: 8361 c73d 493d 763c c77c bf3d 73ef b13d
00000180: 55ab f6bd cb72 c0bd 94ea ddbd 8c33 7ebd
00000190: 8d04 90bd 61ce e5bc 7f21 1dbe 2961 893d
000001a0: 959a ad3d 7022 373d bfdc cd3d 2b46 f53d
000001b0: 969e 1cbe cd85 f03c 660d 193e 223c e3bd
000001c0: 136c 8abd a48d 66ba f816 d0bd 9587 cfbc
000001d0: 22b0 eabc ea5e 133e a4ce 6dbc 8fb2 a73d
000001e0: 4a3e dc3d 472e 903d 1c42 0bbe 699c f33d
000001f0: f3a6 ca3d 8904 e5bd ef54 6ebd b4d8 d03d
00000200: 6b02 26be 1247 10be d653 e8bd 8d52 3a3d
00000210: 049d 81bd 5f3e 0ebe 3343 823d 7dfe a63d
00000220: d37b 623d 95f4 03be d76e 223e 8885 78bc
00000230: 5235 2ebe ce43 e8bc 85a7 ce3d 9bcd 973d
00000240: bc8d 0fbb 3b9f de3d 1bde 11be e1fc d93d
00000250: 0620 1b3e 8ae4 c5bd 2074 ea3c 50e0 d0bc
00000260: 1a72 06be 590a 623c a59f 6fbd 837d 0cbe
00000270: 7e0d f1bd 8b73 a43b c7dc 0e3e c827 4e3d
00000280: 502b dabd 4bd4 e73d c301 613c e668 1bbe
00000290: 9506 423c 3cb1 db3d 6f65 bdbd 4a51 2cbc
000002a0: b2d6 b1bd 6a98 fabd 0c78 bcbd b0b0 6e3c
000002b0: 01d8 d03d 7b04 e9bc 0ad5 09be 0f78 783a
000002c0: b37e 0fbe faa6 3a3c 6a0a ff3d 89a6 9b3d
000002d0: a784 e0bd d34a 27bd 8992 833d 5fb6 403d
000002e0: fb78 0fbe 2345 b6bd 164e 68bd 6fcc 673d
000002f0: 5b79 0d3e 39d0 933d 3e66 623d 017e 01be
00000300: 90b8 bf3d 0c21 793d 0141 61bd 1c33 a2bd
00000310: 369b 373d 4991 aabd 7946 7f3d dc08 f23d
00000320: 1dcd d7bd d1d0 bebd cba3 81bd 2f8a 0dbe
00000330: 0b2a 69bc 284b ca3d 83d3 633d ed13 61bd
00000340: c69f d5bc 80e3 8ebd 6a43 03be a57a 3cbd
00000350: 5499 213c a36d a8bd b5e2 f3bd ffaa 303d
00000360: d6d0 953c 277c 4fbd 7069 2d3d 7e90 0e3e
00000370: 4b07 13bc fe73 e5bd 6ff9 183e c2eb f23d
00000380: 9df0 14bc b0dc 93bd b14e 8ebd 1c4e 0c3e
00000390: eccf a03d 1d03 a6bd 7399 563b ba07 0e3d
000003a0: 1695 203d 42b5 10bc 747c acbd e2c7 40bc
000003b0: 0025 26bd 433f 5bbd 48c6 9abd f8d1 98bd
000003c0: d318 90bd 6e42 8b3d 54da 07be a4ba 1cbe
000003d0: b009 0c3e a955 683d 16f0 b83d 8949 8c3d
000003e0: fc5d 74bd fd24 cfbd 3624 d4bd 2497 2dbc
000003f0: 52d6 0e3d 02c5 18be 4b97 f5bd 6e31 b23d

batch_norm_c1.weight f4 [64]
1.0 0.99999905 0.99998206 0.99992263 0.9999953 0.99996245 1.0 1.0
0.9999423 0.9999991 0.99997246 0.99999964 1.0 0.9999991 0.999999 0.9999289
1.0 0.99999493 0.99998987 1.0 1.0 1.0 0.99999344 0.9999958
0.999996 1.0 0.9999946 1.0 1.0000036 1.0000019 0.9999628 0.99996936
0.9999999 0.999987 0.999959 0.99999845 0.9999997 0.99992186 1.0 0.99999696
0.9999974 0.99996626 1.0 1.0000048 0.9996461 0.9999992 1.0 0.9999801
0.9999996 0.99999505 1.0 0.99934036 0.9999716 0.9999733 0.9999937 0.9999999
0.9999994 0.9999692 1.0000008 0.99994403 0.9999847 1.0 0.9999998 0.99997544
00000000: 0000 803f f0ff 7f3f d3fe 7f3f eefa 7f3f
00000010: b1ff 7f3f 8afd 7f3f 0000 803f 0000 803f
00000020: 38fc 7f3f f1ff 7f3f 32fe 7f3f faff 7f3f
00000030: 0000 803f f1ff 7f3f efff 7f3f 57fb 7f3f
00000040: 0000 803f abff 7f3f 56ff 7f3f 0000 803f
00000050: 0000 803f 0000 803f 92ff 7f3f baff 7f3f
00000060: bdff 7f3f 0000 803f a5ff 7f3f 0000 803f
00000070: 1e00 803f 1000 803f 90fd 7f3f fefd 7f3f
00000080: feff 7f3f 26ff 7f3f 50fd 7f3f e6ff 7f3f
00000090: fbff 7f3f e1fa 7f3f 0000 803f cdff 7f3f
000000a0: d4ff 7f3f cafd 7f3f 0000 803f 2800 803f
000000b0: cfe8 7f3f f3ff 7f3f 0000 803f b2fe 7f3f
000000c0: f9ff 7f3f adff 7f3f 0000 803f c5d4 7f3f
000000d0: 24fe 7f3f 40fe 7f3f 96ff 7f3f feff 7f3f
000000e0: f6ff 7f3f fbfd 7f3f 0700 803f 55fc 7f3f
000000f0: fffe 7f3f 0000 803f fdff 7f3f 64fe 7f3f

batch_norm_c1.bias f4 [64]
0.00043175745 -0.0030114935 0.0061276685 -0.012820275 0.0040921434 -0.010082954 -0.001469348 -0.0013488667
-0.011386182 -0.0022349916 0.007788916 0.0018946306 0.0009270052 0.0016859839 -0.0020545307 -0.012355664
-0.00059858384 -0.0029888172 -0.005076458 -0.00043635367 -0.0010016623 -0.0014195313 0.0037585937 0.0036458457
0.0035036707 8.0508165e-05 0.0040072077 -0.0006708548 -0.0019940787 0.0017755515 -0.009129482 0.008450239
-0.0016433927 0.0057934253 -0.009585526 0.0021309694 -0.0010798243 -0.013006172 -0.002360968 -0.003251048
-0.0023509345 0.008747405 0.0005013597 -0.0003471217 0.027305318 0.0018146886 0.0008618266 0.0065857405
0.0010029746 0.0047097737 0.0011234067 -0.03827012 -0.007948419 0.007891607 -0.005063213 0.00044995602
-0.0024941638 -0.00841472 0.0018477226 -0.011170532 -0.0056456523 -0.0014167475 -0.00010600489 0.007613834
00000000: 815d e239 7a5c 45bb 9cca c83b 210c 52bc
00000010: 6317 863b f932 25bc 2397 c0ba 75cc b0ba
00000020: 1c8d 3abc f078 12bb 2a3a ff3b 4155 f83a
00000030: 4402 733a 3bfc dc3a 4ea5 06bb 696f 4abc
00000040: 48ea 1cba 08e0 43bb 6b58 a6bb 66c6 e4b9
00000050: 364a 83ba 910f baba bd52 763b 24ef 6e3b
00000060: d79d 653b 7ed6 a838 e54e 833b 4edc 2fba
00000070: 17af 02bb 9fb9 e83a d393 15bc df72 0a3c
00000080: 1c67 d7ba c6d6 bd3b 9c0c 1dbc bca7 0b3b
00000090: e488 8dba d717 55bc 78ba 1abb 890f 55bb
000000a0: 2312 1abb 4751 0f3c ae6d 033a e3fd b5b9
000000b0: 67af df3c d8da ed3a 34ec 613a 32cd d73b
000000c0: 3e76 833a 7254 9a3b 463f 933a 21c1 1cbd
000000d0: 163a 02bc cc4b 013c 4fe9 a5bb 13e8 eb39
000000e0: 2075 23bb e5dd 09bc 482f f23a 9b04 37bc
000000f0: 2aff b8bb 28b2 b9ba f14e deb8 787d f93b

batch_norm_c1.running_mean f4 [64]
0.0867722 0.09291777 0.08913634 0.08703967 0.08237124 0.116432786 0.083601534 0.08877593
0.07424397 0.08669845 0.07056214 0.091555074 0.09682053 0.081951015 0.07418631 0.08817623
0.069390886 0.07870195 0.08846438 0.08975849 0.08134073 0.08331458 0.08500804 0.08456377
0.08114422 0.07805705 0.08825608 0.083476886 0.08515426 0.056860708 0.08693687 0.09189861
0.09446474 0.06906612 0.08493732 0.08504767 0.087577984 0.09008748 0.09980666 0.10025547
0.0971557 0.10066909 0.0816168 0.08461212 0.08097261 0.103607535 0.09812858 0.08055379
0.09103772 0.0957565 0.07569208 0.07984961 0.0799876 0.07850798 0.07992469 0.081730895
0.09846217 0.10299398 0.08023943 0.07107483 0.06494938 0.07881966 0.09149331 0.07251522
00000000: a0b5 b13d ac4b be3d 1d8d b63d db41 b23d
00000010: 41b2 a83d 5074 ee3d 4837 ab3d 28d0 b53d
00000020: 390d 983d f58e b13d e282 903d 3a81 bb3d
00000030: d849 c63d efd5 a73d feee 973d bd95 b43d
00000040: cf1c 8e3d 7d2e a13d d02c b53d 4dd3 b73d
00000050: f895 a63d d6a0 aa3d b218 ae3d c52f ad3d
00000060: f12e a63d 60dc 9f3d 9bbf b43d eef5 aa3d
00000070: 5b65 ae3d c6e6 683d f50b b23d 5735 bc3d
00000080: bb76 c13d 8a72 8d3d 9ef3 ad3d 792d ae3d
00000090: 165c b33d c97f b83d 6f67 cc3d bd52 cd3d
000000a0: 91f9 c63d 992b ce3d b526 a73d 1f49 ad3d
000000b0: f8d4 a53d 3030 d43d a3f7 c83d 63f9 a43d
000000c0: fc71 ba3d fc1b c43d 7304 9b3d 3188 a33d
000000d0: 8ad0 a33d cbc8 a03d 8eaf a33d 8762 a73d
000000e0: 89a6 c93d 82ee d23d 9254 a43d ae8f 913d
000000f0: 2e04 853d 346c a13d d860 bb3d dc82 943d

batch_norm_c1.running_var f4 [64]
0.30521914 0.32132125 0.3379663 0.3187523 0.3347312 0.34057274 0.33682838 0.330039
0.28192005 0.32056955 0.30378503 0.34759215 0.32400885 0.33069015 0.308418 0.30550072
0.2993278 0.33330578 0.30977896 0.32754788 0.31972983 0.31742403 0.32291442 0.31184962
0.32967305 0.2923984 0.30533633 0.31940487 0.30439708 0.27883258 0.3208631 0.3141567
0.33674937 0.28803825 0.31892082 0.30155644 0.30426064 0.3131682 0.3346926 0.34031463
0.33593345 0.36365888 0.28807366 0.29068002 0.29538786 0.35693896 0.32580447 0.3179884
0.32693124 0.3058704 0.29716888 0.31492057 0.32121307 0.33939424 0.3175514 0.33793858
0.36778525 0.31820711 0.32166818 0.30234987 0.3055752 0.3186719 0.3370637 0.30919495
00000000: af45 9c3e 3884 a43e eb09 ad3e 8033 a33e
00000010: e361 ab3e 8d5f ae3e c574 ac3e dffa a83e
00000020: d357 903e b121 a43e b689 9b3e 99f7 b13e
00000030: 7de4 a53e 3850 a93e f7e8 9d3e 976a 9c3e
00000040: 7e41 993e 0ea7 aa3e 599b 9e3e 5bb4 a73e
00000050: a1b3 a33e 6785 a23e 0a55 a53e c1aa 9f3e
00000060: e8ca a83e 3eb5 953e 0b55 9c3e 0989 a33e
00000070: efd9 9b3e 25c3 8e3e 2b48 a43e 26d9 a03e
00000080: 6a6a ac3e c079 933e 9749 a33e 9b65 9a3e
00000090: 0dc8 9b3e 9557 a03e d45c ab3e b83d ae3e
000000a0: 78ff ab3e 7f31 ba3e 647e 933e 03d4 943e
000000b0: 143d 973e b4c0 b63e d8cf a63e 60cf a23e
000000c0: 8863 a73e 0c9b 9c3e 8526 983e 453d a13e
000000d0: 0a76 a43e 15c5 ad3e 1996 a23e 4906 ad3e
000000e0: 594e bc3e 0bec a23e b1b1 a43e 9acd 9a3e
000000f0: 5a74 9c3e f728 a33e 9d93 ac3e cd4e 9e3e

conv1.weight_v f4 [128, 1, 5]
0.18833345 0.27834478 -0.06029828 0.0635931 -0.3350225 0.22123581 0.16316704 0.17391837
-0.3428358 -0.29624534 0.41887185 -0.07645886 -0.09357188 0.19052584 -0.34958705 0.21401836
-0.25758845 -0.26066753 0.43181044 -0.27481508 -0.14493744 0.050272614 -0.05930577 0.13396923
-0.40869263 -0.091452464 -0.23603909 -0.048120137 0.21401207 -0.45419347 -0.09997901 0.18296753
0.23257561 0.16331904 0.15244438 -0.12697649 0.20541476 -0.3717813 -0.22612813 -0.18611145
-0.05316554 -0.29607916 0.35736337 0.016182357 -0.22743873 -0.0077900407 0.056256734 0.30504382
0.15641028 0.29947147 -0.44702297 -0.20637646 -0.13797846 0.15719286 -0.35215944 -0.21500199
-0.01191991 -0.36042693 -0.12233614 -0.4228409 0.24123584 -0.281809 -0.35818192 0.18731055
0.28117147 0.18448442 -0.24331957 0.2583777 0.43114355 -0.3638995 0.22918113 -0.23306926
-0.3761198 0.31351027 0.4458155 0.3815228 -0.19627048 0.27179995 0.10408281 -0.41808766
-0.14496431 -0.31096655 -0.20563796 -0.17565215 -0.16008908 -0.0647347 0.16587363 0.41688204
0.03847005 -0.1678881 -0.06741994 -0.08474316 0.2640961 0.2719966 0.3142614 0.0040343264
-0.2744204 0.27102038 -0.21592121 0.34810954 0.43794593 0.21369115 0.19514841 0.018131763
-0.13258955 0.39024195 0.20065239 -0.16006632 -0.39199305 0.4305437 -0.34581488 0.23318854
-0.17141451 -0.01598521 0.3205108 -0.034578506 0.43090543 -0.1254881 -0.19253348 0.22091496
0.01394812 -0.33735442 -0.15078677 0.37028548 -0.15677696 0.15437642 0.13557509 0.27440134
-0.36355516 -0.27527398 0.074447 0.42565712 0.3402212 0.055657823 -0.18595958 0.371828
-0.26039338 -0.15895447 0.32578343 0.16818646 -0.17454703 0.38483146 0.23772609 0.04882832
-0.020686919 -0.15990672 -0.29683757 0.12531061 0.14495668 -0.18420728 -0.2348244 -0.25855687
0.32105932 -0.2723871 -0.33995384 0.28645012 -0.13331927 0.13260862 -0.2564769 0.3164972
-0.25052714 -0.070794694 -0.058703523 0.2952755 0.12112523 -0.05980587 0.3415284 -0.27601317
0.25701654 0.052318748 0.146147 -0.25189197 0.029537147 -0.23496608 -0.056280304 0.33546528
0.2855954 -0.026465468 -0.37178347 -0.1525113 0.18157516 -0.30292466 -0.3430245 0.33524612
-0.2969424 0.42388543 -0.4161887 -0.20599934 -0.20536155 -0.39697504 0.14851922 -0.3075166
-0.25050855 0.16778481 0.2959614 -0.35583925 -0.2616478 0.09296454 0.29608738 0.07806019
-0.063934945 0.39433083 0.29713398 -0.41777042 0.37296757 0.2649337 0.37173823 -0.16148067
0.38335237 -0.18267487 0.429059 -0.36175886 -0.13363798 0.4474672 0.14179073 -0.10808938
0.17027546 0.39990702 0.30571178 -0.28091332 -0.09655933 0.24086176 -0.14096881 0.29708424
-0.41523275 -0.2120148 -0.43079075 -0.36498553 -0.29400396 0.30556983 0.13666171 0.085599154
-0.20238832 0.42122707 -0.36283216 -0.06098581 -0.10894155 0.30390945 0.42649698 -0.118768975
-0.19215652 -0.40296438 -0.14590535 -0.27092785 0.39742705 0.41942206 -0.3661905 -0.03459466
-0.29699427 0.4261042 0.32697707 0.15138733 -0.20260637 0.31676826 -0.012215383 -0.26645678
00000000: 7cda 403e 3583 8e3e 54fb 76bd 193d 823d
00000010: 1288 abbe a48b 623e 4315 273e a817 323e
00000020: 2d88 afbe 78ad 97be 5f76 d63e 7696 9cbd
00000030: 9da2 bfbd 3519 433e 13fd b2be a127 5b3e
00000040: a2e2 83be 3776 85be 4216 dd3e 90b4 8cbe
00000050: 7b6a 14be a8ea 4d3d 9bea 72bd 3b2f 093e
00000060: 2940 d1be 6e4b bbbd 3bb4 71be 9f19 45bd
00000070: fb25 5b3e 0c8c e8be ccc1 ccbd d75b 3b3e
00000080: 4d28 6e3e 1b3d 273e 611a 1c3e 2006 02be
00000090: 3f58 523e 1e5a bebe 228e 67be 0094 3ebe
000000a0: 1cc4 59bd b097 97be 55f8 b63e dd90 843c
000000b0: b3e5 68be 9943 ffbb 766d 663d b42e 9c3e
000000c0: 042a 203e 5354 993e 32e0 e4be 5a54 53be
000000d0: 3a4a 0dbe 2af7 203e 3e4e b4be 7b29 5cbe
000000e0: ba4b 43bc e189 b8be 5f8b fabd 9a7e d8be
000000f0: 8706 773e 4549 90be 9f63 b7be 56ce 3f3e
00000100: b5f5 8f3e 7ce9 3c3e c428 79be 154a 843e
00000110: d9be dc3e 0951 babe 75ae 6a3e b5a9 6ebe
00000120: c692 c0be 6b84 a03e ee41 e43e f556 c33e
00000130: 21fb 48be 5d29 8b3e 5e29 d53d 960f d6be
00000140: 8671 14be 0237 9fbe c292 52be 28de 33be
00000150: 64ee 23be a093 84bd c7da 293e 9071 d53e
00000160: c592 1d3d dcea 2bbe 7713 8abd d28d adbd
00000170: 9b37 873e 2343 8b3e dfe6 a03e 6232 843b
00000180: d580 8cbe 2fc3 8a3e 731a 5dbe 6a3b b23e
00000190: 733a e03e dad1 5a3e fcd4 473e 1089 943c
000001a0: 8ec5 07be cbcd c73e d277 4d3e 6de8 23be
000001b0: 50b3 c8be 3970 dc3e a60e b1be fac8 6e3e
000001c0: 4987 2fbe 6af3 82bc fe19 a43e 31a2 0dbd
000001d0: a39f dc3e f47f 00be 7f27 45be 8837 623e
000001e0: a886 643c b8b9 acbe d967 1abe 0f96 bd3e
000001f0: 248a 20be da14 1e3e 32d4 0a3e 557e 8c3e
00000200: e723 babe b6f0 8cbe ab77 983d bbef d93e
00000210: 7931 ae3e 75f9 633d 306c 3ebe 3d60 be3e
00000220: 4852 85be f6c4 22be 16cd a63e 1239 2c3e
00000230: 75bc 32be a108 c53e 786e 733e 3400 483d
00000240: 9d77 a9bc 96be 23be 18fb 97be 6d51 003e
00000250: 866f 143e d5a0 3cbe cf75 70be 9161 84be
00000260: e361 a43e 5276 8bbe 6e0e aebe 97a9 923e
00000270: d984 08be 8eca 073e f150 83be ec0b a23e
00000280: 1845 80be cffc 90bd 1b73 70bd 5a2e 973e
00000290: 8110 f83d 00f7 74bd cfdc ae3e 9951 8dbe
000002a0: ac97 833e 2f4c 563d 8fa7 153e fcf7 80be
000002b0: e3f7 f13c f39a 70be 2d86 66bd 1bc2 ab3e
000002c0: 8f39 923e 1cce d8bc 675a bebe ec2b 1cbe
000002d0: d7ee 393e f118 9bbe e8a0 afbe 61a5 ab3e
000002e0: d608 98be 8307 d93e af16 d5be 7ef1 52be
000002f0: 4c4a 52be 5040 cbbe 6c15 183e d172 9dbe
00000300: a842 80be c8cf 2b3e 4188 973e 9030 b6be
00000310: b3f6 85be 3164 be3d c498 973e 05de 9f3d
00000320: 53f0 82bd bbe5 c93e f221 983e 01e6 d5be
00000330: 9bf5 be3e 64a5 873e 7954 be3e 305b 25be
00000340: c346 c43e 1f0f 3bbe 9fad db3e 7538 b9be
00000350: 65d8 08be 6c1a e53e 9731 113e f75d ddbd
00000360: b15c 2e3e 9dc0 cc3e 4186 9c3e dfd3 8fbe
00000370: e6c0 c5bd 77a4 763e 215a 10be 6d1b 983e
00000380: 6399 d4be 681a 59be 9b90 dcbe 62df babe
00000390: b087 96be a673 9c3e 0cf1 0b3e 9c4e af3d
000003a0: e23e 4fbe 13ab d73e 23c5 b9be 42cc 79bd
000003b0: bf1c dfbd 059a 9b3e d05d da3e 263d f3bd
000003c0: aec4 44be 5951 cebe 3668 15be 0eb7 8abe
000003d0: 8f7b cb3e 7dbe d63e 527d bbbe 21b3 0dbd
000003e0: a20f 98be 542a da3e 8a69 a73e 4805 1b3e
000003f0: 0b78 4fbe 732f a23e 0823 48bc 066d 88be

batch_norm_c2.weight f4 [128]
1.0014306 1.0026995 1.0035051 1.0063918 0.9985031 0.9929969 0.99523515 0.9985228
1.0086778 0.994035 1.0061262 1.0056429 1.0038652 0.99618214 1.0017198 1.0111247
0.99998975 1.0091836 0.99555206 1.005022 1.0000359 0.9964221 1.0003852 1.0096288
1.0082898 1.0031769 0.9967987 0.9984804 0.99564594 0.9983244 0.9952043 1.0055808
0.99919885 0.9975436 0.99394566 1.0048715 0.9974222 1.0044655 1.0065167 0.9997945
1.0048087 0.99610716 0.9967295 1.0094329 0.98939055 1.0072659 0.9992498 1.0021281
0.99894696 0.9996787 1.0018781 1.010802 0.9985365 1.0020653 1.0002439 1.0044268
1.0050354 1.0045524 1.011906 1.0019827 0.99794877 0.99810815 1.0063328 1.0065796
0.9987243 1.0035472 1.0015632 1.008244 0.99644685 0.9996944 0.99718016 0.99321204
1.0003637 1.0018752 0.99882555 0.99706763 1.0038449 1.0022137 1.0021337 0.9996905
0.99905044 1.0009799 0.9979152 1.0047501 1.0042988 1.0078292 0.9966514 1.016872
0.99864876 0.9958494 1.003204 0.9969188 0.9996281 1.0043961 0.99636406 0.9965434
1.0035149 0.9967495 1.0022373 1.0077586 1.0045556 0.99628127 1.0210441 1.0127345
0.9969556 1.0007223 1.002715 1.0028888 1.0068283 1.0099912 1.0031009 1.0011885
1.0010076 0.9990031 1.0045694 0.9982928 0.99466205 1.0022 0.9981829 1.005878
0.9952101 0.99897766 0.99666727 0.99882287 1.00281 0.9832057 1.0037024 1.0010195
00000000: e12e 803f 7558 803f db72 803f 72d1 803f
00000010: e69d 7f3f 0b35 7e3f bbc7 7e3f 319f 7f3f
00000020: 5b1c 813f 1479 7e3f bec8 803f e8b8 803f
00000030: a87e 803f cb05 7f3f 5b38 803f 896c 813f
00000040: 54ff 7f3f ee2c 813f 80dc 7e3f 90a4 803f
00000050: 2d01 803f 8515 7f3f 9f0c 803f 843b 813f
00000060: a40f 813f 1a68 803f 332e 7f3f 699c 7f3f
00000070: a7e2 7e3f 3092 7f3f b6c5 7e3f dfb6 803f
00000080: 7fcb 7f3f 045f 7f3f 3973 7e3f a19f 803f
00000090: 1057 7f3f 5392 803f 8ad5 803f 88f2 7f3f
000000a0: 929d 803f e100 7f3f aa29 7f3f 1935 813f
000000b0: b348 7d3f 17ee 803f d6ce 7f3f bc45 803f
000000c0: fdba 7f3f f1ea 7f3f 8b3d 803f f661 813f
000000d0: 17a0 7f3f ad43 803f fe07 803f 0f91 803f
000000e0: 00a5 803f 2c95 803f 2386 813f f840 803f
000000f0: 9279 7f3f 0484 7f3f 83cf 803f 9ad7 803f
00000100: 65ac 7f3f 3c74 803f 3933 803f 240e 813f
00000110: 2417 7f3f f9eb 7f3f 3347 7f3f 2543 7e3f
00000120: eb0b 803f 723d 803f 08b3 7f3f d33f 7f3f
00000130: fd7d 803f 8a48 803f eb45 803f b7eb 7f3f
00000140: c5c1 7f3f 1c20 803f 5f77 7f3f a79b 803f
00000150: dd8c 803f 8c00 813f 8c24 7f3f dd28 823f
00000160: 72a7 7f3f fcef 7e3f fd68 803f 1236 7f3f
00000170: a1e7 7f3f 0d90 803f b711 7f3f 781d 7f3f
00000180: 2d73 803f fa2a 7f3f 5049 803f 3cfe 803f
00000190: 4795 803f 4a0c 7f3f 93b1 823f 49a1 813f
000001a0: 7b38 7f3f ab17 803f f758 803f a95e 803f
000001b0: c0df 803f 6447 813f 9c65 803f f226 803f
000001c0: 0421 803f abbe 7f3f bb95 803f 1e90 7f3f
000001d0: 2ca2 7e3f 1748 803f ea88 7f3f 9cc0 803f
000001e0: 17c6 7e3f 00bd 7f3f 9625 7f3f dbb2 7f3f
000001f0: 145c 803f 5eb3 7b3f 5279 803f 6821 803f

batch_norm_c2.bias f4 [128]
-0.005222445 0.001906941 -0.0018893722 0.0005829808 0.00021052003 0.0018642397 -0.0029217321 -0.0018152009
-0.0028089224 0.0044045756 -0.0018529012 -0.002564102 0.002572999 0.0005608551 -0.004470443 -0.0037683558
0.0022297956 0.002675274 0.0034280098 -0.0037905036 -0.005023286 -0.0026277301 -0.0014550384 0.0011620874
-0.00087805034 -0.0013724766 0.0008430343 0.001186298 0.0032756496 0.0028810853 0.0021867556 -0.0010539155
-0.006184737 -0.0022593841 -0.003397758 -0.00045451507 0.0013151556 -0.002386056 0.00018023916 0.0019801117
0.00082398637 0.0029536248 0.00048784475 -0.0030828782 0.001544847 -0.0016660659 -0.0026967358 0.0015843647
0.001603382 -0.00024101869 -0.0016303235 -0.007141871 -0.0014830357 0.002596601 -0.00049245066 -0.0009640634
-0.0012588385 -0.006008381 -0.0015822089 0.002403236 -0.0015599161 -0.0024670993 -0.0006686957 0.0021739071
-0.0015442458 0.0021940186 0.004110506 -0.009725776 -0.00084873836 -0.00015973007 0.0017763791 -0.00051238545
0.0034330944 0.0019751585 -0.001987561 0.0087009305 0.0003852323 -0.0037412713 0.0011227317 -0.0031876802
-0.004684377 -0.001943073 -0.00088113564 0.001241931 0.0022463764 -0.0017204966 0.002180272 -0.0056260102
0.0017415701 -0.002180559 -0.0019905427 -0.001026616 0.0017484184 -0.0036966843 -0.002142344 0.00089763873
-0.0040255827 -0.004753202 -0.0019284802 0.0029239198 -0.0001780287 -0.0019268796 0.0068862857 -0.0024641566
-0.0007286202 0.000103615974 -0.0019063862 -0.0022992655 0.00018708858 -0.00118946 0.0040724594 0.0026332536
-0.0008555631 -0.002500099 0.0020931733 0.0016522903 0.0014185065 -0.0032166818 -0.0017999731 -0.0050232834
0.0049147788 -0.0008817695 -0.0065817684 0.0005335846 0.00013480964 -0.00086442346 -0.004606022 -0.00032163283
00000000: 0b21 abbb 52f2 f93a d0a4 f7ba 2ed3 183a
00000010: 0abf 5c39 8159 f43a 887a 3fbb 09ec edba
00000020: e615 38bb 4254 903b 0cdd f2ba 7e0a 28bb
00000030: c39f 283b 5906 133a cb7c 92bb 85f6 76bb
00000040: c321 123b a653 2f3b 76a8 603b 196a 78bb
00000050: 619a a4bb ff35 2cbb fdb6 beba 2f51 983a
00000060: f62c 66ba ace4 b3ba 13ff 5c3a 8e7d 9b3a
00000070: 48ac 563b 97d0 3c3b ac4f 0f3b 8923 8aba
00000080: 56a9 cabb 2d12 14bb ebac 5ebb fb4b eeb9
00000090: 4d61 ac3a 605f 1cbb 95fe 3c39 c3c4 013b
000000a0: ca00 583a 9a91 413b 6ac5 ff39 1d0a 4abb
000000b0: 777c ca3a e55f daba b8bb 30bb 75aa cf3a
000000c0: 9328 d23a f6b9 7cb9 94b0 d5ba 5b06 eabb
000000d0: 6c62 c2ba bc2b 2a3b ce17 01ba 33b9 7cba
000000e0: 9cff a4ba f4e1 c4bb 1f62 cfba 9c7f 1d3b
000000f0: 1976 ccba 0faf 21bb 694b 2fba 1c78 0e3b
00000100: 4a68 caba 86c9 0f3b 6cb1 863b dc58 1fbc
00000110: de7d 5eba 377d 27b9 64d5 e83a 9b51 06ba
00000120: c4fd 603b a971 013b bd41 02bb 598e 0e3c
00000130: 01f9 c939 1e30 75bb a028 933a 66e8 50bb
00000140: 677f 99bb b6ae feba 03fc 66ba 4ac8 a23a
00000150: f137 133b 4982 e1ba e5e2 0e3b 655a b8bb
00000160: 6545 e43a b6e7 0ebb c473 02bb 848f 86ba
00000170: 302b e53a 1244 72bb 9166 0cbb 844f 6b3a
00000180: 09e9 83bb c0c0 9bbb 0fc5 fcba 3c9f 3f3b
00000190: 37ad 3ab9 5a8f fcba 5aa6 e13b b07d 21bb
000001a0: e000 3fba 674c d938 b5df f9ba 46af 16bb
000001b0: 352d 4439 a8e7 9bba 4472 853b aa92 2c3b
000001c0: de47 60ba b3d8 23bb 9f2d 093b aa91 d83a
000001d0: 2eed b93a f7ce 52bb 13ed ebba 5b9a a4bb
000001e0: 270c a13b 8d26 67ba e0ab d7bb 42e0 0b3a
000001f0: b05b 0d39 7a9a 62ba 1dee 96bb d4a0 a8b9

batch_norm_c2.running_mean f4 [128]
0.18098515 0.21555898 0.22399783 0.26634264 0.15823057 0.19578388 0.14628746 0.20398311
0.19225526 0.17104383 0.2331521 0.23548664 0.2158821 0.24423783 0.27343464 0.22492422
0.17602402 0.17966995 0.18835178 0.21165335 0.19723935 0.26980147 0.19972625 0.19330816
0.20425002 0.2129221 0.21881764 0.21456924 0.17871286 0.15298045 0.23616935 0.19320966
0.15456863 0.17507917 0.14107007 0.21105435 0.24448404 0.27537474 0.19772075 0.19940244
0.27193615 0.22415276 0.27346042 0.23632684 0.2208556 0.27665102 0.2177159 0.20669048
0.2511688 0.24961004 0.18755628 0.21637987 0.22281995 0.16463353 0.17830004 0.14271583
0.20942599 0.19506635 0.1948179 0.10833751 0.23175257 0.2607308 0.19727509 0.21533611
0.20928955 0.17783807 0.20384453 0.13083698 0.29361466 0.22433174 0.15673964 0.22534578
0.19578883 0.2061966 0.27372038 0.21044467 0.1998195 0.18456821 0.15870793 0.24018452
0.20973434 0.24174173 0.20495841 0.20271824 0.18288958 0.20719665 0.24661952 0.13751736
0.20669354 0.27413628 0.2598385 0.2176953 0.2632149 0.26309726 0.2360228 0.15885048
0.28505924 0.2011692 0.26293135 0.23906925 0.27482155 0.18626532 0.20288329 0.09934313
0.2528359 0.25371727 0.2512959 0.18650056 0.24382845 0.19176938 0.19951369 0.23192789
0.1661467 0.2860724 0.15128188 0.20313157 0.27363554 0.257161 0.2781125 0.14147656
0.12232053 0.14965639 0.19570878 0.21293405 0.14047404 0.1754406 0.16504432 0.21273714
00000000: 2c54 393e 7ebb 5c3e b05f 653e 105e 883e
00000010: 3207 223e 927b 483e 61cc 153e f3e0 503e
00000020: 90de 443e 1d26 2f3e 6dbf 6e3e 6923 713e
00000030: 3210 5d3e 7b19 7a3e a0ff 8b3e 8952 663e
00000040: a43f 343e 66fb 373e 4adf 403e a8bb 583e
00000050: 1df9 493e 6b23 8a3e 0a85 4c3e 93f2 453e
00000060: eb26 513e 4008 5a3e bb11 603e 0ab8 5b3e
00000070: 8100 373e e8a6 1c3e 61d6 713e c1d8 453e
00000080: 3d47 1e3e f447 333e ac74 103e a21e 583e
00000090: 065a 7a3e ebfd 8c3e 4f77 4a3e 2730 4c3e
000000a0: 373b 8b3e 4d88 653e 0103 8c3e aaff 713e
000000b0: f827 623e 34a5 8d3e ebf0 5e3e aba6 533e
000000c0: 3299 803e c699 7f3e c10e 403e af92 5d3e
000000d0: ea2a 643e b195 283e 4994 363e 1924 123e
000000e0: c473 563e 79bf 473e 587e 473e 0ee0 dd3d
000000f0: 8c50 6d3e 827e 853e 7b02 4a3e 1281 5c3e
00000100: 0050 563e 2f1b 363e 9fbc 503e 21fa 053e
00000110: a954 963e 38b7 653e 5b80 203e 0bc1 663e
00000120: de7c 483e 3425 533e 1425 8c3e cf7e 573e
00000130: 7c9d 4c3e 73ff 3c3e 5584 223e eef2 753e
00000140: 99c4 563e 258b 773e 9ee0 513e 5f95 4f3e
00000150: 6847 3b3e 5c2b 543e d489 7c3e 5ad1 0c3e
00000160: 79a7 533e 975b 8c3e 8d09 853e 84eb 5e3e
00000170: 1ac4 863e afb4 863e f6af 713e b3a9 223e
00000180: 49f3 913e 4cff 4d3e f09e 863e 92ce 743e
00000190: 69b5 8c3e 56bc 3e3e a3c0 4f3e 6974 cb3d
000001a0: b573 813e 3be7 813e dba9 803e 01fa 3e3e
000001b0: 2aae 793e 315f 443e 514d 4c3e 817e 6d3e
000001c0: 5c22 2a3e 1578 923e a3e9 1a3e b901 503e
000001d0: f519 8c3e 9baa 833e c364 8e3e 3bdf 103e
000001e0: 3083 fa3d 863f 193e e267 483e 620b 5a3e
000001f0: 6dd8 0f3e b3a6 333e 6101 293e c4d7 593e

batch_norm_c2.running_var f4 [128]
0.04818186 0.07301569 0.05478008 0.06931906 0.016843418 0.029552424 0.05611775 0.037070133
0.03640677 0.06952556 0.062004488 0.07008524 0.059078418 0.0676842 0.11625197 0.055035252
0.05165608 0.06050298 0.07058658 0.039147105 0.0869282 0.09295023 0.037419733 0.048460297
0.039323825 0.057398204 0.111802556 0.067653775 0.064432435 0.023960307 0.048030946 0.038486518
0.03854609 0.032755166 0.014478711 0.08009445 0.052289713 0.09418852 0.05938303 0.059471898
0.07736137 0.060826972 0.10161921 0.104792364 0.037992097 0.109975755 0.043535 0.079995826
0.0771778 0.07622727 0.053117476 0.049450286 0.06752098 0.062475596 0.029140718 0.019875053
0.042622253 0.057074446 0.045346573 0.024296895 0.06907169 0.09823387 0.08858791 0.11826813
0.043746486 0.06760003 0.050850745 0.019958463 0.14052334 0.06313997 0.023790434 0.06336762
0.06492424 0.040194478 0.08011593 0.056470584 0.05608495 0.04003974 0.03716425 0.06650221
0.09034139 0.072869405 0.05332516 0.035835847 0.03550317 0.05299231 0.054693274 0.014974911
0.062665686 0.15687063 0.11826153 0.04223626 0.11044557 0.07069909 0.040974464 0.036092866
0.08862005 0.027916001 0.07512124 0.07441425 0.110479005 0.031652678 0.035066206 0.008460685
0.050848193 0.07281754 0.062327184 0.0563608 0.0641823 0.054846346 0.06222571 0.046236917
0.03819739 0.07671409 0.021356935 0.054089822 0.06912949 0.07092535 0.10299153 0.031730477
0.017955014 0.019263059 0.0527551 0.06383679 0.027949391 0.04623936 0.03946418 0.067356974
00000000: 585a 453d 4089 953d 1461 603d 27f7 8d3d
00000010: 35fb 893c ed17 f23c badb 653d dad6 173d
00000020: 441f 153d 6b63 8e3d 6bf8 7d3d da88 8f3d
00000030: 36fc 713d 049e 8a3d 8315 ee3d a56c 613d
00000040: 5395 533d f9d1 773d b28f 903d b758 203d
00000050: 6a07 b23d b15c be3d 6f45 193d 4e7e 463d
00000060: 0512 213d 611a 6b3d bdf8 e43d 108e 8a3d
00000070: 27f5 833d 6848 c43c 19bc 443d 0aa4 1d3d
00000080: 81e2 1d3d 482a 063d 1e38 6d3c 8f08 a43d
00000090: bd2d 563d e9e5 c03d 9f3b 733d ce98 733d
000000a0: a36f 9e3d b425 793d bb1d d03d 619d d63d
000000b0: 9a9d 1b3d f83a e13d c251 323d dad4 a33d
000000c0: 650f 9e3d 0b1d 9c3d b691 593d 628c 4a3d
000000d0: 7148 8a3d 69e6 7f3d 84b8 ee3c 02d1 a23c
000000e0: ac94 2e3d e5c6 693d 54bd 393d 480a c73c
000000f0: 7575 8d3d d72e c93d 946d b53d 9036 f23d
00000100: 842f 333d e271 8a3d df48 503d ee7f a33c
00000110: 5ae5 0f3e 874f 813d 28e4 c23c e2c6 813d
00000120: 00f7 843d f7a2 243d d213 a43d b34d 673d
00000130: 55b9 653d b600 243d 8a39 183d 5032 883d
00000140: e804 b93d 8e3c 953d 7c6b 5a3d 9cc8 123d
00000150: c66b 113d 770e 593d 0e06 603d 5459 753c
00000160: de56 803d b2a2 203e 1a33 f23d eeff 2c3d
00000170: 4931 e23d afca 903d d7d4 273d 1dd6 133d
00000180: 6e7e b53d 19b0 e43c 2ad9 993d 8066 983d
00000190: d142 e23d 3da6 013d 95a1 0f3d af9e 0a3c
000001a0: 3246 503d 5d21 953d ca4a 7f3d 95da 663d
000001b0: 0272 833d 90a6 603d 63e0 7e3d ec62 3d3d
000001c0: de74 1c3d 471c 9d3d bdf4 ae3c 4a8d 5d3d
000001d0: c393 8d3d 4f41 913d 39ed d23d d1f7 013d
000001e0: 6516 933c 90cd 9d3c bb15 583d ddbc 823d
000001f0: 1ff6 e43c 7c65 3d3d 31a5 213d 74f2 893d

conv2.weight_v f4 [64, 128, 3]
-0.00949749 0.022181919 -0.036910158 -0.023736283 0.006378676 -3.36671e-05 0.011280145 -0.019729882
-0.012617176 0.031989686 -0.040499162 0.022188956 -0.02959025 -0.040140726 0.010516525 -0.01137937
-0.029110419 -0.02234584 -0.0008538753 -0.04469981 0.05411641 -0.012418441 0.008750919 0.024652325
-0.028727097 -0.032011688 0.02246535 -0.020499136 0.035785824 -0.053411614 -0.043018818 -0.056182694
-0.0008354724 -0.053400856 -0.05097367 0.03701725 0.017912377 0.020558385 -2.9780747e-05 -0.036652174
0.042794596 -0.0376884 0.014896322 0.010259771 0.045225706 0.053886887 0.061493553 -0.0033143298
-0.024284797 0.010718681 0.03140815 0.033867788 -0.0151414145 0.00044590232 -0.027345652 -0.046043698
-0.038899813 -0.06603724 -0.040060613 -0.017130297 0.013022396 0.020315783 0.027339961 0.029541096
0.028489687 -0.002945717 0.04068675 -0.03541293 0.020996395 -0.020549385 0.016662044 0.051745504
-0.046859473 0.016335322 0.01337943 -0.025322828 -0.024690976 0.024993654 -0.024540884 -0.045492787
0.02988661 0.009182893 -0.04084539 0.0074425135 0.02115458 -0.04205424 0.020866001 0.037583955
-0.027145814 0.026701521 -0.051194035 -0.062695354 -0.05024523 -0.048219424 -0.013336287 0.053895682
0.062923476 -0.032768678 0.008958168 0.019861626 0.049755026 0.032551233 -0.03546673 -0.0032112047
0.025267672 -0.043788284 0.013219199 0.026610939 -0.024775121 0.046338707 -0.038781032 0.020842157
0.012517408 -0.017792596 -0.0035017664 0.018169014 0.023727436 0.032258734 -0.020387866 -0.041050173
-0.059430163 0.009746712 0.018243756 -0.042513307 0.035694223 0.042331636 0.035243675 -0.006617321
-0.010201851 -0.010851197 -0.010438131 0.022266654 -0.0026629388 -0.030782292 -0.001799319 -0.015252979
0.026903702 -0.0001703539 -0.04466831 0.01439268 0.00833022 0.024279224 -0.030915331 -0.051220365
-0.031367633 -0.01846438 0.028459867 0.015435125 -0.030949654 0.026702518 -0.037112653 0.027755134
-0.026279451 0.019601388 0.017741647 -0.0011818886 -0.021806063 -0.031264104 0.013555793 0.023288239
-0.0026868405 -0.01908987 -0.019290373 -0.03848491 0.06376935 -0.02039812 0.023638982 -0.021725133
0.030352766 0.00071005645 -0.029586537 -0.045197904 -0.041114215 0.015372418 0.01597589 -0.0063425545
-0.018491743 0.017398065 0.0062361485 0.022147445 -0.04148238 -0.049024515 0.031913348 -0.022757607
-0.0077752667 0.00274081 0.004902368 -0.010042623 -0.04861947 0.00021103148 0.017425377 -0.019137386
-0.05421998 0.0382254 -0.0022540898 -0.016883362 0.04018948 -0.011245516 -0.03665108 0.0389233
0.024631172 -0.0048463284 0.0034555336 0.004111935 0.02982142 -0.0062422818 0.049031824 -0.033039548
0.06727547 -0.0031735469 -0.004630337 0.04150251 -0.008846781 0.0022462483 -0.0042504263 -0.057377886
0.040853932 -0.047576893 0.013565585 0.019254005 0.0024748258 0.023207795 -0.028016116 0.026660647
-0.039706662 -0.0024291743 0.019459832 0.002334332 0.0076403497 -0.023700118 -0.014703438 -0.05720235
0.02051015 0.028387183 -0.0068513043 -0.007866822 -0.012734873 0.019469095 -0.022205194 0.023736646
0.01788891 -0.00831463 0.002848216 -0.009953007 0.0046601333 0.01429473 -0.057767354 -0.020833934
0.0051707136 -0.038060863 -0.030979753 -0.015997002 0.013896725 0.02413843 -0.0045124483 -0.02958825
00000000: 5c9b 1bbc dbb6 b53c 1b2f 17bd 9872 c2bc
00000010: 3604 d13b c635 0db8 5bd0 383c 90a0 a1bc
00000020: 46b8 4ebc 9e07 033d 73e2 25bd 9dc5 b53c
00000030: 4167 f2bc 9a6a 24bd 814d 2c3c 8970 3abc
00000040: f978 eebc a00e b7bc 9ad6 5fba 2617 37bd
00000050: 2ba9 5d3d b776 4bbc 0460 0f3c acf3 c93c
00000060: 1755 ebbc b01e 03bd 4109 b83c ceed a7bc
00000070: 2894 123d 23c6 5abd 8034 30bd d31f 66bd
00000080: 9b03 5bba dbba 5abd c4c9 50bd 669f 173d
00000090: fabc 923c 0f6a a83c abd1 f9b7 9720 16bd
000000a0: 6349 2f3d 275f 1abd b40f 743c 9918 283c
000000b0: 973e 393d 7fb8 5c3d aae0 7b3d 3a35 59bb
000000c0: e9f0 c6bc 689d 2f3c d5a5 003d f3b8 0a3d
000000d0: b213 78bc ffc7 e939 fd03 e0bc 5198 3cbd
000000e0: 6955 1fbd 883e 87bd 9916 24bd d654 8cbc
000000f0: e35b 553c 496d a63c 0ef8 df3c 2b00 f23c
00000100: 3463 e93c ee0c 41bb 26a7 263d 260d 11bd
00000110: a200 ac3c 2f57 a8bc d77e 883c 18f3 533d
00000120: b8ef 3fbd a7d1 853c 6635 5b3c d271 cfbc
00000130: bb44 cabc 7ebf cc3c f709 c9bc a556 3abd
00000140: c4d4 f43c d873 163c 7f4d 27bd 54e0 f33b
00000150: 5f4c ad3c 1141 2cbd 2def aa3c a2f1 193d
00000160: e660 debc 26bd da3c d6b0 51bd 6c66 80bd
00000170: f1cd 4dbd bb81 45bd 7180 5abc b8c1 5c3d
00000180: 06de 803d 7338 06bd 48c5 123c d9b4 a23c
00000190: edcb 4b3d 7154 053d 9045 11bd 1373 52bb
000001a0: 26fe ce3c 585b 33bd 5795 583c 2fff d93c
000001b0: 32f5 cabc a8cd 3d3d dcd8 1ebd 2cbd aa3c
000001c0: d015 4d3c c7c1 91bc e47d 65bb 2fd7 943c
000001d0: 0a60 c23c bc21 043d 7404 a7bc 3a24 28bd
000001e0: 0b6d 73bd acb0 1f3c ee73 953c 6f22 2ebd
000001f0: 1b34 123d f063 2d3d ac5b 103d 1dd6 d8bb
00000200: aa25 27bc 38c9 31bc b204 2bbc 8f68 b63c
00000210: b384 2ebb 252b fcbc 21d7 ebba a1e7 79bc
00000220: 2765 dc3c 07a1 32b9 1ef6 36bd 46cf 6b3c
00000230: 7a7b 083c 39e5 c63c 2642 fdbc 72cc 51bd
00000240: 597b 00bd 9d42 97bc ab24 e93c 9be3 7c3c
00000250: 218a fdbc 3dbf da3c 7003 18bd bc5e e33c
00000260: 0148 d7bc 1793 a03c ee56 913c 9ae9 9aba
00000270: a1a2 b2bc ca0e 00bd 1e19 5e3c fac6 be3c
00000280: b415 30bb 5c62 9cbc d806 9ebc 5aa2 1dbd
00000290: 8199 823d f519 a7bc 8aa6 c13c e8f8 b1bc
000002a0: 5da6 f83c 1523 3a3a 775f f2bc 7021 39bd
000002b0: 6167 28bd 98dc 7b3c dfdf 823c 34d5 cfbb
000002c0: ff7b 97bc 6386 8e3c 9b58 cc3b 8f6e b53c
000002d0: 6ee9 29bd eecd 48bd 92b7 023d 296e babc
000002e0: aac7 febb 299f 333b 0ba4 a03b d089 24bc
000002f0: 3625 47bd 5548 5d39 aabf 8e3c 02c6 9cbc
00000300: c515 5ebd 3d92 1c3d 5ab9 13bb fa4e 8abc
00000310: b99d 243d 1d3f 38bc 711f 16bd 0a6e 1f3d
00000320: 50c7 c93c f3cd 9ebb 3c76 623b 69bd 863b
00000330: 0d4c f43c 0e8c ccbb 98d5 483d 7a54 07bd
00000340: b9c7 893d 48fb 4fbb 15ba 97bb 89fe 293d
00000350: 17f2 10bc cb35 133b 2947 8bbb 1305 6bbd
00000360: 7456 273d fddf 42bd 3042 5e3c 93ba 9d3c
00000370: b030 223b 461e be3c 0e82 e5bc 6e67 da3c
00000380: 74a3 22bd c832 1fbb 3a6a 9f3c 98fb 183b
00000390: e65b fa3b c026 c2bc b0e6 70bc 034d 6abd
000003a0: e704 a83c 3d8c e83c e880 e0bb d8e3 00bc
000003b0: eea5 50bc a77d 9f3c abe7 b5bc 5b73 c23c
000003c0: c38b 923c 163a 08bc 23a9 3a3b f011 23bc
000003d0: 08b4 983b 7134 6a3c 769d 6cbd edab aabc
000003e0: 176f a93b b5e5 1bbd 40c9 fdbc 250c 83bc
000003f0: 17af 633c f5bd c53c 29dd 93bb 0f63 f2bc

batch_norm_c3.weight f4 [64]
0.99925846 0.9963812 0.9994447 0.99881756 0.99351376 0.9965258 0.9955327 1.0034106
1.0028961 0.9996941 0.99536484 1.003587 1.0025847 1.0040574 0.99875647 1.0021256
0.9975251 1.0031347 1.0013158 1.0017238 1.0007161 0.996722 1.0023434 0.9994307
1.0032777 0.9986366 0.99186593 0.99891233 1.0134549 0.9974823 0.9933029 0.99774486
1.0057293 1.0041432 1.0033629 0.99927443 1.0030133 1.0013821 0.9995932 0.9971821
1.0013378 0.99969345 0.99750745 0.99341613 0.99959534 1.000295 0.9964949 1.003011
0.99437976 0.9978104 0.9997508 1.0034912 0.9997573 1.0002332 0.9996581 1.0013151
0.99807215 1.0028107 0.9982443 1.0028359 0.9974124 1.0042913 1.0068738 0.9981217
00000000: 67cf 7f3f d712 7f3f 9cdb 7f3f 82b2 7f3f
00000010: eb56 7e3f 511c 7f3f 3bdb 7e3f c26f 803f
00000020: e65e 803f f4eb 7f3f 3bd0 7e3f 8a75 803f
00000030: b254 803f f484 803f 81ae 7f3f a745 803f
00000040: ce5d 7f3f b866 803f 1e2b 803f 7c38 803f
00000050: 7717 803f 2c29 7f3f ca4c 803f b1da 7f3f
00000060: 676b 803f a6a6 7f3f edea 7d3f b8b8 7f3f
00000070: e4b8 813f 005b 7f3f 1949 7e3f 356c 7f3f
00000080: bdbb 803f c487 803f 326e 803f 73d0 7f3f
00000090: bd62 803f 4a2d 803f 57e5 7f3f 5347 7f3f
000000a0: d62b 803f e9eb 7f3f a65c 7f3f 8550 7e3f
000000b0: 7be5 7f3f ab09 803f 4a1a 7f3f aa62 803f
000000c0: ac8f 7e3f 8170 7f3f abef 7f3f 6672 803f
000000d0: 18f0 7f3f a407 803f 98e9 7f3f 182b 803f
000000e0: a881 7f3f 1a5c 803f f08c 7f3f ed5c 803f
000000f0: 6b56 7f3f 9e8c 803f 3ee1 803f e784 7f3f

batch_norm_c3.bias f4 [64]
-0.00096753874 -0.0010602723 -0.0005012947 -0.0005483945 -0.0010432065 0.0006994086 -0.0025527715 0.0005216783
-0.0027250182 0.0012427999 0.00171073 -0.001295302 -0.0041981437 0.0015911728 -0.0014592247 -0.00029855184
-0.0014318018 -0.0030328452 -0.0023393997 0.00026526352 -0.0026935309 0.0018692815 0.00088271865 -0.0011914166
0.0007449426 -0.00247467 0.0001429222 -0.00064564863 -0.0037671905 -0.001156166 -0.00015775404 0.0015790169
-0.002055405 -0.0018169645 -0.0011876621 0.0007317 1.4649123e-05 0.00039342485 0.0012842308 0.0015628122
8.220718e-06 0.002858853 -0.0017959168 0.00031583768 -0.0040696715 -0.0019079413 -0.00012219154 -0.0015656543
-0.00293644 -0.00057728484 -4.9585837e-05 0.00076972385 0.0033677383 -0.001580039 -3.604066e-05 0.0008462262
0.0015665678 -0.0012545225 -0.0012891259 -0.0024304276 -0.0035084707 -0.0027849122 -0.0032781602 -0.00041915415
00000000: 6da2 7dba d6f8 8aba 5169 03ba 22c2 0fba
00000010: 34bc 88ba 8458 373a 664c 27bb 3dc1 083a
00000020: 3896 32bb 72e5 a23a 933a e03a 1fc7 a9ba
00000030: 9590 89bb e68e d03a 7543 bfba f386 9cb9
00000040: 4cab bbba b3c2 46bb 9d50 19bb 1113 8b39
00000050: f385 30bb ae02 f53a 3f66 673a 4f29 9cba
00000060: 4048 433a 132e 22bb 63dd 1539 bf40 29ba
00000070: f8e2 76bb 7e8a 97ba c76a 25b9 04f7 ce3a
00000080: f9b3 06bb 3627 eeba 54ab 9bba 8ecf 3f3a
00000090: 81c5 7537 9744 ce39 a353 a83a 47d7 cc3a
000000a0: b7eb 0937 985b 3b3b f864 ebba 0497 a539
000000b0: e15a 85bb e313 faba 8b20 00b9 a436 cdba
000000c0: 4a71 40bb ee54 17ba 63fa 4fb8 4bc7 493a
000000d0: 46b5 5c3b 5019 cfba 5d2a 17b8 47d5 5d3a
000000e0: 4b55 cd3a ca6e a4ba e3f7 a8ba cf47 1fbb
000000f0: 5fee 65bb 1383 36bb 67d6 56bb ebc1 dbb9
